{
  "nodes": [
    {
      "op": "null", 
      "name": "seq_data", 
      "inputs": []
    }, 
    {
      "op": "Reshape", 
      "name": "reshape0", 
      "attr": {"shape": "(30, 1, 168, 321)"}, 
      "inputs": [[0, 0, 0]]
    }, 
    {
      "op": "Pad", 
      "name": "pad0", 
      "attr": {
        "constant_value": "0", 
        "mode": "constant", 
        "pad_width": "(0, 0, 0, 0, 5, 0, 0, 0)"
      }, 
      "inputs": [[1, 0, 0]]
    }, 
    {
      "op": "null", 
      "name": "convolution0_weight", 
      "attr": {
        "kernel": "(6, 321)", 
        "num_filter": "1"
      }, 
      "inputs": []
    }, 
    {
      "op": "null", 
      "name": "convolution0_bias", 
      "attr": {
        "kernel": "(6, 321)", 
        "num_filter": "1"
      }, 
      "inputs": []
    }, 
    {
      "op": "Convolution", 
      "name": "convolution0", 
      "attr": {
        "kernel": "(6, 321)", 
        "num_filter": "1"
      }, 
      "inputs": [[2, 0, 0], [3, 0, 0], [4, 0, 0]]
    }, 
    {
      "op": "Activation", 
      "name": "activation0", 
      "attr": {"act_type": "relu"}, 
      "inputs": [[5, 0, 0]]
    }, 
    {
      "op": "transpose", 
      "name": "transpose0", 
      "attr": {"axes": "(0, 2, 1, 3)"}, 
      "inputs": [[6, 0, 0]]
    }, 
    {
      "op": "Reshape", 
      "name": "reshape1", 
      "attr": {"target_shape": "(30, 168, 1)"}, 
      "inputs": [[7, 0, 0]]
    }, 
    {
      "op": "Concat", 
      "name": "concat0", 
      "attr": {
        "dim": "2", 
        "num_args": "1"
      }, 
      "inputs": [[8, 0, 0]]
    }, 
    {
      "op": "Dropout", 
      "name": "dropout0", 
      "attr": {"p": "0.1"}, 
      "inputs": [[9, 0, 0]]
    }, 
    {
      "op": "SliceChannel", 
      "name": "split0", 
      "attr": {
        "axis": "1", 
        "num_outputs": "168", 
        "squeeze_axis": "1"
      }, 
      "inputs": [[10, 0, 0]]
    }, 
    {
      "op": "null", 
      "name": "gru_i2h_weight", 
      "inputs": []
    }, 
    {
      "op": "null", 
      "name": "gru_i2h_bias", 
      "inputs": []
    }, 
    {
      "op": "FullyConnected", 
      "name": "gru_t167__i2h", 
      "attr": {"num_hidden": "3"}, 
      "inputs": [[11, 167, 0], [12, 0, 0], [13, 0, 0]]
    }, 
    {
      "op": "SliceChannel", 
      "name": "gru_t167__i2h_slice", 
      "attr": {"num_outputs": "3"}, 
      "inputs": [[14, 0, 0]]
    }, 
    {
      "op": "FullyConnected", 
      "name": "gru_t166__i2h", 
      "attr": {"num_hidden": "3"}, 
      "inputs": [[11, 166, 0], [12, 0, 0], [13, 0, 0]]
    }, 
    {
      "op": "SliceChannel", 
      "name": "gru_t166__i2h_slice", 
      "attr": {"num_outputs": "3"}, 
      "inputs": [[16, 0, 0]]
    }, 
    {
      "op": "FullyConnected", 
      "name": "gru_t165__i2h", 
      "attr": {"num_hidden": "3"}, 
      "inputs": [[11, 165, 0], [12, 0, 0], [13, 0, 0]]
    }, 
    {
      "op": "SliceChannel", 
      "name": "gru_t165__i2h_slice", 
      "attr": {"num_outputs": "3"}, 
      "inputs": [[18, 0, 0]]
    }, 
    {
      "op": "FullyConnected", 
      "name": "gru_t164__i2h", 
      "attr": {"num_hidden": "3"}, 
      "inputs": [[11, 164, 0], [12, 0, 0], [13, 0, 0]]
    }, 
    {
      "op": "SliceChannel", 
      "name": "gru_t164__i2h_slice", 
      "attr": {"num_outputs": "3"}, 
      "inputs": [[20, 0, 0]]
    }, 
    {
      "op": "FullyConnected", 
      "name": "gru_t163__i2h", 
      "attr": {"num_hidden": "3"}, 
      "inputs": [[11, 163, 0], [12, 0, 0], [13, 0, 0]]
    }, 
    {
      "op": "SliceChannel", 
      "name": "gru_t163__i2h_slice", 
      "attr": {"num_outputs": "3"}, 
      "inputs": [[22, 0, 0]]
    }, 
    {
      "op": "FullyConnected", 
      "name": "gru_t162__i2h", 
      "attr": {"num_hidden": "3"}, 
      "inputs": [[11, 162, 0], [12, 0, 0], [13, 0, 0]]
    }, 
    {
      "op": "SliceChannel", 
      "name": "gru_t162__i2h_slice", 
      "attr": {"num_outputs": "3"}, 
      "inputs": [[24, 0, 0]]
    }, 
    {
      "op": "FullyConnected", 
      "name": "gru_t161__i2h", 
      "attr": {"num_hidden": "3"}, 
      "inputs": [[11, 161, 0], [12, 0, 0], [13, 0, 0]]
    }, 
    {
      "op": "SliceChannel", 
      "name": "gru_t161__i2h_slice", 
      "attr": {"num_outputs": "3"}, 
      "inputs": [[26, 0, 0]]
    }, 
    {
      "op": "FullyConnected", 
      "name": "gru_t160__i2h", 
      "attr": {"num_hidden": "3"}, 
      "inputs": [[11, 160, 0], [12, 0, 0], [13, 0, 0]]
    }, 
    {
      "op": "SliceChannel", 
      "name": "gru_t160__i2h_slice", 
      "attr": {"num_outputs": "3"}, 
      "inputs": [[28, 0, 0]]
    }, 
    {
      "op": "FullyConnected", 
      "name": "gru_t159__i2h", 
      "attr": {"num_hidden": "3"}, 
      "inputs": [[11, 159, 0], [12, 0, 0], [13, 0, 0]]
    }, 
    {
      "op": "SliceChannel", 
      "name": "gru_t159__i2h_slice", 
      "attr": {"num_outputs": "3"}, 
      "inputs": [[30, 0, 0]]
    }, 
    {
      "op": "FullyConnected", 
      "name": "gru_t158__i2h", 
      "attr": {"num_hidden": "3"}, 
      "inputs": [[11, 158, 0], [12, 0, 0], [13, 0, 0]]
    }, 
    {
      "op": "SliceChannel", 
      "name": "gru_t158__i2h_slice", 
      "attr": {"num_outputs": "3"}, 
      "inputs": [[32, 0, 0]]
    }, 
    {
      "op": "FullyConnected", 
      "name": "gru_t157__i2h", 
      "attr": {"num_hidden": "3"}, 
      "inputs": [[11, 157, 0], [12, 0, 0], [13, 0, 0]]
    }, 
    {
      "op": "SliceChannel", 
      "name": "gru_t157__i2h_slice", 
      "attr": {"num_outputs": "3"}, 
      "inputs": [[34, 0, 0]]
    }, 
    {
      "op": "FullyConnected", 
      "name": "gru_t156__i2h", 
      "attr": {"num_hidden": "3"}, 
      "inputs": [[11, 156, 0], [12, 0, 0], [13, 0, 0]]
    }, 
    {
      "op": "SliceChannel", 
      "name": "gru_t156__i2h_slice", 
      "attr": {"num_outputs": "3"}, 
      "inputs": [[36, 0, 0]]
    }, 
    {
      "op": "FullyConnected", 
      "name": "gru_t155__i2h", 
      "attr": {"num_hidden": "3"}, 
      "inputs": [[11, 155, 0], [12, 0, 0], [13, 0, 0]]
    }, 
    {
      "op": "SliceChannel", 
      "name": "gru_t155__i2h_slice", 
      "attr": {"num_outputs": "3"}, 
      "inputs": [[38, 0, 0]]
    }, 
    {
      "op": "FullyConnected", 
      "name": "gru_t154__i2h", 
      "attr": {"num_hidden": "3"}, 
      "inputs": [[11, 154, 0], [12, 0, 0], [13, 0, 0]]
    }, 
    {
      "op": "SliceChannel", 
      "name": "gru_t154__i2h_slice", 
      "attr": {"num_outputs": "3"}, 
      "inputs": [[40, 0, 0]]
    }, 
    {
      "op": "FullyConnected", 
      "name": "gru_t153__i2h", 
      "attr": {"num_hidden": "3"}, 
      "inputs": [[11, 153, 0], [12, 0, 0], [13, 0, 0]]
    }, 
    {
      "op": "SliceChannel", 
      "name": "gru_t153__i2h_slice", 
      "attr": {"num_outputs": "3"}, 
      "inputs": [[42, 0, 0]]
    }, 
    {
      "op": "FullyConnected", 
      "name": "gru_t152__i2h", 
      "attr": {"num_hidden": "3"}, 
      "inputs": [[11, 152, 0], [12, 0, 0], [13, 0, 0]]
    }, 
    {
      "op": "SliceChannel", 
      "name": "gru_t152__i2h_slice", 
      "attr": {"num_outputs": "3"}, 
      "inputs": [[44, 0, 0]]
    }, 
    {
      "op": "FullyConnected", 
      "name": "gru_t151__i2h", 
      "attr": {"num_hidden": "3"}, 
      "inputs": [[11, 151, 0], [12, 0, 0], [13, 0, 0]]
    }, 
    {
      "op": "SliceChannel", 
      "name": "gru_t151__i2h_slice", 
      "attr": {"num_outputs": "3"}, 
      "inputs": [[46, 0, 0]]
    }, 
    {
      "op": "FullyConnected", 
      "name": "gru_t150__i2h", 
      "attr": {"num_hidden": "3"}, 
      "inputs": [[11, 150, 0], [12, 0, 0], [13, 0, 0]]
    }, 
    {
      "op": "SliceChannel", 
      "name": "gru_t150__i2h_slice", 
      "attr": {"num_outputs": "3"}, 
      "inputs": [[48, 0, 0]]
    }, 
    {
      "op": "FullyConnected", 
      "name": "gru_t149__i2h", 
      "attr": {"num_hidden": "3"}, 
      "inputs": [[11, 149, 0], [12, 0, 0], [13, 0, 0]]
    }, 
    {
      "op": "SliceChannel", 
      "name": "gru_t149__i2h_slice", 
      "attr": {"num_outputs": "3"}, 
      "inputs": [[50, 0, 0]]
    }, 
    {
      "op": "FullyConnected", 
      "name": "gru_t148__i2h", 
      "attr": {"num_hidden": "3"}, 
      "inputs": [[11, 148, 0], [12, 0, 0], [13, 0, 0]]
    }, 
    {
      "op": "SliceChannel", 
      "name": "gru_t148__i2h_slice", 
      "attr": {"num_outputs": "3"}, 
      "inputs": [[52, 0, 0]]
    }, 
    {
      "op": "FullyConnected", 
      "name": "gru_t147__i2h", 
      "attr": {"num_hidden": "3"}, 
      "inputs": [[11, 147, 0], [12, 0, 0], [13, 0, 0]]
    }, 
    {
      "op": "SliceChannel", 
      "name": "gru_t147__i2h_slice", 
      "attr": {"num_outputs": "3"}, 
      "inputs": [[54, 0, 0]]
    }, 
    {
      "op": "FullyConnected", 
      "name": "gru_t146__i2h", 
      "attr": {"num_hidden": "3"}, 
      "inputs": [[11, 146, 0], [12, 0, 0], [13, 0, 0]]
    }, 
    {
      "op": "SliceChannel", 
      "name": "gru_t146__i2h_slice", 
      "attr": {"num_outputs": "3"}, 
      "inputs": [[56, 0, 0]]
    }, 
    {
      "op": "FullyConnected", 
      "name": "gru_t145__i2h", 
      "attr": {"num_hidden": "3"}, 
      "inputs": [[11, 145, 0], [12, 0, 0], [13, 0, 0]]
    }, 
    {
      "op": "SliceChannel", 
      "name": "gru_t145__i2h_slice", 
      "attr": {"num_outputs": "3"}, 
      "inputs": [[58, 0, 0]]
    }, 
    {
      "op": "FullyConnected", 
      "name": "gru_t144__i2h", 
      "attr": {"num_hidden": "3"}, 
      "inputs": [[11, 144, 0], [12, 0, 0], [13, 0, 0]]
    }, 
    {
      "op": "SliceChannel", 
      "name": "gru_t144__i2h_slice", 
      "attr": {"num_outputs": "3"}, 
      "inputs": [[60, 0, 0]]
    }, 
    {
      "op": "FullyConnected", 
      "name": "gru_t143__i2h", 
      "attr": {"num_hidden": "3"}, 
      "inputs": [[11, 143, 0], [12, 0, 0], [13, 0, 0]]
    }, 
    {
      "op": "SliceChannel", 
      "name": "gru_t143__i2h_slice", 
      "attr": {"num_outputs": "3"}, 
      "inputs": [[62, 0, 0]]
    }, 
    {
      "op": "FullyConnected", 
      "name": "gru_t142__i2h", 
      "attr": {"num_hidden": "3"}, 
      "inputs": [[11, 142, 0], [12, 0, 0], [13, 0, 0]]
    }, 
    {
      "op": "SliceChannel", 
      "name": "gru_t142__i2h_slice", 
      "attr": {"num_outputs": "3"}, 
      "inputs": [[64, 0, 0]]
    }, 
    {
      "op": "FullyConnected", 
      "name": "gru_t141__i2h", 
      "attr": {"num_hidden": "3"}, 
      "inputs": [[11, 141, 0], [12, 0, 0], [13, 0, 0]]
    }, 
    {
      "op": "SliceChannel", 
      "name": "gru_t141__i2h_slice", 
      "attr": {"num_outputs": "3"}, 
      "inputs": [[66, 0, 0]]
    }, 
    {
      "op": "FullyConnected", 
      "name": "gru_t140__i2h", 
      "attr": {"num_hidden": "3"}, 
      "inputs": [[11, 140, 0], [12, 0, 0], [13, 0, 0]]
    }, 
    {
      "op": "SliceChannel", 
      "name": "gru_t140__i2h_slice", 
      "attr": {"num_outputs": "3"}, 
      "inputs": [[68, 0, 0]]
    }, 
    {
      "op": "FullyConnected", 
      "name": "gru_t139__i2h", 
      "attr": {"num_hidden": "3"}, 
      "inputs": [[11, 139, 0], [12, 0, 0], [13, 0, 0]]
    }, 
    {
      "op": "SliceChannel", 
      "name": "gru_t139__i2h_slice", 
      "attr": {"num_outputs": "3"}, 
      "inputs": [[70, 0, 0]]
    }, 
    {
      "op": "FullyConnected", 
      "name": "gru_t138__i2h", 
      "attr": {"num_hidden": "3"}, 
      "inputs": [[11, 138, 0], [12, 0, 0], [13, 0, 0]]
    }, 
    {
      "op": "SliceChannel", 
      "name": "gru_t138__i2h_slice", 
      "attr": {"num_outputs": "3"}, 
      "inputs": [[72, 0, 0]]
    }, 
    {
      "op": "FullyConnected", 
      "name": "gru_t137__i2h", 
      "attr": {"num_hidden": "3"}, 
      "inputs": [[11, 137, 0], [12, 0, 0], [13, 0, 0]]
    }, 
    {
      "op": "SliceChannel", 
      "name": "gru_t137__i2h_slice", 
      "attr": {"num_outputs": "3"}, 
      "inputs": [[74, 0, 0]]
    }, 
    {
      "op": "FullyConnected", 
      "name": "gru_t136__i2h", 
      "attr": {"num_hidden": "3"}, 
      "inputs": [[11, 136, 0], [12, 0, 0], [13, 0, 0]]
    }, 
    {
      "op": "SliceChannel", 
      "name": "gru_t136__i2h_slice", 
      "attr": {"num_outputs": "3"}, 
      "inputs": [[76, 0, 0]]
    }, 
    {
      "op": "FullyConnected", 
      "name": "gru_t135__i2h", 
      "attr": {"num_hidden": "3"}, 
      "inputs": [[11, 135, 0], [12, 0, 0], [13, 0, 0]]
    }, 
    {
      "op": "SliceChannel", 
      "name": "gru_t135__i2h_slice", 
      "attr": {"num_outputs": "3"}, 
      "inputs": [[78, 0, 0]]
    }, 
    {
      "op": "FullyConnected", 
      "name": "gru_t134__i2h", 
      "attr": {"num_hidden": "3"}, 
      "inputs": [[11, 134, 0], [12, 0, 0], [13, 0, 0]]
    }, 
    {
      "op": "SliceChannel", 
      "name": "gru_t134__i2h_slice", 
      "attr": {"num_outputs": "3"}, 
      "inputs": [[80, 0, 0]]
    }, 
    {
      "op": "FullyConnected", 
      "name": "gru_t133__i2h", 
      "attr": {"num_hidden": "3"}, 
      "inputs": [[11, 133, 0], [12, 0, 0], [13, 0, 0]]
    }, 
    {
      "op": "SliceChannel", 
      "name": "gru_t133__i2h_slice", 
      "attr": {"num_outputs": "3"}, 
      "inputs": [[82, 0, 0]]
    }, 
    {
      "op": "FullyConnected", 
      "name": "gru_t132__i2h", 
      "attr": {"num_hidden": "3"}, 
      "inputs": [[11, 132, 0], [12, 0, 0], [13, 0, 0]]
    }, 
    {
      "op": "SliceChannel", 
      "name": "gru_t132__i2h_slice", 
      "attr": {"num_outputs": "3"}, 
      "inputs": [[84, 0, 0]]
    }, 
    {
      "op": "FullyConnected", 
      "name": "gru_t131__i2h", 
      "attr": {"num_hidden": "3"}, 
      "inputs": [[11, 131, 0], [12, 0, 0], [13, 0, 0]]
    }, 
    {
      "op": "SliceChannel", 
      "name": "gru_t131__i2h_slice", 
      "attr": {"num_outputs": "3"}, 
      "inputs": [[86, 0, 0]]
    }, 
    {
      "op": "FullyConnected", 
      "name": "gru_t130__i2h", 
      "attr": {"num_hidden": "3"}, 
      "inputs": [[11, 130, 0], [12, 0, 0], [13, 0, 0]]
    }, 
    {
      "op": "SliceChannel", 
      "name": "gru_t130__i2h_slice", 
      "attr": {"num_outputs": "3"}, 
      "inputs": [[88, 0, 0]]
    }, 
    {
      "op": "FullyConnected", 
      "name": "gru_t129__i2h", 
      "attr": {"num_hidden": "3"}, 
      "inputs": [[11, 129, 0], [12, 0, 0], [13, 0, 0]]
    }, 
    {
      "op": "SliceChannel", 
      "name": "gru_t129__i2h_slice", 
      "attr": {"num_outputs": "3"}, 
      "inputs": [[90, 0, 0]]
    }, 
    {
      "op": "FullyConnected", 
      "name": "gru_t128__i2h", 
      "attr": {"num_hidden": "3"}, 
      "inputs": [[11, 128, 0], [12, 0, 0], [13, 0, 0]]
    }, 
    {
      "op": "SliceChannel", 
      "name": "gru_t128__i2h_slice", 
      "attr": {"num_outputs": "3"}, 
      "inputs": [[92, 0, 0]]
    }, 
    {
      "op": "FullyConnected", 
      "name": "gru_t127__i2h", 
      "attr": {"num_hidden": "3"}, 
      "inputs": [[11, 127, 0], [12, 0, 0], [13, 0, 0]]
    }, 
    {
      "op": "SliceChannel", 
      "name": "gru_t127__i2h_slice", 
      "attr": {"num_outputs": "3"}, 
      "inputs": [[94, 0, 0]]
    }, 
    {
      "op": "FullyConnected", 
      "name": "gru_t126__i2h", 
      "attr": {"num_hidden": "3"}, 
      "inputs": [[11, 126, 0], [12, 0, 0], [13, 0, 0]]
    }, 
    {
      "op": "SliceChannel", 
      "name": "gru_t126__i2h_slice", 
      "attr": {"num_outputs": "3"}, 
      "inputs": [[96, 0, 0]]
    }, 
    {
      "op": "FullyConnected", 
      "name": "gru_t125__i2h", 
      "attr": {"num_hidden": "3"}, 
      "inputs": [[11, 125, 0], [12, 0, 0], [13, 0, 0]]
    }, 
    {
      "op": "SliceChannel", 
      "name": "gru_t125__i2h_slice", 
      "attr": {"num_outputs": "3"}, 
      "inputs": [[98, 0, 0]]
    }, 
    {
      "op": "FullyConnected", 
      "name": "gru_t124__i2h", 
      "attr": {"num_hidden": "3"}, 
      "inputs": [[11, 124, 0], [12, 0, 0], [13, 0, 0]]
    }, 
    {
      "op": "SliceChannel", 
      "name": "gru_t124__i2h_slice", 
      "attr": {"num_outputs": "3"}, 
      "inputs": [[100, 0, 0]]
    }, 
    {
      "op": "FullyConnected", 
      "name": "gru_t123__i2h", 
      "attr": {"num_hidden": "3"}, 
      "inputs": [[11, 123, 0], [12, 0, 0], [13, 0, 0]]
    }, 
    {
      "op": "SliceChannel", 
      "name": "gru_t123__i2h_slice", 
      "attr": {"num_outputs": "3"}, 
      "inputs": [[102, 0, 0]]
    }, 
    {
      "op": "FullyConnected", 
      "name": "gru_t122__i2h", 
      "attr": {"num_hidden": "3"}, 
      "inputs": [[11, 122, 0], [12, 0, 0], [13, 0, 0]]
    }, 
    {
      "op": "SliceChannel", 
      "name": "gru_t122__i2h_slice", 
      "attr": {"num_outputs": "3"}, 
      "inputs": [[104, 0, 0]]
    }, 
    {
      "op": "FullyConnected", 
      "name": "gru_t121__i2h", 
      "attr": {"num_hidden": "3"}, 
      "inputs": [[11, 121, 0], [12, 0, 0], [13, 0, 0]]
    }, 
    {
      "op": "SliceChannel", 
      "name": "gru_t121__i2h_slice", 
      "attr": {"num_outputs": "3"}, 
      "inputs": [[106, 0, 0]]
    }, 
    {
      "op": "FullyConnected", 
      "name": "gru_t120__i2h", 
      "attr": {"num_hidden": "3"}, 
      "inputs": [[11, 120, 0], [12, 0, 0], [13, 0, 0]]
    }, 
    {
      "op": "SliceChannel", 
      "name": "gru_t120__i2h_slice", 
      "attr": {"num_outputs": "3"}, 
      "inputs": [[108, 0, 0]]
    }, 
    {
      "op": "FullyConnected", 
      "name": "gru_t119__i2h", 
      "attr": {"num_hidden": "3"}, 
      "inputs": [[11, 119, 0], [12, 0, 0], [13, 0, 0]]
    }, 
    {
      "op": "SliceChannel", 
      "name": "gru_t119__i2h_slice", 
      "attr": {"num_outputs": "3"}, 
      "inputs": [[110, 0, 0]]
    }, 
    {
      "op": "FullyConnected", 
      "name": "gru_t118__i2h", 
      "attr": {"num_hidden": "3"}, 
      "inputs": [[11, 118, 0], [12, 0, 0], [13, 0, 0]]
    }, 
    {
      "op": "SliceChannel", 
      "name": "gru_t118__i2h_slice", 
      "attr": {"num_outputs": "3"}, 
      "inputs": [[112, 0, 0]]
    }, 
    {
      "op": "FullyConnected", 
      "name": "gru_t117__i2h", 
      "attr": {"num_hidden": "3"}, 
      "inputs": [[11, 117, 0], [12, 0, 0], [13, 0, 0]]
    }, 
    {
      "op": "SliceChannel", 
      "name": "gru_t117__i2h_slice", 
      "attr": {"num_outputs": "3"}, 
      "inputs": [[114, 0, 0]]
    }, 
    {
      "op": "FullyConnected", 
      "name": "gru_t116__i2h", 
      "attr": {"num_hidden": "3"}, 
      "inputs": [[11, 116, 0], [12, 0, 0], [13, 0, 0]]
    }, 
    {
      "op": "SliceChannel", 
      "name": "gru_t116__i2h_slice", 
      "attr": {"num_outputs": "3"}, 
      "inputs": [[116, 0, 0]]
    }, 
    {
      "op": "FullyConnected", 
      "name": "gru_t115__i2h", 
      "attr": {"num_hidden": "3"}, 
      "inputs": [[11, 115, 0], [12, 0, 0], [13, 0, 0]]
    }, 
    {
      "op": "SliceChannel", 
      "name": "gru_t115__i2h_slice", 
      "attr": {"num_outputs": "3"}, 
      "inputs": [[118, 0, 0]]
    }, 
    {
      "op": "FullyConnected", 
      "name": "gru_t114__i2h", 
      "attr": {"num_hidden": "3"}, 
      "inputs": [[11, 114, 0], [12, 0, 0], [13, 0, 0]]
    }, 
    {
      "op": "SliceChannel", 
      "name": "gru_t114__i2h_slice", 
      "attr": {"num_outputs": "3"}, 
      "inputs": [[120, 0, 0]]
    }, 
    {
      "op": "FullyConnected", 
      "name": "gru_t113__i2h", 
      "attr": {"num_hidden": "3"}, 
      "inputs": [[11, 113, 0], [12, 0, 0], [13, 0, 0]]
    }, 
    {
      "op": "SliceChannel", 
      "name": "gru_t113__i2h_slice", 
      "attr": {"num_outputs": "3"}, 
      "inputs": [[122, 0, 0]]
    }, 
    {
      "op": "FullyConnected", 
      "name": "gru_t112__i2h", 
      "attr": {"num_hidden": "3"}, 
      "inputs": [[11, 112, 0], [12, 0, 0], [13, 0, 0]]
    }, 
    {
      "op": "SliceChannel", 
      "name": "gru_t112__i2h_slice", 
      "attr": {"num_outputs": "3"}, 
      "inputs": [[124, 0, 0]]
    }, 
    {
      "op": "FullyConnected", 
      "name": "gru_t111__i2h", 
      "attr": {"num_hidden": "3"}, 
      "inputs": [[11, 111, 0], [12, 0, 0], [13, 0, 0]]
    }, 
    {
      "op": "SliceChannel", 
      "name": "gru_t111__i2h_slice", 
      "attr": {"num_outputs": "3"}, 
      "inputs": [[126, 0, 0]]
    }, 
    {
      "op": "FullyConnected", 
      "name": "gru_t110__i2h", 
      "attr": {"num_hidden": "3"}, 
      "inputs": [[11, 110, 0], [12, 0, 0], [13, 0, 0]]
    }, 
    {
      "op": "SliceChannel", 
      "name": "gru_t110__i2h_slice", 
      "attr": {"num_outputs": "3"}, 
      "inputs": [[128, 0, 0]]
    }, 
    {
      "op": "FullyConnected", 
      "name": "gru_t109__i2h", 
      "attr": {"num_hidden": "3"}, 
      "inputs": [[11, 109, 0], [12, 0, 0], [13, 0, 0]]
    }, 
    {
      "op": "SliceChannel", 
      "name": "gru_t109__i2h_slice", 
      "attr": {"num_outputs": "3"}, 
      "inputs": [[130, 0, 0]]
    }, 
    {
      "op": "FullyConnected", 
      "name": "gru_t108__i2h", 
      "attr": {"num_hidden": "3"}, 
      "inputs": [[11, 108, 0], [12, 0, 0], [13, 0, 0]]
    }, 
    {
      "op": "SliceChannel", 
      "name": "gru_t108__i2h_slice", 
      "attr": {"num_outputs": "3"}, 
      "inputs": [[132, 0, 0]]
    }, 
    {
      "op": "FullyConnected", 
      "name": "gru_t107__i2h", 
      "attr": {"num_hidden": "3"}, 
      "inputs": [[11, 107, 0], [12, 0, 0], [13, 0, 0]]
    }, 
    {
      "op": "SliceChannel", 
      "name": "gru_t107__i2h_slice", 
      "attr": {"num_outputs": "3"}, 
      "inputs": [[134, 0, 0]]
    }, 
    {
      "op": "FullyConnected", 
      "name": "gru_t106__i2h", 
      "attr": {"num_hidden": "3"}, 
      "inputs": [[11, 106, 0], [12, 0, 0], [13, 0, 0]]
    }, 
    {
      "op": "SliceChannel", 
      "name": "gru_t106__i2h_slice", 
      "attr": {"num_outputs": "3"}, 
      "inputs": [[136, 0, 0]]
    }, 
    {
      "op": "FullyConnected", 
      "name": "gru_t105__i2h", 
      "attr": {"num_hidden": "3"}, 
      "inputs": [[11, 105, 0], [12, 0, 0], [13, 0, 0]]
    }, 
    {
      "op": "SliceChannel", 
      "name": "gru_t105__i2h_slice", 
      "attr": {"num_outputs": "3"}, 
      "inputs": [[138, 0, 0]]
    }, 
    {
      "op": "FullyConnected", 
      "name": "gru_t104__i2h", 
      "attr": {"num_hidden": "3"}, 
      "inputs": [[11, 104, 0], [12, 0, 0], [13, 0, 0]]
    }, 
    {
      "op": "SliceChannel", 
      "name": "gru_t104__i2h_slice", 
      "attr": {"num_outputs": "3"}, 
      "inputs": [[140, 0, 0]]
    }, 
    {
      "op": "FullyConnected", 
      "name": "gru_t103__i2h", 
      "attr": {"num_hidden": "3"}, 
      "inputs": [[11, 103, 0], [12, 0, 0], [13, 0, 0]]
    }, 
    {
      "op": "SliceChannel", 
      "name": "gru_t103__i2h_slice", 
      "attr": {"num_outputs": "3"}, 
      "inputs": [[142, 0, 0]]
    }, 
    {
      "op": "FullyConnected", 
      "name": "gru_t102__i2h", 
      "attr": {"num_hidden": "3"}, 
      "inputs": [[11, 102, 0], [12, 0, 0], [13, 0, 0]]
    }, 
    {
      "op": "SliceChannel", 
      "name": "gru_t102__i2h_slice", 
      "attr": {"num_outputs": "3"}, 
      "inputs": [[144, 0, 0]]
    }, 
    {
      "op": "FullyConnected", 
      "name": "gru_t101__i2h", 
      "attr": {"num_hidden": "3"}, 
      "inputs": [[11, 101, 0], [12, 0, 0], [13, 0, 0]]
    }, 
    {
      "op": "SliceChannel", 
      "name": "gru_t101__i2h_slice", 
      "attr": {"num_outputs": "3"}, 
      "inputs": [[146, 0, 0]]
    }, 
    {
      "op": "FullyConnected", 
      "name": "gru_t100__i2h", 
      "attr": {"num_hidden": "3"}, 
      "inputs": [[11, 100, 0], [12, 0, 0], [13, 0, 0]]
    }, 
    {
      "op": "SliceChannel", 
      "name": "gru_t100__i2h_slice", 
      "attr": {"num_outputs": "3"}, 
      "inputs": [[148, 0, 0]]
    }, 
    {
      "op": "FullyConnected", 
      "name": "gru_t99__i2h", 
      "attr": {"num_hidden": "3"}, 
      "inputs": [[11, 99, 0], [12, 0, 0], [13, 0, 0]]
    }, 
    {
      "op": "SliceChannel", 
      "name": "gru_t99__i2h_slice", 
      "attr": {"num_outputs": "3"}, 
      "inputs": [[150, 0, 0]]
    }, 
    {
      "op": "FullyConnected", 
      "name": "gru_t98__i2h", 
      "attr": {"num_hidden": "3"}, 
      "inputs": [[11, 98, 0], [12, 0, 0], [13, 0, 0]]
    }, 
    {
      "op": "SliceChannel", 
      "name": "gru_t98__i2h_slice", 
      "attr": {"num_outputs": "3"}, 
      "inputs": [[152, 0, 0]]
    }, 
    {
      "op": "FullyConnected", 
      "name": "gru_t97__i2h", 
      "attr": {"num_hidden": "3"}, 
      "inputs": [[11, 97, 0], [12, 0, 0], [13, 0, 0]]
    }, 
    {
      "op": "SliceChannel", 
      "name": "gru_t97__i2h_slice", 
      "attr": {"num_outputs": "3"}, 
      "inputs": [[154, 0, 0]]
    }, 
    {
      "op": "FullyConnected", 
      "name": "gru_t96__i2h", 
      "attr": {"num_hidden": "3"}, 
      "inputs": [[11, 96, 0], [12, 0, 0], [13, 0, 0]]
    }, 
    {
      "op": "SliceChannel", 
      "name": "gru_t96__i2h_slice", 
      "attr": {"num_outputs": "3"}, 
      "inputs": [[156, 0, 0]]
    }, 
    {
      "op": "FullyConnected", 
      "name": "gru_t95__i2h", 
      "attr": {"num_hidden": "3"}, 
      "inputs": [[11, 95, 0], [12, 0, 0], [13, 0, 0]]
    }, 
    {
      "op": "SliceChannel", 
      "name": "gru_t95__i2h_slice", 
      "attr": {"num_outputs": "3"}, 
      "inputs": [[158, 0, 0]]
    }, 
    {
      "op": "FullyConnected", 
      "name": "gru_t94__i2h", 
      "attr": {"num_hidden": "3"}, 
      "inputs": [[11, 94, 0], [12, 0, 0], [13, 0, 0]]
    }, 
    {
      "op": "SliceChannel", 
      "name": "gru_t94__i2h_slice", 
      "attr": {"num_outputs": "3"}, 
      "inputs": [[160, 0, 0]]
    }, 
    {
      "op": "FullyConnected", 
      "name": "gru_t93__i2h", 
      "attr": {"num_hidden": "3"}, 
      "inputs": [[11, 93, 0], [12, 0, 0], [13, 0, 0]]
    }, 
    {
      "op": "SliceChannel", 
      "name": "gru_t93__i2h_slice", 
      "attr": {"num_outputs": "3"}, 
      "inputs": [[162, 0, 0]]
    }, 
    {
      "op": "FullyConnected", 
      "name": "gru_t92__i2h", 
      "attr": {"num_hidden": "3"}, 
      "inputs": [[11, 92, 0], [12, 0, 0], [13, 0, 0]]
    }, 
    {
      "op": "SliceChannel", 
      "name": "gru_t92__i2h_slice", 
      "attr": {"num_outputs": "3"}, 
      "inputs": [[164, 0, 0]]
    }, 
    {
      "op": "FullyConnected", 
      "name": "gru_t91__i2h", 
      "attr": {"num_hidden": "3"}, 
      "inputs": [[11, 91, 0], [12, 0, 0], [13, 0, 0]]
    }, 
    {
      "op": "SliceChannel", 
      "name": "gru_t91__i2h_slice", 
      "attr": {"num_outputs": "3"}, 
      "inputs": [[166, 0, 0]]
    }, 
    {
      "op": "FullyConnected", 
      "name": "gru_t90__i2h", 
      "attr": {"num_hidden": "3"}, 
      "inputs": [[11, 90, 0], [12, 0, 0], [13, 0, 0]]
    }, 
    {
      "op": "SliceChannel", 
      "name": "gru_t90__i2h_slice", 
      "attr": {"num_outputs": "3"}, 
      "inputs": [[168, 0, 0]]
    }, 
    {
      "op": "FullyConnected", 
      "name": "gru_t89__i2h", 
      "attr": {"num_hidden": "3"}, 
      "inputs": [[11, 89, 0], [12, 0, 0], [13, 0, 0]]
    }, 
    {
      "op": "SliceChannel", 
      "name": "gru_t89__i2h_slice", 
      "attr": {"num_outputs": "3"}, 
      "inputs": [[170, 0, 0]]
    }, 
    {
      "op": "FullyConnected", 
      "name": "gru_t88__i2h", 
      "attr": {"num_hidden": "3"}, 
      "inputs": [[11, 88, 0], [12, 0, 0], [13, 0, 0]]
    }, 
    {
      "op": "SliceChannel", 
      "name": "gru_t88__i2h_slice", 
      "attr": {"num_outputs": "3"}, 
      "inputs": [[172, 0, 0]]
    }, 
    {
      "op": "FullyConnected", 
      "name": "gru_t87__i2h", 
      "attr": {"num_hidden": "3"}, 
      "inputs": [[11, 87, 0], [12, 0, 0], [13, 0, 0]]
    }, 
    {
      "op": "SliceChannel", 
      "name": "gru_t87__i2h_slice", 
      "attr": {"num_outputs": "3"}, 
      "inputs": [[174, 0, 0]]
    }, 
    {
      "op": "FullyConnected", 
      "name": "gru_t86__i2h", 
      "attr": {"num_hidden": "3"}, 
      "inputs": [[11, 86, 0], [12, 0, 0], [13, 0, 0]]
    }, 
    {
      "op": "SliceChannel", 
      "name": "gru_t86__i2h_slice", 
      "attr": {"num_outputs": "3"}, 
      "inputs": [[176, 0, 0]]
    }, 
    {
      "op": "FullyConnected", 
      "name": "gru_t85__i2h", 
      "attr": {"num_hidden": "3"}, 
      "inputs": [[11, 85, 0], [12, 0, 0], [13, 0, 0]]
    }, 
    {
      "op": "SliceChannel", 
      "name": "gru_t85__i2h_slice", 
      "attr": {"num_outputs": "3"}, 
      "inputs": [[178, 0, 0]]
    }, 
    {
      "op": "FullyConnected", 
      "name": "gru_t84__i2h", 
      "attr": {"num_hidden": "3"}, 
      "inputs": [[11, 84, 0], [12, 0, 0], [13, 0, 0]]
    }, 
    {
      "op": "SliceChannel", 
      "name": "gru_t84__i2h_slice", 
      "attr": {"num_outputs": "3"}, 
      "inputs": [[180, 0, 0]]
    }, 
    {
      "op": "FullyConnected", 
      "name": "gru_t83__i2h", 
      "attr": {"num_hidden": "3"}, 
      "inputs": [[11, 83, 0], [12, 0, 0], [13, 0, 0]]
    }, 
    {
      "op": "SliceChannel", 
      "name": "gru_t83__i2h_slice", 
      "attr": {"num_outputs": "3"}, 
      "inputs": [[182, 0, 0]]
    }, 
    {
      "op": "FullyConnected", 
      "name": "gru_t82__i2h", 
      "attr": {"num_hidden": "3"}, 
      "inputs": [[11, 82, 0], [12, 0, 0], [13, 0, 0]]
    }, 
    {
      "op": "SliceChannel", 
      "name": "gru_t82__i2h_slice", 
      "attr": {"num_outputs": "3"}, 
      "inputs": [[184, 0, 0]]
    }, 
    {
      "op": "FullyConnected", 
      "name": "gru_t81__i2h", 
      "attr": {"num_hidden": "3"}, 
      "inputs": [[11, 81, 0], [12, 0, 0], [13, 0, 0]]
    }, 
    {
      "op": "SliceChannel", 
      "name": "gru_t81__i2h_slice", 
      "attr": {"num_outputs": "3"}, 
      "inputs": [[186, 0, 0]]
    }, 
    {
      "op": "FullyConnected", 
      "name": "gru_t80__i2h", 
      "attr": {"num_hidden": "3"}, 
      "inputs": [[11, 80, 0], [12, 0, 0], [13, 0, 0]]
    }, 
    {
      "op": "SliceChannel", 
      "name": "gru_t80__i2h_slice", 
      "attr": {"num_outputs": "3"}, 
      "inputs": [[188, 0, 0]]
    }, 
    {
      "op": "FullyConnected", 
      "name": "gru_t79__i2h", 
      "attr": {"num_hidden": "3"}, 
      "inputs": [[11, 79, 0], [12, 0, 0], [13, 0, 0]]
    }, 
    {
      "op": "SliceChannel", 
      "name": "gru_t79__i2h_slice", 
      "attr": {"num_outputs": "3"}, 
      "inputs": [[190, 0, 0]]
    }, 
    {
      "op": "FullyConnected", 
      "name": "gru_t78__i2h", 
      "attr": {"num_hidden": "3"}, 
      "inputs": [[11, 78, 0], [12, 0, 0], [13, 0, 0]]
    }, 
    {
      "op": "SliceChannel", 
      "name": "gru_t78__i2h_slice", 
      "attr": {"num_outputs": "3"}, 
      "inputs": [[192, 0, 0]]
    }, 
    {
      "op": "FullyConnected", 
      "name": "gru_t77__i2h", 
      "attr": {"num_hidden": "3"}, 
      "inputs": [[11, 77, 0], [12, 0, 0], [13, 0, 0]]
    }, 
    {
      "op": "SliceChannel", 
      "name": "gru_t77__i2h_slice", 
      "attr": {"num_outputs": "3"}, 
      "inputs": [[194, 0, 0]]
    }, 
    {
      "op": "FullyConnected", 
      "name": "gru_t76__i2h", 
      "attr": {"num_hidden": "3"}, 
      "inputs": [[11, 76, 0], [12, 0, 0], [13, 0, 0]]
    }, 
    {
      "op": "SliceChannel", 
      "name": "gru_t76__i2h_slice", 
      "attr": {"num_outputs": "3"}, 
      "inputs": [[196, 0, 0]]
    }, 
    {
      "op": "FullyConnected", 
      "name": "gru_t75__i2h", 
      "attr": {"num_hidden": "3"}, 
      "inputs": [[11, 75, 0], [12, 0, 0], [13, 0, 0]]
    }, 
    {
      "op": "SliceChannel", 
      "name": "gru_t75__i2h_slice", 
      "attr": {"num_outputs": "3"}, 
      "inputs": [[198, 0, 0]]
    }, 
    {
      "op": "FullyConnected", 
      "name": "gru_t74__i2h", 
      "attr": {"num_hidden": "3"}, 
      "inputs": [[11, 74, 0], [12, 0, 0], [13, 0, 0]]
    }, 
    {
      "op": "SliceChannel", 
      "name": "gru_t74__i2h_slice", 
      "attr": {"num_outputs": "3"}, 
      "inputs": [[200, 0, 0]]
    }, 
    {
      "op": "FullyConnected", 
      "name": "gru_t73__i2h", 
      "attr": {"num_hidden": "3"}, 
      "inputs": [[11, 73, 0], [12, 0, 0], [13, 0, 0]]
    }, 
    {
      "op": "SliceChannel", 
      "name": "gru_t73__i2h_slice", 
      "attr": {"num_outputs": "3"}, 
      "inputs": [[202, 0, 0]]
    }, 
    {
      "op": "FullyConnected", 
      "name": "gru_t72__i2h", 
      "attr": {"num_hidden": "3"}, 
      "inputs": [[11, 72, 0], [12, 0, 0], [13, 0, 0]]
    }, 
    {
      "op": "SliceChannel", 
      "name": "gru_t72__i2h_slice", 
      "attr": {"num_outputs": "3"}, 
      "inputs": [[204, 0, 0]]
    }, 
    {
      "op": "FullyConnected", 
      "name": "gru_t71__i2h", 
      "attr": {"num_hidden": "3"}, 
      "inputs": [[11, 71, 0], [12, 0, 0], [13, 0, 0]]
    }, 
    {
      "op": "SliceChannel", 
      "name": "gru_t71__i2h_slice", 
      "attr": {"num_outputs": "3"}, 
      "inputs": [[206, 0, 0]]
    }, 
    {
      "op": "FullyConnected", 
      "name": "gru_t70__i2h", 
      "attr": {"num_hidden": "3"}, 
      "inputs": [[11, 70, 0], [12, 0, 0], [13, 0, 0]]
    }, 
    {
      "op": "SliceChannel", 
      "name": "gru_t70__i2h_slice", 
      "attr": {"num_outputs": "3"}, 
      "inputs": [[208, 0, 0]]
    }, 
    {
      "op": "FullyConnected", 
      "name": "gru_t69__i2h", 
      "attr": {"num_hidden": "3"}, 
      "inputs": [[11, 69, 0], [12, 0, 0], [13, 0, 0]]
    }, 
    {
      "op": "SliceChannel", 
      "name": "gru_t69__i2h_slice", 
      "attr": {"num_outputs": "3"}, 
      "inputs": [[210, 0, 0]]
    }, 
    {
      "op": "FullyConnected", 
      "name": "gru_t68__i2h", 
      "attr": {"num_hidden": "3"}, 
      "inputs": [[11, 68, 0], [12, 0, 0], [13, 0, 0]]
    }, 
    {
      "op": "SliceChannel", 
      "name": "gru_t68__i2h_slice", 
      "attr": {"num_outputs": "3"}, 
      "inputs": [[212, 0, 0]]
    }, 
    {
      "op": "FullyConnected", 
      "name": "gru_t67__i2h", 
      "attr": {"num_hidden": "3"}, 
      "inputs": [[11, 67, 0], [12, 0, 0], [13, 0, 0]]
    }, 
    {
      "op": "SliceChannel", 
      "name": "gru_t67__i2h_slice", 
      "attr": {"num_outputs": "3"}, 
      "inputs": [[214, 0, 0]]
    }, 
    {
      "op": "FullyConnected", 
      "name": "gru_t66__i2h", 
      "attr": {"num_hidden": "3"}, 
      "inputs": [[11, 66, 0], [12, 0, 0], [13, 0, 0]]
    }, 
    {
      "op": "SliceChannel", 
      "name": "gru_t66__i2h_slice", 
      "attr": {"num_outputs": "3"}, 
      "inputs": [[216, 0, 0]]
    }, 
    {
      "op": "FullyConnected", 
      "name": "gru_t65__i2h", 
      "attr": {"num_hidden": "3"}, 
      "inputs": [[11, 65, 0], [12, 0, 0], [13, 0, 0]]
    }, 
    {
      "op": "SliceChannel", 
      "name": "gru_t65__i2h_slice", 
      "attr": {"num_outputs": "3"}, 
      "inputs": [[218, 0, 0]]
    }, 
    {
      "op": "FullyConnected", 
      "name": "gru_t64__i2h", 
      "attr": {"num_hidden": "3"}, 
      "inputs": [[11, 64, 0], [12, 0, 0], [13, 0, 0]]
    }, 
    {
      "op": "SliceChannel", 
      "name": "gru_t64__i2h_slice", 
      "attr": {"num_outputs": "3"}, 
      "inputs": [[220, 0, 0]]
    }, 
    {
      "op": "FullyConnected", 
      "name": "gru_t63__i2h", 
      "attr": {"num_hidden": "3"}, 
      "inputs": [[11, 63, 0], [12, 0, 0], [13, 0, 0]]
    }, 
    {
      "op": "SliceChannel", 
      "name": "gru_t63__i2h_slice", 
      "attr": {"num_outputs": "3"}, 
      "inputs": [[222, 0, 0]]
    }, 
    {
      "op": "FullyConnected", 
      "name": "gru_t62__i2h", 
      "attr": {"num_hidden": "3"}, 
      "inputs": [[11, 62, 0], [12, 0, 0], [13, 0, 0]]
    }, 
    {
      "op": "SliceChannel", 
      "name": "gru_t62__i2h_slice", 
      "attr": {"num_outputs": "3"}, 
      "inputs": [[224, 0, 0]]
    }, 
    {
      "op": "FullyConnected", 
      "name": "gru_t61__i2h", 
      "attr": {"num_hidden": "3"}, 
      "inputs": [[11, 61, 0], [12, 0, 0], [13, 0, 0]]
    }, 
    {
      "op": "SliceChannel", 
      "name": "gru_t61__i2h_slice", 
      "attr": {"num_outputs": "3"}, 
      "inputs": [[226, 0, 0]]
    }, 
    {
      "op": "FullyConnected", 
      "name": "gru_t60__i2h", 
      "attr": {"num_hidden": "3"}, 
      "inputs": [[11, 60, 0], [12, 0, 0], [13, 0, 0]]
    }, 
    {
      "op": "SliceChannel", 
      "name": "gru_t60__i2h_slice", 
      "attr": {"num_outputs": "3"}, 
      "inputs": [[228, 0, 0]]
    }, 
    {
      "op": "FullyConnected", 
      "name": "gru_t59__i2h", 
      "attr": {"num_hidden": "3"}, 
      "inputs": [[11, 59, 0], [12, 0, 0], [13, 0, 0]]
    }, 
    {
      "op": "SliceChannel", 
      "name": "gru_t59__i2h_slice", 
      "attr": {"num_outputs": "3"}, 
      "inputs": [[230, 0, 0]]
    }, 
    {
      "op": "FullyConnected", 
      "name": "gru_t58__i2h", 
      "attr": {"num_hidden": "3"}, 
      "inputs": [[11, 58, 0], [12, 0, 0], [13, 0, 0]]
    }, 
    {
      "op": "SliceChannel", 
      "name": "gru_t58__i2h_slice", 
      "attr": {"num_outputs": "3"}, 
      "inputs": [[232, 0, 0]]
    }, 
    {
      "op": "FullyConnected", 
      "name": "gru_t57__i2h", 
      "attr": {"num_hidden": "3"}, 
      "inputs": [[11, 57, 0], [12, 0, 0], [13, 0, 0]]
    }, 
    {
      "op": "SliceChannel", 
      "name": "gru_t57__i2h_slice", 
      "attr": {"num_outputs": "3"}, 
      "inputs": [[234, 0, 0]]
    }, 
    {
      "op": "FullyConnected", 
      "name": "gru_t56__i2h", 
      "attr": {"num_hidden": "3"}, 
      "inputs": [[11, 56, 0], [12, 0, 0], [13, 0, 0]]
    }, 
    {
      "op": "SliceChannel", 
      "name": "gru_t56__i2h_slice", 
      "attr": {"num_outputs": "3"}, 
      "inputs": [[236, 0, 0]]
    }, 
    {
      "op": "FullyConnected", 
      "name": "gru_t55__i2h", 
      "attr": {"num_hidden": "3"}, 
      "inputs": [[11, 55, 0], [12, 0, 0], [13, 0, 0]]
    }, 
    {
      "op": "SliceChannel", 
      "name": "gru_t55__i2h_slice", 
      "attr": {"num_outputs": "3"}, 
      "inputs": [[238, 0, 0]]
    }, 
    {
      "op": "FullyConnected", 
      "name": "gru_t54__i2h", 
      "attr": {"num_hidden": "3"}, 
      "inputs": [[11, 54, 0], [12, 0, 0], [13, 0, 0]]
    }, 
    {
      "op": "SliceChannel", 
      "name": "gru_t54__i2h_slice", 
      "attr": {"num_outputs": "3"}, 
      "inputs": [[240, 0, 0]]
    }, 
    {
      "op": "FullyConnected", 
      "name": "gru_t53__i2h", 
      "attr": {"num_hidden": "3"}, 
      "inputs": [[11, 53, 0], [12, 0, 0], [13, 0, 0]]
    }, 
    {
      "op": "SliceChannel", 
      "name": "gru_t53__i2h_slice", 
      "attr": {"num_outputs": "3"}, 
      "inputs": [[242, 0, 0]]
    }, 
    {
      "op": "FullyConnected", 
      "name": "gru_t52__i2h", 
      "attr": {"num_hidden": "3"}, 
      "inputs": [[11, 52, 0], [12, 0, 0], [13, 0, 0]]
    }, 
    {
      "op": "SliceChannel", 
      "name": "gru_t52__i2h_slice", 
      "attr": {"num_outputs": "3"}, 
      "inputs": [[244, 0, 0]]
    }, 
    {
      "op": "FullyConnected", 
      "name": "gru_t51__i2h", 
      "attr": {"num_hidden": "3"}, 
      "inputs": [[11, 51, 0], [12, 0, 0], [13, 0, 0]]
    }, 
    {
      "op": "SliceChannel", 
      "name": "gru_t51__i2h_slice", 
      "attr": {"num_outputs": "3"}, 
      "inputs": [[246, 0, 0]]
    }, 
    {
      "op": "FullyConnected", 
      "name": "gru_t50__i2h", 
      "attr": {"num_hidden": "3"}, 
      "inputs": [[11, 50, 0], [12, 0, 0], [13, 0, 0]]
    }, 
    {
      "op": "SliceChannel", 
      "name": "gru_t50__i2h_slice", 
      "attr": {"num_outputs": "3"}, 
      "inputs": [[248, 0, 0]]
    }, 
    {
      "op": "FullyConnected", 
      "name": "gru_t49__i2h", 
      "attr": {"num_hidden": "3"}, 
      "inputs": [[11, 49, 0], [12, 0, 0], [13, 0, 0]]
    }, 
    {
      "op": "SliceChannel", 
      "name": "gru_t49__i2h_slice", 
      "attr": {"num_outputs": "3"}, 
      "inputs": [[250, 0, 0]]
    }, 
    {
      "op": "FullyConnected", 
      "name": "gru_t48__i2h", 
      "attr": {"num_hidden": "3"}, 
      "inputs": [[11, 48, 0], [12, 0, 0], [13, 0, 0]]
    }, 
    {
      "op": "SliceChannel", 
      "name": "gru_t48__i2h_slice", 
      "attr": {"num_outputs": "3"}, 
      "inputs": [[252, 0, 0]]
    }, 
    {
      "op": "FullyConnected", 
      "name": "gru_t47__i2h", 
      "attr": {"num_hidden": "3"}, 
      "inputs": [[11, 47, 0], [12, 0, 0], [13, 0, 0]]
    }, 
    {
      "op": "SliceChannel", 
      "name": "gru_t47__i2h_slice", 
      "attr": {"num_outputs": "3"}, 
      "inputs": [[254, 0, 0]]
    }, 
    {
      "op": "FullyConnected", 
      "name": "gru_t46__i2h", 
      "attr": {"num_hidden": "3"}, 
      "inputs": [[11, 46, 0], [12, 0, 0], [13, 0, 0]]
    }, 
    {
      "op": "SliceChannel", 
      "name": "gru_t46__i2h_slice", 
      "attr": {"num_outputs": "3"}, 
      "inputs": [[256, 0, 0]]
    }, 
    {
      "op": "FullyConnected", 
      "name": "gru_t45__i2h", 
      "attr": {"num_hidden": "3"}, 
      "inputs": [[11, 45, 0], [12, 0, 0], [13, 0, 0]]
    }, 
    {
      "op": "SliceChannel", 
      "name": "gru_t45__i2h_slice", 
      "attr": {"num_outputs": "3"}, 
      "inputs": [[258, 0, 0]]
    }, 
    {
      "op": "FullyConnected", 
      "name": "gru_t44__i2h", 
      "attr": {"num_hidden": "3"}, 
      "inputs": [[11, 44, 0], [12, 0, 0], [13, 0, 0]]
    }, 
    {
      "op": "SliceChannel", 
      "name": "gru_t44__i2h_slice", 
      "attr": {"num_outputs": "3"}, 
      "inputs": [[260, 0, 0]]
    }, 
    {
      "op": "FullyConnected", 
      "name": "gru_t43__i2h", 
      "attr": {"num_hidden": "3"}, 
      "inputs": [[11, 43, 0], [12, 0, 0], [13, 0, 0]]
    }, 
    {
      "op": "SliceChannel", 
      "name": "gru_t43__i2h_slice", 
      "attr": {"num_outputs": "3"}, 
      "inputs": [[262, 0, 0]]
    }, 
    {
      "op": "FullyConnected", 
      "name": "gru_t42__i2h", 
      "attr": {"num_hidden": "3"}, 
      "inputs": [[11, 42, 0], [12, 0, 0], [13, 0, 0]]
    }, 
    {
      "op": "SliceChannel", 
      "name": "gru_t42__i2h_slice", 
      "attr": {"num_outputs": "3"}, 
      "inputs": [[264, 0, 0]]
    }, 
    {
      "op": "FullyConnected", 
      "name": "gru_t41__i2h", 
      "attr": {"num_hidden": "3"}, 
      "inputs": [[11, 41, 0], [12, 0, 0], [13, 0, 0]]
    }, 
    {
      "op": "SliceChannel", 
      "name": "gru_t41__i2h_slice", 
      "attr": {"num_outputs": "3"}, 
      "inputs": [[266, 0, 0]]
    }, 
    {
      "op": "FullyConnected", 
      "name": "gru_t40__i2h", 
      "attr": {"num_hidden": "3"}, 
      "inputs": [[11, 40, 0], [12, 0, 0], [13, 0, 0]]
    }, 
    {
      "op": "SliceChannel", 
      "name": "gru_t40__i2h_slice", 
      "attr": {"num_outputs": "3"}, 
      "inputs": [[268, 0, 0]]
    }, 
    {
      "op": "FullyConnected", 
      "name": "gru_t39__i2h", 
      "attr": {"num_hidden": "3"}, 
      "inputs": [[11, 39, 0], [12, 0, 0], [13, 0, 0]]
    }, 
    {
      "op": "SliceChannel", 
      "name": "gru_t39__i2h_slice", 
      "attr": {"num_outputs": "3"}, 
      "inputs": [[270, 0, 0]]
    }, 
    {
      "op": "FullyConnected", 
      "name": "gru_t38__i2h", 
      "attr": {"num_hidden": "3"}, 
      "inputs": [[11, 38, 0], [12, 0, 0], [13, 0, 0]]
    }, 
    {
      "op": "SliceChannel", 
      "name": "gru_t38__i2h_slice", 
      "attr": {"num_outputs": "3"}, 
      "inputs": [[272, 0, 0]]
    }, 
    {
      "op": "FullyConnected", 
      "name": "gru_t37__i2h", 
      "attr": {"num_hidden": "3"}, 
      "inputs": [[11, 37, 0], [12, 0, 0], [13, 0, 0]]
    }, 
    {
      "op": "SliceChannel", 
      "name": "gru_t37__i2h_slice", 
      "attr": {"num_outputs": "3"}, 
      "inputs": [[274, 0, 0]]
    }, 
    {
      "op": "FullyConnected", 
      "name": "gru_t36__i2h", 
      "attr": {"num_hidden": "3"}, 
      "inputs": [[11, 36, 0], [12, 0, 0], [13, 0, 0]]
    }, 
    {
      "op": "SliceChannel", 
      "name": "gru_t36__i2h_slice", 
      "attr": {"num_outputs": "3"}, 
      "inputs": [[276, 0, 0]]
    }, 
    {
      "op": "FullyConnected", 
      "name": "gru_t35__i2h", 
      "attr": {"num_hidden": "3"}, 
      "inputs": [[11, 35, 0], [12, 0, 0], [13, 0, 0]]
    }, 
    {
      "op": "SliceChannel", 
      "name": "gru_t35__i2h_slice", 
      "attr": {"num_outputs": "3"}, 
      "inputs": [[278, 0, 0]]
    }, 
    {
      "op": "FullyConnected", 
      "name": "gru_t34__i2h", 
      "attr": {"num_hidden": "3"}, 
      "inputs": [[11, 34, 0], [12, 0, 0], [13, 0, 0]]
    }, 
    {
      "op": "SliceChannel", 
      "name": "gru_t34__i2h_slice", 
      "attr": {"num_outputs": "3"}, 
      "inputs": [[280, 0, 0]]
    }, 
    {
      "op": "FullyConnected", 
      "name": "gru_t33__i2h", 
      "attr": {"num_hidden": "3"}, 
      "inputs": [[11, 33, 0], [12, 0, 0], [13, 0, 0]]
    }, 
    {
      "op": "SliceChannel", 
      "name": "gru_t33__i2h_slice", 
      "attr": {"num_outputs": "3"}, 
      "inputs": [[282, 0, 0]]
    }, 
    {
      "op": "FullyConnected", 
      "name": "gru_t32__i2h", 
      "attr": {"num_hidden": "3"}, 
      "inputs": [[11, 32, 0], [12, 0, 0], [13, 0, 0]]
    }, 
    {
      "op": "SliceChannel", 
      "name": "gru_t32__i2h_slice", 
      "attr": {"num_outputs": "3"}, 
      "inputs": [[284, 0, 0]]
    }, 
    {
      "op": "FullyConnected", 
      "name": "gru_t31__i2h", 
      "attr": {"num_hidden": "3"}, 
      "inputs": [[11, 31, 0], [12, 0, 0], [13, 0, 0]]
    }, 
    {
      "op": "SliceChannel", 
      "name": "gru_t31__i2h_slice", 
      "attr": {"num_outputs": "3"}, 
      "inputs": [[286, 0, 0]]
    }, 
    {
      "op": "FullyConnected", 
      "name": "gru_t30__i2h", 
      "attr": {"num_hidden": "3"}, 
      "inputs": [[11, 30, 0], [12, 0, 0], [13, 0, 0]]
    }, 
    {
      "op": "SliceChannel", 
      "name": "gru_t30__i2h_slice", 
      "attr": {"num_outputs": "3"}, 
      "inputs": [[288, 0, 0]]
    }, 
    {
      "op": "FullyConnected", 
      "name": "gru_t29__i2h", 
      "attr": {"num_hidden": "3"}, 
      "inputs": [[11, 29, 0], [12, 0, 0], [13, 0, 0]]
    }, 
    {
      "op": "SliceChannel", 
      "name": "gru_t29__i2h_slice", 
      "attr": {"num_outputs": "3"}, 
      "inputs": [[290, 0, 0]]
    }, 
    {
      "op": "FullyConnected", 
      "name": "gru_t28__i2h", 
      "attr": {"num_hidden": "3"}, 
      "inputs": [[11, 28, 0], [12, 0, 0], [13, 0, 0]]
    }, 
    {
      "op": "SliceChannel", 
      "name": "gru_t28__i2h_slice", 
      "attr": {"num_outputs": "3"}, 
      "inputs": [[292, 0, 0]]
    }, 
    {
      "op": "FullyConnected", 
      "name": "gru_t27__i2h", 
      "attr": {"num_hidden": "3"}, 
      "inputs": [[11, 27, 0], [12, 0, 0], [13, 0, 0]]
    }, 
    {
      "op": "SliceChannel", 
      "name": "gru_t27__i2h_slice", 
      "attr": {"num_outputs": "3"}, 
      "inputs": [[294, 0, 0]]
    }, 
    {
      "op": "FullyConnected", 
      "name": "gru_t26__i2h", 
      "attr": {"num_hidden": "3"}, 
      "inputs": [[11, 26, 0], [12, 0, 0], [13, 0, 0]]
    }, 
    {
      "op": "SliceChannel", 
      "name": "gru_t26__i2h_slice", 
      "attr": {"num_outputs": "3"}, 
      "inputs": [[296, 0, 0]]
    }, 
    {
      "op": "FullyConnected", 
      "name": "gru_t25__i2h", 
      "attr": {"num_hidden": "3"}, 
      "inputs": [[11, 25, 0], [12, 0, 0], [13, 0, 0]]
    }, 
    {
      "op": "SliceChannel", 
      "name": "gru_t25__i2h_slice", 
      "attr": {"num_outputs": "3"}, 
      "inputs": [[298, 0, 0]]
    }, 
    {
      "op": "FullyConnected", 
      "name": "gru_t24__i2h", 
      "attr": {"num_hidden": "3"}, 
      "inputs": [[11, 24, 0], [12, 0, 0], [13, 0, 0]]
    }, 
    {
      "op": "SliceChannel", 
      "name": "gru_t24__i2h_slice", 
      "attr": {"num_outputs": "3"}, 
      "inputs": [[300, 0, 0]]
    }, 
    {
      "op": "FullyConnected", 
      "name": "gru_t23__i2h", 
      "attr": {"num_hidden": "3"}, 
      "inputs": [[11, 23, 0], [12, 0, 0], [13, 0, 0]]
    }, 
    {
      "op": "SliceChannel", 
      "name": "gru_t23__i2h_slice", 
      "attr": {"num_outputs": "3"}, 
      "inputs": [[302, 0, 0]]
    }, 
    {
      "op": "FullyConnected", 
      "name": "gru_t22__i2h", 
      "attr": {"num_hidden": "3"}, 
      "inputs": [[11, 22, 0], [12, 0, 0], [13, 0, 0]]
    }, 
    {
      "op": "SliceChannel", 
      "name": "gru_t22__i2h_slice", 
      "attr": {"num_outputs": "3"}, 
      "inputs": [[304, 0, 0]]
    }, 
    {
      "op": "FullyConnected", 
      "name": "gru_t21__i2h", 
      "attr": {"num_hidden": "3"}, 
      "inputs": [[11, 21, 0], [12, 0, 0], [13, 0, 0]]
    }, 
    {
      "op": "SliceChannel", 
      "name": "gru_t21__i2h_slice", 
      "attr": {"num_outputs": "3"}, 
      "inputs": [[306, 0, 0]]
    }, 
    {
      "op": "FullyConnected", 
      "name": "gru_t20__i2h", 
      "attr": {"num_hidden": "3"}, 
      "inputs": [[11, 20, 0], [12, 0, 0], [13, 0, 0]]
    }, 
    {
      "op": "SliceChannel", 
      "name": "gru_t20__i2h_slice", 
      "attr": {"num_outputs": "3"}, 
      "inputs": [[308, 0, 0]]
    }, 
    {
      "op": "FullyConnected", 
      "name": "gru_t19__i2h", 
      "attr": {"num_hidden": "3"}, 
      "inputs": [[11, 19, 0], [12, 0, 0], [13, 0, 0]]
    }, 
    {
      "op": "SliceChannel", 
      "name": "gru_t19__i2h_slice", 
      "attr": {"num_outputs": "3"}, 
      "inputs": [[310, 0, 0]]
    }, 
    {
      "op": "FullyConnected", 
      "name": "gru_t18__i2h", 
      "attr": {"num_hidden": "3"}, 
      "inputs": [[11, 18, 0], [12, 0, 0], [13, 0, 0]]
    }, 
    {
      "op": "SliceChannel", 
      "name": "gru_t18__i2h_slice", 
      "attr": {"num_outputs": "3"}, 
      "inputs": [[312, 0, 0]]
    }, 
    {
      "op": "FullyConnected", 
      "name": "gru_t17__i2h", 
      "attr": {"num_hidden": "3"}, 
      "inputs": [[11, 17, 0], [12, 0, 0], [13, 0, 0]]
    }, 
    {
      "op": "SliceChannel", 
      "name": "gru_t17__i2h_slice", 
      "attr": {"num_outputs": "3"}, 
      "inputs": [[314, 0, 0]]
    }, 
    {
      "op": "FullyConnected", 
      "name": "gru_t16__i2h", 
      "attr": {"num_hidden": "3"}, 
      "inputs": [[11, 16, 0], [12, 0, 0], [13, 0, 0]]
    }, 
    {
      "op": "SliceChannel", 
      "name": "gru_t16__i2h_slice", 
      "attr": {"num_outputs": "3"}, 
      "inputs": [[316, 0, 0]]
    }, 
    {
      "op": "FullyConnected", 
      "name": "gru_t15__i2h", 
      "attr": {"num_hidden": "3"}, 
      "inputs": [[11, 15, 0], [12, 0, 0], [13, 0, 0]]
    }, 
    {
      "op": "SliceChannel", 
      "name": "gru_t15__i2h_slice", 
      "attr": {"num_outputs": "3"}, 
      "inputs": [[318, 0, 0]]
    }, 
    {
      "op": "FullyConnected", 
      "name": "gru_t14__i2h", 
      "attr": {"num_hidden": "3"}, 
      "inputs": [[11, 14, 0], [12, 0, 0], [13, 0, 0]]
    }, 
    {
      "op": "SliceChannel", 
      "name": "gru_t14__i2h_slice", 
      "attr": {"num_outputs": "3"}, 
      "inputs": [[320, 0, 0]]
    }, 
    {
      "op": "FullyConnected", 
      "name": "gru_t13__i2h", 
      "attr": {"num_hidden": "3"}, 
      "inputs": [[11, 13, 0], [12, 0, 0], [13, 0, 0]]
    }, 
    {
      "op": "SliceChannel", 
      "name": "gru_t13__i2h_slice", 
      "attr": {"num_outputs": "3"}, 
      "inputs": [[322, 0, 0]]
    }, 
    {
      "op": "FullyConnected", 
      "name": "gru_t12__i2h", 
      "attr": {"num_hidden": "3"}, 
      "inputs": [[11, 12, 0], [12, 0, 0], [13, 0, 0]]
    }, 
    {
      "op": "SliceChannel", 
      "name": "gru_t12__i2h_slice", 
      "attr": {"num_outputs": "3"}, 
      "inputs": [[324, 0, 0]]
    }, 
    {
      "op": "FullyConnected", 
      "name": "gru_t11__i2h", 
      "attr": {"num_hidden": "3"}, 
      "inputs": [[11, 11, 0], [12, 0, 0], [13, 0, 0]]
    }, 
    {
      "op": "SliceChannel", 
      "name": "gru_t11__i2h_slice", 
      "attr": {"num_outputs": "3"}, 
      "inputs": [[326, 0, 0]]
    }, 
    {
      "op": "FullyConnected", 
      "name": "gru_t10__i2h", 
      "attr": {"num_hidden": "3"}, 
      "inputs": [[11, 10, 0], [12, 0, 0], [13, 0, 0]]
    }, 
    {
      "op": "SliceChannel", 
      "name": "gru_t10__i2h_slice", 
      "attr": {"num_outputs": "3"}, 
      "inputs": [[328, 0, 0]]
    }, 
    {
      "op": "FullyConnected", 
      "name": "gru_t9__i2h", 
      "attr": {"num_hidden": "3"}, 
      "inputs": [[11, 9, 0], [12, 0, 0], [13, 0, 0]]
    }, 
    {
      "op": "SliceChannel", 
      "name": "gru_t9__i2h_slice", 
      "attr": {"num_outputs": "3"}, 
      "inputs": [[330, 0, 0]]
    }, 
    {
      "op": "FullyConnected", 
      "name": "gru_t8__i2h", 
      "attr": {"num_hidden": "3"}, 
      "inputs": [[11, 8, 0], [12, 0, 0], [13, 0, 0]]
    }, 
    {
      "op": "SliceChannel", 
      "name": "gru_t8__i2h_slice", 
      "attr": {"num_outputs": "3"}, 
      "inputs": [[332, 0, 0]]
    }, 
    {
      "op": "FullyConnected", 
      "name": "gru_t7__i2h", 
      "attr": {"num_hidden": "3"}, 
      "inputs": [[11, 7, 0], [12, 0, 0], [13, 0, 0]]
    }, 
    {
      "op": "SliceChannel", 
      "name": "gru_t7__i2h_slice", 
      "attr": {"num_outputs": "3"}, 
      "inputs": [[334, 0, 0]]
    }, 
    {
      "op": "FullyConnected", 
      "name": "gru_t6__i2h", 
      "attr": {"num_hidden": "3"}, 
      "inputs": [[11, 6, 0], [12, 0, 0], [13, 0, 0]]
    }, 
    {
      "op": "SliceChannel", 
      "name": "gru_t6__i2h_slice", 
      "attr": {"num_outputs": "3"}, 
      "inputs": [[336, 0, 0]]
    }, 
    {
      "op": "FullyConnected", 
      "name": "gru_t5__i2h", 
      "attr": {"num_hidden": "3"}, 
      "inputs": [[11, 5, 0], [12, 0, 0], [13, 0, 0]]
    }, 
    {
      "op": "SliceChannel", 
      "name": "gru_t5__i2h_slice", 
      "attr": {"num_outputs": "3"}, 
      "inputs": [[338, 0, 0]]
    }, 
    {
      "op": "FullyConnected", 
      "name": "gru_t4__i2h", 
      "attr": {"num_hidden": "3"}, 
      "inputs": [[11, 4, 0], [12, 0, 0], [13, 0, 0]]
    }, 
    {
      "op": "SliceChannel", 
      "name": "gru_t4__i2h_slice", 
      "attr": {"num_outputs": "3"}, 
      "inputs": [[340, 0, 0]]
    }, 
    {
      "op": "FullyConnected", 
      "name": "gru_t3__i2h", 
      "attr": {"num_hidden": "3"}, 
      "inputs": [[11, 3, 0], [12, 0, 0], [13, 0, 0]]
    }, 
    {
      "op": "SliceChannel", 
      "name": "gru_t3__i2h_slice", 
      "attr": {"num_outputs": "3"}, 
      "inputs": [[342, 0, 0]]
    }, 
    {
      "op": "FullyConnected", 
      "name": "gru_t2__i2h", 
      "attr": {"num_hidden": "3"}, 
      "inputs": [[11, 2, 0], [12, 0, 0], [13, 0, 0]]
    }, 
    {
      "op": "SliceChannel", 
      "name": "gru_t2__i2h_slice", 
      "attr": {"num_outputs": "3"}, 
      "inputs": [[344, 0, 0]]
    }, 
    {
      "op": "FullyConnected", 
      "name": "gru_t1__i2h", 
      "attr": {"num_hidden": "3"}, 
      "inputs": [[11, 1, 0], [12, 0, 0], [13, 0, 0]]
    }, 
    {
      "op": "SliceChannel", 
      "name": "gru_t1__i2h_slice", 
      "attr": {"num_outputs": "3"}, 
      "inputs": [[346, 0, 0]]
    }, 
    {
      "op": "FullyConnected", 
      "name": "gru_t0__i2h", 
      "attr": {"num_hidden": "3"}, 
      "inputs": [[11, 0, 0], [12, 0, 0], [13, 0, 0]]
    }, 
    {
      "op": "SliceChannel", 
      "name": "gru_t0__i2h_slice", 
      "attr": {"num_outputs": "3"}, 
      "inputs": [[348, 0, 0]]
    }, 
    {
      "op": "_zeros", 
      "name": "gru_begin_state_0", 
      "attr": {
        "__layout__": "NC", 
        "dtype": "float32", 
        "shape": "(0, 1)"
      }, 
      "inputs": []
    }, 
    {
      "op": "null", 
      "name": "gru_h2h_weight", 
      "inputs": []
    }, 
    {
      "op": "null", 
      "name": "gru_h2h_bias", 
      "inputs": []
    }, 
    {
      "op": "FullyConnected", 
      "name": "gru_t0__h2h", 
      "attr": {"num_hidden": "3"}, 
      "inputs": [[350, 0, 0], [351, 0, 0], [352, 0, 0]]
    }, 
    {
      "op": "SliceChannel", 
      "name": "gru_t0__h2h_slice", 
      "attr": {"num_outputs": "3"}, 
      "inputs": [[353, 0, 0]]
    }, 
    {
      "op": "elemwise_add", 
      "name": "_plus1", 
      "inputs": [[349, 1, 0], [354, 1, 0]]
    }, 
    {
      "op": "Activation", 
      "name": "gru_t0__z_act", 
      "attr": {"act_type": "sigmoid"}, 
      "inputs": [[355, 0, 0]]
    }, 
    {
      "op": "_rminus_scalar", 
      "name": "_rminusscalar0", 
      "attr": {"scalar": "1.0"}, 
      "inputs": [[356, 0, 0]]
    }, 
    {
      "op": "elemwise_add", 
      "name": "_plus0", 
      "inputs": [[349, 0, 0], [354, 0, 0]]
    }, 
    {
      "op": "Activation", 
      "name": "gru_t0__r_act", 
      "attr": {"act_type": "sigmoid"}, 
      "inputs": [[358, 0, 0]]
    }, 
    {
      "op": "_mul", 
      "name": "_mul0", 
      "inputs": [[359, 0, 0], [354, 2, 0]]
    }, 
    {
      "op": "elemwise_add", 
      "name": "_plus2", 
      "inputs": [[349, 2, 0], [360, 0, 0]]
    }, 
    {
      "op": "Activation", 
      "name": "gru_t0__h_act", 
      "attr": {"act_type": "tanh"}, 
      "inputs": [[361, 0, 0]]
    }, 
    {
      "op": "_mul", 
      "name": "_mul1", 
      "inputs": [[357, 0, 0], [362, 0, 0]]
    }, 
    {
      "op": "_mul", 
      "name": "_mul2", 
      "inputs": [[356, 0, 0], [350, 0, 0]]
    }, 
    {
      "op": "elemwise_add", 
      "name": "gru_t0_out", 
      "inputs": [[363, 0, 0], [364, 0, 0]]
    }, 
    {
      "op": "FullyConnected", 
      "name": "gru_t1__h2h", 
      "attr": {"num_hidden": "3"}, 
      "inputs": [[365, 0, 0], [351, 0, 0], [352, 0, 0]]
    }, 
    {
      "op": "SliceChannel", 
      "name": "gru_t1__h2h_slice", 
      "attr": {"num_outputs": "3"}, 
      "inputs": [[366, 0, 0]]
    }, 
    {
      "op": "elemwise_add", 
      "name": "_plus4", 
      "inputs": [[347, 1, 0], [367, 1, 0]]
    }, 
    {
      "op": "Activation", 
      "name": "gru_t1__z_act", 
      "attr": {"act_type": "sigmoid"}, 
      "inputs": [[368, 0, 0]]
    }, 
    {
      "op": "_rminus_scalar", 
      "name": "_rminusscalar1", 
      "attr": {"scalar": "1.0"}, 
      "inputs": [[369, 0, 0]]
    }, 
    {
      "op": "elemwise_add", 
      "name": "_plus3", 
      "inputs": [[347, 0, 0], [367, 0, 0]]
    }, 
    {
      "op": "Activation", 
      "name": "gru_t1__r_act", 
      "attr": {"act_type": "sigmoid"}, 
      "inputs": [[371, 0, 0]]
    }, 
    {
      "op": "_mul", 
      "name": "_mul3", 
      "inputs": [[372, 0, 0], [367, 2, 0]]
    }, 
    {
      "op": "elemwise_add", 
      "name": "_plus5", 
      "inputs": [[347, 2, 0], [373, 0, 0]]
    }, 
    {
      "op": "Activation", 
      "name": "gru_t1__h_act", 
      "attr": {"act_type": "tanh"}, 
      "inputs": [[374, 0, 0]]
    }, 
    {
      "op": "_mul", 
      "name": "_mul4", 
      "inputs": [[370, 0, 0], [375, 0, 0]]
    }, 
    {
      "op": "_mul", 
      "name": "_mul5", 
      "inputs": [[369, 0, 0], [365, 0, 0]]
    }, 
    {
      "op": "elemwise_add", 
      "name": "gru_t1_out", 
      "inputs": [[376, 0, 0], [377, 0, 0]]
    }, 
    {
      "op": "FullyConnected", 
      "name": "gru_t2__h2h", 
      "attr": {"num_hidden": "3"}, 
      "inputs": [[378, 0, 0], [351, 0, 0], [352, 0, 0]]
    }, 
    {
      "op": "SliceChannel", 
      "name": "gru_t2__h2h_slice", 
      "attr": {"num_outputs": "3"}, 
      "inputs": [[379, 0, 0]]
    }, 
    {
      "op": "elemwise_add", 
      "name": "_plus7", 
      "inputs": [[345, 1, 0], [380, 1, 0]]
    }, 
    {
      "op": "Activation", 
      "name": "gru_t2__z_act", 
      "attr": {"act_type": "sigmoid"}, 
      "inputs": [[381, 0, 0]]
    }, 
    {
      "op": "_rminus_scalar", 
      "name": "_rminusscalar2", 
      "attr": {"scalar": "1.0"}, 
      "inputs": [[382, 0, 0]]
    }, 
    {
      "op": "elemwise_add", 
      "name": "_plus6", 
      "inputs": [[345, 0, 0], [380, 0, 0]]
    }, 
    {
      "op": "Activation", 
      "name": "gru_t2__r_act", 
      "attr": {"act_type": "sigmoid"}, 
      "inputs": [[384, 0, 0]]
    }, 
    {
      "op": "_mul", 
      "name": "_mul6", 
      "inputs": [[385, 0, 0], [380, 2, 0]]
    }, 
    {
      "op": "elemwise_add", 
      "name": "_plus8", 
      "inputs": [[345, 2, 0], [386, 0, 0]]
    }, 
    {
      "op": "Activation", 
      "name": "gru_t2__h_act", 
      "attr": {"act_type": "tanh"}, 
      "inputs": [[387, 0, 0]]
    }, 
    {
      "op": "_mul", 
      "name": "_mul7", 
      "inputs": [[383, 0, 0], [388, 0, 0]]
    }, 
    {
      "op": "_mul", 
      "name": "_mul8", 
      "inputs": [[382, 0, 0], [378, 0, 0]]
    }, 
    {
      "op": "elemwise_add", 
      "name": "gru_t2_out", 
      "inputs": [[389, 0, 0], [390, 0, 0]]
    }, 
    {
      "op": "FullyConnected", 
      "name": "gru_t3__h2h", 
      "attr": {"num_hidden": "3"}, 
      "inputs": [[391, 0, 0], [351, 0, 0], [352, 0, 0]]
    }, 
    {
      "op": "SliceChannel", 
      "name": "gru_t3__h2h_slice", 
      "attr": {"num_outputs": "3"}, 
      "inputs": [[392, 0, 0]]
    }, 
    {
      "op": "elemwise_add", 
      "name": "_plus10", 
      "inputs": [[343, 1, 0], [393, 1, 0]]
    }, 
    {
      "op": "Activation", 
      "name": "gru_t3__z_act", 
      "attr": {"act_type": "sigmoid"}, 
      "inputs": [[394, 0, 0]]
    }, 
    {
      "op": "_rminus_scalar", 
      "name": "_rminusscalar3", 
      "attr": {"scalar": "1.0"}, 
      "inputs": [[395, 0, 0]]
    }, 
    {
      "op": "elemwise_add", 
      "name": "_plus9", 
      "inputs": [[343, 0, 0], [393, 0, 0]]
    }, 
    {
      "op": "Activation", 
      "name": "gru_t3__r_act", 
      "attr": {"act_type": "sigmoid"}, 
      "inputs": [[397, 0, 0]]
    }, 
    {
      "op": "_mul", 
      "name": "_mul9", 
      "inputs": [[398, 0, 0], [393, 2, 0]]
    }, 
    {
      "op": "elemwise_add", 
      "name": "_plus11", 
      "inputs": [[343, 2, 0], [399, 0, 0]]
    }, 
    {
      "op": "Activation", 
      "name": "gru_t3__h_act", 
      "attr": {"act_type": "tanh"}, 
      "inputs": [[400, 0, 0]]
    }, 
    {
      "op": "_mul", 
      "name": "_mul10", 
      "inputs": [[396, 0, 0], [401, 0, 0]]
    }, 
    {
      "op": "_mul", 
      "name": "_mul11", 
      "inputs": [[395, 0, 0], [391, 0, 0]]
    }, 
    {
      "op": "elemwise_add", 
      "name": "gru_t3_out", 
      "inputs": [[402, 0, 0], [403, 0, 0]]
    }, 
    {
      "op": "FullyConnected", 
      "name": "gru_t4__h2h", 
      "attr": {"num_hidden": "3"}, 
      "inputs": [[404, 0, 0], [351, 0, 0], [352, 0, 0]]
    }, 
    {
      "op": "SliceChannel", 
      "name": "gru_t4__h2h_slice", 
      "attr": {"num_outputs": "3"}, 
      "inputs": [[405, 0, 0]]
    }, 
    {
      "op": "elemwise_add", 
      "name": "_plus13", 
      "inputs": [[341, 1, 0], [406, 1, 0]]
    }, 
    {
      "op": "Activation", 
      "name": "gru_t4__z_act", 
      "attr": {"act_type": "sigmoid"}, 
      "inputs": [[407, 0, 0]]
    }, 
    {
      "op": "_rminus_scalar", 
      "name": "_rminusscalar4", 
      "attr": {"scalar": "1.0"}, 
      "inputs": [[408, 0, 0]]
    }, 
    {
      "op": "elemwise_add", 
      "name": "_plus12", 
      "inputs": [[341, 0, 0], [406, 0, 0]]
    }, 
    {
      "op": "Activation", 
      "name": "gru_t4__r_act", 
      "attr": {"act_type": "sigmoid"}, 
      "inputs": [[410, 0, 0]]
    }, 
    {
      "op": "_mul", 
      "name": "_mul12", 
      "inputs": [[411, 0, 0], [406, 2, 0]]
    }, 
    {
      "op": "elemwise_add", 
      "name": "_plus14", 
      "inputs": [[341, 2, 0], [412, 0, 0]]
    }, 
    {
      "op": "Activation", 
      "name": "gru_t4__h_act", 
      "attr": {"act_type": "tanh"}, 
      "inputs": [[413, 0, 0]]
    }, 
    {
      "op": "_mul", 
      "name": "_mul13", 
      "inputs": [[409, 0, 0], [414, 0, 0]]
    }, 
    {
      "op": "_mul", 
      "name": "_mul14", 
      "inputs": [[408, 0, 0], [404, 0, 0]]
    }, 
    {
      "op": "elemwise_add", 
      "name": "gru_t4_out", 
      "inputs": [[415, 0, 0], [416, 0, 0]]
    }, 
    {
      "op": "FullyConnected", 
      "name": "gru_t5__h2h", 
      "attr": {"num_hidden": "3"}, 
      "inputs": [[417, 0, 0], [351, 0, 0], [352, 0, 0]]
    }, 
    {
      "op": "SliceChannel", 
      "name": "gru_t5__h2h_slice", 
      "attr": {"num_outputs": "3"}, 
      "inputs": [[418, 0, 0]]
    }, 
    {
      "op": "elemwise_add", 
      "name": "_plus16", 
      "inputs": [[339, 1, 0], [419, 1, 0]]
    }, 
    {
      "op": "Activation", 
      "name": "gru_t5__z_act", 
      "attr": {"act_type": "sigmoid"}, 
      "inputs": [[420, 0, 0]]
    }, 
    {
      "op": "_rminus_scalar", 
      "name": "_rminusscalar5", 
      "attr": {"scalar": "1.0"}, 
      "inputs": [[421, 0, 0]]
    }, 
    {
      "op": "elemwise_add", 
      "name": "_plus15", 
      "inputs": [[339, 0, 0], [419, 0, 0]]
    }, 
    {
      "op": "Activation", 
      "name": "gru_t5__r_act", 
      "attr": {"act_type": "sigmoid"}, 
      "inputs": [[423, 0, 0]]
    }, 
    {
      "op": "_mul", 
      "name": "_mul15", 
      "inputs": [[424, 0, 0], [419, 2, 0]]
    }, 
    {
      "op": "elemwise_add", 
      "name": "_plus17", 
      "inputs": [[339, 2, 0], [425, 0, 0]]
    }, 
    {
      "op": "Activation", 
      "name": "gru_t5__h_act", 
      "attr": {"act_type": "tanh"}, 
      "inputs": [[426, 0, 0]]
    }, 
    {
      "op": "_mul", 
      "name": "_mul16", 
      "inputs": [[422, 0, 0], [427, 0, 0]]
    }, 
    {
      "op": "_mul", 
      "name": "_mul17", 
      "inputs": [[421, 0, 0], [417, 0, 0]]
    }, 
    {
      "op": "elemwise_add", 
      "name": "gru_t5_out", 
      "inputs": [[428, 0, 0], [429, 0, 0]]
    }, 
    {
      "op": "FullyConnected", 
      "name": "gru_t6__h2h", 
      "attr": {"num_hidden": "3"}, 
      "inputs": [[430, 0, 0], [351, 0, 0], [352, 0, 0]]
    }, 
    {
      "op": "SliceChannel", 
      "name": "gru_t6__h2h_slice", 
      "attr": {"num_outputs": "3"}, 
      "inputs": [[431, 0, 0]]
    }, 
    {
      "op": "elemwise_add", 
      "name": "_plus19", 
      "inputs": [[337, 1, 0], [432, 1, 0]]
    }, 
    {
      "op": "Activation", 
      "name": "gru_t6__z_act", 
      "attr": {"act_type": "sigmoid"}, 
      "inputs": [[433, 0, 0]]
    }, 
    {
      "op": "_rminus_scalar", 
      "name": "_rminusscalar6", 
      "attr": {"scalar": "1.0"}, 
      "inputs": [[434, 0, 0]]
    }, 
    {
      "op": "elemwise_add", 
      "name": "_plus18", 
      "inputs": [[337, 0, 0], [432, 0, 0]]
    }, 
    {
      "op": "Activation", 
      "name": "gru_t6__r_act", 
      "attr": {"act_type": "sigmoid"}, 
      "inputs": [[436, 0, 0]]
    }, 
    {
      "op": "_mul", 
      "name": "_mul18", 
      "inputs": [[437, 0, 0], [432, 2, 0]]
    }, 
    {
      "op": "elemwise_add", 
      "name": "_plus20", 
      "inputs": [[337, 2, 0], [438, 0, 0]]
    }, 
    {
      "op": "Activation", 
      "name": "gru_t6__h_act", 
      "attr": {"act_type": "tanh"}, 
      "inputs": [[439, 0, 0]]
    }, 
    {
      "op": "_mul", 
      "name": "_mul19", 
      "inputs": [[435, 0, 0], [440, 0, 0]]
    }, 
    {
      "op": "_mul", 
      "name": "_mul20", 
      "inputs": [[434, 0, 0], [430, 0, 0]]
    }, 
    {
      "op": "elemwise_add", 
      "name": "gru_t6_out", 
      "inputs": [[441, 0, 0], [442, 0, 0]]
    }, 
    {
      "op": "FullyConnected", 
      "name": "gru_t7__h2h", 
      "attr": {"num_hidden": "3"}, 
      "inputs": [[443, 0, 0], [351, 0, 0], [352, 0, 0]]
    }, 
    {
      "op": "SliceChannel", 
      "name": "gru_t7__h2h_slice", 
      "attr": {"num_outputs": "3"}, 
      "inputs": [[444, 0, 0]]
    }, 
    {
      "op": "elemwise_add", 
      "name": "_plus22", 
      "inputs": [[335, 1, 0], [445, 1, 0]]
    }, 
    {
      "op": "Activation", 
      "name": "gru_t7__z_act", 
      "attr": {"act_type": "sigmoid"}, 
      "inputs": [[446, 0, 0]]
    }, 
    {
      "op": "_rminus_scalar", 
      "name": "_rminusscalar7", 
      "attr": {"scalar": "1.0"}, 
      "inputs": [[447, 0, 0]]
    }, 
    {
      "op": "elemwise_add", 
      "name": "_plus21", 
      "inputs": [[335, 0, 0], [445, 0, 0]]
    }, 
    {
      "op": "Activation", 
      "name": "gru_t7__r_act", 
      "attr": {"act_type": "sigmoid"}, 
      "inputs": [[449, 0, 0]]
    }, 
    {
      "op": "_mul", 
      "name": "_mul21", 
      "inputs": [[450, 0, 0], [445, 2, 0]]
    }, 
    {
      "op": "elemwise_add", 
      "name": "_plus23", 
      "inputs": [[335, 2, 0], [451, 0, 0]]
    }, 
    {
      "op": "Activation", 
      "name": "gru_t7__h_act", 
      "attr": {"act_type": "tanh"}, 
      "inputs": [[452, 0, 0]]
    }, 
    {
      "op": "_mul", 
      "name": "_mul22", 
      "inputs": [[448, 0, 0], [453, 0, 0]]
    }, 
    {
      "op": "_mul", 
      "name": "_mul23", 
      "inputs": [[447, 0, 0], [443, 0, 0]]
    }, 
    {
      "op": "elemwise_add", 
      "name": "gru_t7_out", 
      "inputs": [[454, 0, 0], [455, 0, 0]]
    }, 
    {
      "op": "FullyConnected", 
      "name": "gru_t8__h2h", 
      "attr": {"num_hidden": "3"}, 
      "inputs": [[456, 0, 0], [351, 0, 0], [352, 0, 0]]
    }, 
    {
      "op": "SliceChannel", 
      "name": "gru_t8__h2h_slice", 
      "attr": {"num_outputs": "3"}, 
      "inputs": [[457, 0, 0]]
    }, 
    {
      "op": "elemwise_add", 
      "name": "_plus25", 
      "inputs": [[333, 1, 0], [458, 1, 0]]
    }, 
    {
      "op": "Activation", 
      "name": "gru_t8__z_act", 
      "attr": {"act_type": "sigmoid"}, 
      "inputs": [[459, 0, 0]]
    }, 
    {
      "op": "_rminus_scalar", 
      "name": "_rminusscalar8", 
      "attr": {"scalar": "1.0"}, 
      "inputs": [[460, 0, 0]]
    }, 
    {
      "op": "elemwise_add", 
      "name": "_plus24", 
      "inputs": [[333, 0, 0], [458, 0, 0]]
    }, 
    {
      "op": "Activation", 
      "name": "gru_t8__r_act", 
      "attr": {"act_type": "sigmoid"}, 
      "inputs": [[462, 0, 0]]
    }, 
    {
      "op": "_mul", 
      "name": "_mul24", 
      "inputs": [[463, 0, 0], [458, 2, 0]]
    }, 
    {
      "op": "elemwise_add", 
      "name": "_plus26", 
      "inputs": [[333, 2, 0], [464, 0, 0]]
    }, 
    {
      "op": "Activation", 
      "name": "gru_t8__h_act", 
      "attr": {"act_type": "tanh"}, 
      "inputs": [[465, 0, 0]]
    }, 
    {
      "op": "_mul", 
      "name": "_mul25", 
      "inputs": [[461, 0, 0], [466, 0, 0]]
    }, 
    {
      "op": "_mul", 
      "name": "_mul26", 
      "inputs": [[460, 0, 0], [456, 0, 0]]
    }, 
    {
      "op": "elemwise_add", 
      "name": "gru_t8_out", 
      "inputs": [[467, 0, 0], [468, 0, 0]]
    }, 
    {
      "op": "FullyConnected", 
      "name": "gru_t9__h2h", 
      "attr": {"num_hidden": "3"}, 
      "inputs": [[469, 0, 0], [351, 0, 0], [352, 0, 0]]
    }, 
    {
      "op": "SliceChannel", 
      "name": "gru_t9__h2h_slice", 
      "attr": {"num_outputs": "3"}, 
      "inputs": [[470, 0, 0]]
    }, 
    {
      "op": "elemwise_add", 
      "name": "_plus28", 
      "inputs": [[331, 1, 0], [471, 1, 0]]
    }, 
    {
      "op": "Activation", 
      "name": "gru_t9__z_act", 
      "attr": {"act_type": "sigmoid"}, 
      "inputs": [[472, 0, 0]]
    }, 
    {
      "op": "_rminus_scalar", 
      "name": "_rminusscalar9", 
      "attr": {"scalar": "1.0"}, 
      "inputs": [[473, 0, 0]]
    }, 
    {
      "op": "elemwise_add", 
      "name": "_plus27", 
      "inputs": [[331, 0, 0], [471, 0, 0]]
    }, 
    {
      "op": "Activation", 
      "name": "gru_t9__r_act", 
      "attr": {"act_type": "sigmoid"}, 
      "inputs": [[475, 0, 0]]
    }, 
    {
      "op": "_mul", 
      "name": "_mul27", 
      "inputs": [[476, 0, 0], [471, 2, 0]]
    }, 
    {
      "op": "elemwise_add", 
      "name": "_plus29", 
      "inputs": [[331, 2, 0], [477, 0, 0]]
    }, 
    {
      "op": "Activation", 
      "name": "gru_t9__h_act", 
      "attr": {"act_type": "tanh"}, 
      "inputs": [[478, 0, 0]]
    }, 
    {
      "op": "_mul", 
      "name": "_mul28", 
      "inputs": [[474, 0, 0], [479, 0, 0]]
    }, 
    {
      "op": "_mul", 
      "name": "_mul29", 
      "inputs": [[473, 0, 0], [469, 0, 0]]
    }, 
    {
      "op": "elemwise_add", 
      "name": "gru_t9_out", 
      "inputs": [[480, 0, 0], [481, 0, 0]]
    }, 
    {
      "op": "FullyConnected", 
      "name": "gru_t10__h2h", 
      "attr": {"num_hidden": "3"}, 
      "inputs": [[482, 0, 0], [351, 0, 0], [352, 0, 0]]
    }, 
    {
      "op": "SliceChannel", 
      "name": "gru_t10__h2h_slice", 
      "attr": {"num_outputs": "3"}, 
      "inputs": [[483, 0, 0]]
    }, 
    {
      "op": "elemwise_add", 
      "name": "_plus31", 
      "inputs": [[329, 1, 0], [484, 1, 0]]
    }, 
    {
      "op": "Activation", 
      "name": "gru_t10__z_act", 
      "attr": {"act_type": "sigmoid"}, 
      "inputs": [[485, 0, 0]]
    }, 
    {
      "op": "_rminus_scalar", 
      "name": "_rminusscalar10", 
      "attr": {"scalar": "1.0"}, 
      "inputs": [[486, 0, 0]]
    }, 
    {
      "op": "elemwise_add", 
      "name": "_plus30", 
      "inputs": [[329, 0, 0], [484, 0, 0]]
    }, 
    {
      "op": "Activation", 
      "name": "gru_t10__r_act", 
      "attr": {"act_type": "sigmoid"}, 
      "inputs": [[488, 0, 0]]
    }, 
    {
      "op": "_mul", 
      "name": "_mul30", 
      "inputs": [[489, 0, 0], [484, 2, 0]]
    }, 
    {
      "op": "elemwise_add", 
      "name": "_plus32", 
      "inputs": [[329, 2, 0], [490, 0, 0]]
    }, 
    {
      "op": "Activation", 
      "name": "gru_t10__h_act", 
      "attr": {"act_type": "tanh"}, 
      "inputs": [[491, 0, 0]]
    }, 
    {
      "op": "_mul", 
      "name": "_mul31", 
      "inputs": [[487, 0, 0], [492, 0, 0]]
    }, 
    {
      "op": "_mul", 
      "name": "_mul32", 
      "inputs": [[486, 0, 0], [482, 0, 0]]
    }, 
    {
      "op": "elemwise_add", 
      "name": "gru_t10_out", 
      "inputs": [[493, 0, 0], [494, 0, 0]]
    }, 
    {
      "op": "FullyConnected", 
      "name": "gru_t11__h2h", 
      "attr": {"num_hidden": "3"}, 
      "inputs": [[495, 0, 0], [351, 0, 0], [352, 0, 0]]
    }, 
    {
      "op": "SliceChannel", 
      "name": "gru_t11__h2h_slice", 
      "attr": {"num_outputs": "3"}, 
      "inputs": [[496, 0, 0]]
    }, 
    {
      "op": "elemwise_add", 
      "name": "_plus34", 
      "inputs": [[327, 1, 0], [497, 1, 0]]
    }, 
    {
      "op": "Activation", 
      "name": "gru_t11__z_act", 
      "attr": {"act_type": "sigmoid"}, 
      "inputs": [[498, 0, 0]]
    }, 
    {
      "op": "_rminus_scalar", 
      "name": "_rminusscalar11", 
      "attr": {"scalar": "1.0"}, 
      "inputs": [[499, 0, 0]]
    }, 
    {
      "op": "elemwise_add", 
      "name": "_plus33", 
      "inputs": [[327, 0, 0], [497, 0, 0]]
    }, 
    {
      "op": "Activation", 
      "name": "gru_t11__r_act", 
      "attr": {"act_type": "sigmoid"}, 
      "inputs": [[501, 0, 0]]
    }, 
    {
      "op": "_mul", 
      "name": "_mul33", 
      "inputs": [[502, 0, 0], [497, 2, 0]]
    }, 
    {
      "op": "elemwise_add", 
      "name": "_plus35", 
      "inputs": [[327, 2, 0], [503, 0, 0]]
    }, 
    {
      "op": "Activation", 
      "name": "gru_t11__h_act", 
      "attr": {"act_type": "tanh"}, 
      "inputs": [[504, 0, 0]]
    }, 
    {
      "op": "_mul", 
      "name": "_mul34", 
      "inputs": [[500, 0, 0], [505, 0, 0]]
    }, 
    {
      "op": "_mul", 
      "name": "_mul35", 
      "inputs": [[499, 0, 0], [495, 0, 0]]
    }, 
    {
      "op": "elemwise_add", 
      "name": "gru_t11_out", 
      "inputs": [[506, 0, 0], [507, 0, 0]]
    }, 
    {
      "op": "FullyConnected", 
      "name": "gru_t12__h2h", 
      "attr": {"num_hidden": "3"}, 
      "inputs": [[508, 0, 0], [351, 0, 0], [352, 0, 0]]
    }, 
    {
      "op": "SliceChannel", 
      "name": "gru_t12__h2h_slice", 
      "attr": {"num_outputs": "3"}, 
      "inputs": [[509, 0, 0]]
    }, 
    {
      "op": "elemwise_add", 
      "name": "_plus37", 
      "inputs": [[325, 1, 0], [510, 1, 0]]
    }, 
    {
      "op": "Activation", 
      "name": "gru_t12__z_act", 
      "attr": {"act_type": "sigmoid"}, 
      "inputs": [[511, 0, 0]]
    }, 
    {
      "op": "_rminus_scalar", 
      "name": "_rminusscalar12", 
      "attr": {"scalar": "1.0"}, 
      "inputs": [[512, 0, 0]]
    }, 
    {
      "op": "elemwise_add", 
      "name": "_plus36", 
      "inputs": [[325, 0, 0], [510, 0, 0]]
    }, 
    {
      "op": "Activation", 
      "name": "gru_t12__r_act", 
      "attr": {"act_type": "sigmoid"}, 
      "inputs": [[514, 0, 0]]
    }, 
    {
      "op": "_mul", 
      "name": "_mul36", 
      "inputs": [[515, 0, 0], [510, 2, 0]]
    }, 
    {
      "op": "elemwise_add", 
      "name": "_plus38", 
      "inputs": [[325, 2, 0], [516, 0, 0]]
    }, 
    {
      "op": "Activation", 
      "name": "gru_t12__h_act", 
      "attr": {"act_type": "tanh"}, 
      "inputs": [[517, 0, 0]]
    }, 
    {
      "op": "_mul", 
      "name": "_mul37", 
      "inputs": [[513, 0, 0], [518, 0, 0]]
    }, 
    {
      "op": "_mul", 
      "name": "_mul38", 
      "inputs": [[512, 0, 0], [508, 0, 0]]
    }, 
    {
      "op": "elemwise_add", 
      "name": "gru_t12_out", 
      "inputs": [[519, 0, 0], [520, 0, 0]]
    }, 
    {
      "op": "FullyConnected", 
      "name": "gru_t13__h2h", 
      "attr": {"num_hidden": "3"}, 
      "inputs": [[521, 0, 0], [351, 0, 0], [352, 0, 0]]
    }, 
    {
      "op": "SliceChannel", 
      "name": "gru_t13__h2h_slice", 
      "attr": {"num_outputs": "3"}, 
      "inputs": [[522, 0, 0]]
    }, 
    {
      "op": "elemwise_add", 
      "name": "_plus40", 
      "inputs": [[323, 1, 0], [523, 1, 0]]
    }, 
    {
      "op": "Activation", 
      "name": "gru_t13__z_act", 
      "attr": {"act_type": "sigmoid"}, 
      "inputs": [[524, 0, 0]]
    }, 
    {
      "op": "_rminus_scalar", 
      "name": "_rminusscalar13", 
      "attr": {"scalar": "1.0"}, 
      "inputs": [[525, 0, 0]]
    }, 
    {
      "op": "elemwise_add", 
      "name": "_plus39", 
      "inputs": [[323, 0, 0], [523, 0, 0]]
    }, 
    {
      "op": "Activation", 
      "name": "gru_t13__r_act", 
      "attr": {"act_type": "sigmoid"}, 
      "inputs": [[527, 0, 0]]
    }, 
    {
      "op": "_mul", 
      "name": "_mul39", 
      "inputs": [[528, 0, 0], [523, 2, 0]]
    }, 
    {
      "op": "elemwise_add", 
      "name": "_plus41", 
      "inputs": [[323, 2, 0], [529, 0, 0]]
    }, 
    {
      "op": "Activation", 
      "name": "gru_t13__h_act", 
      "attr": {"act_type": "tanh"}, 
      "inputs": [[530, 0, 0]]
    }, 
    {
      "op": "_mul", 
      "name": "_mul40", 
      "inputs": [[526, 0, 0], [531, 0, 0]]
    }, 
    {
      "op": "_mul", 
      "name": "_mul41", 
      "inputs": [[525, 0, 0], [521, 0, 0]]
    }, 
    {
      "op": "elemwise_add", 
      "name": "gru_t13_out", 
      "inputs": [[532, 0, 0], [533, 0, 0]]
    }, 
    {
      "op": "FullyConnected", 
      "name": "gru_t14__h2h", 
      "attr": {"num_hidden": "3"}, 
      "inputs": [[534, 0, 0], [351, 0, 0], [352, 0, 0]]
    }, 
    {
      "op": "SliceChannel", 
      "name": "gru_t14__h2h_slice", 
      "attr": {"num_outputs": "3"}, 
      "inputs": [[535, 0, 0]]
    }, 
    {
      "op": "elemwise_add", 
      "name": "_plus43", 
      "inputs": [[321, 1, 0], [536, 1, 0]]
    }, 
    {
      "op": "Activation", 
      "name": "gru_t14__z_act", 
      "attr": {"act_type": "sigmoid"}, 
      "inputs": [[537, 0, 0]]
    }, 
    {
      "op": "_rminus_scalar", 
      "name": "_rminusscalar14", 
      "attr": {"scalar": "1.0"}, 
      "inputs": [[538, 0, 0]]
    }, 
    {
      "op": "elemwise_add", 
      "name": "_plus42", 
      "inputs": [[321, 0, 0], [536, 0, 0]]
    }, 
    {
      "op": "Activation", 
      "name": "gru_t14__r_act", 
      "attr": {"act_type": "sigmoid"}, 
      "inputs": [[540, 0, 0]]
    }, 
    {
      "op": "_mul", 
      "name": "_mul42", 
      "inputs": [[541, 0, 0], [536, 2, 0]]
    }, 
    {
      "op": "elemwise_add", 
      "name": "_plus44", 
      "inputs": [[321, 2, 0], [542, 0, 0]]
    }, 
    {
      "op": "Activation", 
      "name": "gru_t14__h_act", 
      "attr": {"act_type": "tanh"}, 
      "inputs": [[543, 0, 0]]
    }, 
    {
      "op": "_mul", 
      "name": "_mul43", 
      "inputs": [[539, 0, 0], [544, 0, 0]]
    }, 
    {
      "op": "_mul", 
      "name": "_mul44", 
      "inputs": [[538, 0, 0], [534, 0, 0]]
    }, 
    {
      "op": "elemwise_add", 
      "name": "gru_t14_out", 
      "inputs": [[545, 0, 0], [546, 0, 0]]
    }, 
    {
      "op": "FullyConnected", 
      "name": "gru_t15__h2h", 
      "attr": {"num_hidden": "3"}, 
      "inputs": [[547, 0, 0], [351, 0, 0], [352, 0, 0]]
    }, 
    {
      "op": "SliceChannel", 
      "name": "gru_t15__h2h_slice", 
      "attr": {"num_outputs": "3"}, 
      "inputs": [[548, 0, 0]]
    }, 
    {
      "op": "elemwise_add", 
      "name": "_plus46", 
      "inputs": [[319, 1, 0], [549, 1, 0]]
    }, 
    {
      "op": "Activation", 
      "name": "gru_t15__z_act", 
      "attr": {"act_type": "sigmoid"}, 
      "inputs": [[550, 0, 0]]
    }, 
    {
      "op": "_rminus_scalar", 
      "name": "_rminusscalar15", 
      "attr": {"scalar": "1.0"}, 
      "inputs": [[551, 0, 0]]
    }, 
    {
      "op": "elemwise_add", 
      "name": "_plus45", 
      "inputs": [[319, 0, 0], [549, 0, 0]]
    }, 
    {
      "op": "Activation", 
      "name": "gru_t15__r_act", 
      "attr": {"act_type": "sigmoid"}, 
      "inputs": [[553, 0, 0]]
    }, 
    {
      "op": "_mul", 
      "name": "_mul45", 
      "inputs": [[554, 0, 0], [549, 2, 0]]
    }, 
    {
      "op": "elemwise_add", 
      "name": "_plus47", 
      "inputs": [[319, 2, 0], [555, 0, 0]]
    }, 
    {
      "op": "Activation", 
      "name": "gru_t15__h_act", 
      "attr": {"act_type": "tanh"}, 
      "inputs": [[556, 0, 0]]
    }, 
    {
      "op": "_mul", 
      "name": "_mul46", 
      "inputs": [[552, 0, 0], [557, 0, 0]]
    }, 
    {
      "op": "_mul", 
      "name": "_mul47", 
      "inputs": [[551, 0, 0], [547, 0, 0]]
    }, 
    {
      "op": "elemwise_add", 
      "name": "gru_t15_out", 
      "inputs": [[558, 0, 0], [559, 0, 0]]
    }, 
    {
      "op": "FullyConnected", 
      "name": "gru_t16__h2h", 
      "attr": {"num_hidden": "3"}, 
      "inputs": [[560, 0, 0], [351, 0, 0], [352, 0, 0]]
    }, 
    {
      "op": "SliceChannel", 
      "name": "gru_t16__h2h_slice", 
      "attr": {"num_outputs": "3"}, 
      "inputs": [[561, 0, 0]]
    }, 
    {
      "op": "elemwise_add", 
      "name": "_plus49", 
      "inputs": [[317, 1, 0], [562, 1, 0]]
    }, 
    {
      "op": "Activation", 
      "name": "gru_t16__z_act", 
      "attr": {"act_type": "sigmoid"}, 
      "inputs": [[563, 0, 0]]
    }, 
    {
      "op": "_rminus_scalar", 
      "name": "_rminusscalar16", 
      "attr": {"scalar": "1.0"}, 
      "inputs": [[564, 0, 0]]
    }, 
    {
      "op": "elemwise_add", 
      "name": "_plus48", 
      "inputs": [[317, 0, 0], [562, 0, 0]]
    }, 
    {
      "op": "Activation", 
      "name": "gru_t16__r_act", 
      "attr": {"act_type": "sigmoid"}, 
      "inputs": [[566, 0, 0]]
    }, 
    {
      "op": "_mul", 
      "name": "_mul48", 
      "inputs": [[567, 0, 0], [562, 2, 0]]
    }, 
    {
      "op": "elemwise_add", 
      "name": "_plus50", 
      "inputs": [[317, 2, 0], [568, 0, 0]]
    }, 
    {
      "op": "Activation", 
      "name": "gru_t16__h_act", 
      "attr": {"act_type": "tanh"}, 
      "inputs": [[569, 0, 0]]
    }, 
    {
      "op": "_mul", 
      "name": "_mul49", 
      "inputs": [[565, 0, 0], [570, 0, 0]]
    }, 
    {
      "op": "_mul", 
      "name": "_mul50", 
      "inputs": [[564, 0, 0], [560, 0, 0]]
    }, 
    {
      "op": "elemwise_add", 
      "name": "gru_t16_out", 
      "inputs": [[571, 0, 0], [572, 0, 0]]
    }, 
    {
      "op": "FullyConnected", 
      "name": "gru_t17__h2h", 
      "attr": {"num_hidden": "3"}, 
      "inputs": [[573, 0, 0], [351, 0, 0], [352, 0, 0]]
    }, 
    {
      "op": "SliceChannel", 
      "name": "gru_t17__h2h_slice", 
      "attr": {"num_outputs": "3"}, 
      "inputs": [[574, 0, 0]]
    }, 
    {
      "op": "elemwise_add", 
      "name": "_plus52", 
      "inputs": [[315, 1, 0], [575, 1, 0]]
    }, 
    {
      "op": "Activation", 
      "name": "gru_t17__z_act", 
      "attr": {"act_type": "sigmoid"}, 
      "inputs": [[576, 0, 0]]
    }, 
    {
      "op": "_rminus_scalar", 
      "name": "_rminusscalar17", 
      "attr": {"scalar": "1.0"}, 
      "inputs": [[577, 0, 0]]
    }, 
    {
      "op": "elemwise_add", 
      "name": "_plus51", 
      "inputs": [[315, 0, 0], [575, 0, 0]]
    }, 
    {
      "op": "Activation", 
      "name": "gru_t17__r_act", 
      "attr": {"act_type": "sigmoid"}, 
      "inputs": [[579, 0, 0]]
    }, 
    {
      "op": "_mul", 
      "name": "_mul51", 
      "inputs": [[580, 0, 0], [575, 2, 0]]
    }, 
    {
      "op": "elemwise_add", 
      "name": "_plus53", 
      "inputs": [[315, 2, 0], [581, 0, 0]]
    }, 
    {
      "op": "Activation", 
      "name": "gru_t17__h_act", 
      "attr": {"act_type": "tanh"}, 
      "inputs": [[582, 0, 0]]
    }, 
    {
      "op": "_mul", 
      "name": "_mul52", 
      "inputs": [[578, 0, 0], [583, 0, 0]]
    }, 
    {
      "op": "_mul", 
      "name": "_mul53", 
      "inputs": [[577, 0, 0], [573, 0, 0]]
    }, 
    {
      "op": "elemwise_add", 
      "name": "gru_t17_out", 
      "inputs": [[584, 0, 0], [585, 0, 0]]
    }, 
    {
      "op": "FullyConnected", 
      "name": "gru_t18__h2h", 
      "attr": {"num_hidden": "3"}, 
      "inputs": [[586, 0, 0], [351, 0, 0], [352, 0, 0]]
    }, 
    {
      "op": "SliceChannel", 
      "name": "gru_t18__h2h_slice", 
      "attr": {"num_outputs": "3"}, 
      "inputs": [[587, 0, 0]]
    }, 
    {
      "op": "elemwise_add", 
      "name": "_plus55", 
      "inputs": [[313, 1, 0], [588, 1, 0]]
    }, 
    {
      "op": "Activation", 
      "name": "gru_t18__z_act", 
      "attr": {"act_type": "sigmoid"}, 
      "inputs": [[589, 0, 0]]
    }, 
    {
      "op": "_rminus_scalar", 
      "name": "_rminusscalar18", 
      "attr": {"scalar": "1.0"}, 
      "inputs": [[590, 0, 0]]
    }, 
    {
      "op": "elemwise_add", 
      "name": "_plus54", 
      "inputs": [[313, 0, 0], [588, 0, 0]]
    }, 
    {
      "op": "Activation", 
      "name": "gru_t18__r_act", 
      "attr": {"act_type": "sigmoid"}, 
      "inputs": [[592, 0, 0]]
    }, 
    {
      "op": "_mul", 
      "name": "_mul54", 
      "inputs": [[593, 0, 0], [588, 2, 0]]
    }, 
    {
      "op": "elemwise_add", 
      "name": "_plus56", 
      "inputs": [[313, 2, 0], [594, 0, 0]]
    }, 
    {
      "op": "Activation", 
      "name": "gru_t18__h_act", 
      "attr": {"act_type": "tanh"}, 
      "inputs": [[595, 0, 0]]
    }, 
    {
      "op": "_mul", 
      "name": "_mul55", 
      "inputs": [[591, 0, 0], [596, 0, 0]]
    }, 
    {
      "op": "_mul", 
      "name": "_mul56", 
      "inputs": [[590, 0, 0], [586, 0, 0]]
    }, 
    {
      "op": "elemwise_add", 
      "name": "gru_t18_out", 
      "inputs": [[597, 0, 0], [598, 0, 0]]
    }, 
    {
      "op": "FullyConnected", 
      "name": "gru_t19__h2h", 
      "attr": {"num_hidden": "3"}, 
      "inputs": [[599, 0, 0], [351, 0, 0], [352, 0, 0]]
    }, 
    {
      "op": "SliceChannel", 
      "name": "gru_t19__h2h_slice", 
      "attr": {"num_outputs": "3"}, 
      "inputs": [[600, 0, 0]]
    }, 
    {
      "op": "elemwise_add", 
      "name": "_plus58", 
      "inputs": [[311, 1, 0], [601, 1, 0]]
    }, 
    {
      "op": "Activation", 
      "name": "gru_t19__z_act", 
      "attr": {"act_type": "sigmoid"}, 
      "inputs": [[602, 0, 0]]
    }, 
    {
      "op": "_rminus_scalar", 
      "name": "_rminusscalar19", 
      "attr": {"scalar": "1.0"}, 
      "inputs": [[603, 0, 0]]
    }, 
    {
      "op": "elemwise_add", 
      "name": "_plus57", 
      "inputs": [[311, 0, 0], [601, 0, 0]]
    }, 
    {
      "op": "Activation", 
      "name": "gru_t19__r_act", 
      "attr": {"act_type": "sigmoid"}, 
      "inputs": [[605, 0, 0]]
    }, 
    {
      "op": "_mul", 
      "name": "_mul57", 
      "inputs": [[606, 0, 0], [601, 2, 0]]
    }, 
    {
      "op": "elemwise_add", 
      "name": "_plus59", 
      "inputs": [[311, 2, 0], [607, 0, 0]]
    }, 
    {
      "op": "Activation", 
      "name": "gru_t19__h_act", 
      "attr": {"act_type": "tanh"}, 
      "inputs": [[608, 0, 0]]
    }, 
    {
      "op": "_mul", 
      "name": "_mul58", 
      "inputs": [[604, 0, 0], [609, 0, 0]]
    }, 
    {
      "op": "_mul", 
      "name": "_mul59", 
      "inputs": [[603, 0, 0], [599, 0, 0]]
    }, 
    {
      "op": "elemwise_add", 
      "name": "gru_t19_out", 
      "inputs": [[610, 0, 0], [611, 0, 0]]
    }, 
    {
      "op": "FullyConnected", 
      "name": "gru_t20__h2h", 
      "attr": {"num_hidden": "3"}, 
      "inputs": [[612, 0, 0], [351, 0, 0], [352, 0, 0]]
    }, 
    {
      "op": "SliceChannel", 
      "name": "gru_t20__h2h_slice", 
      "attr": {"num_outputs": "3"}, 
      "inputs": [[613, 0, 0]]
    }, 
    {
      "op": "elemwise_add", 
      "name": "_plus61", 
      "inputs": [[309, 1, 0], [614, 1, 0]]
    }, 
    {
      "op": "Activation", 
      "name": "gru_t20__z_act", 
      "attr": {"act_type": "sigmoid"}, 
      "inputs": [[615, 0, 0]]
    }, 
    {
      "op": "_rminus_scalar", 
      "name": "_rminusscalar20", 
      "attr": {"scalar": "1.0"}, 
      "inputs": [[616, 0, 0]]
    }, 
    {
      "op": "elemwise_add", 
      "name": "_plus60", 
      "inputs": [[309, 0, 0], [614, 0, 0]]
    }, 
    {
      "op": "Activation", 
      "name": "gru_t20__r_act", 
      "attr": {"act_type": "sigmoid"}, 
      "inputs": [[618, 0, 0]]
    }, 
    {
      "op": "_mul", 
      "name": "_mul60", 
      "inputs": [[619, 0, 0], [614, 2, 0]]
    }, 
    {
      "op": "elemwise_add", 
      "name": "_plus62", 
      "inputs": [[309, 2, 0], [620, 0, 0]]
    }, 
    {
      "op": "Activation", 
      "name": "gru_t20__h_act", 
      "attr": {"act_type": "tanh"}, 
      "inputs": [[621, 0, 0]]
    }, 
    {
      "op": "_mul", 
      "name": "_mul61", 
      "inputs": [[617, 0, 0], [622, 0, 0]]
    }, 
    {
      "op": "_mul", 
      "name": "_mul62", 
      "inputs": [[616, 0, 0], [612, 0, 0]]
    }, 
    {
      "op": "elemwise_add", 
      "name": "gru_t20_out", 
      "inputs": [[623, 0, 0], [624, 0, 0]]
    }, 
    {
      "op": "FullyConnected", 
      "name": "gru_t21__h2h", 
      "attr": {"num_hidden": "3"}, 
      "inputs": [[625, 0, 0], [351, 0, 0], [352, 0, 0]]
    }, 
    {
      "op": "SliceChannel", 
      "name": "gru_t21__h2h_slice", 
      "attr": {"num_outputs": "3"}, 
      "inputs": [[626, 0, 0]]
    }, 
    {
      "op": "elemwise_add", 
      "name": "_plus64", 
      "inputs": [[307, 1, 0], [627, 1, 0]]
    }, 
    {
      "op": "Activation", 
      "name": "gru_t21__z_act", 
      "attr": {"act_type": "sigmoid"}, 
      "inputs": [[628, 0, 0]]
    }, 
    {
      "op": "_rminus_scalar", 
      "name": "_rminusscalar21", 
      "attr": {"scalar": "1.0"}, 
      "inputs": [[629, 0, 0]]
    }, 
    {
      "op": "elemwise_add", 
      "name": "_plus63", 
      "inputs": [[307, 0, 0], [627, 0, 0]]
    }, 
    {
      "op": "Activation", 
      "name": "gru_t21__r_act", 
      "attr": {"act_type": "sigmoid"}, 
      "inputs": [[631, 0, 0]]
    }, 
    {
      "op": "_mul", 
      "name": "_mul63", 
      "inputs": [[632, 0, 0], [627, 2, 0]]
    }, 
    {
      "op": "elemwise_add", 
      "name": "_plus65", 
      "inputs": [[307, 2, 0], [633, 0, 0]]
    }, 
    {
      "op": "Activation", 
      "name": "gru_t21__h_act", 
      "attr": {"act_type": "tanh"}, 
      "inputs": [[634, 0, 0]]
    }, 
    {
      "op": "_mul", 
      "name": "_mul64", 
      "inputs": [[630, 0, 0], [635, 0, 0]]
    }, 
    {
      "op": "_mul", 
      "name": "_mul65", 
      "inputs": [[629, 0, 0], [625, 0, 0]]
    }, 
    {
      "op": "elemwise_add", 
      "name": "gru_t21_out", 
      "inputs": [[636, 0, 0], [637, 0, 0]]
    }, 
    {
      "op": "FullyConnected", 
      "name": "gru_t22__h2h", 
      "attr": {"num_hidden": "3"}, 
      "inputs": [[638, 0, 0], [351, 0, 0], [352, 0, 0]]
    }, 
    {
      "op": "SliceChannel", 
      "name": "gru_t22__h2h_slice", 
      "attr": {"num_outputs": "3"}, 
      "inputs": [[639, 0, 0]]
    }, 
    {
      "op": "elemwise_add", 
      "name": "_plus67", 
      "inputs": [[305, 1, 0], [640, 1, 0]]
    }, 
    {
      "op": "Activation", 
      "name": "gru_t22__z_act", 
      "attr": {"act_type": "sigmoid"}, 
      "inputs": [[641, 0, 0]]
    }, 
    {
      "op": "_rminus_scalar", 
      "name": "_rminusscalar22", 
      "attr": {"scalar": "1.0"}, 
      "inputs": [[642, 0, 0]]
    }, 
    {
      "op": "elemwise_add", 
      "name": "_plus66", 
      "inputs": [[305, 0, 0], [640, 0, 0]]
    }, 
    {
      "op": "Activation", 
      "name": "gru_t22__r_act", 
      "attr": {"act_type": "sigmoid"}, 
      "inputs": [[644, 0, 0]]
    }, 
    {
      "op": "_mul", 
      "name": "_mul66", 
      "inputs": [[645, 0, 0], [640, 2, 0]]
    }, 
    {
      "op": "elemwise_add", 
      "name": "_plus68", 
      "inputs": [[305, 2, 0], [646, 0, 0]]
    }, 
    {
      "op": "Activation", 
      "name": "gru_t22__h_act", 
      "attr": {"act_type": "tanh"}, 
      "inputs": [[647, 0, 0]]
    }, 
    {
      "op": "_mul", 
      "name": "_mul67", 
      "inputs": [[643, 0, 0], [648, 0, 0]]
    }, 
    {
      "op": "_mul", 
      "name": "_mul68", 
      "inputs": [[642, 0, 0], [638, 0, 0]]
    }, 
    {
      "op": "elemwise_add", 
      "name": "gru_t22_out", 
      "inputs": [[649, 0, 0], [650, 0, 0]]
    }, 
    {
      "op": "FullyConnected", 
      "name": "gru_t23__h2h", 
      "attr": {"num_hidden": "3"}, 
      "inputs": [[651, 0, 0], [351, 0, 0], [352, 0, 0]]
    }, 
    {
      "op": "SliceChannel", 
      "name": "gru_t23__h2h_slice", 
      "attr": {"num_outputs": "3"}, 
      "inputs": [[652, 0, 0]]
    }, 
    {
      "op": "elemwise_add", 
      "name": "_plus70", 
      "inputs": [[303, 1, 0], [653, 1, 0]]
    }, 
    {
      "op": "Activation", 
      "name": "gru_t23__z_act", 
      "attr": {"act_type": "sigmoid"}, 
      "inputs": [[654, 0, 0]]
    }, 
    {
      "op": "_rminus_scalar", 
      "name": "_rminusscalar23", 
      "attr": {"scalar": "1.0"}, 
      "inputs": [[655, 0, 0]]
    }, 
    {
      "op": "elemwise_add", 
      "name": "_plus69", 
      "inputs": [[303, 0, 0], [653, 0, 0]]
    }, 
    {
      "op": "Activation", 
      "name": "gru_t23__r_act", 
      "attr": {"act_type": "sigmoid"}, 
      "inputs": [[657, 0, 0]]
    }, 
    {
      "op": "_mul", 
      "name": "_mul69", 
      "inputs": [[658, 0, 0], [653, 2, 0]]
    }, 
    {
      "op": "elemwise_add", 
      "name": "_plus71", 
      "inputs": [[303, 2, 0], [659, 0, 0]]
    }, 
    {
      "op": "Activation", 
      "name": "gru_t23__h_act", 
      "attr": {"act_type": "tanh"}, 
      "inputs": [[660, 0, 0]]
    }, 
    {
      "op": "_mul", 
      "name": "_mul70", 
      "inputs": [[656, 0, 0], [661, 0, 0]]
    }, 
    {
      "op": "_mul", 
      "name": "_mul71", 
      "inputs": [[655, 0, 0], [651, 0, 0]]
    }, 
    {
      "op": "elemwise_add", 
      "name": "gru_t23_out", 
      "inputs": [[662, 0, 0], [663, 0, 0]]
    }, 
    {
      "op": "FullyConnected", 
      "name": "gru_t24__h2h", 
      "attr": {"num_hidden": "3"}, 
      "inputs": [[664, 0, 0], [351, 0, 0], [352, 0, 0]]
    }, 
    {
      "op": "SliceChannel", 
      "name": "gru_t24__h2h_slice", 
      "attr": {"num_outputs": "3"}, 
      "inputs": [[665, 0, 0]]
    }, 
    {
      "op": "elemwise_add", 
      "name": "_plus73", 
      "inputs": [[301, 1, 0], [666, 1, 0]]
    }, 
    {
      "op": "Activation", 
      "name": "gru_t24__z_act", 
      "attr": {"act_type": "sigmoid"}, 
      "inputs": [[667, 0, 0]]
    }, 
    {
      "op": "_rminus_scalar", 
      "name": "_rminusscalar24", 
      "attr": {"scalar": "1.0"}, 
      "inputs": [[668, 0, 0]]
    }, 
    {
      "op": "elemwise_add", 
      "name": "_plus72", 
      "inputs": [[301, 0, 0], [666, 0, 0]]
    }, 
    {
      "op": "Activation", 
      "name": "gru_t24__r_act", 
      "attr": {"act_type": "sigmoid"}, 
      "inputs": [[670, 0, 0]]
    }, 
    {
      "op": "_mul", 
      "name": "_mul72", 
      "inputs": [[671, 0, 0], [666, 2, 0]]
    }, 
    {
      "op": "elemwise_add", 
      "name": "_plus74", 
      "inputs": [[301, 2, 0], [672, 0, 0]]
    }, 
    {
      "op": "Activation", 
      "name": "gru_t24__h_act", 
      "attr": {"act_type": "tanh"}, 
      "inputs": [[673, 0, 0]]
    }, 
    {
      "op": "_mul", 
      "name": "_mul73", 
      "inputs": [[669, 0, 0], [674, 0, 0]]
    }, 
    {
      "op": "_mul", 
      "name": "_mul74", 
      "inputs": [[668, 0, 0], [664, 0, 0]]
    }, 
    {
      "op": "elemwise_add", 
      "name": "gru_t24_out", 
      "inputs": [[675, 0, 0], [676, 0, 0]]
    }, 
    {
      "op": "FullyConnected", 
      "name": "gru_t25__h2h", 
      "attr": {"num_hidden": "3"}, 
      "inputs": [[677, 0, 0], [351, 0, 0], [352, 0, 0]]
    }, 
    {
      "op": "SliceChannel", 
      "name": "gru_t25__h2h_slice", 
      "attr": {"num_outputs": "3"}, 
      "inputs": [[678, 0, 0]]
    }, 
    {
      "op": "elemwise_add", 
      "name": "_plus76", 
      "inputs": [[299, 1, 0], [679, 1, 0]]
    }, 
    {
      "op": "Activation", 
      "name": "gru_t25__z_act", 
      "attr": {"act_type": "sigmoid"}, 
      "inputs": [[680, 0, 0]]
    }, 
    {
      "op": "_rminus_scalar", 
      "name": "_rminusscalar25", 
      "attr": {"scalar": "1.0"}, 
      "inputs": [[681, 0, 0]]
    }, 
    {
      "op": "elemwise_add", 
      "name": "_plus75", 
      "inputs": [[299, 0, 0], [679, 0, 0]]
    }, 
    {
      "op": "Activation", 
      "name": "gru_t25__r_act", 
      "attr": {"act_type": "sigmoid"}, 
      "inputs": [[683, 0, 0]]
    }, 
    {
      "op": "_mul", 
      "name": "_mul75", 
      "inputs": [[684, 0, 0], [679, 2, 0]]
    }, 
    {
      "op": "elemwise_add", 
      "name": "_plus77", 
      "inputs": [[299, 2, 0], [685, 0, 0]]
    }, 
    {
      "op": "Activation", 
      "name": "gru_t25__h_act", 
      "attr": {"act_type": "tanh"}, 
      "inputs": [[686, 0, 0]]
    }, 
    {
      "op": "_mul", 
      "name": "_mul76", 
      "inputs": [[682, 0, 0], [687, 0, 0]]
    }, 
    {
      "op": "_mul", 
      "name": "_mul77", 
      "inputs": [[681, 0, 0], [677, 0, 0]]
    }, 
    {
      "op": "elemwise_add", 
      "name": "gru_t25_out", 
      "inputs": [[688, 0, 0], [689, 0, 0]]
    }, 
    {
      "op": "FullyConnected", 
      "name": "gru_t26__h2h", 
      "attr": {"num_hidden": "3"}, 
      "inputs": [[690, 0, 0], [351, 0, 0], [352, 0, 0]]
    }, 
    {
      "op": "SliceChannel", 
      "name": "gru_t26__h2h_slice", 
      "attr": {"num_outputs": "3"}, 
      "inputs": [[691, 0, 0]]
    }, 
    {
      "op": "elemwise_add", 
      "name": "_plus79", 
      "inputs": [[297, 1, 0], [692, 1, 0]]
    }, 
    {
      "op": "Activation", 
      "name": "gru_t26__z_act", 
      "attr": {"act_type": "sigmoid"}, 
      "inputs": [[693, 0, 0]]
    }, 
    {
      "op": "_rminus_scalar", 
      "name": "_rminusscalar26", 
      "attr": {"scalar": "1.0"}, 
      "inputs": [[694, 0, 0]]
    }, 
    {
      "op": "elemwise_add", 
      "name": "_plus78", 
      "inputs": [[297, 0, 0], [692, 0, 0]]
    }, 
    {
      "op": "Activation", 
      "name": "gru_t26__r_act", 
      "attr": {"act_type": "sigmoid"}, 
      "inputs": [[696, 0, 0]]
    }, 
    {
      "op": "_mul", 
      "name": "_mul78", 
      "inputs": [[697, 0, 0], [692, 2, 0]]
    }, 
    {
      "op": "elemwise_add", 
      "name": "_plus80", 
      "inputs": [[297, 2, 0], [698, 0, 0]]
    }, 
    {
      "op": "Activation", 
      "name": "gru_t26__h_act", 
      "attr": {"act_type": "tanh"}, 
      "inputs": [[699, 0, 0]]
    }, 
    {
      "op": "_mul", 
      "name": "_mul79", 
      "inputs": [[695, 0, 0], [700, 0, 0]]
    }, 
    {
      "op": "_mul", 
      "name": "_mul80", 
      "inputs": [[694, 0, 0], [690, 0, 0]]
    }, 
    {
      "op": "elemwise_add", 
      "name": "gru_t26_out", 
      "inputs": [[701, 0, 0], [702, 0, 0]]
    }, 
    {
      "op": "FullyConnected", 
      "name": "gru_t27__h2h", 
      "attr": {"num_hidden": "3"}, 
      "inputs": [[703, 0, 0], [351, 0, 0], [352, 0, 0]]
    }, 
    {
      "op": "SliceChannel", 
      "name": "gru_t27__h2h_slice", 
      "attr": {"num_outputs": "3"}, 
      "inputs": [[704, 0, 0]]
    }, 
    {
      "op": "elemwise_add", 
      "name": "_plus82", 
      "inputs": [[295, 1, 0], [705, 1, 0]]
    }, 
    {
      "op": "Activation", 
      "name": "gru_t27__z_act", 
      "attr": {"act_type": "sigmoid"}, 
      "inputs": [[706, 0, 0]]
    }, 
    {
      "op": "_rminus_scalar", 
      "name": "_rminusscalar27", 
      "attr": {"scalar": "1.0"}, 
      "inputs": [[707, 0, 0]]
    }, 
    {
      "op": "elemwise_add", 
      "name": "_plus81", 
      "inputs": [[295, 0, 0], [705, 0, 0]]
    }, 
    {
      "op": "Activation", 
      "name": "gru_t27__r_act", 
      "attr": {"act_type": "sigmoid"}, 
      "inputs": [[709, 0, 0]]
    }, 
    {
      "op": "_mul", 
      "name": "_mul81", 
      "inputs": [[710, 0, 0], [705, 2, 0]]
    }, 
    {
      "op": "elemwise_add", 
      "name": "_plus83", 
      "inputs": [[295, 2, 0], [711, 0, 0]]
    }, 
    {
      "op": "Activation", 
      "name": "gru_t27__h_act", 
      "attr": {"act_type": "tanh"}, 
      "inputs": [[712, 0, 0]]
    }, 
    {
      "op": "_mul", 
      "name": "_mul82", 
      "inputs": [[708, 0, 0], [713, 0, 0]]
    }, 
    {
      "op": "_mul", 
      "name": "_mul83", 
      "inputs": [[707, 0, 0], [703, 0, 0]]
    }, 
    {
      "op": "elemwise_add", 
      "name": "gru_t27_out", 
      "inputs": [[714, 0, 0], [715, 0, 0]]
    }, 
    {
      "op": "FullyConnected", 
      "name": "gru_t28__h2h", 
      "attr": {"num_hidden": "3"}, 
      "inputs": [[716, 0, 0], [351, 0, 0], [352, 0, 0]]
    }, 
    {
      "op": "SliceChannel", 
      "name": "gru_t28__h2h_slice", 
      "attr": {"num_outputs": "3"}, 
      "inputs": [[717, 0, 0]]
    }, 
    {
      "op": "elemwise_add", 
      "name": "_plus85", 
      "inputs": [[293, 1, 0], [718, 1, 0]]
    }, 
    {
      "op": "Activation", 
      "name": "gru_t28__z_act", 
      "attr": {"act_type": "sigmoid"}, 
      "inputs": [[719, 0, 0]]
    }, 
    {
      "op": "_rminus_scalar", 
      "name": "_rminusscalar28", 
      "attr": {"scalar": "1.0"}, 
      "inputs": [[720, 0, 0]]
    }, 
    {
      "op": "elemwise_add", 
      "name": "_plus84", 
      "inputs": [[293, 0, 0], [718, 0, 0]]
    }, 
    {
      "op": "Activation", 
      "name": "gru_t28__r_act", 
      "attr": {"act_type": "sigmoid"}, 
      "inputs": [[722, 0, 0]]
    }, 
    {
      "op": "_mul", 
      "name": "_mul84", 
      "inputs": [[723, 0, 0], [718, 2, 0]]
    }, 
    {
      "op": "elemwise_add", 
      "name": "_plus86", 
      "inputs": [[293, 2, 0], [724, 0, 0]]
    }, 
    {
      "op": "Activation", 
      "name": "gru_t28__h_act", 
      "attr": {"act_type": "tanh"}, 
      "inputs": [[725, 0, 0]]
    }, 
    {
      "op": "_mul", 
      "name": "_mul85", 
      "inputs": [[721, 0, 0], [726, 0, 0]]
    }, 
    {
      "op": "_mul", 
      "name": "_mul86", 
      "inputs": [[720, 0, 0], [716, 0, 0]]
    }, 
    {
      "op": "elemwise_add", 
      "name": "gru_t28_out", 
      "inputs": [[727, 0, 0], [728, 0, 0]]
    }, 
    {
      "op": "FullyConnected", 
      "name": "gru_t29__h2h", 
      "attr": {"num_hidden": "3"}, 
      "inputs": [[729, 0, 0], [351, 0, 0], [352, 0, 0]]
    }, 
    {
      "op": "SliceChannel", 
      "name": "gru_t29__h2h_slice", 
      "attr": {"num_outputs": "3"}, 
      "inputs": [[730, 0, 0]]
    }, 
    {
      "op": "elemwise_add", 
      "name": "_plus88", 
      "inputs": [[291, 1, 0], [731, 1, 0]]
    }, 
    {
      "op": "Activation", 
      "name": "gru_t29__z_act", 
      "attr": {"act_type": "sigmoid"}, 
      "inputs": [[732, 0, 0]]
    }, 
    {
      "op": "_rminus_scalar", 
      "name": "_rminusscalar29", 
      "attr": {"scalar": "1.0"}, 
      "inputs": [[733, 0, 0]]
    }, 
    {
      "op": "elemwise_add", 
      "name": "_plus87", 
      "inputs": [[291, 0, 0], [731, 0, 0]]
    }, 
    {
      "op": "Activation", 
      "name": "gru_t29__r_act", 
      "attr": {"act_type": "sigmoid"}, 
      "inputs": [[735, 0, 0]]
    }, 
    {
      "op": "_mul", 
      "name": "_mul87", 
      "inputs": [[736, 0, 0], [731, 2, 0]]
    }, 
    {
      "op": "elemwise_add", 
      "name": "_plus89", 
      "inputs": [[291, 2, 0], [737, 0, 0]]
    }, 
    {
      "op": "Activation", 
      "name": "gru_t29__h_act", 
      "attr": {"act_type": "tanh"}, 
      "inputs": [[738, 0, 0]]
    }, 
    {
      "op": "_mul", 
      "name": "_mul88", 
      "inputs": [[734, 0, 0], [739, 0, 0]]
    }, 
    {
      "op": "_mul", 
      "name": "_mul89", 
      "inputs": [[733, 0, 0], [729, 0, 0]]
    }, 
    {
      "op": "elemwise_add", 
      "name": "gru_t29_out", 
      "inputs": [[740, 0, 0], [741, 0, 0]]
    }, 
    {
      "op": "FullyConnected", 
      "name": "gru_t30__h2h", 
      "attr": {"num_hidden": "3"}, 
      "inputs": [[742, 0, 0], [351, 0, 0], [352, 0, 0]]
    }, 
    {
      "op": "SliceChannel", 
      "name": "gru_t30__h2h_slice", 
      "attr": {"num_outputs": "3"}, 
      "inputs": [[743, 0, 0]]
    }, 
    {
      "op": "elemwise_add", 
      "name": "_plus91", 
      "inputs": [[289, 1, 0], [744, 1, 0]]
    }, 
    {
      "op": "Activation", 
      "name": "gru_t30__z_act", 
      "attr": {"act_type": "sigmoid"}, 
      "inputs": [[745, 0, 0]]
    }, 
    {
      "op": "_rminus_scalar", 
      "name": "_rminusscalar30", 
      "attr": {"scalar": "1.0"}, 
      "inputs": [[746, 0, 0]]
    }, 
    {
      "op": "elemwise_add", 
      "name": "_plus90", 
      "inputs": [[289, 0, 0], [744, 0, 0]]
    }, 
    {
      "op": "Activation", 
      "name": "gru_t30__r_act", 
      "attr": {"act_type": "sigmoid"}, 
      "inputs": [[748, 0, 0]]
    }, 
    {
      "op": "_mul", 
      "name": "_mul90", 
      "inputs": [[749, 0, 0], [744, 2, 0]]
    }, 
    {
      "op": "elemwise_add", 
      "name": "_plus92", 
      "inputs": [[289, 2, 0], [750, 0, 0]]
    }, 
    {
      "op": "Activation", 
      "name": "gru_t30__h_act", 
      "attr": {"act_type": "tanh"}, 
      "inputs": [[751, 0, 0]]
    }, 
    {
      "op": "_mul", 
      "name": "_mul91", 
      "inputs": [[747, 0, 0], [752, 0, 0]]
    }, 
    {
      "op": "_mul", 
      "name": "_mul92", 
      "inputs": [[746, 0, 0], [742, 0, 0]]
    }, 
    {
      "op": "elemwise_add", 
      "name": "gru_t30_out", 
      "inputs": [[753, 0, 0], [754, 0, 0]]
    }, 
    {
      "op": "FullyConnected", 
      "name": "gru_t31__h2h", 
      "attr": {"num_hidden": "3"}, 
      "inputs": [[755, 0, 0], [351, 0, 0], [352, 0, 0]]
    }, 
    {
      "op": "SliceChannel", 
      "name": "gru_t31__h2h_slice", 
      "attr": {"num_outputs": "3"}, 
      "inputs": [[756, 0, 0]]
    }, 
    {
      "op": "elemwise_add", 
      "name": "_plus94", 
      "inputs": [[287, 1, 0], [757, 1, 0]]
    }, 
    {
      "op": "Activation", 
      "name": "gru_t31__z_act", 
      "attr": {"act_type": "sigmoid"}, 
      "inputs": [[758, 0, 0]]
    }, 
    {
      "op": "_rminus_scalar", 
      "name": "_rminusscalar31", 
      "attr": {"scalar": "1.0"}, 
      "inputs": [[759, 0, 0]]
    }, 
    {
      "op": "elemwise_add", 
      "name": "_plus93", 
      "inputs": [[287, 0, 0], [757, 0, 0]]
    }, 
    {
      "op": "Activation", 
      "name": "gru_t31__r_act", 
      "attr": {"act_type": "sigmoid"}, 
      "inputs": [[761, 0, 0]]
    }, 
    {
      "op": "_mul", 
      "name": "_mul93", 
      "inputs": [[762, 0, 0], [757, 2, 0]]
    }, 
    {
      "op": "elemwise_add", 
      "name": "_plus95", 
      "inputs": [[287, 2, 0], [763, 0, 0]]
    }, 
    {
      "op": "Activation", 
      "name": "gru_t31__h_act", 
      "attr": {"act_type": "tanh"}, 
      "inputs": [[764, 0, 0]]
    }, 
    {
      "op": "_mul", 
      "name": "_mul94", 
      "inputs": [[760, 0, 0], [765, 0, 0]]
    }, 
    {
      "op": "_mul", 
      "name": "_mul95", 
      "inputs": [[759, 0, 0], [755, 0, 0]]
    }, 
    {
      "op": "elemwise_add", 
      "name": "gru_t31_out", 
      "inputs": [[766, 0, 0], [767, 0, 0]]
    }, 
    {
      "op": "FullyConnected", 
      "name": "gru_t32__h2h", 
      "attr": {"num_hidden": "3"}, 
      "inputs": [[768, 0, 0], [351, 0, 0], [352, 0, 0]]
    }, 
    {
      "op": "SliceChannel", 
      "name": "gru_t32__h2h_slice", 
      "attr": {"num_outputs": "3"}, 
      "inputs": [[769, 0, 0]]
    }, 
    {
      "op": "elemwise_add", 
      "name": "_plus97", 
      "inputs": [[285, 1, 0], [770, 1, 0]]
    }, 
    {
      "op": "Activation", 
      "name": "gru_t32__z_act", 
      "attr": {"act_type": "sigmoid"}, 
      "inputs": [[771, 0, 0]]
    }, 
    {
      "op": "_rminus_scalar", 
      "name": "_rminusscalar32", 
      "attr": {"scalar": "1.0"}, 
      "inputs": [[772, 0, 0]]
    }, 
    {
      "op": "elemwise_add", 
      "name": "_plus96", 
      "inputs": [[285, 0, 0], [770, 0, 0]]
    }, 
    {
      "op": "Activation", 
      "name": "gru_t32__r_act", 
      "attr": {"act_type": "sigmoid"}, 
      "inputs": [[774, 0, 0]]
    }, 
    {
      "op": "_mul", 
      "name": "_mul96", 
      "inputs": [[775, 0, 0], [770, 2, 0]]
    }, 
    {
      "op": "elemwise_add", 
      "name": "_plus98", 
      "inputs": [[285, 2, 0], [776, 0, 0]]
    }, 
    {
      "op": "Activation", 
      "name": "gru_t32__h_act", 
      "attr": {"act_type": "tanh"}, 
      "inputs": [[777, 0, 0]]
    }, 
    {
      "op": "_mul", 
      "name": "_mul97", 
      "inputs": [[773, 0, 0], [778, 0, 0]]
    }, 
    {
      "op": "_mul", 
      "name": "_mul98", 
      "inputs": [[772, 0, 0], [768, 0, 0]]
    }, 
    {
      "op": "elemwise_add", 
      "name": "gru_t32_out", 
      "inputs": [[779, 0, 0], [780, 0, 0]]
    }, 
    {
      "op": "FullyConnected", 
      "name": "gru_t33__h2h", 
      "attr": {"num_hidden": "3"}, 
      "inputs": [[781, 0, 0], [351, 0, 0], [352, 0, 0]]
    }, 
    {
      "op": "SliceChannel", 
      "name": "gru_t33__h2h_slice", 
      "attr": {"num_outputs": "3"}, 
      "inputs": [[782, 0, 0]]
    }, 
    {
      "op": "elemwise_add", 
      "name": "_plus100", 
      "inputs": [[283, 1, 0], [783, 1, 0]]
    }, 
    {
      "op": "Activation", 
      "name": "gru_t33__z_act", 
      "attr": {"act_type": "sigmoid"}, 
      "inputs": [[784, 0, 0]]
    }, 
    {
      "op": "_rminus_scalar", 
      "name": "_rminusscalar33", 
      "attr": {"scalar": "1.0"}, 
      "inputs": [[785, 0, 0]]
    }, 
    {
      "op": "elemwise_add", 
      "name": "_plus99", 
      "inputs": [[283, 0, 0], [783, 0, 0]]
    }, 
    {
      "op": "Activation", 
      "name": "gru_t33__r_act", 
      "attr": {"act_type": "sigmoid"}, 
      "inputs": [[787, 0, 0]]
    }, 
    {
      "op": "_mul", 
      "name": "_mul99", 
      "inputs": [[788, 0, 0], [783, 2, 0]]
    }, 
    {
      "op": "elemwise_add", 
      "name": "_plus101", 
      "inputs": [[283, 2, 0], [789, 0, 0]]
    }, 
    {
      "op": "Activation", 
      "name": "gru_t33__h_act", 
      "attr": {"act_type": "tanh"}, 
      "inputs": [[790, 0, 0]]
    }, 
    {
      "op": "_mul", 
      "name": "_mul100", 
      "inputs": [[786, 0, 0], [791, 0, 0]]
    }, 
    {
      "op": "_mul", 
      "name": "_mul101", 
      "inputs": [[785, 0, 0], [781, 0, 0]]
    }, 
    {
      "op": "elemwise_add", 
      "name": "gru_t33_out", 
      "inputs": [[792, 0, 0], [793, 0, 0]]
    }, 
    {
      "op": "FullyConnected", 
      "name": "gru_t34__h2h", 
      "attr": {"num_hidden": "3"}, 
      "inputs": [[794, 0, 0], [351, 0, 0], [352, 0, 0]]
    }, 
    {
      "op": "SliceChannel", 
      "name": "gru_t34__h2h_slice", 
      "attr": {"num_outputs": "3"}, 
      "inputs": [[795, 0, 0]]
    }, 
    {
      "op": "elemwise_add", 
      "name": "_plus103", 
      "inputs": [[281, 1, 0], [796, 1, 0]]
    }, 
    {
      "op": "Activation", 
      "name": "gru_t34__z_act", 
      "attr": {"act_type": "sigmoid"}, 
      "inputs": [[797, 0, 0]]
    }, 
    {
      "op": "_rminus_scalar", 
      "name": "_rminusscalar34", 
      "attr": {"scalar": "1.0"}, 
      "inputs": [[798, 0, 0]]
    }, 
    {
      "op": "elemwise_add", 
      "name": "_plus102", 
      "inputs": [[281, 0, 0], [796, 0, 0]]
    }, 
    {
      "op": "Activation", 
      "name": "gru_t34__r_act", 
      "attr": {"act_type": "sigmoid"}, 
      "inputs": [[800, 0, 0]]
    }, 
    {
      "op": "_mul", 
      "name": "_mul102", 
      "inputs": [[801, 0, 0], [796, 2, 0]]
    }, 
    {
      "op": "elemwise_add", 
      "name": "_plus104", 
      "inputs": [[281, 2, 0], [802, 0, 0]]
    }, 
    {
      "op": "Activation", 
      "name": "gru_t34__h_act", 
      "attr": {"act_type": "tanh"}, 
      "inputs": [[803, 0, 0]]
    }, 
    {
      "op": "_mul", 
      "name": "_mul103", 
      "inputs": [[799, 0, 0], [804, 0, 0]]
    }, 
    {
      "op": "_mul", 
      "name": "_mul104", 
      "inputs": [[798, 0, 0], [794, 0, 0]]
    }, 
    {
      "op": "elemwise_add", 
      "name": "gru_t34_out", 
      "inputs": [[805, 0, 0], [806, 0, 0]]
    }, 
    {
      "op": "FullyConnected", 
      "name": "gru_t35__h2h", 
      "attr": {"num_hidden": "3"}, 
      "inputs": [[807, 0, 0], [351, 0, 0], [352, 0, 0]]
    }, 
    {
      "op": "SliceChannel", 
      "name": "gru_t35__h2h_slice", 
      "attr": {"num_outputs": "3"}, 
      "inputs": [[808, 0, 0]]
    }, 
    {
      "op": "elemwise_add", 
      "name": "_plus106", 
      "inputs": [[279, 1, 0], [809, 1, 0]]
    }, 
    {
      "op": "Activation", 
      "name": "gru_t35__z_act", 
      "attr": {"act_type": "sigmoid"}, 
      "inputs": [[810, 0, 0]]
    }, 
    {
      "op": "_rminus_scalar", 
      "name": "_rminusscalar35", 
      "attr": {"scalar": "1.0"}, 
      "inputs": [[811, 0, 0]]
    }, 
    {
      "op": "elemwise_add", 
      "name": "_plus105", 
      "inputs": [[279, 0, 0], [809, 0, 0]]
    }, 
    {
      "op": "Activation", 
      "name": "gru_t35__r_act", 
      "attr": {"act_type": "sigmoid"}, 
      "inputs": [[813, 0, 0]]
    }, 
    {
      "op": "_mul", 
      "name": "_mul105", 
      "inputs": [[814, 0, 0], [809, 2, 0]]
    }, 
    {
      "op": "elemwise_add", 
      "name": "_plus107", 
      "inputs": [[279, 2, 0], [815, 0, 0]]
    }, 
    {
      "op": "Activation", 
      "name": "gru_t35__h_act", 
      "attr": {"act_type": "tanh"}, 
      "inputs": [[816, 0, 0]]
    }, 
    {
      "op": "_mul", 
      "name": "_mul106", 
      "inputs": [[812, 0, 0], [817, 0, 0]]
    }, 
    {
      "op": "_mul", 
      "name": "_mul107", 
      "inputs": [[811, 0, 0], [807, 0, 0]]
    }, 
    {
      "op": "elemwise_add", 
      "name": "gru_t35_out", 
      "inputs": [[818, 0, 0], [819, 0, 0]]
    }, 
    {
      "op": "FullyConnected", 
      "name": "gru_t36__h2h", 
      "attr": {"num_hidden": "3"}, 
      "inputs": [[820, 0, 0], [351, 0, 0], [352, 0, 0]]
    }, 
    {
      "op": "SliceChannel", 
      "name": "gru_t36__h2h_slice", 
      "attr": {"num_outputs": "3"}, 
      "inputs": [[821, 0, 0]]
    }, 
    {
      "op": "elemwise_add", 
      "name": "_plus109", 
      "inputs": [[277, 1, 0], [822, 1, 0]]
    }, 
    {
      "op": "Activation", 
      "name": "gru_t36__z_act", 
      "attr": {"act_type": "sigmoid"}, 
      "inputs": [[823, 0, 0]]
    }, 
    {
      "op": "_rminus_scalar", 
      "name": "_rminusscalar36", 
      "attr": {"scalar": "1.0"}, 
      "inputs": [[824, 0, 0]]
    }, 
    {
      "op": "elemwise_add", 
      "name": "_plus108", 
      "inputs": [[277, 0, 0], [822, 0, 0]]
    }, 
    {
      "op": "Activation", 
      "name": "gru_t36__r_act", 
      "attr": {"act_type": "sigmoid"}, 
      "inputs": [[826, 0, 0]]
    }, 
    {
      "op": "_mul", 
      "name": "_mul108", 
      "inputs": [[827, 0, 0], [822, 2, 0]]
    }, 
    {
      "op": "elemwise_add", 
      "name": "_plus110", 
      "inputs": [[277, 2, 0], [828, 0, 0]]
    }, 
    {
      "op": "Activation", 
      "name": "gru_t36__h_act", 
      "attr": {"act_type": "tanh"}, 
      "inputs": [[829, 0, 0]]
    }, 
    {
      "op": "_mul", 
      "name": "_mul109", 
      "inputs": [[825, 0, 0], [830, 0, 0]]
    }, 
    {
      "op": "_mul", 
      "name": "_mul110", 
      "inputs": [[824, 0, 0], [820, 0, 0]]
    }, 
    {
      "op": "elemwise_add", 
      "name": "gru_t36_out", 
      "inputs": [[831, 0, 0], [832, 0, 0]]
    }, 
    {
      "op": "FullyConnected", 
      "name": "gru_t37__h2h", 
      "attr": {"num_hidden": "3"}, 
      "inputs": [[833, 0, 0], [351, 0, 0], [352, 0, 0]]
    }, 
    {
      "op": "SliceChannel", 
      "name": "gru_t37__h2h_slice", 
      "attr": {"num_outputs": "3"}, 
      "inputs": [[834, 0, 0]]
    }, 
    {
      "op": "elemwise_add", 
      "name": "_plus112", 
      "inputs": [[275, 1, 0], [835, 1, 0]]
    }, 
    {
      "op": "Activation", 
      "name": "gru_t37__z_act", 
      "attr": {"act_type": "sigmoid"}, 
      "inputs": [[836, 0, 0]]
    }, 
    {
      "op": "_rminus_scalar", 
      "name": "_rminusscalar37", 
      "attr": {"scalar": "1.0"}, 
      "inputs": [[837, 0, 0]]
    }, 
    {
      "op": "elemwise_add", 
      "name": "_plus111", 
      "inputs": [[275, 0, 0], [835, 0, 0]]
    }, 
    {
      "op": "Activation", 
      "name": "gru_t37__r_act", 
      "attr": {"act_type": "sigmoid"}, 
      "inputs": [[839, 0, 0]]
    }, 
    {
      "op": "_mul", 
      "name": "_mul111", 
      "inputs": [[840, 0, 0], [835, 2, 0]]
    }, 
    {
      "op": "elemwise_add", 
      "name": "_plus113", 
      "inputs": [[275, 2, 0], [841, 0, 0]]
    }, 
    {
      "op": "Activation", 
      "name": "gru_t37__h_act", 
      "attr": {"act_type": "tanh"}, 
      "inputs": [[842, 0, 0]]
    }, 
    {
      "op": "_mul", 
      "name": "_mul112", 
      "inputs": [[838, 0, 0], [843, 0, 0]]
    }, 
    {
      "op": "_mul", 
      "name": "_mul113", 
      "inputs": [[837, 0, 0], [833, 0, 0]]
    }, 
    {
      "op": "elemwise_add", 
      "name": "gru_t37_out", 
      "inputs": [[844, 0, 0], [845, 0, 0]]
    }, 
    {
      "op": "FullyConnected", 
      "name": "gru_t38__h2h", 
      "attr": {"num_hidden": "3"}, 
      "inputs": [[846, 0, 0], [351, 0, 0], [352, 0, 0]]
    }, 
    {
      "op": "SliceChannel", 
      "name": "gru_t38__h2h_slice", 
      "attr": {"num_outputs": "3"}, 
      "inputs": [[847, 0, 0]]
    }, 
    {
      "op": "elemwise_add", 
      "name": "_plus115", 
      "inputs": [[273, 1, 0], [848, 1, 0]]
    }, 
    {
      "op": "Activation", 
      "name": "gru_t38__z_act", 
      "attr": {"act_type": "sigmoid"}, 
      "inputs": [[849, 0, 0]]
    }, 
    {
      "op": "_rminus_scalar", 
      "name": "_rminusscalar38", 
      "attr": {"scalar": "1.0"}, 
      "inputs": [[850, 0, 0]]
    }, 
    {
      "op": "elemwise_add", 
      "name": "_plus114", 
      "inputs": [[273, 0, 0], [848, 0, 0]]
    }, 
    {
      "op": "Activation", 
      "name": "gru_t38__r_act", 
      "attr": {"act_type": "sigmoid"}, 
      "inputs": [[852, 0, 0]]
    }, 
    {
      "op": "_mul", 
      "name": "_mul114", 
      "inputs": [[853, 0, 0], [848, 2, 0]]
    }, 
    {
      "op": "elemwise_add", 
      "name": "_plus116", 
      "inputs": [[273, 2, 0], [854, 0, 0]]
    }, 
    {
      "op": "Activation", 
      "name": "gru_t38__h_act", 
      "attr": {"act_type": "tanh"}, 
      "inputs": [[855, 0, 0]]
    }, 
    {
      "op": "_mul", 
      "name": "_mul115", 
      "inputs": [[851, 0, 0], [856, 0, 0]]
    }, 
    {
      "op": "_mul", 
      "name": "_mul116", 
      "inputs": [[850, 0, 0], [846, 0, 0]]
    }, 
    {
      "op": "elemwise_add", 
      "name": "gru_t38_out", 
      "inputs": [[857, 0, 0], [858, 0, 0]]
    }, 
    {
      "op": "FullyConnected", 
      "name": "gru_t39__h2h", 
      "attr": {"num_hidden": "3"}, 
      "inputs": [[859, 0, 0], [351, 0, 0], [352, 0, 0]]
    }, 
    {
      "op": "SliceChannel", 
      "name": "gru_t39__h2h_slice", 
      "attr": {"num_outputs": "3"}, 
      "inputs": [[860, 0, 0]]
    }, 
    {
      "op": "elemwise_add", 
      "name": "_plus118", 
      "inputs": [[271, 1, 0], [861, 1, 0]]
    }, 
    {
      "op": "Activation", 
      "name": "gru_t39__z_act", 
      "attr": {"act_type": "sigmoid"}, 
      "inputs": [[862, 0, 0]]
    }, 
    {
      "op": "_rminus_scalar", 
      "name": "_rminusscalar39", 
      "attr": {"scalar": "1.0"}, 
      "inputs": [[863, 0, 0]]
    }, 
    {
      "op": "elemwise_add", 
      "name": "_plus117", 
      "inputs": [[271, 0, 0], [861, 0, 0]]
    }, 
    {
      "op": "Activation", 
      "name": "gru_t39__r_act", 
      "attr": {"act_type": "sigmoid"}, 
      "inputs": [[865, 0, 0]]
    }, 
    {
      "op": "_mul", 
      "name": "_mul117", 
      "inputs": [[866, 0, 0], [861, 2, 0]]
    }, 
    {
      "op": "elemwise_add", 
      "name": "_plus119", 
      "inputs": [[271, 2, 0], [867, 0, 0]]
    }, 
    {
      "op": "Activation", 
      "name": "gru_t39__h_act", 
      "attr": {"act_type": "tanh"}, 
      "inputs": [[868, 0, 0]]
    }, 
    {
      "op": "_mul", 
      "name": "_mul118", 
      "inputs": [[864, 0, 0], [869, 0, 0]]
    }, 
    {
      "op": "_mul", 
      "name": "_mul119", 
      "inputs": [[863, 0, 0], [859, 0, 0]]
    }, 
    {
      "op": "elemwise_add", 
      "name": "gru_t39_out", 
      "inputs": [[870, 0, 0], [871, 0, 0]]
    }, 
    {
      "op": "FullyConnected", 
      "name": "gru_t40__h2h", 
      "attr": {"num_hidden": "3"}, 
      "inputs": [[872, 0, 0], [351, 0, 0], [352, 0, 0]]
    }, 
    {
      "op": "SliceChannel", 
      "name": "gru_t40__h2h_slice", 
      "attr": {"num_outputs": "3"}, 
      "inputs": [[873, 0, 0]]
    }, 
    {
      "op": "elemwise_add", 
      "name": "_plus121", 
      "inputs": [[269, 1, 0], [874, 1, 0]]
    }, 
    {
      "op": "Activation", 
      "name": "gru_t40__z_act", 
      "attr": {"act_type": "sigmoid"}, 
      "inputs": [[875, 0, 0]]
    }, 
    {
      "op": "_rminus_scalar", 
      "name": "_rminusscalar40", 
      "attr": {"scalar": "1.0"}, 
      "inputs": [[876, 0, 0]]
    }, 
    {
      "op": "elemwise_add", 
      "name": "_plus120", 
      "inputs": [[269, 0, 0], [874, 0, 0]]
    }, 
    {
      "op": "Activation", 
      "name": "gru_t40__r_act", 
      "attr": {"act_type": "sigmoid"}, 
      "inputs": [[878, 0, 0]]
    }, 
    {
      "op": "_mul", 
      "name": "_mul120", 
      "inputs": [[879, 0, 0], [874, 2, 0]]
    }, 
    {
      "op": "elemwise_add", 
      "name": "_plus122", 
      "inputs": [[269, 2, 0], [880, 0, 0]]
    }, 
    {
      "op": "Activation", 
      "name": "gru_t40__h_act", 
      "attr": {"act_type": "tanh"}, 
      "inputs": [[881, 0, 0]]
    }, 
    {
      "op": "_mul", 
      "name": "_mul121", 
      "inputs": [[877, 0, 0], [882, 0, 0]]
    }, 
    {
      "op": "_mul", 
      "name": "_mul122", 
      "inputs": [[876, 0, 0], [872, 0, 0]]
    }, 
    {
      "op": "elemwise_add", 
      "name": "gru_t40_out", 
      "inputs": [[883, 0, 0], [884, 0, 0]]
    }, 
    {
      "op": "FullyConnected", 
      "name": "gru_t41__h2h", 
      "attr": {"num_hidden": "3"}, 
      "inputs": [[885, 0, 0], [351, 0, 0], [352, 0, 0]]
    }, 
    {
      "op": "SliceChannel", 
      "name": "gru_t41__h2h_slice", 
      "attr": {"num_outputs": "3"}, 
      "inputs": [[886, 0, 0]]
    }, 
    {
      "op": "elemwise_add", 
      "name": "_plus124", 
      "inputs": [[267, 1, 0], [887, 1, 0]]
    }, 
    {
      "op": "Activation", 
      "name": "gru_t41__z_act", 
      "attr": {"act_type": "sigmoid"}, 
      "inputs": [[888, 0, 0]]
    }, 
    {
      "op": "_rminus_scalar", 
      "name": "_rminusscalar41", 
      "attr": {"scalar": "1.0"}, 
      "inputs": [[889, 0, 0]]
    }, 
    {
      "op": "elemwise_add", 
      "name": "_plus123", 
      "inputs": [[267, 0, 0], [887, 0, 0]]
    }, 
    {
      "op": "Activation", 
      "name": "gru_t41__r_act", 
      "attr": {"act_type": "sigmoid"}, 
      "inputs": [[891, 0, 0]]
    }, 
    {
      "op": "_mul", 
      "name": "_mul123", 
      "inputs": [[892, 0, 0], [887, 2, 0]]
    }, 
    {
      "op": "elemwise_add", 
      "name": "_plus125", 
      "inputs": [[267, 2, 0], [893, 0, 0]]
    }, 
    {
      "op": "Activation", 
      "name": "gru_t41__h_act", 
      "attr": {"act_type": "tanh"}, 
      "inputs": [[894, 0, 0]]
    }, 
    {
      "op": "_mul", 
      "name": "_mul124", 
      "inputs": [[890, 0, 0], [895, 0, 0]]
    }, 
    {
      "op": "_mul", 
      "name": "_mul125", 
      "inputs": [[889, 0, 0], [885, 0, 0]]
    }, 
    {
      "op": "elemwise_add", 
      "name": "gru_t41_out", 
      "inputs": [[896, 0, 0], [897, 0, 0]]
    }, 
    {
      "op": "FullyConnected", 
      "name": "gru_t42__h2h", 
      "attr": {"num_hidden": "3"}, 
      "inputs": [[898, 0, 0], [351, 0, 0], [352, 0, 0]]
    }, 
    {
      "op": "SliceChannel", 
      "name": "gru_t42__h2h_slice", 
      "attr": {"num_outputs": "3"}, 
      "inputs": [[899, 0, 0]]
    }, 
    {
      "op": "elemwise_add", 
      "name": "_plus127", 
      "inputs": [[265, 1, 0], [900, 1, 0]]
    }, 
    {
      "op": "Activation", 
      "name": "gru_t42__z_act", 
      "attr": {"act_type": "sigmoid"}, 
      "inputs": [[901, 0, 0]]
    }, 
    {
      "op": "_rminus_scalar", 
      "name": "_rminusscalar42", 
      "attr": {"scalar": "1.0"}, 
      "inputs": [[902, 0, 0]]
    }, 
    {
      "op": "elemwise_add", 
      "name": "_plus126", 
      "inputs": [[265, 0, 0], [900, 0, 0]]
    }, 
    {
      "op": "Activation", 
      "name": "gru_t42__r_act", 
      "attr": {"act_type": "sigmoid"}, 
      "inputs": [[904, 0, 0]]
    }, 
    {
      "op": "_mul", 
      "name": "_mul126", 
      "inputs": [[905, 0, 0], [900, 2, 0]]
    }, 
    {
      "op": "elemwise_add", 
      "name": "_plus128", 
      "inputs": [[265, 2, 0], [906, 0, 0]]
    }, 
    {
      "op": "Activation", 
      "name": "gru_t42__h_act", 
      "attr": {"act_type": "tanh"}, 
      "inputs": [[907, 0, 0]]
    }, 
    {
      "op": "_mul", 
      "name": "_mul127", 
      "inputs": [[903, 0, 0], [908, 0, 0]]
    }, 
    {
      "op": "_mul", 
      "name": "_mul128", 
      "inputs": [[902, 0, 0], [898, 0, 0]]
    }, 
    {
      "op": "elemwise_add", 
      "name": "gru_t42_out", 
      "inputs": [[909, 0, 0], [910, 0, 0]]
    }, 
    {
      "op": "FullyConnected", 
      "name": "gru_t43__h2h", 
      "attr": {"num_hidden": "3"}, 
      "inputs": [[911, 0, 0], [351, 0, 0], [352, 0, 0]]
    }, 
    {
      "op": "SliceChannel", 
      "name": "gru_t43__h2h_slice", 
      "attr": {"num_outputs": "3"}, 
      "inputs": [[912, 0, 0]]
    }, 
    {
      "op": "elemwise_add", 
      "name": "_plus130", 
      "inputs": [[263, 1, 0], [913, 1, 0]]
    }, 
    {
      "op": "Activation", 
      "name": "gru_t43__z_act", 
      "attr": {"act_type": "sigmoid"}, 
      "inputs": [[914, 0, 0]]
    }, 
    {
      "op": "_rminus_scalar", 
      "name": "_rminusscalar43", 
      "attr": {"scalar": "1.0"}, 
      "inputs": [[915, 0, 0]]
    }, 
    {
      "op": "elemwise_add", 
      "name": "_plus129", 
      "inputs": [[263, 0, 0], [913, 0, 0]]
    }, 
    {
      "op": "Activation", 
      "name": "gru_t43__r_act", 
      "attr": {"act_type": "sigmoid"}, 
      "inputs": [[917, 0, 0]]
    }, 
    {
      "op": "_mul", 
      "name": "_mul129", 
      "inputs": [[918, 0, 0], [913, 2, 0]]
    }, 
    {
      "op": "elemwise_add", 
      "name": "_plus131", 
      "inputs": [[263, 2, 0], [919, 0, 0]]
    }, 
    {
      "op": "Activation", 
      "name": "gru_t43__h_act", 
      "attr": {"act_type": "tanh"}, 
      "inputs": [[920, 0, 0]]
    }, 
    {
      "op": "_mul", 
      "name": "_mul130", 
      "inputs": [[916, 0, 0], [921, 0, 0]]
    }, 
    {
      "op": "_mul", 
      "name": "_mul131", 
      "inputs": [[915, 0, 0], [911, 0, 0]]
    }, 
    {
      "op": "elemwise_add", 
      "name": "gru_t43_out", 
      "inputs": [[922, 0, 0], [923, 0, 0]]
    }, 
    {
      "op": "FullyConnected", 
      "name": "gru_t44__h2h", 
      "attr": {"num_hidden": "3"}, 
      "inputs": [[924, 0, 0], [351, 0, 0], [352, 0, 0]]
    }, 
    {
      "op": "SliceChannel", 
      "name": "gru_t44__h2h_slice", 
      "attr": {"num_outputs": "3"}, 
      "inputs": [[925, 0, 0]]
    }, 
    {
      "op": "elemwise_add", 
      "name": "_plus133", 
      "inputs": [[261, 1, 0], [926, 1, 0]]
    }, 
    {
      "op": "Activation", 
      "name": "gru_t44__z_act", 
      "attr": {"act_type": "sigmoid"}, 
      "inputs": [[927, 0, 0]]
    }, 
    {
      "op": "_rminus_scalar", 
      "name": "_rminusscalar44", 
      "attr": {"scalar": "1.0"}, 
      "inputs": [[928, 0, 0]]
    }, 
    {
      "op": "elemwise_add", 
      "name": "_plus132", 
      "inputs": [[261, 0, 0], [926, 0, 0]]
    }, 
    {
      "op": "Activation", 
      "name": "gru_t44__r_act", 
      "attr": {"act_type": "sigmoid"}, 
      "inputs": [[930, 0, 0]]
    }, 
    {
      "op": "_mul", 
      "name": "_mul132", 
      "inputs": [[931, 0, 0], [926, 2, 0]]
    }, 
    {
      "op": "elemwise_add", 
      "name": "_plus134", 
      "inputs": [[261, 2, 0], [932, 0, 0]]
    }, 
    {
      "op": "Activation", 
      "name": "gru_t44__h_act", 
      "attr": {"act_type": "tanh"}, 
      "inputs": [[933, 0, 0]]
    }, 
    {
      "op": "_mul", 
      "name": "_mul133", 
      "inputs": [[929, 0, 0], [934, 0, 0]]
    }, 
    {
      "op": "_mul", 
      "name": "_mul134", 
      "inputs": [[928, 0, 0], [924, 0, 0]]
    }, 
    {
      "op": "elemwise_add", 
      "name": "gru_t44_out", 
      "inputs": [[935, 0, 0], [936, 0, 0]]
    }, 
    {
      "op": "FullyConnected", 
      "name": "gru_t45__h2h", 
      "attr": {"num_hidden": "3"}, 
      "inputs": [[937, 0, 0], [351, 0, 0], [352, 0, 0]]
    }, 
    {
      "op": "SliceChannel", 
      "name": "gru_t45__h2h_slice", 
      "attr": {"num_outputs": "3"}, 
      "inputs": [[938, 0, 0]]
    }, 
    {
      "op": "elemwise_add", 
      "name": "_plus136", 
      "inputs": [[259, 1, 0], [939, 1, 0]]
    }, 
    {
      "op": "Activation", 
      "name": "gru_t45__z_act", 
      "attr": {"act_type": "sigmoid"}, 
      "inputs": [[940, 0, 0]]
    }, 
    {
      "op": "_rminus_scalar", 
      "name": "_rminusscalar45", 
      "attr": {"scalar": "1.0"}, 
      "inputs": [[941, 0, 0]]
    }, 
    {
      "op": "elemwise_add", 
      "name": "_plus135", 
      "inputs": [[259, 0, 0], [939, 0, 0]]
    }, 
    {
      "op": "Activation", 
      "name": "gru_t45__r_act", 
      "attr": {"act_type": "sigmoid"}, 
      "inputs": [[943, 0, 0]]
    }, 
    {
      "op": "_mul", 
      "name": "_mul135", 
      "inputs": [[944, 0, 0], [939, 2, 0]]
    }, 
    {
      "op": "elemwise_add", 
      "name": "_plus137", 
      "inputs": [[259, 2, 0], [945, 0, 0]]
    }, 
    {
      "op": "Activation", 
      "name": "gru_t45__h_act", 
      "attr": {"act_type": "tanh"}, 
      "inputs": [[946, 0, 0]]
    }, 
    {
      "op": "_mul", 
      "name": "_mul136", 
      "inputs": [[942, 0, 0], [947, 0, 0]]
    }, 
    {
      "op": "_mul", 
      "name": "_mul137", 
      "inputs": [[941, 0, 0], [937, 0, 0]]
    }, 
    {
      "op": "elemwise_add", 
      "name": "gru_t45_out", 
      "inputs": [[948, 0, 0], [949, 0, 0]]
    }, 
    {
      "op": "FullyConnected", 
      "name": "gru_t46__h2h", 
      "attr": {"num_hidden": "3"}, 
      "inputs": [[950, 0, 0], [351, 0, 0], [352, 0, 0]]
    }, 
    {
      "op": "SliceChannel", 
      "name": "gru_t46__h2h_slice", 
      "attr": {"num_outputs": "3"}, 
      "inputs": [[951, 0, 0]]
    }, 
    {
      "op": "elemwise_add", 
      "name": "_plus139", 
      "inputs": [[257, 1, 0], [952, 1, 0]]
    }, 
    {
      "op": "Activation", 
      "name": "gru_t46__z_act", 
      "attr": {"act_type": "sigmoid"}, 
      "inputs": [[953, 0, 0]]
    }, 
    {
      "op": "_rminus_scalar", 
      "name": "_rminusscalar46", 
      "attr": {"scalar": "1.0"}, 
      "inputs": [[954, 0, 0]]
    }, 
    {
      "op": "elemwise_add", 
      "name": "_plus138", 
      "inputs": [[257, 0, 0], [952, 0, 0]]
    }, 
    {
      "op": "Activation", 
      "name": "gru_t46__r_act", 
      "attr": {"act_type": "sigmoid"}, 
      "inputs": [[956, 0, 0]]
    }, 
    {
      "op": "_mul", 
      "name": "_mul138", 
      "inputs": [[957, 0, 0], [952, 2, 0]]
    }, 
    {
      "op": "elemwise_add", 
      "name": "_plus140", 
      "inputs": [[257, 2, 0], [958, 0, 0]]
    }, 
    {
      "op": "Activation", 
      "name": "gru_t46__h_act", 
      "attr": {"act_type": "tanh"}, 
      "inputs": [[959, 0, 0]]
    }, 
    {
      "op": "_mul", 
      "name": "_mul139", 
      "inputs": [[955, 0, 0], [960, 0, 0]]
    }, 
    {
      "op": "_mul", 
      "name": "_mul140", 
      "inputs": [[954, 0, 0], [950, 0, 0]]
    }, 
    {
      "op": "elemwise_add", 
      "name": "gru_t46_out", 
      "inputs": [[961, 0, 0], [962, 0, 0]]
    }, 
    {
      "op": "FullyConnected", 
      "name": "gru_t47__h2h", 
      "attr": {"num_hidden": "3"}, 
      "inputs": [[963, 0, 0], [351, 0, 0], [352, 0, 0]]
    }, 
    {
      "op": "SliceChannel", 
      "name": "gru_t47__h2h_slice", 
      "attr": {"num_outputs": "3"}, 
      "inputs": [[964, 0, 0]]
    }, 
    {
      "op": "elemwise_add", 
      "name": "_plus142", 
      "inputs": [[255, 1, 0], [965, 1, 0]]
    }, 
    {
      "op": "Activation", 
      "name": "gru_t47__z_act", 
      "attr": {"act_type": "sigmoid"}, 
      "inputs": [[966, 0, 0]]
    }, 
    {
      "op": "_rminus_scalar", 
      "name": "_rminusscalar47", 
      "attr": {"scalar": "1.0"}, 
      "inputs": [[967, 0, 0]]
    }, 
    {
      "op": "elemwise_add", 
      "name": "_plus141", 
      "inputs": [[255, 0, 0], [965, 0, 0]]
    }, 
    {
      "op": "Activation", 
      "name": "gru_t47__r_act", 
      "attr": {"act_type": "sigmoid"}, 
      "inputs": [[969, 0, 0]]
    }, 
    {
      "op": "_mul", 
      "name": "_mul141", 
      "inputs": [[970, 0, 0], [965, 2, 0]]
    }, 
    {
      "op": "elemwise_add", 
      "name": "_plus143", 
      "inputs": [[255, 2, 0], [971, 0, 0]]
    }, 
    {
      "op": "Activation", 
      "name": "gru_t47__h_act", 
      "attr": {"act_type": "tanh"}, 
      "inputs": [[972, 0, 0]]
    }, 
    {
      "op": "_mul", 
      "name": "_mul142", 
      "inputs": [[968, 0, 0], [973, 0, 0]]
    }, 
    {
      "op": "_mul", 
      "name": "_mul143", 
      "inputs": [[967, 0, 0], [963, 0, 0]]
    }, 
    {
      "op": "elemwise_add", 
      "name": "gru_t47_out", 
      "inputs": [[974, 0, 0], [975, 0, 0]]
    }, 
    {
      "op": "FullyConnected", 
      "name": "gru_t48__h2h", 
      "attr": {"num_hidden": "3"}, 
      "inputs": [[976, 0, 0], [351, 0, 0], [352, 0, 0]]
    }, 
    {
      "op": "SliceChannel", 
      "name": "gru_t48__h2h_slice", 
      "attr": {"num_outputs": "3"}, 
      "inputs": [[977, 0, 0]]
    }, 
    {
      "op": "elemwise_add", 
      "name": "_plus145", 
      "inputs": [[253, 1, 0], [978, 1, 0]]
    }, 
    {
      "op": "Activation", 
      "name": "gru_t48__z_act", 
      "attr": {"act_type": "sigmoid"}, 
      "inputs": [[979, 0, 0]]
    }, 
    {
      "op": "_rminus_scalar", 
      "name": "_rminusscalar48", 
      "attr": {"scalar": "1.0"}, 
      "inputs": [[980, 0, 0]]
    }, 
    {
      "op": "elemwise_add", 
      "name": "_plus144", 
      "inputs": [[253, 0, 0], [978, 0, 0]]
    }, 
    {
      "op": "Activation", 
      "name": "gru_t48__r_act", 
      "attr": {"act_type": "sigmoid"}, 
      "inputs": [[982, 0, 0]]
    }, 
    {
      "op": "_mul", 
      "name": "_mul144", 
      "inputs": [[983, 0, 0], [978, 2, 0]]
    }, 
    {
      "op": "elemwise_add", 
      "name": "_plus146", 
      "inputs": [[253, 2, 0], [984, 0, 0]]
    }, 
    {
      "op": "Activation", 
      "name": "gru_t48__h_act", 
      "attr": {"act_type": "tanh"}, 
      "inputs": [[985, 0, 0]]
    }, 
    {
      "op": "_mul", 
      "name": "_mul145", 
      "inputs": [[981, 0, 0], [986, 0, 0]]
    }, 
    {
      "op": "_mul", 
      "name": "_mul146", 
      "inputs": [[980, 0, 0], [976, 0, 0]]
    }, 
    {
      "op": "elemwise_add", 
      "name": "gru_t48_out", 
      "inputs": [[987, 0, 0], [988, 0, 0]]
    }, 
    {
      "op": "FullyConnected", 
      "name": "gru_t49__h2h", 
      "attr": {"num_hidden": "3"}, 
      "inputs": [[989, 0, 0], [351, 0, 0], [352, 0, 0]]
    }, 
    {
      "op": "SliceChannel", 
      "name": "gru_t49__h2h_slice", 
      "attr": {"num_outputs": "3"}, 
      "inputs": [[990, 0, 0]]
    }, 
    {
      "op": "elemwise_add", 
      "name": "_plus148", 
      "inputs": [[251, 1, 0], [991, 1, 0]]
    }, 
    {
      "op": "Activation", 
      "name": "gru_t49__z_act", 
      "attr": {"act_type": "sigmoid"}, 
      "inputs": [[992, 0, 0]]
    }, 
    {
      "op": "_rminus_scalar", 
      "name": "_rminusscalar49", 
      "attr": {"scalar": "1.0"}, 
      "inputs": [[993, 0, 0]]
    }, 
    {
      "op": "elemwise_add", 
      "name": "_plus147", 
      "inputs": [[251, 0, 0], [991, 0, 0]]
    }, 
    {
      "op": "Activation", 
      "name": "gru_t49__r_act", 
      "attr": {"act_type": "sigmoid"}, 
      "inputs": [[995, 0, 0]]
    }, 
    {
      "op": "_mul", 
      "name": "_mul147", 
      "inputs": [[996, 0, 0], [991, 2, 0]]
    }, 
    {
      "op": "elemwise_add", 
      "name": "_plus149", 
      "inputs": [[251, 2, 0], [997, 0, 0]]
    }, 
    {
      "op": "Activation", 
      "name": "gru_t49__h_act", 
      "attr": {"act_type": "tanh"}, 
      "inputs": [[998, 0, 0]]
    }, 
    {
      "op": "_mul", 
      "name": "_mul148", 
      "inputs": [[994, 0, 0], [999, 0, 0]]
    }, 
    {
      "op": "_mul", 
      "name": "_mul149", 
      "inputs": [[993, 0, 0], [989, 0, 0]]
    }, 
    {
      "op": "elemwise_add", 
      "name": "gru_t49_out", 
      "inputs": [[1000, 0, 0], [1001, 0, 0]]
    }, 
    {
      "op": "FullyConnected", 
      "name": "gru_t50__h2h", 
      "attr": {"num_hidden": "3"}, 
      "inputs": [[1002, 0, 0], [351, 0, 0], [352, 0, 0]]
    }, 
    {
      "op": "SliceChannel", 
      "name": "gru_t50__h2h_slice", 
      "attr": {"num_outputs": "3"}, 
      "inputs": [[1003, 0, 0]]
    }, 
    {
      "op": "elemwise_add", 
      "name": "_plus151", 
      "inputs": [[249, 1, 0], [1004, 1, 0]]
    }, 
    {
      "op": "Activation", 
      "name": "gru_t50__z_act", 
      "attr": {"act_type": "sigmoid"}, 
      "inputs": [[1005, 0, 0]]
    }, 
    {
      "op": "_rminus_scalar", 
      "name": "_rminusscalar50", 
      "attr": {"scalar": "1.0"}, 
      "inputs": [[1006, 0, 0]]
    }, 
    {
      "op": "elemwise_add", 
      "name": "_plus150", 
      "inputs": [[249, 0, 0], [1004, 0, 0]]
    }, 
    {
      "op": "Activation", 
      "name": "gru_t50__r_act", 
      "attr": {"act_type": "sigmoid"}, 
      "inputs": [[1008, 0, 0]]
    }, 
    {
      "op": "_mul", 
      "name": "_mul150", 
      "inputs": [[1009, 0, 0], [1004, 2, 0]]
    }, 
    {
      "op": "elemwise_add", 
      "name": "_plus152", 
      "inputs": [[249, 2, 0], [1010, 0, 0]]
    }, 
    {
      "op": "Activation", 
      "name": "gru_t50__h_act", 
      "attr": {"act_type": "tanh"}, 
      "inputs": [[1011, 0, 0]]
    }, 
    {
      "op": "_mul", 
      "name": "_mul151", 
      "inputs": [[1007, 0, 0], [1012, 0, 0]]
    }, 
    {
      "op": "_mul", 
      "name": "_mul152", 
      "inputs": [[1006, 0, 0], [1002, 0, 0]]
    }, 
    {
      "op": "elemwise_add", 
      "name": "gru_t50_out", 
      "inputs": [[1013, 0, 0], [1014, 0, 0]]
    }, 
    {
      "op": "FullyConnected", 
      "name": "gru_t51__h2h", 
      "attr": {"num_hidden": "3"}, 
      "inputs": [[1015, 0, 0], [351, 0, 0], [352, 0, 0]]
    }, 
    {
      "op": "SliceChannel", 
      "name": "gru_t51__h2h_slice", 
      "attr": {"num_outputs": "3"}, 
      "inputs": [[1016, 0, 0]]
    }, 
    {
      "op": "elemwise_add", 
      "name": "_plus154", 
      "inputs": [[247, 1, 0], [1017, 1, 0]]
    }, 
    {
      "op": "Activation", 
      "name": "gru_t51__z_act", 
      "attr": {"act_type": "sigmoid"}, 
      "inputs": [[1018, 0, 0]]
    }, 
    {
      "op": "_rminus_scalar", 
      "name": "_rminusscalar51", 
      "attr": {"scalar": "1.0"}, 
      "inputs": [[1019, 0, 0]]
    }, 
    {
      "op": "elemwise_add", 
      "name": "_plus153", 
      "inputs": [[247, 0, 0], [1017, 0, 0]]
    }, 
    {
      "op": "Activation", 
      "name": "gru_t51__r_act", 
      "attr": {"act_type": "sigmoid"}, 
      "inputs": [[1021, 0, 0]]
    }, 
    {
      "op": "_mul", 
      "name": "_mul153", 
      "inputs": [[1022, 0, 0], [1017, 2, 0]]
    }, 
    {
      "op": "elemwise_add", 
      "name": "_plus155", 
      "inputs": [[247, 2, 0], [1023, 0, 0]]
    }, 
    {
      "op": "Activation", 
      "name": "gru_t51__h_act", 
      "attr": {"act_type": "tanh"}, 
      "inputs": [[1024, 0, 0]]
    }, 
    {
      "op": "_mul", 
      "name": "_mul154", 
      "inputs": [[1020, 0, 0], [1025, 0, 0]]
    }, 
    {
      "op": "_mul", 
      "name": "_mul155", 
      "inputs": [[1019, 0, 0], [1015, 0, 0]]
    }, 
    {
      "op": "elemwise_add", 
      "name": "gru_t51_out", 
      "inputs": [[1026, 0, 0], [1027, 0, 0]]
    }, 
    {
      "op": "FullyConnected", 
      "name": "gru_t52__h2h", 
      "attr": {"num_hidden": "3"}, 
      "inputs": [[1028, 0, 0], [351, 0, 0], [352, 0, 0]]
    }, 
    {
      "op": "SliceChannel", 
      "name": "gru_t52__h2h_slice", 
      "attr": {"num_outputs": "3"}, 
      "inputs": [[1029, 0, 0]]
    }, 
    {
      "op": "elemwise_add", 
      "name": "_plus157", 
      "inputs": [[245, 1, 0], [1030, 1, 0]]
    }, 
    {
      "op": "Activation", 
      "name": "gru_t52__z_act", 
      "attr": {"act_type": "sigmoid"}, 
      "inputs": [[1031, 0, 0]]
    }, 
    {
      "op": "_rminus_scalar", 
      "name": "_rminusscalar52", 
      "attr": {"scalar": "1.0"}, 
      "inputs": [[1032, 0, 0]]
    }, 
    {
      "op": "elemwise_add", 
      "name": "_plus156", 
      "inputs": [[245, 0, 0], [1030, 0, 0]]
    }, 
    {
      "op": "Activation", 
      "name": "gru_t52__r_act", 
      "attr": {"act_type": "sigmoid"}, 
      "inputs": [[1034, 0, 0]]
    }, 
    {
      "op": "_mul", 
      "name": "_mul156", 
      "inputs": [[1035, 0, 0], [1030, 2, 0]]
    }, 
    {
      "op": "elemwise_add", 
      "name": "_plus158", 
      "inputs": [[245, 2, 0], [1036, 0, 0]]
    }, 
    {
      "op": "Activation", 
      "name": "gru_t52__h_act", 
      "attr": {"act_type": "tanh"}, 
      "inputs": [[1037, 0, 0]]
    }, 
    {
      "op": "_mul", 
      "name": "_mul157", 
      "inputs": [[1033, 0, 0], [1038, 0, 0]]
    }, 
    {
      "op": "_mul", 
      "name": "_mul158", 
      "inputs": [[1032, 0, 0], [1028, 0, 0]]
    }, 
    {
      "op": "elemwise_add", 
      "name": "gru_t52_out", 
      "inputs": [[1039, 0, 0], [1040, 0, 0]]
    }, 
    {
      "op": "FullyConnected", 
      "name": "gru_t53__h2h", 
      "attr": {"num_hidden": "3"}, 
      "inputs": [[1041, 0, 0], [351, 0, 0], [352, 0, 0]]
    }, 
    {
      "op": "SliceChannel", 
      "name": "gru_t53__h2h_slice", 
      "attr": {"num_outputs": "3"}, 
      "inputs": [[1042, 0, 0]]
    }, 
    {
      "op": "elemwise_add", 
      "name": "_plus160", 
      "inputs": [[243, 1, 0], [1043, 1, 0]]
    }, 
    {
      "op": "Activation", 
      "name": "gru_t53__z_act", 
      "attr": {"act_type": "sigmoid"}, 
      "inputs": [[1044, 0, 0]]
    }, 
    {
      "op": "_rminus_scalar", 
      "name": "_rminusscalar53", 
      "attr": {"scalar": "1.0"}, 
      "inputs": [[1045, 0, 0]]
    }, 
    {
      "op": "elemwise_add", 
      "name": "_plus159", 
      "inputs": [[243, 0, 0], [1043, 0, 0]]
    }, 
    {
      "op": "Activation", 
      "name": "gru_t53__r_act", 
      "attr": {"act_type": "sigmoid"}, 
      "inputs": [[1047, 0, 0]]
    }, 
    {
      "op": "_mul", 
      "name": "_mul159", 
      "inputs": [[1048, 0, 0], [1043, 2, 0]]
    }, 
    {
      "op": "elemwise_add", 
      "name": "_plus161", 
      "inputs": [[243, 2, 0], [1049, 0, 0]]
    }, 
    {
      "op": "Activation", 
      "name": "gru_t53__h_act", 
      "attr": {"act_type": "tanh"}, 
      "inputs": [[1050, 0, 0]]
    }, 
    {
      "op": "_mul", 
      "name": "_mul160", 
      "inputs": [[1046, 0, 0], [1051, 0, 0]]
    }, 
    {
      "op": "_mul", 
      "name": "_mul161", 
      "inputs": [[1045, 0, 0], [1041, 0, 0]]
    }, 
    {
      "op": "elemwise_add", 
      "name": "gru_t53_out", 
      "inputs": [[1052, 0, 0], [1053, 0, 0]]
    }, 
    {
      "op": "FullyConnected", 
      "name": "gru_t54__h2h", 
      "attr": {"num_hidden": "3"}, 
      "inputs": [[1054, 0, 0], [351, 0, 0], [352, 0, 0]]
    }, 
    {
      "op": "SliceChannel", 
      "name": "gru_t54__h2h_slice", 
      "attr": {"num_outputs": "3"}, 
      "inputs": [[1055, 0, 0]]
    }, 
    {
      "op": "elemwise_add", 
      "name": "_plus163", 
      "inputs": [[241, 1, 0], [1056, 1, 0]]
    }, 
    {
      "op": "Activation", 
      "name": "gru_t54__z_act", 
      "attr": {"act_type": "sigmoid"}, 
      "inputs": [[1057, 0, 0]]
    }, 
    {
      "op": "_rminus_scalar", 
      "name": "_rminusscalar54", 
      "attr": {"scalar": "1.0"}, 
      "inputs": [[1058, 0, 0]]
    }, 
    {
      "op": "elemwise_add", 
      "name": "_plus162", 
      "inputs": [[241, 0, 0], [1056, 0, 0]]
    }, 
    {
      "op": "Activation", 
      "name": "gru_t54__r_act", 
      "attr": {"act_type": "sigmoid"}, 
      "inputs": [[1060, 0, 0]]
    }, 
    {
      "op": "_mul", 
      "name": "_mul162", 
      "inputs": [[1061, 0, 0], [1056, 2, 0]]
    }, 
    {
      "op": "elemwise_add", 
      "name": "_plus164", 
      "inputs": [[241, 2, 0], [1062, 0, 0]]
    }, 
    {
      "op": "Activation", 
      "name": "gru_t54__h_act", 
      "attr": {"act_type": "tanh"}, 
      "inputs": [[1063, 0, 0]]
    }, 
    {
      "op": "_mul", 
      "name": "_mul163", 
      "inputs": [[1059, 0, 0], [1064, 0, 0]]
    }, 
    {
      "op": "_mul", 
      "name": "_mul164", 
      "inputs": [[1058, 0, 0], [1054, 0, 0]]
    }, 
    {
      "op": "elemwise_add", 
      "name": "gru_t54_out", 
      "inputs": [[1065, 0, 0], [1066, 0, 0]]
    }, 
    {
      "op": "FullyConnected", 
      "name": "gru_t55__h2h", 
      "attr": {"num_hidden": "3"}, 
      "inputs": [[1067, 0, 0], [351, 0, 0], [352, 0, 0]]
    }, 
    {
      "op": "SliceChannel", 
      "name": "gru_t55__h2h_slice", 
      "attr": {"num_outputs": "3"}, 
      "inputs": [[1068, 0, 0]]
    }, 
    {
      "op": "elemwise_add", 
      "name": "_plus166", 
      "inputs": [[239, 1, 0], [1069, 1, 0]]
    }, 
    {
      "op": "Activation", 
      "name": "gru_t55__z_act", 
      "attr": {"act_type": "sigmoid"}, 
      "inputs": [[1070, 0, 0]]
    }, 
    {
      "op": "_rminus_scalar", 
      "name": "_rminusscalar55", 
      "attr": {"scalar": "1.0"}, 
      "inputs": [[1071, 0, 0]]
    }, 
    {
      "op": "elemwise_add", 
      "name": "_plus165", 
      "inputs": [[239, 0, 0], [1069, 0, 0]]
    }, 
    {
      "op": "Activation", 
      "name": "gru_t55__r_act", 
      "attr": {"act_type": "sigmoid"}, 
      "inputs": [[1073, 0, 0]]
    }, 
    {
      "op": "_mul", 
      "name": "_mul165", 
      "inputs": [[1074, 0, 0], [1069, 2, 0]]
    }, 
    {
      "op": "elemwise_add", 
      "name": "_plus167", 
      "inputs": [[239, 2, 0], [1075, 0, 0]]
    }, 
    {
      "op": "Activation", 
      "name": "gru_t55__h_act", 
      "attr": {"act_type": "tanh"}, 
      "inputs": [[1076, 0, 0]]
    }, 
    {
      "op": "_mul", 
      "name": "_mul166", 
      "inputs": [[1072, 0, 0], [1077, 0, 0]]
    }, 
    {
      "op": "_mul", 
      "name": "_mul167", 
      "inputs": [[1071, 0, 0], [1067, 0, 0]]
    }, 
    {
      "op": "elemwise_add", 
      "name": "gru_t55_out", 
      "inputs": [[1078, 0, 0], [1079, 0, 0]]
    }, 
    {
      "op": "FullyConnected", 
      "name": "gru_t56__h2h", 
      "attr": {"num_hidden": "3"}, 
      "inputs": [[1080, 0, 0], [351, 0, 0], [352, 0, 0]]
    }, 
    {
      "op": "SliceChannel", 
      "name": "gru_t56__h2h_slice", 
      "attr": {"num_outputs": "3"}, 
      "inputs": [[1081, 0, 0]]
    }, 
    {
      "op": "elemwise_add", 
      "name": "_plus169", 
      "inputs": [[237, 1, 0], [1082, 1, 0]]
    }, 
    {
      "op": "Activation", 
      "name": "gru_t56__z_act", 
      "attr": {"act_type": "sigmoid"}, 
      "inputs": [[1083, 0, 0]]
    }, 
    {
      "op": "_rminus_scalar", 
      "name": "_rminusscalar56", 
      "attr": {"scalar": "1.0"}, 
      "inputs": [[1084, 0, 0]]
    }, 
    {
      "op": "elemwise_add", 
      "name": "_plus168", 
      "inputs": [[237, 0, 0], [1082, 0, 0]]
    }, 
    {
      "op": "Activation", 
      "name": "gru_t56__r_act", 
      "attr": {"act_type": "sigmoid"}, 
      "inputs": [[1086, 0, 0]]
    }, 
    {
      "op": "_mul", 
      "name": "_mul168", 
      "inputs": [[1087, 0, 0], [1082, 2, 0]]
    }, 
    {
      "op": "elemwise_add", 
      "name": "_plus170", 
      "inputs": [[237, 2, 0], [1088, 0, 0]]
    }, 
    {
      "op": "Activation", 
      "name": "gru_t56__h_act", 
      "attr": {"act_type": "tanh"}, 
      "inputs": [[1089, 0, 0]]
    }, 
    {
      "op": "_mul", 
      "name": "_mul169", 
      "inputs": [[1085, 0, 0], [1090, 0, 0]]
    }, 
    {
      "op": "_mul", 
      "name": "_mul170", 
      "inputs": [[1084, 0, 0], [1080, 0, 0]]
    }, 
    {
      "op": "elemwise_add", 
      "name": "gru_t56_out", 
      "inputs": [[1091, 0, 0], [1092, 0, 0]]
    }, 
    {
      "op": "FullyConnected", 
      "name": "gru_t57__h2h", 
      "attr": {"num_hidden": "3"}, 
      "inputs": [[1093, 0, 0], [351, 0, 0], [352, 0, 0]]
    }, 
    {
      "op": "SliceChannel", 
      "name": "gru_t57__h2h_slice", 
      "attr": {"num_outputs": "3"}, 
      "inputs": [[1094, 0, 0]]
    }, 
    {
      "op": "elemwise_add", 
      "name": "_plus172", 
      "inputs": [[235, 1, 0], [1095, 1, 0]]
    }, 
    {
      "op": "Activation", 
      "name": "gru_t57__z_act", 
      "attr": {"act_type": "sigmoid"}, 
      "inputs": [[1096, 0, 0]]
    }, 
    {
      "op": "_rminus_scalar", 
      "name": "_rminusscalar57", 
      "attr": {"scalar": "1.0"}, 
      "inputs": [[1097, 0, 0]]
…
    1105, 
    1106, 
    1107, 
    1108, 
    1109, 
    1110, 
    1111, 
    1112, 
    1113, 
    1116, 
    1117, 
    1118, 
    1119, 
    1120, 
    1121, 
    1122, 
    1123, 
    1124, 
    1125, 
    1126, 
    1127, 
    1128, 
    1131, 
    1132, 
    1133, 
    1134, 
    1135, 
    1136, 
    1137, 
    1138, 
    1139, 
    1140, 
    1141, 
    1142, 
    1143, 
    1146, 
    1147, 
    1148, 
    1149, 
    1150, 
    1151, 
    1152, 
    1153, 
    1154, 
    1155, 
    1156, 
    1157, 
    1158, 
    1161, 
    1162, 
    1163, 
    1164, 
    1165, 
    1166, 
    1167, 
    1168, 
    1169, 
    1170, 
    1171, 
    1172, 
    1173, 
    1176, 
    1177, 
    1178, 
    1179, 
    1180, 
    1181, 
    1182, 
    1183, 
    1184, 
    1185, 
    1186, 
    1187, 
    1188, 
    1191, 
    1192, 
    1193, 
    1194, 
    1195, 
    1196, 
    1197, 
    1198, 
    1199, 
    1200, 
    1201, 
    1202, 
    1203, 
    1206, 
    1207, 
    1208, 
    1209, 
    1210, 
    1211, 
    1212, 
    1213, 
    1214, 
    1215, 
    1216, 
    1217, 
    1218, 
    1221, 
    1222, 
    1223, 
    1224, 
    1225, 
    1226, 
    1227, 
    1228, 
    1229, 
    1230, 
    1231, 
    1232, 
    1233, 
    1236, 
    1237, 
    1238, 
    1239, 
    1240, 
    1241, 
    1242, 
    1243, 
    1244, 
    1245, 
    1246, 
    1247, 
    1248, 
    1251, 
    1252, 
    1253, 
    1254, 
    1255, 
    1256, 
    1257, 
    1258, 
    1259, 
    1260, 
    1261, 
    1262, 
    1263, 
    1266, 
    1267, 
    1268, 
    1269, 
    1270, 
    1271, 
    1272, 
    1273, 
    1274, 
    1275, 
    1276, 
    1277, 
    1278, 
    1281, 
    1282, 
    1283, 
    1284, 
    1285, 
    1286, 
    1287, 
    1288, 
    1289, 
    1290, 
    1291, 
    1292, 
    1293, 
    1296, 
    1297, 
    1298, 
    1299, 
    1300, 
    1301, 
    1302, 
    1303, 
    1304, 
    1305, 
    1306, 
    1307, 
    1308, 
    1311, 
    1312, 
    1313, 
    1314, 
    1315, 
    1316, 
    1317, 
    1318, 
    1319, 
    1320, 
    1321, 
    1322, 
    1323, 
    1326, 
    1327, 
    1328, 
    1329, 
    1330, 
    1331, 
    1332, 
    1333, 
    1334, 
    1335, 
    1336, 
    1337, 
    1338, 
    1341, 
    1342, 
    1343, 
    1344, 
    1345, 
    1346, 
    1347, 
    1348, 
    1349, 
    1350, 
    1351, 
    1352, 
    1353, 
    1356, 
    1357, 
    1358, 
    1359, 
    1360, 
    1361, 
    1362, 
    1363, 
    1364, 
    1365, 
    1366, 
    1367, 
    1368, 
    1371, 
    1372, 
    1373, 
    1374, 
    1375, 
    1376, 
    1377, 
    1378, 
    1379, 
    1380, 
    1381, 
    1382, 
    1383, 
    1386, 
    1387, 
    1388, 
    1389, 
    1390, 
    1391, 
    1392, 
    1393, 
    1394, 
    1395, 
    1396, 
    1397, 
    1398, 
    1401, 
    1402, 
    1403, 
    1404, 
    1405, 
    1406, 
    1407, 
    1408, 
    1409, 
    1410, 
    1411, 
    1412, 
    1413, 
    1416, 
    1417, 
    1418, 
    1419, 
    1420, 
    1421, 
    1422, 
    1423, 
    1424, 
    1425, 
    1426, 
    1427, 
    1428, 
    1431, 
    1432, 
    1433, 
    1434, 
    1435, 
    1436, 
    1437, 
    1438, 
    1439, 
    1440, 
    1441, 
    1442, 
    1443, 
    1446, 
    1447, 
    1448, 
    1449, 
    1450, 
    1451, 
    1452, 
    1453, 
    1454, 
    1455, 
    1456, 
    1457, 
    1458, 
    1461, 
    1462, 
    1463, 
    1464, 
    1465, 
    1466, 
    1467, 
    1468, 
    1469, 
    1470, 
    1471, 
    1472, 
    1473, 
    1476, 
    1477, 
    1478, 
    1479, 
    1480, 
    1481, 
    1482, 
    1483, 
    1484, 
    1485, 
    1486, 
    1487, 
    1488, 
    1491, 
    1492, 
    1493, 
    1494, 
    1495, 
    1496, 
    1497, 
    1498, 
    1499, 
    1500, 
    1501, 
    1502, 
    1503, 
    1506, 
    1507, 
    1508, 
    1509, 
    1510, 
    1511, 
    1512, 
    1513, 
    1514, 
    1515, 
    1516, 
    1517, 
    1518, 
    1521, 
    1522, 
    1523, 
    1524, 
    1525, 
    1526, 
    1527, 
    1528, 
    1529, 
    1530, 
    1531, 
    1532, 
    1533, 
    1536, 
    1537, 
    1538, 
    1539, 
    1540, 
    1541, 
    1542, 
    1543, 
    1544, 
    1545, 
    1546, 
    1547, 
    1548, 
    1551, 
    1552, 
    1553, 
    1554, 
    1555, 
    1556, 
    1557, 
    1558, 
    1559, 
    1560, 
    1561, 
    1562, 
    1563, 
    1566, 
    1567, 
    1568, 
    1569, 
    1570, 
    1571, 
    1572, 
    1573, 
    1574, 
    1575, 
    1576, 
    1577, 
    1578, 
    1581, 
    1582, 
    1583, 
    1584, 
    1585, 
    1586, 
    1587, 
    1588, 
    1589, 
    1590, 
    1591, 
    1592, 
    1593, 
    1596, 
    1597, 
    1598, 
    1599, 
    1600, 
    1601, 
    1602, 
    1603, 
    1604, 
    1605, 
    1606, 
    1607, 
    1608, 
    1611, 
    1612, 
    1613, 
    1614, 
    1615, 
    1616, 
    1617, 
    1618, 
    1619, 
    1620, 
    1621, 
    1622, 
    1623, 
    1626, 
    1627, 
    1628, 
    1629, 
    1630, 
    1631, 
    1632, 
    1633, 
    1634, 
    1635, 
    1636, 
    1637, 
    1638, 
    1641, 
    1642, 
    1643, 
    1644, 
    1645, 
    1646, 
    1647, 
    1648, 
    1649, 
    1650, 
    1651, 
    1652, 
    1653, 
    1656, 
    1657, 
    1658, 
    1659, 
    1660, 
    1661, 
    1662, 
    1663, 
    1664, 
    1665, 
    1666, 
    1667, 
    1668, 
    1671, 
    1672, 
    1673, 
    1674, 
    1675, 
    1676, 
    1677, 
    1678, 
    1679, 
    1680, 
    1681, 
    1682, 
    1683, 
    1686, 
    1687, 
    1688, 
    1689, 
    1690, 
    1691, 
    1692, 
    1693, 
    1694, 
    1695, 
    1696, 
    1697, 
    1698, 
    1701, 
    1702, 
    1703, 
    1704, 
    1705, 
    1706, 
    1707, 
    1708, 
    1709, 
    1710, 
    1711, 
    1712, 
    1713, 
    1716, 
    1717, 
    1718, 
    1719, 
    1720, 
    1721, 
    1722, 
    1723, 
    1724, 
    1725, 
    1726, 
    1727, 
    1728, 
    1731, 
    1732, 
    1733, 
    1734, 
    1735, 
    1736, 
    1737, 
    1738, 
    1739, 
    1740, 
    1741, 
    1742, 
    1743, 
    1746, 
    1747, 
    1748, 
    1749, 
    1750, 
    1751, 
    1752, 
    1753, 
    1754, 
    1755, 
    1756, 
    1757, 
    1758, 
    1761, 
    1762, 
    1763, 
    1764, 
    1765, 
    1766, 
    1767, 
    1768, 
    1769, 
    1770, 
    1771, 
    1772, 
    1773, 
    1776, 
    1777, 
    1778, 
    1779, 
    1780, 
    1781, 
    1782, 
    1783, 
    1784, 
    1785, 
    1786, 
    1787, 
    1788, 
    1791, 
    1792, 
    1793, 
    1794, 
    1795, 
    1796, 
    1797, 
    1798, 
    1799, 
    1800, 
    1801, 
    1802, 
    1803, 
    1806, 
    1807, 
    1808, 
    1809, 
    1810, 
    1811, 
    1812, 
    1813, 
    1814, 
    1815, 
    1816, 
    1817, 
    1818, 
    1821, 
    1822, 
    1823, 
    1824, 
    1825, 
    1826, 
    1827, 
    1828, 
    1829, 
    1830, 
    1831, 
    1832, 
    1833, 
    1836, 
    1837, 
    1838, 
    1839, 
    1840, 
    1841, 
    1842, 
    1843, 
    1844, 
    1845, 
    1846, 
    1847, 
    1848, 
    1851, 
    1852, 
    1853, 
    1854, 
    1855, 
    1856, 
    1857, 
    1858, 
    1859, 
    1860, 
    1861, 
    1862, 
    1863, 
    1866, 
    1867, 
    1868, 
    1869, 
    1870, 
    1871, 
    1872, 
    1873, 
    1874, 
    1875, 
    1876, 
    1877, 
    1878, 
    1881, 
    1882, 
    1883, 
    1884, 
    1885, 
    1886, 
    1887, 
    1888, 
    1889, 
    1890, 
    1891, 
    1892, 
    1893, 
    1896, 
    1897, 
    1898, 
    1899, 
    1900, 
    1901, 
    1902, 
    1903, 
    1904, 
    1905, 
    1906, 
    1907, 
    1908, 
    1911, 
    1912, 
    1913, 
    1914, 
    1915, 
    1916, 
    1917, 
    1918, 
    1919, 
    1920, 
    1921, 
    1922, 
    1923, 
    1926, 
    1927, 
    1928, 
    1929, 
    1930, 
    1931, 
    1932, 
    1933, 
    1934, 
    1935, 
    1936, 
    1937, 
    1938, 
    1941, 
    1942, 
    1943, 
    1944, 
    1945, 
    1946, 
    1947, 
    1948, 
    1949, 
    1950, 
    1951, 
    1952, 
    1953, 
    1956, 
    1957, 
    1958, 
    1959, 
    1960, 
    1961, 
    1962, 
    1963, 
    1964, 
    1965, 
    1966, 
    1967, 
    1968, 
    1971, 
    1972, 
    1973, 
    1974, 
    1975, 
    1976, 
    1977, 
    1978, 
    1979, 
    1980, 
    1981, 
    1982, 
    1983, 
    1986, 
    1987, 
    1988, 
    1989, 
    1990, 
    1991, 
    1992, 
    1993, 
    1994, 
    1995, 
    1996, 
    1997, 
    1998, 
    2001, 
    2002, 
    2003, 
    2004, 
    2005, 
    2006, 
    2007, 
    2008, 
    2009, 
    2010, 
    2011, 
    2012, 
    2013, 
    2016, 
    2017, 
    2018, 
    2019, 
    2020, 
    2021, 
    2022, 
    2023, 
    2024, 
    2025, 
    2026, 
    2027, 
    2028, 
    2031, 
    2032, 
    2033, 
    2034, 
    2035, 
    2036, 
    2037, 
    2038, 
    2039, 
    2040, 
    2041, 
    2042, 
    2043, 
    2046, 
    2047, 
    2048, 
    2049, 
    2050, 
    2051, 
    2052, 
    2053, 
    2054, 
    2055, 
    2056, 
    2057, 
    2058, 
    2061, 
    2062, 
    2063, 
    2064, 
    2065, 
    2066, 
    2067, 
    2068, 
    2069, 
    2070, 
    2071, 
    2072, 
    2073, 
    2076, 
    2077, 
    2078, 
    2079, 
    2080, 
    2081, 
    2082, 
    2083, 
    2084, 
    2085, 
    2086, 
    2087, 
    2088, 
    2091, 
    2092, 
    2093, 
    2094, 
    2095, 
    2096, 
    2097, 
    2098, 
    2099, 
    2100, 
    2101, 
    2102, 
    2103, 
    2106, 
    2107, 
    2108, 
    2109, 
    2110, 
    2111, 
    2112, 
    2113, 
    2114, 
    2115, 
    2116, 
    2117, 
    2118, 
    2121, 
    2122, 
    2123, 
    2124, 
    2125, 
    2126, 
    2127, 
    2128, 
    2129, 
    2130, 
    2131, 
    2132, 
    2133, 
    2136, 
    2137, 
    2138, 
    2139, 
    2140, 
    2141, 
    2142, 
    2143, 
    2144, 
    2145, 
    2146, 
    2147, 
    2148, 
    2151, 
    2152, 
    2153, 
    2154, 
    2155, 
    2156, 
    2157, 
    2158, 
    2159, 
    2160, 
    2161, 
    2162, 
    2163, 
    2166, 
    2167, 
    2168, 
    2169, 
    2170, 
    2171, 
    2172, 
    2173, 
    2174, 
    2175, 
    2176, 
    2177, 
    2178, 
    2181, 
    2182, 
    2183, 
    2184, 
    2185, 
    2186, 
    2187, 
    2188, 
    2189, 
    2190, 
    2191, 
    2192, 
    2193, 
    2196, 
    2197, 
    2198, 
    2199, 
    2200, 
    2201, 
    2202, 
    2203, 
    2204, 
    2205, 
    2206, 
    2207, 
    2208, 
    2211, 
    2212, 
    2213, 
    2214, 
    2215, 
    2216, 
    2217, 
    2218, 
    2219, 
    2220, 
    2221, 
    2222, 
    2223, 
    2226, 
    2227, 
    2228, 
    2229, 
    2230, 
    2231, 
    2232, 
    2233, 
    2234, 
    2235, 
    2236, 
    2237, 
    2238, 
    2241, 
    2242, 
    2243, 
    2244, 
    2245, 
    2246, 
    2247, 
    2248, 
    2249, 
    2250, 
    2251, 
    2252, 
    2253, 
    2256, 
    2257, 
    2258, 
    2259, 
    2260, 
    2261, 
    2262, 
    2263, 
    2264, 
    2265, 
    2266, 
    2267, 
    2268, 
    2271, 
    2272, 
    2273, 
    2274, 
    2275, 
    2276, 
    2277, 
    2278, 
    2279, 
    2280, 
    2281, 
    2282, 
    2283, 
    2286, 
    2287, 
    2288, 
    2289, 
    2290, 
    2291, 
    2292, 
    2293, 
    2294, 
    2295, 
    2296, 
    2297, 
    2298, 
    2301, 
    2302, 
    2303, 
    2304, 
    2305, 
    2306, 
    2307, 
    2308, 
    2309, 
    2310, 
    2311, 
    2312, 
    2313, 
    2316, 
    2317, 
    2318, 
    2319, 
    2320, 
    2321, 
    2322, 
    2323, 
    2324, 
    2325, 
    2326, 
    2327, 
    2328, 
    2331, 
    2332, 
    2333, 
    2334, 
    2335, 
    2336, 
    2337, 
    2338, 
    2339, 
    2340, 
    2341, 
    2342, 
    2343, 
    2346, 
    2347, 
    2348, 
    2349, 
    2350, 
    2351, 
    2352, 
    2353, 
    2354, 
    2355, 
    2356, 
    2357, 
    2358, 
    2361, 
    2362, 
    2363, 
    2364, 
    2365, 
    2366, 
    2367, 
    2368, 
    2369, 
    2370, 
    2371, 
    2372, 
    2373, 
    2376, 
    2377, 
    2378, 
    2379, 
    2380, 
    2381, 
    2382, 
    2383, 
    2384, 
    2385, 
    2386, 
    2387, 
    2388, 
    2391, 
    2392, 
    2393, 
    2394, 
    2395, 
    2396, 
    2397, 
    2398, 
    2399, 
    2400, 
    2401, 
    2402, 
    2403, 
    2406, 
    2407, 
    2408, 
    2409, 
    2410, 
    2411, 
    2412, 
    2413, 
    2414, 
    2415, 
    2416, 
    2417, 
    2418, 
    2421, 
    2422, 
    2423, 
    2424, 
    2425, 
    2426, 
    2427, 
    2428, 
    2429, 
    2430, 
    2431, 
    2432, 
    2433, 
    2436, 
    2437, 
    2438, 
    2439, 
    2440, 
    2441, 
    2442, 
    2443, 
    2444, 
    2445, 
    2446, 
    2447, 
    2448, 
    2451, 
    2452, 
    2453, 
    2454, 
    2455, 
    2456, 
    2457, 
    2458, 
    2459, 
    2460, 
    2461, 
    2462, 
    2463, 
    2466, 
    2467, 
    2468, 
    2469, 
    2470, 
    2471, 
    2472, 
    2473, 
    2474, 
    2475, 
    2476, 
    2477, 
    2478, 
    2481, 
    2482, 
    2483, 
    2484, 
    2485, 
    2486, 
    2487, 
    2488, 
    2489, 
    2490, 
    2491, 
    2492, 
    2493, 
    2496, 
    2497, 
    2498, 
    2499, 
    2500, 
    2501, 
    2502, 
    2503, 
    2504, 
    2505, 
    2506, 
    2507, 
    2508, 
    2511, 
    2512, 
    2513, 
    2514, 
    2515, 
    2516, 
    2517, 
    2518, 
    2519, 
    2520, 
    2521, 
    2522, 
    2523, 
    2526, 
    2527, 
    2528, 
    2529, 
    2530, 
    2531, 
    2532, 
    2533, 
    2534, 
    2535, 
    2536, 
    2537, 
    2538, 
    2541, 
    2542, 
    2543, 
    2544, 
    2545, 
    2546, 
    2547, 
    2548, 
    2549, 
    2550, 
    2551, 
    2552, 
    2553, 
    2556, 
    2557, 
    2558, 
    2559, 
    2560, 
    2561, 
    2562, 
    2563, 
    2564, 
    2565, 
    2566, 
    2567, 
    2568, 
    2571, 
    2572, 
    2573, 
    2574, 
    2575, 
    2576, 
    2577, 
    2578, 
    2579, 
    2580, 
    2581, 
    2582, 
    2583, 
    2586, 
    2587, 
    2588, 
    2589, 
    2590, 
    2591, 
    2592, 
    2593, 
    2594, 
    2595, 
    2596, 
    2597, 
    2598, 
    2601, 
    2602, 
    2603, 
    2604, 
    2605, 
    2606, 
    2607, 
    2608, 
    2609, 
    2610, 
    2611, 
    2612, 
    2613, 
    2616, 
    2617, 
    2618, 
    2619, 
    2620, 
    2621, 
    2622, 
    2623, 
    2624, 
    2625, 
    2626, 
    2627, 
    2628, 
    2631, 
    2632, 
    2633, 
    2634, 
    2635, 
    2636, 
    2637, 
    2638, 
    2639, 
    2640, 
    2641, 
    2642, 
    2643, 
    2646, 
    2647, 
    2648, 
    2649, 
    2650, 
    2651, 
    2652, 
    2653, 
    2654, 
    2655, 
    2656, 
    2657, 
    2658, 
    2661, 
    2662, 
    2663, 
    2664, 
    2665, 
    2666, 
    2667, 
    2668, 
    2669, 
    2670, 
    2671, 
    2672, 
    2673, 
    2676, 
    2677, 
    2678, 
    2679, 
    2680, 
    2681, 
    2682, 
    2683, 
    2684, 
    2685, 
    2686, 
    2687, 
    2688, 
    2691, 
    2692, 
    2693, 
    2694, 
    2695, 
    2696, 
    2697, 
    2698, 
    2699, 
    2700, 
    2701, 
    2702, 
    2703, 
    2706, 
    2707, 
    2708, 
    2709, 
    2710, 
    2711, 
    2712, 
    2713, 
    2714, 
    2715, 
    2716, 
    2717, 
    2718, 
    2721, 
    2722, 
    2723, 
    2724, 
    2725, 
    2726, 
    2727, 
    2728, 
    2729, 
    2730, 
    2731, 
    2732, 
    2733, 
    2736, 
    2737, 
    2738, 
    2739, 
    2740, 
    2741, 
    2742, 
    2743, 
    2744, 
    2745, 
    2746, 
    2747, 
    2748, 
    2751, 
    2752, 
    2753, 
    2754, 
    2755, 
    2756, 
    2757, 
    2758, 
    2759, 
    2760, 
    2761, 
    2762, 
    2763, 
    2766, 
    2767, 
    2768, 
    2769, 
    2770, 
    2771, 
    2772, 
    2773, 
    2774, 
    2775, 
    2776, 
    2777, 
    2778, 
    2781, 
    2782, 
    2783, 
    2784, 
    2785, 
    2786, 
    2787, 
    2788, 
    2789, 
    2790, 
    2791, 
    2792, 
    2793, 
    2796, 
    2797, 
    2798, 
    2799, 
    2800, 
    2801, 
    2802, 
    2803, 
    2804, 
    2805, 
    2806, 
    2807, 
    2808, 
    2811, 
    2812, 
    2813, 
    2814, 
    2815, 
    2816, 
    2817, 
    2818, 
    2819, 
    2820, 
    2821, 
    2822, 
    2823, 
    2826, 
    2827, 
    2828, 
    2829, 
    2830, 
    2831, 
    2832, 
    2833, 
    2834, 
    2835, 
    2836, 
    2837, 
    2838, 
    2841, 
    2842, 
    2843, 
    2844, 
    2845, 
    2846, 
    2847, 
    2848, 
    2849, 
    2850, 
    2851, 
    2852, 
    2853, 
    2856, 
    2857, 
    2858, 
    2859, 
    2860, 
    2861, 
    2862, 
    2863, 
    2864, 
    2865, 
    2866, 
    2867, 
    2868, 
    2871, 
    2872, 
    2873, 
    2874, 
    2875, 
    2876, 
    2877, 
    2878, 
    2879, 
    2880, 
    2881, 
    2882, 
    2883, 
    2886, 
    2887, 
    2888, 
    2889, 
    2890, 
    2891, 
    2892, 
    2893, 
    2894, 
    2895, 
    2896, 
    2897, 
    2898, 
    2901, 
    2902, 
    2903, 
    2904, 
    2905, 
    2906, 
    2907, 
    2908, 
    2909, 
    2910, 
    2911, 
    2912, 
    2913, 
    2916, 
    2917, 
    2918, 
    2919, 
    2920, 
    2921, 
    2922, 
    2923, 
    2924, 
    2925, 
    2926, 
    2927, 
    2928, 
    2931, 
    2932, 
    2933, 
    2934, 
    2935, 
    2936, 
    2937, 
    2938, 
    2939, 
    2940, 
    2941, 
    2942, 
    2943, 
    2946, 
    2947, 
    2948, 
    2949, 
    2950, 
    2951, 
    2952, 
    2953, 
    2954, 
    2955, 
    2956, 
    2957, 
    2958, 
    2961, 
    2962, 
    2963, 
    2964, 
    2965, 
    2966, 
    2967, 
    2968, 
    2969, 
    2970, 
    2971, 
    2972, 
    2973, 
    2976, 
    2977, 
    2978, 
    2979, 
    2980, 
    2981, 
    2982, 
    2983, 
    2984, 
    2985, 
    2986, 
    2987, 
    2988, 
    2991, 
    2992, 
    2993, 
    2994, 
    2995, 
    2996, 
    2997, 
    2998, 
    2999, 
    3000, 
    3001, 
    3002, 
    3003, 
    3006, 
    3007, 
    3008, 
    3009, 
    3010, 
    3011, 
    3012, 
    3013, 
    3014, 
    3015, 
    3016, 
    3017, 
    3018, 
    3021, 
    3022, 
    3023, 
    3024, 
    3025, 
    3026, 
    3027, 
    3028, 
    3029, 
    3030, 
    3031, 
    3032, 
    3033, 
    3036, 
    3037, 
    3038, 
    3039, 
    3040, 
    3041, 
    3042, 
    3043, 
    3044, 
    3045, 
    3046, 
    3047, 
    3048, 
    3051, 
    3052, 
    3053, 
    3054, 
    3055, 
    3056, 
    3057, 
    3058, 
    3059, 
    3060, 
    3061, 
    3062, 
    3063, 
    3066, 
    3067, 
    3068, 
    3069, 
    3070, 
    3071, 
    3072, 
    3073, 
    3074, 
    3075, 
    3076, 
    3077, 
    3078, 
    3081, 
    3082, 
    3083, 
    3084, 
    3085, 
    3086, 
    3087, 
    3088, 
    3089, 
    3090, 
    3091, 
    3092, 
    3093, 
    3096, 
    3097, 
    3098, 
    3099, 
    3100, 
    3101, 
    3102, 
    3103, 
    3104, 
    3105, 
    3106, 
    3107, 
    3108, 
    3111, 
    3112, 
    3113, 
    3114, 
    3115, 
    3116, 
    3117, 
    3118, 
    3119, 
    3120, 
    3121, 
    3122, 
    3123, 
    3126, 
    3127, 
    3128, 
    3129, 
    3130, 
    3131, 
    3132, 
    3133, 
    3134, 
    3135, 
    3136, 
    3137, 
    3138, 
    3141, 
    3142, 
    3143, 
    3144, 
    3145, 
    3146, 
    3147, 
    3148, 
    3149, 
    3150, 
    3151, 
    3152, 
    3153, 
    3156, 
    3157, 
    3158, 
    3159, 
    3160, 
    3161, 
    3162, 
    3163, 
    3164, 
    3165, 
    3166, 
    3167, 
    3168, 
    3171, 
    3172, 
    3173, 
    3174, 
    3175, 
    3176, 
    3177, 
    3178, 
    3179, 
    3180, 
    3181, 
    3182, 
    3183, 
    3186, 
    3187, 
    3188, 
    3189, 
    3190, 
    3191, 
    3192, 
    3193, 
    3194, 
    3195, 
    3196, 
    3197, 
    3198, 
    3201, 
    3202, 
    3203, 
    3204, 
    3205, 
    3206, 
    3207, 
    3208, 
    3209, 
    3210, 
    3211, 
    3212, 
    3213, 
    3216, 
    3217, 
    3218, 
    3219, 
    3220, 
    3221, 
    3222, 
    3223, 
    3224, 
    3225, 
    3226, 
    3227, 
    3228, 
    3231, 
    3232, 
    3233, 
    3234, 
    3235, 
    3236, 
    3237, 
    3238, 
    3239, 
    3240, 
    3241, 
    3242, 
    3243, 
    3246, 
    3247, 
    3248, 
    3249, 
    3250, 
    3251, 
    3252, 
    3253, 
    3254, 
    3255, 
    3256, 
    3257, 
    3258, 
    3261, 
    3262, 
    3263, 
    3264, 
    3265, 
    3266, 
    3267, 
    3268, 
    3269, 
    3270, 
    3271, 
    3272, 
    3273, 
    3276, 
    3277, 
    3278, 
    3279, 
    3280, 
    3281, 
    3282, 
    3283, 
    3284, 
    3285, 
    3286, 
    3287, 
    3288, 
    3291, 
    3292, 
    3293, 
    3294, 
    3295, 
    3296, 
    3297, 
    3298, 
    3299, 
    3300, 
    3301, 
    3302, 
    3303, 
    3306, 
    3307, 
    3308, 
    3309, 
    3310, 
    3311, 
    3312, 
    3313, 
    3314, 
    3315, 
    3316, 
    3317, 
    3318, 
    3321, 
    3322, 
    3323, 
    3324, 
    3325, 
    3326, 
    3327, 
    3328, 
    3329, 
    3330, 
    3331, 
    3332, 
    3333, 
    3336, 
    3337, 
    3338, 
    3339, 
    3340, 
    3341, 
    3342, 
    3343, 
    3344, 
    3345, 
    3346, 
    3347, 
    3348, 
    3351, 
    3352, 
    3353, 
    3354, 
    3355, 
    3356, 
    3357, 
    3358, 
    3359, 
    3360, 
    3361, 
    3362, 
    3363, 
    3366, 
    3367, 
    3368, 
    3369, 
    3370, 
    3371, 
    3372, 
    3373, 
    3374, 
    3375, 
    3376, 
    3377, 
    3378, 
    3380, 
    3548, 
    3549, 
    3550, 
    3551, 
    3554, 
    3555, 
    3558, 
    3559, 
    3562, 
    3563, 
    3566, 
    3567, 
    3570, 
    3571, 
    3574, 
    3575, 
    3578, 
    3579, 
    3582, 
    3583, 
    3586, 
    3587, 
    3590, 
    3591, 
    3594, 
    3595, 
    3598, 
    3599, 
    3602, 
    3603, 
    3606, 
    3607, 
    3610, 
    3611, 
    3614, 
    3615, 
    3618, 
    3619, 
    3622, 
    3623, 
    3626, 
    3627, 
    3630, 
    3631, 
    3634, 
    3635, 
    3638, 
    3639, 
    3642, 
    3643, 
    3646, 
    3647, 
    3650, 
    3651, 
    3654, 
    3655, 
    3658, 
    3659, 
    3662, 
    3663, 
    3666, 
    3667, 
    3670, 
    3671, 
    3674, 
    3675, 
    3678, 
    3679, 
    3682, 
    3683, 
    3686, 
    3687, 
    3690, 
    3691, 
    3694, 
    3695, 
    3698, 
    3699, 
    3702, 
    3703, 
    3706, 
    3707, 
    3710, 
    3711, 
    3714, 
    3715, 
    3718, 
    3719, 
    3722, 
    3723, 
    3726, 
    3727, 
    3730, 
    3731, 
    3734, 
    3735, 
    3738, 
    3739, 
    3742, 
    3743, 
    3746, 
    3747, 
    3750, 
    3751, 
    3754, 
    3755, 
    3758, 
    3759, 
    3762, 
    3763, 
    3766, 
    3767, 
    3770, 
    3771, 
    3774, 
    3775, 
    3778, 
    3779, 
    3782, 
    3783, 
    3786, 
    3787, 
    3790, 
    3791, 
    3794, 
    3795, 
    3798, 
    3799, 
    3802, 
    3803, 
    3806, 
    3807, 
    3810, 
    3811, 
    3814, 
    3815, 
    3818, 
    3819, 
    3822, 
    3823, 
    3826, 
    3827, 
    3830, 
    3831, 
    3834, 
    3835, 
    3838, 
    3839, 
    3842, 
    3843, 
    3846, 
    3847, 
    3850, 
    3851, 
    3854, 
    3855, 
    3858, 
    3859, 
    3862, 
    3863, 
    3866, 
    3867, 
    3870, 
    3871, 
    3874, 
    3875, 
    3878, 
    3879, 
    3882, 
    3883, 
    3886, 
    3887, 
    3890, 
    3891, 
    3894, 
    3895, 
    3898, 
    3899, 
    3902, 
    3903, 
    3906, 
    3907, 
    3910, 
    3911, 
    3914, 
    3915, 
    3918, 
    3919, 
    3922, 
    3923, 
    3926, 
    3927, 
    3930, 
    3931, 
    3934, 
    3935, 
    3938, 
    3939, 
    3942, 
    3943, 
    3946, 
    3947, 
    3950, 
    3951, 
    3954, 
    3955, 
    3958, 
    3959, 
    3962, 
    3963, 
    3966, 
    3967, 
    3970, 
    3971, 
    3974, 
    3975, 
    3978, 
    3979, 
    3982, 
    3983, 
    3986, 
    3987, 
    3990, 
    3991, 
    3994, 
    3995, 
    3998, 
    3999, 
    4002, 
    4003, 
    4006, 
    4007, 
    4010, 
    4011, 
    4014, 
    4015, 
    4018, 
    4019, 
    4022, 
    4023, 
    4026, 
    4027, 
    4030, 
    4031, 
    4034, 
    4035, 
    4038, 
    4039, 
    4042, 
    4043, 
    4046, 
    4047, 
    4050, 
    4051, 
    4054, 
    4055, 
    4058, 
    4059, 
    4062, 
    4063, 
    4066, 
    4067, 
    4070, 
    4071, 
    4074, 
    4075, 
    4078, 
    4079, 
    4082, 
    4083, 
    4086, 
    4087, 
    4090, 
    4091, 
    4094, 
    4095, 
    4098, 
    4099, 
    4102, 
    4103, 
    4106, 
    4107, 
    4110, 
    4111, 
    4114, 
    4115, 
    4118, 
    4119, 
    4122, 
    4123, 
    4126, 
    4127, 
    4130, 
    4131, 
    4132, 
    4133, 
    4134, 
    4137, 
    4138, 
    4139, 
    4140, 
    4141, 
    4142, 
    4143, 
    4144, 
    4145, 
    4146, 
    4147, 
    4148, 
    4149, 
    4152, 
    4153, 
    4154, 
    4155, 
    4156, 
    4157, 
    4158, 
    4159, 
    4160, 
    4161, 
    4162, 
    4163, 
    4164, 
    4167, 
    4168, 
    4169, 
    4170, 
    4171, 
    4172, 
    4173, 
    4174, 
    4175, 
    4176, 
    4177, 
    4178, 
    4179, 
    4182, 
    4183, 
    4184, 
    4185, 
    4186, 
    4187, 
    4188, 
    4189, 
    4190, 
    4191, 
    4192, 
    4193, 
    4194, 
    4197, 
    4198, 
    4199, 
    4200, 
    4201, 
    4202, 
    4203, 
    4204, 
    4205, 
    4206, 
    4207, 
    4208, 
    4209, 
    4212, 
    4213, 
    4214, 
    4215, 
    4216, 
    4217, 
    4218, 
    4219, 
    4220, 
    4221, 
    4222, 
    4223, 
    4224, 
    4227, 
    4228, 
    4229, 
    4230, 
    4231, 
    4232, 
    4233, 
    4234, 
    4235, 
    4236, 
    4237, 
    4238, 
    4239, 
    4242, 
    4243, 
    4244, 
    4245, 
    4246, 
    4247, 
    4248, 
    4249, 
    4250, 
    4251, 
    4252, 
    4253, 
    4254, 
    4257, 
    4258, 
    4259, 
    4260, 
    4261, 
    4262, 
    4263, 
    4264, 
    4265, 
    4266, 
    4267, 
    4268, 
    4269, 
    4272, 
    4273, 
    4274, 
    4275, 
    4276, 
    4277, 
    4278, 
    4279, 
    4280, 
    4281, 
    4282, 
    4283, 
    4284, 
    4287, 
    4288, 
    4289, 
    4290, 
    4291, 
    4292, 
    4293, 
    4294, 
    4295, 
    4296, 
    4297, 
    4298, 
    4299, 
    4302, 
    4303, 
    4304, 
    4305, 
    4306, 
    4307, 
    4308, 
    4309, 
    4310, 
    4311, 
    4312, 
    4313, 
    4314, 
    4317, 
    4318, 
    4319, 
    4320, 
    4321, 
    4322, 
    4323, 
    4324, 
    4325, 
    4326, 
    4327, 
    4328, 
    4329, 
    4332, 
    4333, 
    4334, 
    4335, 
    4336, 
    4337, 
    4338, 
    4339, 
    4340, 
    4341, 
    4342, 
    4343, 
    4344, 
    4347, 
    4348, 
    4349, 
    4350, 
    4351, 
    4352, 
    4353, 
    4354, 
    4355, 
    4356, 
    4357, 
    4358, 
    4359, 
    4362, 
    4363, 
    4364, 
    4365, 
    4366, 
    4367, 
    4368, 
    4369, 
    4370, 
    4371, 
    4372, 
    4373, 
    4374, 
    4377, 
    4378, 
    4379, 
    4380, 
    4381, 
    4382, 
    4383, 
    4384, 
    4385, 
    4386, 
    4387, 
    4388, 
    4389, 
    4392, 
    4393, 
    4394, 
    4395, 
    4396, 
    4397, 
    4398, 
    4399, 
    4400, 
    4401, 
    4402, 
    4403, 
    4404, 
    4407, 
    4408, 
    4409, 
    4410, 
    4411, 
    4412, 
    4413, 
    4414, 
    4415, 
    4416, 
    4417, 
    4418, 
    4419, 
    4422, 
    4423, 
    4424, 
    4425, 
    4426, 
    4427, 
    4428, 
    4429, 
    4430, 
    4431, 
    4432, 
    4433, 
    4434, 
    4437, 
    4438, 
    4439, 
    4440, 
    4441, 
    4442, 
    4443, 
    4444, 
    4445, 
    4446, 
    4447, 
    4448, 
    4449, 
    4452, 
    4453, 
    4454, 
    4455, 
    4456, 
    4457, 
    4458, 
    4459, 
    4460, 
    4461, 
    4462, 
    4463, 
    4464, 
    4467, 
    4468, 
    4469, 
    4470, 
    4471, 
    4472, 
    4473, 
    4474, 
    4475, 
    4476, 
    4477, 
    4478, 
    4479, 
    4482, 
    4483, 
    4484, 
    4485, 
    4486, 
    4487, 
    4488, 
    4489, 
    4490, 
    4491, 
    4492, 
    4493, 
    4494, 
    4497, 
    4498, 
    4499, 
    4500, 
    4501, 
    4502, 
    4503, 
    4504, 
    4505, 
    4506, 
    4507, 
    4508, 
    4509, 
    4512, 
    4513, 
    4514, 
    4515, 
    4516, 
    4517, 
    4518, 
    4519, 
    4520, 
    4521, 
    4522, 
    4523, 
    4524, 
    4527, 
    4528, 
    4529, 
    4530, 
    4531, 
    4532, 
    4533, 
    4534, 
    4535, 
    4536, 
    4537, 
    4538, 
    4539, 
    4542, 
    4543, 
    4544, 
    4545, 
    4546, 
    4547, 
    4548, 
    4549, 
    4550, 
    4551, 
    4552, 
    4553, 
    4554, 
    4557, 
    4558, 
    4559, 
    4560, 
    4561, 
    4562, 
    4563, 
    4564, 
    4565, 
    4566, 
    4567, 
    4568, 
    4569, 
    4572, 
    4573, 
    4574, 
    4575, 
    4576, 
    4577, 
    4578, 
    4579, 
    4580, 
    4581, 
    4582, 
    4583, 
    4584, 
    4587, 
    4588, 
    4589, 
    4590, 
    4591, 
    4592, 
    4593, 
    4594, 
    4595, 
    4596, 
    4597, 
    4598, 
    4599, 
    4602, 
    4603, 
    4604, 
    4605, 
    4606, 
    4607, 
    4608, 
    4609, 
    4610, 
    4611, 
    4612, 
    4613, 
    4614, 
    4617, 
    4618, 
    4619, 
    4620, 
    4621, 
    4622, 
    4623, 
    4624, 
    4625, 
    4626, 
    4627, 
    4628, 
    4629, 
    4632, 
    4633, 
    4634, 
    4635, 
    4636, 
    4637, 
    4638, 
    4639, 
    4640, 
    4641, 
    4642, 
    4643, 
    4644, 
    4647, 
    4648, 
    4649, 
    4650, 
    4651, 
    4652, 
    4653, 
    4654, 
    4655, 
    4656, 
    4657, 
    4658, 
    4659, 
    4662, 
    4663, 
    4664, 
    4665, 
    4666, 
    4667, 
    4668, 
    4669, 
    4670, 
    4671, 
    4672, 
    4673, 
    4674, 
    4677, 
    4678, 
    4679, 
    4680, 
    4681, 
    4682, 
    4683, 
    4684, 
    4685, 
    4686, 
    4687, 
    4688, 
    4689, 
    4692, 
    4693, 
    4694, 
    4695, 
    4696, 
    4697, 
    4698, 
    4699, 
    4700, 
    4701, 
    4702, 
    4703, 
    4704, 
    4707, 
    4708, 
    4709, 
    4710, 
    4711, 
    4712, 
    4713, 
    4714, 
    4715, 
    4716, 
    4717, 
    4718, 
    4719, 
    4722, 
    4723, 
    4724, 
    4725, 
    4726, 
    4727, 
    4728, 
    4729, 
    4730, 
    4731, 
    4732, 
    4733, 
    4734, 
    4737, 
    4738, 
    4739, 
    4740, 
    4741, 
    4742, 
    4743, 
    4744, 
    4745, 
    4746, 
    4747, 
    4748, 
    4749, 
    4752, 
    4753, 
    4754, 
    4755, 
    4756, 
    4757, 
    4758, 
    4759, 
    4760, 
    4761, 
    4762, 
    4763, 
    4764, 
    4767, 
    4768, 
    4769, 
    4770, 
    4771, 
    4772, 
    4773, 
    4774, 
    4775, 
    4776, 
    4777, 
    4778, 
    4779, 
    4782, 
    4783, 
    4784, 
    4785, 
    4786, 
    4787, 
    4788, 
    4789, 
    4790, 
    4791, 
    4792, 
    4793, 
    4794, 
    4797, 
    4798, 
    4799, 
    4800, 
    4801, 
    4802, 
    4803, 
    4804, 
    4805, 
    4806, 
    4807, 
    4808, 
    4809, 
    4812, 
    4813, 
    4814, 
    4815, 
    4816, 
    4817, 
    4818, 
    4819, 
    4820, 
    4821, 
    4822, 
    4823, 
    4824, 
    4827, 
    4828, 
    4829, 
    4830, 
    4831, 
    4832, 
    4833, 
    4834, 
    4835, 
    4836, 
    4837, 
    4838, 
    4839, 
    4842, 
    4843, 
    4844, 
    4845, 
    4846, 
    4847, 
    4848, 
    4849, 
    4850, 
    4851, 
    4852, 
    4853, 
    4854, 
    4857, 
    4858, 
    4859, 
    4860, 
    4861, 
    4862, 
    4863, 
    4864, 
    4865, 
    4866, 
    4867, 
    4868, 
    4869, 
    4872, 
    4873, 
    4874, 
    4875, 
    4876, 
    4877, 
    4878, 
    4879, 
    4880, 
    4881, 
    4882, 
    4883, 
    4884, 
    4887, 
    4888, 
    4889, 
    4890, 
    4891, 
    4892, 
    4893, 
    4894, 
    4895, 
    4896, 
    4897, 
    4898, 
    4899, 
    4902, 
    4903, 
    4904, 
    4905, 
    4906, 
    4907, 
    4908, 
    4909, 
    4910, 
    4911, 
    4912, 
    4913, 
    4914, 
    4917, 
    4918, 
    4919, 
    4920, 
    4921, 
    4922, 
    4923, 
    4924, 
    4925, 
    4926, 
    4927, 
    4928, 
    4929, 
    4932, 
    4933, 
    4934, 
    4935, 
    4936, 
    4937, 
    4938, 
    4939, 
    4940, 
    4941, 
    4942, 
    4943, 
    4944, 
    4947, 
    4948, 
    4949, 
    4950, 
    4951, 
    4952, 
    4953, 
    4954, 
    4955, 
    4956, 
    4957, 
    4958, 
    4959, 
    4962, 
    4963, 
    4964, 
    4965, 
    4966, 
    4967, 
    4968, 
    4969, 
    4970, 
    4971, 
    4972, 
    4973, 
    4974, 
    4977, 
    4978, 
    4979, 
    4980, 
    4981, 
    4982, 
    4983, 
    4984, 
    4985, 
    4986, 
    4987, 
    4988, 
    4989, 
    4992, 
    4993, 
    4994, 
    4995, 
    4996, 
    4997, 
    4998, 
    4999, 
    5000, 
    5001, 
    5002, 
    5003, 
    5004, 
    5007, 
    5008, 
    5009, 
    5010, 
    5011, 
    5012, 
    5013, 
    5014, 
    5015, 
    5016, 
    5017, 
    5018, 
    5019, 
    5022, 
    5023, 
    5024, 
    5025, 
    5026, 
    5027, 
    5028, 
    5029, 
    5030, 
    5031, 
    5032, 
    5033, 
    5034, 
    5037, 
    5038, 
    5039, 
    5040, 
    5041, 
    5042, 
    5043, 
    5044, 
    5045, 
    5046, 
    5047, 
    5048, 
    5049, 
    5052, 
    5053, 
    5054, 
    5055, 
    5056, 
    5057, 
    5058, 
    5059, 
    5060, 
    5061, 
    5062, 
    5063, 
    5064, 
    5067, 
    5068, 
    5069, 
    5070, 
    5071, 
    5072, 
    5073, 
    5074, 
    5075, 
    5076, 
    5077, 
    5078, 
    5079, 
    5082, 
    5083, 
    5084, 
    5085, 
    5086, 
    5087, 
    5088, 
    5089, 
    5090, 
    5091, 
    5092, 
    5093, 
    5094, 
    5097, 
    5098, 
    5099, 
    5100, 
    5101, 
    5102, 
    5103, 
    5104, 
    5105, 
    5106, 
    5107, 
    5108, 
    5109, 
    5112, 
    5113, 
    5114, 
    5115, 
    5116, 
    5117, 
    5118, 
    5119, 
    5120, 
    5121, 
    5122, 
    5123, 
    5124, 
    5127, 
    5128, 
    5129, 
    5130, 
    5131, 
    5132, 
    5133, 
    5134, 
    5135, 
    5136, 
    5137, 
    5138, 
    5139, 
    5142, 
    5143, 
    5144, 
    5145, 
    5146, 
    5147, 
    5148, 
    5149, 
    5150, 
    5151, 
    5152, 
    5153, 
    5154, 
    5157, 
    5158, 
    5159, 
    5160, 
    5161, 
    5162, 
    5163, 
    5164, 
    5165, 
    5166, 
    5167, 
    5168, 
    5169, 
    5172, 
    5173, 
    5174, 
    5175, 
    5176, 
    5177, 
    5178, 
    5179, 
    5180, 
    5181, 
    5182, 
    5183, 
    5184, 
    5187, 
    5188, 
    5189, 
    5190, 
    5191, 
    5192, 
    5193, 
    5194, 
    5195, 
    5196, 
    5197, 
    5198, 
    5199, 
    5202, 
    5203, 
    5204, 
    5205, 
    5206, 
    5207, 
    5208, 
    5209, 
    5210, 
    5211, 
    5212, 
    5213, 
    5214, 
    5217, 
    5218, 
    5219, 
    5220, 
    5221, 
    5222, 
    5223, 
    5224, 
    5225, 
    5226, 
    5227, 
    5228, 
    5229, 
    5232, 
    5233, 
    5234, 
    5235, 
    5236, 
    5237, 
    5238, 
    5239, 
    5240, 
    5241, 
    5242, 
    5243, 
    5244, 
    5247, 
    5248, 
    5249, 
    5250, 
    5251, 
    5252, 
    5253, 
    5254, 
    5255, 
    5256, 
    5257, 
    5258, 
    5259, 
    5262, 
    5263, 
    5264, 
    5265, 
    5266, 
    5267, 
    5268, 
    5269, 
    5270, 
    5271, 
    5272, 
    5273, 
    5274, 
    5277, 
    5278, 
    5279, 
    5280, 
    5281, 
    5282, 
    5283, 
    5284, 
    5285, 
    5286, 
    5287, 
    5288, 
    5289, 
    5292, 
    5293, 
    5294, 
    5295, 
    5296, 
    5297, 
    5298, 
    5299, 
    5300, 
    5301, 
    5302, 
    5303, 
    5304, 
    5307, 
    5308, 
    5309, 
    5310, 
    5311, 
    5312, 
    5313, 
    5314, 
    5315, 
    5316, 
    5317, 
    5318, 
    5319, 
    5322, 
    5323, 
    5324, 
    5325, 
    5326, 
    5327, 
    5328, 
    5329, 
    5330, 
    5331, 
    5332, 
    5333, 
    5334, 
    5337, 
    5338, 
    5339, 
    5340, 
    5341, 
    5342, 
    5343, 
    5344, 
    5345, 
    5346, 
    5347, 
    5348, 
    5349, 
    5352, 
    5353, 
    5354, 
    5355, 
    5356, 
    5357, 
    5358, 
    5359, 
    5360, 
    5361, 
    5362, 
    5363, 
    5364, 
    5367, 
    5368, 
    5369, 
    5370, 
    5371, 
    5372, 
    5373, 
    5374, 
    5375, 
    5376, 
    5377, 
    5378, 
    5379, 
    5382, 
    5383, 
    5384, 
    5385, 
    5386, 
    5387, 
    5388, 
    5389, 
    5390, 
    5391, 
    5392, 
    5393, 
    5394, 
    5397, 
    5398, 
    5399, 
    5400, 
    5401, 
    5402, 
    5403, 
    5404, 
    5405, 
    5406, 
    5407, 
    5408, 
    5409, 
    5412, 
    5413, 
    5414, 
    5415, 
    5416, 
    5417, 
    5418, 
    5419, 
    5420, 
    5421, 
    5422, 
    5423, 
    5424, 
    5427, 
    5428, 
    5429, 
    5430, 
    5431, 
    5432, 
    5433, 
    5434, 
    5435, 
    5436, 
    5437, 
    5438, 
    5439, 
    5442, 
    5443, 
    5444, 
    5445, 
    5446, 
    5447, 
    5448, 
    5449, 
    5450, 
    5451, 
    5452, 
    5453, 
    5454, 
    5457, 
    5458, 
    5459, 
    5460, 
    5461, 
    5462, 
    5463, 
    5464, 
    5465, 
    5466, 
    5467, 
    5468, 
    5469, 
    5472, 
    5473, 
    5474, 
    5475, 
    5476, 
    5477, 
    5478, 
    5479, 
    5480, 
    5481, 
    5482, 
    5483, 
    5484, 
    5487, 
    5488, 
    5489, 
    5490, 
    5491, 
    5492, 
    5493, 
    5494, 
    5495, 
    5496, 
    5497, 
    5498, 
    5499, 
    5502, 
    5503, 
    5504, 
    5505, 
    5506, 
    5507, 
    5508, 
    5509, 
    5510, 
    5511, 
    5512, 
    5513, 
    5514, 
    5517, 
    5518, 
    5519, 
    5520, 
    5521, 
    5522, 
    5523, 
    5524, 
    5525, 
    5526, 
    5527, 
    5528, 
    5529, 
    5532, 
    5533, 
    5534, 
    5535, 
    5536, 
    5537, 
    5538, 
    5539, 
    5540, 
    5541, 
    5542, 
    5543, 
    5544, 
    5547, 
    5548, 
    5549, 
    5550, 
    5551, 
    5552, 
    5553, 
    5554, 
    5555, 
    5556, 
    5557, 
    5558, 
    5559, 
    5562, 
    5563, 
    5564, 
    5565, 
    5566, 
    5567, 
    5568, 
    5569, 
    5570, 
    5571, 
    5572, 
    5573, 
    5574, 
    5577, 
    5578, 
    5579, 
    5580, 
    5581, 
    5582, 
    5583, 
    5584, 
    5585, 
    5586, 
    5587, 
    5588, 
    5589, 
    5592, 
    5593, 
    5594, 
    5595, 
    5596, 
    5597, 
    5598, 
    5599, 
    5600, 
    5601, 
    5602, 
    5603, 
    5604, 
    5607, 
    5608, 
    5609, 
    5610, 
    5611, 
    5612, 
    5613, 
    5614, 
    5615, 
    5616, 
    5617, 
    5618, 
    5619, 
    5622, 
    5623, 
    5624, 
    5625, 
    5626, 
    5627, 
    5628, 
    5629, 
    5630, 
    5631, 
    5632, 
    5633, 
    5634, 
    5637, 
    5638, 
    5639, 
    5640, 
    5641, 
    5642, 
    5643, 
    5644, 
    5645, 
    5646, 
    5647, 
    5648, 
    5649, 
    5652, 
    5653, 
    5654, 
    5655, 
    5656, 
    5657, 
    5658, 
    5659, 
    5660, 
    5661, 
    5662, 
    5663, 
    5664, 
    5667, 
    5668, 
    5669, 
    5670, 
    5671, 
    5672, 
    5673, 
    5674, 
    5675, 
    5676, 
    5677, 
    5678, 
    5679, 
    5682, 
    5683, 
    5684, 
    5685, 
    5686, 
    5687, 
    5688, 
    5689, 
    5690, 
    5691, 
    5692, 
    5693, 
    5694, 
    5697, 
    5698, 
    5699, 
    5700, 
    5701, 
    5702, 
    5703, 
    5704, 
    5705, 
    5706, 
    5707, 
    5708, 
    5709, 
    5712, 
    5713, 
    5714, 
    5715, 
    5716, 
    5717, 
    5718, 
    5719, 
    5720, 
    5721, 
    5722, 
    5723, 
    5724, 
    5727, 
    5728, 
    5729, 
    5730, 
    5731, 
    5732, 
    5733, 
    5734, 
    5735, 
    5736, 
    5737, 
    5738, 
    5739, 
    5742, 
    5743, 
    5744, 
    5745, 
    5746, 
    5747, 
    5748, 
    5749, 
    5750, 
    5751, 
    5752, 
    5753, 
    5754, 
    5757, 
    5758, 
    5759, 
    5760, 
    5761, 
    5762, 
    5763, 
    5764, 
    5765, 
    5766, 
    5767, 
    5768, 
    5769, 
    5772, 
    5773, 
    5774, 
    5775, 
    5776, 
    5777, 
    5778, 
    5779, 
    5780, 
    5781, 
    5782, 
    5783, 
    5784, 
    5787, 
    5788, 
    5789, 
    5790, 
    5791, 
    5792, 
    5793, 
    5794, 
    5795, 
    5796, 
    5797, 
    5798, 
    5799, 
    5802, 
    5803, 
    5804, 
    5805, 
    5806, 
    5807, 
    5808, 
    5809, 
    5810, 
    5811, 
    5812, 
    5813, 
    5814, 
    5817, 
    5818, 
    5819, 
    5820, 
    5821, 
    5822, 
    5823, 
    5824, 
    5825, 
    5826, 
    5827, 
    5828, 
    5829, 
    5832, 
    5833, 
    5834, 
    5835, 
    5836, 
    5837, 
    5838, 
    5839, 
    5840, 
    5841, 
    5842, 
    5843, 
    5844, 
    5847, 
    5848, 
    5849, 
    5850, 
    5851, 
    5852, 
    5853, 
    5854, 
    5855, 
    5856, 
    5857, 
    5858, 
    5859, 
    5862, 
    5863, 
    5864, 
    5865, 
    5866, 
    5867, 
    5868, 
    5869, 
    5870, 
    5871, 
    5872, 
    5873, 
    5874, 
    5877, 
    5878, 
    5879, 
    5880, 
    5881, 
    5882, 
    5883, 
    5884, 
    5885, 
    5886, 
    5887, 
    5888, 
    5889, 
    5892, 
    5893, 
    5894, 
    5895, 
    5896, 
    5897, 
    5898, 
    5899, 
    5900, 
    5901, 
    5902, 
    5903, 
    5904, 
    5907, 
    5908, 
    5909, 
    5910, 
    5911, 
    5912, 
    5913, 
    5914, 
    5915, 
    5916, 
    5917, 
    5918, 
    5919, 
    5922, 
    5923, 
    5924, 
    5925, 
    5926, 
    5927, 
    5928, 
    5929, 
    5930, 
    5931, 
    5932, 
    5933, 
    5934, 
    5937, 
    5938, 
    5939, 
    5940, 
    5941, 
    5942, 
    5943, 
    5944, 
    5945, 
    5946, 
    5947, 
    5948, 
    5949, 
    5952, 
    5953, 
    5954, 
    5955, 
    5956, 
    5957, 
    5958, 
    5959, 
    5960, 
    5961, 
    5962, 
    5963, 
    5964, 
    5967, 
    5968, 
    5969, 
    5970, 
    5971, 
    5972, 
    5973, 
    5974, 
    5975, 
    5976, 
    5977, 
    5978, 
    5979, 
    5982, 
    5983, 
    5984, 
    5985, 
    5986, 
    5987, 
    5988, 
    5989, 
    5990, 
    5991, 
    5992, 
    5993, 
    5994, 
    5997, 
    5998, 
    5999, 
    6000, 
    6001, 
    6002, 
    6003, 
    6004, 
    6005, 
    6006, 
    6007, 
    6008, 
    6009, 
    6012, 
    6013, 
    6014, 
    6015, 
    6016, 
    6017, 
    6018, 
    6019, 
    6020, 
    6021, 
    6022, 
    6023, 
    6024, 
    6027, 
    6028, 
    6029, 
    6030, 
    6031, 
    6032, 
    6033, 
    6034, 
    6035, 
    6036, 
    6037, 
    6038, 
    6039, 
    6042, 
    6043, 
    6044, 
    6045, 
    6046, 
    6047, 
    6048, 
    6049, 
    6050, 
    6051, 
    6052, 
    6053, 
    6054, 
    6057, 
    6058, 
    6059, 
    6060, 
    6061, 
    6062, 
    6063, 
    6064, 
    6065, 
    6066, 
    6067, 
    6068, 
    6069, 
    6072, 
    6073, 
    6074, 
    6075, 
    6076, 
    6077, 
    6078, 
    6079, 
    6080, 
    6081, 
    6082, 
    6083, 
    6084, 
    6087, 
    6088, 
    6089, 
    6090, 
    6091, 
    6092, 
    6093, 
    6094, 
    6095, 
    6096, 
    6097, 
    6098, 
    6099, 
    6102, 
    6103, 
    6104, 
    6105, 
    6106, 
    6107, 
    6108, 
    6109, 
    6110, 
    6111, 
    6112, 
    6113, 
    6114, 
    6117, 
    6118, 
    6119, 
    6120, 
    6121, 
    6122, 
    6123, 
    6124, 
    6125, 
    6126, 
    6127, 
    6128, 
    6129, 
    6132, 
    6133, 
    6134, 
    6135, 
    6136, 
    6137, 
    6138, 
    6139, 
    6140, 
    6141, 
    6142, 
    6143, 
    6144, 
    6147, 
    6148, 
    6149, 
    6150, 
    6151, 
    6152, 
    6153, 
    6154, 
    6155, 
    6156, 
    6157, 
    6158, 
    6159, 
    6162, 
    6163, 
    6164, 
    6165, 
    6166, 
    6167, 
    6168, 
    6169, 
    6170, 
    6171, 
    6172, 
    6173, 
    6174, 
    6177, 
    6178, 
    6179, 
    6180, 
    6181, 
    6182, 
    6183, 
    6184, 
    6185, 
    6186, 
    6187, 
    6188, 
    6189, 
    6192, 
    6193, 
    6194, 
    6195, 
    6196, 
    6197, 
    6198, 
    6199, 
    6200, 
    6201, 
    6202, 
    6203, 
    6204, 
    6207, 
    6208, 
    6209, 
    6210, 
    6211, 
    6212, 
    6213, 
    6214, 
    6215, 
    6216, 
    6217, 
    6218, 
    6219, 
    6222, 
    6223, 
    6224, 
    6225, 
    6226, 
    6227, 
    6228, 
    6229, 
    6230, 
    6231, 
    6232, 
    6233, 
    6234, 
    6237, 
    6238, 
    6239, 
    6240, 
    6241, 
    6242, 
    6243, 
    6244, 
    6245, 
    6246, 
    6247, 
    6248, 
    6249, 
    6252, 
    6253, 
    6254, 
    6255, 
    6256, 
    6257, 
    6258, 
    6259, 
    6260, 
    6261, 
    6262, 
    6263, 
    6264, 
    6267, 
    6268, 
    6269, 
    6270, 
    6271, 
    6272, 
    6273, 
    6274, 
    6275, 
    6276, 
    6277, 
    6278, 
    6279, 
    6282, 
    6283, 
    6284, 
    6285, 
    6286, 
    6287, 
    6288, 
    6289, 
    6290, 
    6291, 
    6292, 
    6293, 
    6294, 
    6297, 
    6298, 
    6299, 
    6300, 
    6301, 
    6302, 
    6303, 
    6304, 
    6305, 
    6306, 
    6307, 
    6308, 
    6309, 
    6310, 
    6313, 
    6314, 
    6317, 
    6318, 
    6319, 
    6320, 
    6321, 
    6322, 
    6323, 
    6324, 
    6325, 
    6326, 
    6327, 
    6328, 
    6329, 
    6330, 
    6333, 
    6334, 
    6337, 
    6338, 
    6339, 
    6340, 
    6341, 
    6342, 
    6343, 
    6344, 
    6345, 
    6346, 
    6347, 
    6348, 
    6349, 
    6350, 
    6353, 
    6354, 
    6357, 
    6358, 
    6359, 
    6360, 
    6361, 
    6362, 
    6363, 
    6364, 
    6365, 
    6366, 
    6367, 
    6368, 
    6369, 
    6370, 
    6373, 
    6374, 
    6377, 
    6378, 
    6379, 
    6380, 
    6381, 
    6382, 
    6383, 
    6384, 
    6385, 
    6386, 
    6387, 
    6388, 
    6389, 
    6390, 
    6393, 
    6394, 
    6397, 
    6398, 
    6399, 
    6400, 
    6401, 
    6402, 
    6403, 
    6404, 
    6405, 
    6406, 
    6407, 
    6408, 
    6409, 
    6410, 
    6413, 
    6414, 
    6417, 
    6418, 
    6419, 
    6420, 
    6421, 
    6422, 
    6423, 
    6424, 
    6425, 
    6426, 
    6427, 
    6428, 
    6429, 
    6430, 
    6433, 
    6434, 
    6437, 
    6438, 
    6439, 
    6440, 
    6441, 
    6442, 
    6443, 
    6444, 
    6445, 
    6446, 
    6447, 
    6448, 
    6449, 
    6450, 
    6453, 
    6454, 
    6457, 
    6458, 
    6459, 
    6460, 
    6461, 
    6462, 
    6463, 
    6464, 
    6465, 
    6466, 
    6467, 
    6468, 
    6469, 
    6470, 
    6473, 
    6474, 
    6477, 
    6478, 
    6479, 
    6480, 
    6481, 
    6482, 
    6483, 
    6484, 
    6485, 
    6486, 
    6487, 
    6488, 
    6489, 
    6490, 
    6493, 
    6494, 
    6497, 
    6498, 
    6499, 
    6500, 
    6501, 
    6502, 
    6503, 
    6504, 
    6505, 
    6506, 
    6507, 
    6508, 
    6509, 
    6510, 
    6513, 
    6514, 
    6517, 
    6518, 
    6519, 
    6520, 
    6521, 
    6522, 
    6523, 
    6524, 
    6525, 
    6526, 
    6527, 
    6528, 
    6529, 
    6530, 
    6533, 
    6534, 
    6537, 
    6538, 
    6539, 
    6540, 
    6541, 
    6542, 
    6543, 
    6544, 
    6545, 
    6546, 
    6547, 
    6548, 
    6549, 
    6550, 
    6553, 
    6554, 
    6557, 
    6558, 
    6559, 
    6560, 
    6561, 
    6562, 
    6563, 
    6564, 
    6565, 
    6566, 
    6567, 
    6568, 
    6569, 
    6570, 
    6573, 
    6574, 
    6577, 
    6578, 
    6579, 
    6580, 
    6581, 
    6582, 
    6583, 
    6584, 
    6585, 
    6586, 
    6587, 
    6588, 
    6589, 
    6590, 
    6593, 
    6594, 
    6597, 
    6598, 
    6599, 
    6600, 
    6601, 
    6602, 
    6603, 
    6604, 
    6605, 
    6606, 
    6607, 
    6608, 
    6609, 
    6610, 
    6613, 
    6614, 
    6617, 
    6618, 
    6619, 
    6620, 
    6621, 
    6622, 
    6623, 
    6624, 
    6625, 
    6626, 
    6627, 
    6628, 
    6629, 
    6630, 
    6633, 
    6634, 
    6637, 
    6638, 
    6639, 
    6640, 
    6641, 
    6642, 
    6643, 
    6644, 
    6645, 
    6646, 
    6647, 
    6648, 
    6649, 
    6650, 
    6653, 
    6654, 
    6657, 
    6658, 
    6659, 
    6660, 
    6661, 
    6662, 
    6663, 
    6664, 
    6665, 
    6666, 
    6667, 
    6668, 
    6669, 
    6670, 
    6673, 
    6674, 
    6677, 
    6678, 
    6679, 
    6680, 
    6681, 
    6682, 
    6683, 
    6684, 
    6685, 
    6686, 
    6687, 
    6688, 
    6689, 
    6690, 
    6693, 
    6694, 
    6697, 
    6698, 
    6699, 
    6700, 
    6701, 
    6702, 
    6703, 
    6704, 
    6705, 
    6706, 
    6707, 
    6708, 
    6709, 
    6710, 
    6713, 
    6714, 
    6717, 
    6718, 
    6719, 
    6720, 
    6721, 
    6722, 
    6723, 
    6724, 
    6725, 
    6726, 
    6727, 
    6728, 
    6729, 
    6730, 
    6733, 
    6734, 
    6737, 
    6738, 
    6739, 
    6740, 
    6741, 
    6742, 
    6743, 
    6744, 
    6745, 
    6746, 
    6747, 
    6748, 
    6749, 
    6750, 
    6753, 
    6754, 
    6757, 
    6758, 
    6759, 
    6760, 
    6761, 
    6762, 
    6763, 
    6764, 
    6765, 
    6766, 
    6767, 
    6768, 
    6769, 
    6770, 
    6771, 
    6773, 
    6774, 
    6775, 
    6776, 
    6777, 
    6778, 
    6779, 
    6780, 
    6781, 
    6782, 
    6783, 
    6784, 
    6785, 
    6786
  ], 
  "heads": [[5104, 0, 0]], 
  "attrs": {"mxnet_version": ["int", 1100]}
}