{
  "nodes": [
    {
      "op": "null", 
      "name": "seq_data", 
      "inputs": []
    }, 
    {
      "op": "Reshape", 
      "name": "reshape0", 
      "attr": {"shape": "(10, 1, 2, 5)"}, 
      "inputs": [[0, 0, 0]]
    }, 
    {
      "op": "null", 
      "name": "convolution0_weight", 
      "attr": {
        "kernel": "(2, 5)", 
        "num_filter": "10"
      }, 
      "inputs": []
    }, 
    {
      "op": "null", 
      "name": "convolution0_bias", 
      "attr": {
        "kernel": "(2, 5)", 
        "num_filter": "10"
      }, 
      "inputs": []
    }, 
    {
      "op": "Convolution", 
      "name": "convolution0", 
      "attr": {
        "kernel": "(2, 5)", 
        "num_filter": "10"
      }, 
      "inputs": [[1, 0, 0], [2, 0, 0], [3, 0, 0]]
    }, 
    {
      "op": "Activation", 
      "name": "activation0", 
      "attr": {"act_type": "relu"}, 
      "inputs": [[4, 0, 0]]
    }, 
    {
      "op": "Pooling", 
      "name": "pooling0", 
      "attr": {
        "kernel": "(1, 1)", 
        "pool_type": "max", 
        "stride": "(1, 1)"
      }, 
      "inputs": [[5, 0, 0]]
    }, 
    {
      "op": "null", 
      "name": "convolution1_weight", 
      "attr": {
        "kernel": "(2, 5)", 
        "num_filter": "10"
      }, 
      "inputs": []
    }, 
    {
      "op": "null", 
      "name": "convolution1_bias", 
      "attr": {
        "kernel": "(2, 5)", 
        "num_filter": "10"
      }, 
      "inputs": []
    }, 
    {
      "op": "Convolution", 
      "name": "convolution1", 
      "attr": {
        "kernel": "(2, 5)", 
        "num_filter": "10"
      }, 
      "inputs": [[1, 0, 0], [7, 0, 0], [8, 0, 0]]
    }, 
    {
      "op": "Activation", 
      "name": "activation1", 
      "attr": {"act_type": "relu"}, 
      "inputs": [[9, 0, 0]]
    }, 
    {
      "op": "Pooling", 
      "name": "pooling1", 
      "attr": {
        "kernel": "(1, 1)", 
        "pool_type": "max", 
        "stride": "(1, 1)"
      }, 
      "inputs": [[10, 0, 0]]
    }, 
    {
      "op": "Concat", 
      "name": "concat0", 
      "attr": {
        "dim": "1", 
        "num_args": "2"
      }, 
      "inputs": [[6, 0, 0], [11, 0, 0]]
    }, 
    {
      "op": "Reshape", 
      "name": "reshape1", 
      "attr": {"target_shape": "(10, 20)"}, 
      "inputs": [[12, 0, 0]]
    }, 
    {
      "op": "Dropout", 
      "name": "dropout0", 
      "attr": {
        "mode": "training", 
        "p": "0.01"
      }, 
      "inputs": [[13, 0, 0]]
    }, 
    {
      "op": "SliceChannel", 
      "name": "split0", 
      "attr": {
        "axis": "1", 
        "num_outputs": "20", 
        "squeeze_axis": "1"
      }, 
      "inputs": [[14, 0, 0]]
    }, 
    {
      "op": "null", 
      "name": "gru_i2h_weight", 
      "inputs": []
    }, 
    {
      "op": "null", 
      "name": "gru_i2h_bias", 
      "inputs": []
    }, 
    {
      "op": "FullyConnected", 
      "name": "gru_t0__i2h", 
      "attr": {"num_hidden": "276"}, 
      "inputs": [[15, 0, 0], [16, 0, 0], [17, 0, 0]]
    }, 
    {
      "op": "SliceChannel", 
      "name": "gru_t0__i2h_slice", 
      "attr": {"num_outputs": "3"}, 
      "inputs": [[18, 0, 0]]
    }, 
    {
      "op": "_zeros", 
      "name": "gru_begin_state_0", 
      "attr": {
        "__layout__": "NC", 
        "dtype": "float32", 
        "shape": "(0, 92)"
      }, 
      "inputs": []
    }, 
    {
      "op": "null", 
      "name": "gru_h2h_weight", 
      "inputs": []
    }, 
    {
      "op": "null", 
      "name": "gru_h2h_bias", 
      "inputs": []
    }, 
    {
      "op": "FullyConnected", 
      "name": "gru_t0__h2h", 
      "attr": {"num_hidden": "276"}, 
      "inputs": [[20, 0, 0], [21, 0, 0], [22, 0, 0]]
    }, 
    {
      "op": "SliceChannel", 
      "name": "gru_t0__h2h_slice", 
      "attr": {"num_outputs": "3"}, 
      "inputs": [[23, 0, 0]]
    }, 
    {
      "op": "elemwise_add", 
      "name": "_plus1", 
      "inputs": [[19, 1, 0], [24, 1, 0]]
    }, 
    {
      "op": "Activation", 
      "name": "gru_t0__z_act", 
      "attr": {"act_type": "sigmoid"}, 
      "inputs": [[25, 0, 0]]
    }, 
    {
      "op": "_rminus_scalar", 
      "name": "_rminusscalar0", 
      "attr": {"scalar": "1.0"}, 
      "inputs": [[26, 0, 0]]
    }, 
    {
      "op": "elemwise_add", 
      "name": "_plus0", 
      "inputs": [[19, 0, 0], [24, 0, 0]]
    }, 
    {
      "op": "Activation", 
      "name": "gru_t0__r_act", 
      "attr": {"act_type": "sigmoid"}, 
      "inputs": [[28, 0, 0]]
    }, 
    {
      "op": "_mul", 
      "name": "_mul0", 
      "inputs": [[29, 0, 0], [24, 2, 0]]
    }, 
    {
      "op": "elemwise_add", 
      "name": "_plus2", 
      "inputs": [[19, 2, 0], [30, 0, 0]]
    }, 
    {
      "op": "Activation", 
      "name": "gru_t0__h_act", 
      "attr": {"act_type": "tanh"}, 
      "inputs": [[31, 0, 0]]
    }, 
    {
      "op": "_mul", 
      "name": "_mul1", 
      "inputs": [[27, 0, 0], [32, 0, 0]]
    }, 
    {
      "op": "_mul", 
      "name": "_mul2", 
      "inputs": [[26, 0, 0], [20, 0, 0]]
    }, 
    {
      "op": "elemwise_add", 
      "name": "gru_t0_out", 
      "inputs": [[33, 0, 0], [34, 0, 0]]
    }, 
    {
      "op": "Dropout", 
      "name": "dropout1", 
      "attr": {
        "mode": "training", 
        "p": "0.01"
      }, 
      "inputs": [[35, 0, 0]]
    }, 
    {
      "op": "null", 
      "name": "fullyconnected0_weight", 
      "attr": {"num_hidden": "5"}, 
      "inputs": []
    }, 
    {
      "op": "null", 
      "name": "fullyconnected0_bias", 
      "attr": {"num_hidden": "5"}, 
      "inputs": []
    }, 
    {
      "op": "FullyConnected", 
      "name": "fullyconnected0", 
      "attr": {"num_hidden": "5"}, 
      "inputs": [[36, 0, 0], [37, 0, 0], [38, 0, 0]]
    }, 
    {
      "op": "FullyConnected", 
      "name": "gru_t1__i2h", 
      "attr": {"num_hidden": "276"}, 
      "inputs": [[15, 1, 0], [16, 0, 0], [17, 0, 0]]
    }, 
    {
      "op": "SliceChannel", 
      "name": "gru_t1__i2h_slice", 
      "attr": {"num_outputs": "3"}, 
      "inputs": [[40, 0, 0]]
    }, 
    {
      "op": "FullyConnected", 
      "name": "gru_t1__h2h", 
      "attr": {"num_hidden": "276"}, 
      "inputs": [[35, 0, 0], [21, 0, 0], [22, 0, 0]]
    }, 
    {
      "op": "SliceChannel", 
      "name": "gru_t1__h2h_slice", 
      "attr": {"num_outputs": "3"}, 
      "inputs": [[42, 0, 0]]
    }, 
    {
      "op": "elemwise_add", 
      "name": "_plus4", 
      "inputs": [[41, 1, 0], [43, 1, 0]]
    }, 
    {
      "op": "Activation", 
      "name": "gru_t1__z_act", 
      "attr": {"act_type": "sigmoid"}, 
      "inputs": [[44, 0, 0]]
    }, 
    {
      "op": "_rminus_scalar", 
      "name": "_rminusscalar1", 
      "attr": {"scalar": "1.0"}, 
      "inputs": [[45, 0, 0]]
    }, 
    {
      "op": "elemwise_add", 
      "name": "_plus3", 
      "inputs": [[41, 0, 0], [43, 0, 0]]
    }, 
    {
      "op": "Activation", 
      "name": "gru_t1__r_act", 
      "attr": {"act_type": "sigmoid"}, 
      "inputs": [[47, 0, 0]]
    }, 
    {
      "op": "_mul", 
      "name": "_mul3", 
      "inputs": [[48, 0, 0], [43, 2, 0]]
    }, 
    {
      "op": "elemwise_add", 
      "name": "_plus5", 
      "inputs": [[41, 2, 0], [49, 0, 0]]
    }, 
    {
      "op": "Activation", 
      "name": "gru_t1__h_act", 
      "attr": {"act_type": "tanh"}, 
      "inputs": [[50, 0, 0]]
    }, 
    {
      "op": "_mul", 
      "name": "_mul4", 
      "inputs": [[46, 0, 0], [51, 0, 0]]
    }, 
    {
      "op": "_mul", 
      "name": "_mul5", 
      "inputs": [[45, 0, 0], [35, 0, 0]]
    }, 
    {
      "op": "elemwise_add", 
      "name": "gru_t1_out", 
      "inputs": [[52, 0, 0], [53, 0, 0]]
    }, 
    {
      "op": "Dropout", 
      "name": "dropout2", 
      "attr": {
        "mode": "training", 
        "p": "0.01"
      }, 
      "inputs": [[54, 0, 0]]
    }, 
    {
      "op": "null", 
      "name": "fullyconnected1_weight", 
      "attr": {"num_hidden": "5"}, 
      "inputs": []
    }, 
    {
      "op": "null", 
      "name": "fullyconnected1_bias", 
      "attr": {"num_hidden": "5"}, 
      "inputs": []
    }, 
    {
      "op": "FullyConnected", 
      "name": "fullyconnected1", 
      "attr": {"num_hidden": "5"}, 
      "inputs": [[55, 0, 0], [56, 0, 0], [57, 0, 0]]
    }, 
    {
      "op": "FullyConnected", 
      "name": "gru_t2__i2h", 
      "attr": {"num_hidden": "276"}, 
      "inputs": [[15, 2, 0], [16, 0, 0], [17, 0, 0]]
    }, 
    {
      "op": "SliceChannel", 
      "name": "gru_t2__i2h_slice", 
      "attr": {"num_outputs": "3"}, 
      "inputs": [[59, 0, 0]]
    }, 
    {
      "op": "FullyConnected", 
      "name": "gru_t2__h2h", 
      "attr": {"num_hidden": "276"}, 
      "inputs": [[54, 0, 0], [21, 0, 0], [22, 0, 0]]
    }, 
    {
      "op": "SliceChannel", 
      "name": "gru_t2__h2h_slice", 
      "attr": {"num_outputs": "3"}, 
      "inputs": [[61, 0, 0]]
    }, 
    {
      "op": "elemwise_add", 
      "name": "_plus7", 
      "inputs": [[60, 1, 0], [62, 1, 0]]
    }, 
    {
      "op": "Activation", 
      "name": "gru_t2__z_act", 
      "attr": {"act_type": "sigmoid"}, 
      "inputs": [[63, 0, 0]]
    }, 
    {
      "op": "_rminus_scalar", 
      "name": "_rminusscalar2", 
      "attr": {"scalar": "1.0"}, 
      "inputs": [[64, 0, 0]]
    }, 
    {
      "op": "elemwise_add", 
      "name": "_plus6", 
      "inputs": [[60, 0, 0], [62, 0, 0]]
    }, 
    {
      "op": "Activation", 
      "name": "gru_t2__r_act", 
      "attr": {"act_type": "sigmoid"}, 
      "inputs": [[66, 0, 0]]
    }, 
    {
      "op": "_mul", 
      "name": "_mul6", 
      "inputs": [[67, 0, 0], [62, 2, 0]]
    }, 
    {
      "op": "elemwise_add", 
      "name": "_plus8", 
      "inputs": [[60, 2, 0], [68, 0, 0]]
    }, 
    {
      "op": "Activation", 
      "name": "gru_t2__h_act", 
      "attr": {"act_type": "tanh"}, 
      "inputs": [[69, 0, 0]]
    }, 
    {
      "op": "_mul", 
      "name": "_mul7", 
      "inputs": [[65, 0, 0], [70, 0, 0]]
    }, 
    {
      "op": "_mul", 
      "name": "_mul8", 
      "inputs": [[64, 0, 0], [54, 0, 0]]
    }, 
    {
      "op": "elemwise_add", 
      "name": "gru_t2_out", 
      "inputs": [[71, 0, 0], [72, 0, 0]]
    }, 
    {
      "op": "Dropout", 
      "name": "dropout3", 
      "attr": {
        "mode": "training", 
        "p": "0.01"
      }, 
      "inputs": [[73, 0, 0]]
    }, 
    {
      "op": "null", 
      "name": "fullyconnected2_weight", 
      "attr": {"num_hidden": "5"}, 
      "inputs": []
    }, 
    {
      "op": "null", 
      "name": "fullyconnected2_bias", 
      "attr": {"num_hidden": "5"}, 
      "inputs": []
    }, 
    {
      "op": "FullyConnected", 
      "name": "fullyconnected2", 
      "attr": {"num_hidden": "5"}, 
      "inputs": [[74, 0, 0], [75, 0, 0], [76, 0, 0]]
    }, 
    {
      "op": "FullyConnected", 
      "name": "gru_t3__i2h", 
      "attr": {"num_hidden": "276"}, 
      "inputs": [[15, 3, 0], [16, 0, 0], [17, 0, 0]]
    }, 
    {
      "op": "SliceChannel", 
      "name": "gru_t3__i2h_slice", 
      "attr": {"num_outputs": "3"}, 
      "inputs": [[78, 0, 0]]
    }, 
    {
      "op": "FullyConnected", 
      "name": "gru_t3__h2h", 
      "attr": {"num_hidden": "276"}, 
      "inputs": [[73, 0, 0], [21, 0, 0], [22, 0, 0]]
    }, 
    {
      "op": "SliceChannel", 
      "name": "gru_t3__h2h_slice", 
      "attr": {"num_outputs": "3"}, 
      "inputs": [[80, 0, 0]]
    }, 
    {
      "op": "elemwise_add", 
      "name": "_plus10", 
      "inputs": [[79, 1, 0], [81, 1, 0]]
    }, 
    {
      "op": "Activation", 
      "name": "gru_t3__z_act", 
      "attr": {"act_type": "sigmoid"}, 
      "inputs": [[82, 0, 0]]
    }, 
    {
      "op": "_rminus_scalar", 
      "name": "_rminusscalar3", 
      "attr": {"scalar": "1.0"}, 
      "inputs": [[83, 0, 0]]
    }, 
    {
      "op": "elemwise_add", 
      "name": "_plus9", 
      "inputs": [[79, 0, 0], [81, 0, 0]]
    }, 
    {
      "op": "Activation", 
      "name": "gru_t3__r_act", 
      "attr": {"act_type": "sigmoid"}, 
      "inputs": [[85, 0, 0]]
    }, 
    {
      "op": "_mul", 
      "name": "_mul9", 
      "inputs": [[86, 0, 0], [81, 2, 0]]
    }, 
    {
      "op": "elemwise_add", 
      "name": "_plus11", 
      "inputs": [[79, 2, 0], [87, 0, 0]]
    }, 
    {
      "op": "Activation", 
      "name": "gru_t3__h_act", 
      "attr": {"act_type": "tanh"}, 
      "inputs": [[88, 0, 0]]
    }, 
    {
      "op": "_mul", 
      "name": "_mul10", 
      "inputs": [[84, 0, 0], [89, 0, 0]]
    }, 
    {
      "op": "_mul", 
      "name": "_mul11", 
      "inputs": [[83, 0, 0], [73, 0, 0]]
    }, 
    {
      "op": "elemwise_add", 
      "name": "gru_t3_out", 
      "inputs": [[90, 0, 0], [91, 0, 0]]
    }, 
    {
      "op": "Dropout", 
      "name": "dropout4", 
      "attr": {
        "mode": "training", 
        "p": "0.01"
      }, 
      "inputs": [[92, 0, 0]]
    }, 
    {
      "op": "null", 
      "name": "fullyconnected3_weight", 
      "attr": {"num_hidden": "5"}, 
      "inputs": []
    }, 
    {
      "op": "null", 
      "name": "fullyconnected3_bias", 
      "attr": {"num_hidden": "5"}, 
      "inputs": []
    }, 
    {
      "op": "FullyConnected", 
      "name": "fullyconnected3", 
      "attr": {"num_hidden": "5"}, 
      "inputs": [[93, 0, 0], [94, 0, 0], [95, 0, 0]]
    }, 
    {
      "op": "FullyConnected", 
      "name": "gru_t4__i2h", 
      "attr": {"num_hidden": "276"}, 
      "inputs": [[15, 4, 0], [16, 0, 0], [17, 0, 0]]
    }, 
    {
      "op": "SliceChannel", 
      "name": "gru_t4__i2h_slice", 
      "attr": {"num_outputs": "3"}, 
      "inputs": [[97, 0, 0]]
    }, 
    {
      "op": "FullyConnected", 
      "name": "gru_t4__h2h", 
      "attr": {"num_hidden": "276"}, 
      "inputs": [[92, 0, 0], [21, 0, 0], [22, 0, 0]]
    }, 
    {
      "op": "SliceChannel", 
      "name": "gru_t4__h2h_slice", 
      "attr": {"num_outputs": "3"}, 
      "inputs": [[99, 0, 0]]
    }, 
    {
      "op": "elemwise_add", 
      "name": "_plus13", 
      "inputs": [[98, 1, 0], [100, 1, 0]]
    }, 
    {
      "op": "Activation", 
      "name": "gru_t4__z_act", 
      "attr": {"act_type": "sigmoid"}, 
      "inputs": [[101, 0, 0]]
    }, 
    {
      "op": "_rminus_scalar", 
      "name": "_rminusscalar4", 
      "attr": {"scalar": "1.0"}, 
      "inputs": [[102, 0, 0]]
    }, 
    {
      "op": "elemwise_add", 
      "name": "_plus12", 
      "inputs": [[98, 0, 0], [100, 0, 0]]
    }, 
    {
      "op": "Activation", 
      "name": "gru_t4__r_act", 
      "attr": {"act_type": "sigmoid"}, 
      "inputs": [[104, 0, 0]]
    }, 
    {
      "op": "_mul", 
      "name": "_mul12", 
      "inputs": [[105, 0, 0], [100, 2, 0]]
    }, 
    {
      "op": "elemwise_add", 
      "name": "_plus14", 
      "inputs": [[98, 2, 0], [106, 0, 0]]
    }, 
    {
      "op": "Activation", 
      "name": "gru_t4__h_act", 
      "attr": {"act_type": "tanh"}, 
      "inputs": [[107, 0, 0]]
    }, 
    {
      "op": "_mul", 
      "name": "_mul13", 
      "inputs": [[103, 0, 0], [108, 0, 0]]
    }, 
    {
      "op": "_mul", 
      "name": "_mul14", 
      "inputs": [[102, 0, 0], [92, 0, 0]]
    }, 
    {
      "op": "elemwise_add", 
      "name": "gru_t4_out", 
      "inputs": [[109, 0, 0], [110, 0, 0]]
    }, 
    {
      "op": "Dropout", 
      "name": "dropout5", 
      "attr": {
        "mode": "training", 
        "p": "0.01"
      }, 
      "inputs": [[111, 0, 0]]
    }, 
    {
      "op": "null", 
      "name": "fullyconnected4_weight", 
      "attr": {"num_hidden": "5"}, 
      "inputs": []
    }, 
    {
      "op": "null", 
      "name": "fullyconnected4_bias", 
      "attr": {"num_hidden": "5"}, 
      "inputs": []
    }, 
    {
      "op": "FullyConnected", 
      "name": "fullyconnected4", 
      "attr": {"num_hidden": "5"}, 
      "inputs": [[112, 0, 0], [113, 0, 0], [114, 0, 0]]
    }, 
    {
      "op": "FullyConnected", 
      "name": "gru_t5__i2h", 
      "attr": {"num_hidden": "276"}, 
      "inputs": [[15, 5, 0], [16, 0, 0], [17, 0, 0]]
    }, 
    {
      "op": "SliceChannel", 
      "name": "gru_t5__i2h_slice", 
      "attr": {"num_outputs": "3"}, 
      "inputs": [[116, 0, 0]]
    }, 
    {
      "op": "FullyConnected", 
      "name": "gru_t5__h2h", 
      "attr": {"num_hidden": "276"}, 
      "inputs": [[111, 0, 0], [21, 0, 0], [22, 0, 0]]
    }, 
    {
      "op": "SliceChannel", 
      "name": "gru_t5__h2h_slice", 
      "attr": {"num_outputs": "3"}, 
      "inputs": [[118, 0, 0]]
    }, 
    {
      "op": "elemwise_add", 
      "name": "_plus16", 
      "inputs": [[117, 1, 0], [119, 1, 0]]
    }, 
    {
      "op": "Activation", 
      "name": "gru_t5__z_act", 
      "attr": {"act_type": "sigmoid"}, 
      "inputs": [[120, 0, 0]]
    }, 
    {
      "op": "_rminus_scalar", 
      "name": "_rminusscalar5", 
      "attr": {"scalar": "1.0"}, 
      "inputs": [[121, 0, 0]]
    }, 
    {
      "op": "elemwise_add", 
      "name": "_plus15", 
      "inputs": [[117, 0, 0], [119, 0, 0]]
    }, 
    {
      "op": "Activation", 
      "name": "gru_t5__r_act", 
      "attr": {"act_type": "sigmoid"}, 
      "inputs": [[123, 0, 0]]
    }, 
    {
      "op": "_mul", 
      "name": "_mul15", 
      "inputs": [[124, 0, 0], [119, 2, 0]]
    }, 
    {
      "op": "elemwise_add", 
      "name": "_plus17", 
      "inputs": [[117, 2, 0], [125, 0, 0]]
    }, 
    {
      "op": "Activation", 
      "name": "gru_t5__h_act", 
      "attr": {"act_type": "tanh"}, 
      "inputs": [[126, 0, 0]]
    }, 
    {
      "op": "_mul", 
      "name": "_mul16", 
      "inputs": [[122, 0, 0], [127, 0, 0]]
    }, 
    {
      "op": "_mul", 
      "name": "_mul17", 
      "inputs": [[121, 0, 0], [111, 0, 0]]
    }, 
    {
      "op": "elemwise_add", 
      "name": "gru_t5_out", 
      "inputs": [[128, 0, 0], [129, 0, 0]]
    }, 
    {
      "op": "Dropout", 
      "name": "dropout6", 
      "attr": {
        "mode": "training", 
        "p": "0.01"
      }, 
      "inputs": [[130, 0, 0]]
    }, 
    {
      "op": "null", 
      "name": "fullyconnected5_weight", 
      "attr": {"num_hidden": "5"}, 
      "inputs": []
    }, 
    {
      "op": "null", 
      "name": "fullyconnected5_bias", 
      "attr": {"num_hidden": "5"}, 
      "inputs": []
    }, 
    {
      "op": "FullyConnected", 
      "name": "fullyconnected5", 
      "attr": {"num_hidden": "5"}, 
      "inputs": [[131, 0, 0], [132, 0, 0], [133, 0, 0]]
    }, 
    {
      "op": "FullyConnected", 
      "name": "gru_t6__i2h", 
      "attr": {"num_hidden": "276"}, 
      "inputs": [[15, 6, 0], [16, 0, 0], [17, 0, 0]]
    }, 
    {
      "op": "SliceChannel", 
      "name": "gru_t6__i2h_slice", 
      "attr": {"num_outputs": "3"}, 
      "inputs": [[135, 0, 0]]
    }, 
    {
      "op": "FullyConnected", 
      "name": "gru_t6__h2h", 
      "attr": {"num_hidden": "276"}, 
      "inputs": [[130, 0, 0], [21, 0, 0], [22, 0, 0]]
    }, 
    {
      "op": "SliceChannel", 
      "name": "gru_t6__h2h_slice", 
      "attr": {"num_outputs": "3"}, 
      "inputs": [[137, 0, 0]]
    }, 
    {
      "op": "elemwise_add", 
      "name": "_plus19", 
      "inputs": [[136, 1, 0], [138, 1, 0]]
    }, 
    {
      "op": "Activation", 
      "name": "gru_t6__z_act", 
      "attr": {"act_type": "sigmoid"}, 
      "inputs": [[139, 0, 0]]
    }, 
    {
      "op": "_rminus_scalar", 
      "name": "_rminusscalar6", 
      "attr": {"scalar": "1.0"}, 
      "inputs": [[140, 0, 0]]
    }, 
    {
      "op": "elemwise_add", 
      "name": "_plus18", 
      "inputs": [[136, 0, 0], [138, 0, 0]]
    }, 
    {
      "op": "Activation", 
      "name": "gru_t6__r_act", 
      "attr": {"act_type": "sigmoid"}, 
      "inputs": [[142, 0, 0]]
    }, 
    {
      "op": "_mul", 
      "name": "_mul18", 
      "inputs": [[143, 0, 0], [138, 2, 0]]
    }, 
    {
      "op": "elemwise_add", 
      "name": "_plus20", 
      "inputs": [[136, 2, 0], [144, 0, 0]]
    }, 
    {
      "op": "Activation", 
      "name": "gru_t6__h_act", 
      "attr": {"act_type": "tanh"}, 
      "inputs": [[145, 0, 0]]
    }, 
    {
      "op": "_mul", 
      "name": "_mul19", 
      "inputs": [[141, 0, 0], [146, 0, 0]]
    }, 
    {
      "op": "_mul", 
      "name": "_mul20", 
      "inputs": [[140, 0, 0], [130, 0, 0]]
    }, 
    {
      "op": "elemwise_add", 
      "name": "gru_t6_out", 
      "inputs": [[147, 0, 0], [148, 0, 0]]
    }, 
    {
      "op": "Dropout", 
      "name": "dropout7", 
      "attr": {
        "mode": "training", 
        "p": "0.01"
      }, 
      "inputs": [[149, 0, 0]]
    }, 
    {
      "op": "null", 
      "name": "fullyconnected6_weight", 
      "attr": {"num_hidden": "5"}, 
      "inputs": []
    }, 
    {
      "op": "null", 
      "name": "fullyconnected6_bias", 
      "attr": {"num_hidden": "5"}, 
      "inputs": []
    }, 
    {
      "op": "FullyConnected", 
      "name": "fullyconnected6", 
      "attr": {"num_hidden": "5"}, 
      "inputs": [[150, 0, 0], [151, 0, 0], [152, 0, 0]]
    }, 
    {
      "op": "FullyConnected", 
      "name": "gru_t7__i2h", 
      "attr": {"num_hidden": "276"}, 
      "inputs": [[15, 7, 0], [16, 0, 0], [17, 0, 0]]
    }, 
    {
      "op": "SliceChannel", 
      "name": "gru_t7__i2h_slice", 
      "attr": {"num_outputs": "3"}, 
      "inputs": [[154, 0, 0]]
    }, 
    {
      "op": "FullyConnected", 
      "name": "gru_t7__h2h", 
      "attr": {"num_hidden": "276"}, 
      "inputs": [[149, 0, 0], [21, 0, 0], [22, 0, 0]]
    }, 
    {
      "op": "SliceChannel", 
      "name": "gru_t7__h2h_slice", 
      "attr": {"num_outputs": "3"}, 
      "inputs": [[156, 0, 0]]
    }, 
    {
      "op": "elemwise_add", 
      "name": "_plus22", 
      "inputs": [[155, 1, 0], [157, 1, 0]]
    }, 
    {
      "op": "Activation", 
      "name": "gru_t7__z_act", 
      "attr": {"act_type": "sigmoid"}, 
      "inputs": [[158, 0, 0]]
    }, 
    {
      "op": "_rminus_scalar", 
      "name": "_rminusscalar7", 
      "attr": {"scalar": "1.0"}, 
      "inputs": [[159, 0, 0]]
    }, 
    {
      "op": "elemwise_add", 
      "name": "_plus21", 
      "inputs": [[155, 0, 0], [157, 0, 0]]
    }, 
    {
      "op": "Activation", 
      "name": "gru_t7__r_act", 
      "attr": {"act_type": "sigmoid"}, 
      "inputs": [[161, 0, 0]]
    }, 
    {
      "op": "_mul", 
      "name": "_mul21", 
      "inputs": [[162, 0, 0], [157, 2, 0]]
    }, 
    {
      "op": "elemwise_add", 
      "name": "_plus23", 
      "inputs": [[155, 2, 0], [163, 0, 0]]
    }, 
    {
      "op": "Activation", 
      "name": "gru_t7__h_act", 
      "attr": {"act_type": "tanh"}, 
      "inputs": [[164, 0, 0]]
    }, 
    {
      "op": "_mul", 
      "name": "_mul22", 
      "inputs": [[160, 0, 0], [165, 0, 0]]
    }, 
    {
      "op": "_mul", 
      "name": "_mul23", 
      "inputs": [[159, 0, 0], [149, 0, 0]]
    }, 
    {
      "op": "elemwise_add", 
      "name": "gru_t7_out", 
      "inputs": [[166, 0, 0], [167, 0, 0]]
    }, 
    {
      "op": "Dropout", 
      "name": "dropout8", 
      "attr": {
        "mode": "training", 
        "p": "0.01"
      }, 
      "inputs": [[168, 0, 0]]
    }, 
    {
      "op": "null", 
      "name": "fullyconnected7_weight", 
      "attr": {"num_hidden": "5"}, 
      "inputs": []
    }, 
    {
      "op": "null", 
      "name": "fullyconnected7_bias", 
      "attr": {"num_hidden": "5"}, 
      "inputs": []
    }, 
    {
      "op": "FullyConnected", 
      "name": "fullyconnected7", 
      "attr": {"num_hidden": "5"}, 
      "inputs": [[169, 0, 0], [170, 0, 0], [171, 0, 0]]
    }, 
    {
      "op": "FullyConnected", 
      "name": "gru_t8__i2h", 
      "attr": {"num_hidden": "276"}, 
      "inputs": [[15, 8, 0], [16, 0, 0], [17, 0, 0]]
    }, 
    {
      "op": "SliceChannel", 
      "name": "gru_t8__i2h_slice", 
      "attr": {"num_outputs": "3"}, 
      "inputs": [[173, 0, 0]]
    }, 
    {
      "op": "FullyConnected", 
      "name": "gru_t8__h2h", 
      "attr": {"num_hidden": "276"}, 
      "inputs": [[168, 0, 0], [21, 0, 0], [22, 0, 0]]
    }, 
    {
      "op": "SliceChannel", 
      "name": "gru_t8__h2h_slice", 
      "attr": {"num_outputs": "3"}, 
      "inputs": [[175, 0, 0]]
    }, 
    {
      "op": "elemwise_add", 
      "name": "_plus25", 
      "inputs": [[174, 1, 0], [176, 1, 0]]
    }, 
    {
      "op": "Activation", 
      "name": "gru_t8__z_act", 
      "attr": {"act_type": "sigmoid"}, 
      "inputs": [[177, 0, 0]]
    }, 
    {
      "op": "_rminus_scalar", 
      "name": "_rminusscalar8", 
      "attr": {"scalar": "1.0"}, 
      "inputs": [[178, 0, 0]]
    }, 
    {
      "op": "elemwise_add", 
      "name": "_plus24", 
      "inputs": [[174, 0, 0], [176, 0, 0]]
    }, 
    {
      "op": "Activation", 
      "name": "gru_t8__r_act", 
      "attr": {"act_type": "sigmoid"}, 
      "inputs": [[180, 0, 0]]
    }, 
    {
      "op": "_mul", 
      "name": "_mul24", 
      "inputs": [[181, 0, 0], [176, 2, 0]]
    }, 
    {
      "op": "elemwise_add", 
      "name": "_plus26", 
      "inputs": [[174, 2, 0], [182, 0, 0]]
    }, 
    {
      "op": "Activation", 
      "name": "gru_t8__h_act", 
      "attr": {"act_type": "tanh"}, 
      "inputs": [[183, 0, 0]]
    }, 
    {
      "op": "_mul", 
      "name": "_mul25", 
      "inputs": [[179, 0, 0], [184, 0, 0]]
    }, 
    {
      "op": "_mul", 
      "name": "_mul26", 
      "inputs": [[178, 0, 0], [168, 0, 0]]
    }, 
    {
      "op": "elemwise_add", 
      "name": "gru_t8_out", 
      "inputs": [[185, 0, 0], [186, 0, 0]]
    }, 
    {
      "op": "Dropout", 
      "name": "dropout9", 
      "attr": {
        "mode": "training", 
        "p": "0.01"
      }, 
      "inputs": [[187, 0, 0]]
    }, 
    {
      "op": "null", 
      "name": "fullyconnected8_weight", 
      "attr": {"num_hidden": "5"}, 
      "inputs": []
    }, 
    {
      "op": "null", 
      "name": "fullyconnected8_bias", 
      "attr": {"num_hidden": "5"}, 
      "inputs": []
    }, 
    {
      "op": "FullyConnected", 
      "name": "fullyconnected8", 
      "attr": {"num_hidden": "5"}, 
      "inputs": [[188, 0, 0], [189, 0, 0], [190, 0, 0]]
    }, 
    {
      "op": "FullyConnected", 
      "name": "gru_t9__i2h", 
      "attr": {"num_hidden": "276"}, 
      "inputs": [[15, 9, 0], [16, 0, 0], [17, 0, 0]]
    }, 
    {
      "op": "SliceChannel", 
      "name": "gru_t9__i2h_slice", 
      "attr": {"num_outputs": "3"}, 
      "inputs": [[192, 0, 0]]
    }, 
    {
      "op": "FullyConnected", 
      "name": "gru_t9__h2h", 
      "attr": {"num_hidden": "276"}, 
      "inputs": [[187, 0, 0], [21, 0, 0], [22, 0, 0]]
    }, 
    {
      "op": "SliceChannel", 
      "name": "gru_t9__h2h_slice", 
      "attr": {"num_outputs": "3"}, 
      "inputs": [[194, 0, 0]]
    }, 
    {
      "op": "elemwise_add", 
      "name": "_plus28", 
      "inputs": [[193, 1, 0], [195, 1, 0]]
    }, 
    {
      "op": "Activation", 
      "name": "gru_t9__z_act", 
      "attr": {"act_type": "sigmoid"}, 
      "inputs": [[196, 0, 0]]
    }, 
    {
      "op": "_rminus_scalar", 
      "name": "_rminusscalar9", 
      "attr": {"scalar": "1.0"}, 
      "inputs": [[197, 0, 0]]
    }, 
    {
      "op": "elemwise_add", 
      "name": "_plus27", 
      "inputs": [[193, 0, 0], [195, 0, 0]]
    }, 
    {
      "op": "Activation", 
      "name": "gru_t9__r_act", 
      "attr": {"act_type": "sigmoid"}, 
      "inputs": [[199, 0, 0]]
    }, 
    {
      "op": "_mul", 
      "name": "_mul27", 
      "inputs": [[200, 0, 0], [195, 2, 0]]
    }, 
    {
      "op": "elemwise_add", 
      "name": "_plus29", 
      "inputs": [[193, 2, 0], [201, 0, 0]]
    }, 
    {
      "op": "Activation", 
      "name": "gru_t9__h_act", 
      "attr": {"act_type": "tanh"}, 
      "inputs": [[202, 0, 0]]
    }, 
    {
      "op": "_mul", 
      "name": "_mul28", 
      "inputs": [[198, 0, 0], [203, 0, 0]]
    }, 
    {
      "op": "_mul", 
      "name": "_mul29", 
      "inputs": [[197, 0, 0], [187, 0, 0]]
    }, 
    {
      "op": "elemwise_add", 
      "name": "gru_t9_out", 
      "inputs": [[204, 0, 0], [205, 0, 0]]
    }, 
    {
      "op": "Dropout", 
      "name": "dropout10", 
      "attr": {
        "mode": "training", 
        "p": "0.01"
      }, 
      "inputs": [[206, 0, 0]]
    }, 
    {
      "op": "null", 
      "name": "fullyconnected9_weight", 
      "attr": {"num_hidden": "5"}, 
      "inputs": []
    }, 
    {
      "op": "null", 
      "name": "fullyconnected9_bias", 
      "attr": {"num_hidden": "5"}, 
      "inputs": []
    }, 
    {
      "op": "FullyConnected", 
      "name": "fullyconnected9", 
      "attr": {"num_hidden": "5"}, 
      "inputs": [[207, 0, 0], [208, 0, 0], [209, 0, 0]]
    }, 
    {
      "op": "FullyConnected", 
      "name": "gru_t10__i2h", 
      "attr": {"num_hidden": "276"}, 
      "inputs": [[15, 10, 0], [16, 0, 0], [17, 0, 0]]
    }, 
    {
      "op": "SliceChannel", 
      "name": "gru_t10__i2h_slice", 
      "attr": {"num_outputs": "3"}, 
      "inputs": [[211, 0, 0]]
    }, 
    {
      "op": "FullyConnected", 
      "name": "gru_t10__h2h", 
      "attr": {"num_hidden": "276"}, 
      "inputs": [[206, 0, 0], [21, 0, 0], [22, 0, 0]]
    }, 
    {
      "op": "SliceChannel", 
      "name": "gru_t10__h2h_slice", 
      "attr": {"num_outputs": "3"}, 
      "inputs": [[213, 0, 0]]
    }, 
    {
      "op": "elemwise_add", 
      "name": "_plus31", 
      "inputs": [[212, 1, 0], [214, 1, 0]]
    }, 
    {
      "op": "Activation", 
      "name": "gru_t10__z_act", 
      "attr": {"act_type": "sigmoid"}, 
      "inputs": [[215, 0, 0]]
    }, 
    {
      "op": "_rminus_scalar", 
      "name": "_rminusscalar10", 
      "attr": {"scalar": "1.0"}, 
      "inputs": [[216, 0, 0]]
    }, 
    {
      "op": "elemwise_add", 
      "name": "_plus30", 
      "inputs": [[212, 0, 0], [214, 0, 0]]
    }, 
    {
      "op": "Activation", 
      "name": "gru_t10__r_act", 
      "attr": {"act_type": "sigmoid"}, 
      "inputs": [[218, 0, 0]]
    }, 
    {
      "op": "_mul", 
      "name": "_mul30", 
      "inputs": [[219, 0, 0], [214, 2, 0]]
    }, 
    {
      "op": "elemwise_add", 
      "name": "_plus32", 
      "inputs": [[212, 2, 0], [220, 0, 0]]
    }, 
    {
      "op": "Activation", 
      "name": "gru_t10__h_act", 
      "attr": {"act_type": "tanh"}, 
      "inputs": [[221, 0, 0]]
    }, 
    {
      "op": "_mul", 
      "name": "_mul31", 
      "inputs": [[217, 0, 0], [222, 0, 0]]
    }, 
    {
      "op": "_mul", 
      "name": "_mul32", 
      "inputs": [[216, 0, 0], [206, 0, 0]]
    }, 
    {
      "op": "elemwise_add", 
      "name": "gru_t10_out", 
      "inputs": [[223, 0, 0], [224, 0, 0]]
    }, 
    {
      "op": "Dropout", 
      "name": "dropout11", 
      "attr": {
        "mode": "training", 
        "p": "0.01"
      }, 
      "inputs": [[225, 0, 0]]
    }, 
    {
      "op": "null", 
      "name": "fullyconnected10_weight", 
      "attr": {"num_hidden": "5"}, 
      "inputs": []
    }, 
    {
      "op": "null", 
      "name": "fullyconnected10_bias", 
      "attr": {"num_hidden": "5"}, 
      "inputs": []
    }, 
    {
      "op": "FullyConnected", 
      "name": "fullyconnected10", 
      "attr": {"num_hidden": "5"}, 
      "inputs": [[226, 0, 0], [227, 0, 0], [228, 0, 0]]
    }, 
    {
      "op": "FullyConnected", 
      "name": "gru_t11__i2h", 
      "attr": {"num_hidden": "276"}, 
      "inputs": [[15, 11, 0], [16, 0, 0], [17, 0, 0]]
    }, 
    {
      "op": "SliceChannel", 
      "name": "gru_t11__i2h_slice", 
      "attr": {"num_outputs": "3"}, 
      "inputs": [[230, 0, 0]]
    }, 
    {
      "op": "FullyConnected", 
      "name": "gru_t11__h2h", 
      "attr": {"num_hidden": "276"}, 
      "inputs": [[225, 0, 0], [21, 0, 0], [22, 0, 0]]
    }, 
    {
      "op": "SliceChannel", 
      "name": "gru_t11__h2h_slice", 
      "attr": {"num_outputs": "3"}, 
      "inputs": [[232, 0, 0]]
    }, 
    {
      "op": "elemwise_add", 
      "name": "_plus34", 
      "inputs": [[231, 1, 0], [233, 1, 0]]
    }, 
    {
      "op": "Activation", 
      "name": "gru_t11__z_act", 
      "attr": {"act_type": "sigmoid"}, 
      "inputs": [[234, 0, 0]]
    }, 
    {
      "op": "_rminus_scalar", 
      "name": "_rminusscalar11", 
      "attr": {"scalar": "1.0"}, 
      "inputs": [[235, 0, 0]]
    }, 
    {
      "op": "elemwise_add", 
      "name": "_plus33", 
      "inputs": [[231, 0, 0], [233, 0, 0]]
    }, 
    {
      "op": "Activation", 
      "name": "gru_t11__r_act", 
      "attr": {"act_type": "sigmoid"}, 
      "inputs": [[237, 0, 0]]
    }, 
    {
      "op": "_mul", 
      "name": "_mul33", 
      "inputs": [[238, 0, 0], [233, 2, 0]]
    }, 
    {
      "op": "elemwise_add", 
      "name": "_plus35", 
      "inputs": [[231, 2, 0], [239, 0, 0]]
    }, 
    {
      "op": "Activation", 
      "name": "gru_t11__h_act", 
      "attr": {"act_type": "tanh"}, 
      "inputs": [[240, 0, 0]]
    }, 
    {
      "op": "_mul", 
      "name": "_mul34", 
      "inputs": [[236, 0, 0], [241, 0, 0]]
    }, 
    {
      "op": "_mul", 
      "name": "_mul35", 
      "inputs": [[235, 0, 0], [225, 0, 0]]
    }, 
    {
      "op": "elemwise_add", 
      "name": "gru_t11_out", 
      "inputs": [[242, 0, 0], [243, 0, 0]]
    }, 
    {
      "op": "Dropout", 
      "name": "dropout12", 
      "attr": {
        "mode": "training", 
        "p": "0.01"
      }, 
      "inputs": [[244, 0, 0]]
    }, 
    {
      "op": "null", 
      "name": "fullyconnected11_weight", 
      "attr": {"num_hidden": "5"}, 
      "inputs": []
    }, 
    {
      "op": "null", 
      "name": "fullyconnected11_bias", 
      "attr": {"num_hidden": "5"}, 
      "inputs": []
    }, 
    {
      "op": "FullyConnected", 
      "name": "fullyconnected11", 
      "attr": {"num_hidden": "5"}, 
      "inputs": [[245, 0, 0], [246, 0, 0], [247, 0, 0]]
    }, 
    {
      "op": "FullyConnected", 
      "name": "gru_t12__i2h", 
      "attr": {"num_hidden": "276"}, 
      "inputs": [[15, 12, 0], [16, 0, 0], [17, 0, 0]]
    }, 
    {
      "op": "SliceChannel", 
      "name": "gru_t12__i2h_slice", 
      "attr": {"num_outputs": "3"}, 
      "inputs": [[249, 0, 0]]
    }, 
    {
      "op": "FullyConnected", 
      "name": "gru_t12__h2h", 
      "attr": {"num_hidden": "276"}, 
      "inputs": [[244, 0, 0], [21, 0, 0], [22, 0, 0]]
    }, 
    {
      "op": "SliceChannel", 
      "name": "gru_t12__h2h_slice", 
      "attr": {"num_outputs": "3"}, 
      "inputs": [[251, 0, 0]]
    }, 
    {
      "op": "elemwise_add", 
      "name": "_plus37", 
      "inputs": [[250, 1, 0], [252, 1, 0]]
    }, 
    {
      "op": "Activation", 
      "name": "gru_t12__z_act", 
      "attr": {"act_type": "sigmoid"}, 
      "inputs": [[253, 0, 0]]
    }, 
    {
      "op": "_rminus_scalar", 
      "name": "_rminusscalar12", 
      "attr": {"scalar": "1.0"}, 
      "inputs": [[254, 0, 0]]
    }, 
    {
      "op": "elemwise_add", 
      "name": "_plus36", 
      "inputs": [[250, 0, 0], [252, 0, 0]]
    }, 
    {
      "op": "Activation", 
      "name": "gru_t12__r_act", 
      "attr": {"act_type": "sigmoid"}, 
      "inputs": [[256, 0, 0]]
    }, 
    {
      "op": "_mul", 
      "name": "_mul36", 
      "inputs": [[257, 0, 0], [252, 2, 0]]
    }, 
    {
      "op": "elemwise_add", 
      "name": "_plus38", 
      "inputs": [[250, 2, 0], [258, 0, 0]]
    }, 
    {
      "op": "Activation", 
      "name": "gru_t12__h_act", 
      "attr": {"act_type": "tanh"}, 
      "inputs": [[259, 0, 0]]
    }, 
    {
      "op": "_mul", 
      "name": "_mul37", 
      "inputs": [[255, 0, 0], [260, 0, 0]]
    }, 
    {
      "op": "_mul", 
      "name": "_mul38", 
      "inputs": [[254, 0, 0], [244, 0, 0]]
    }, 
    {
      "op": "elemwise_add", 
      "name": "gru_t12_out", 
      "inputs": [[261, 0, 0], [262, 0, 0]]
    }, 
    {
      "op": "Dropout", 
      "name": "dropout13", 
      "attr": {
        "mode": "training", 
        "p": "0.01"
      }, 
      "inputs": [[263, 0, 0]]
    }, 
    {
      "op": "null", 
      "name": "fullyconnected12_weight", 
      "attr": {"num_hidden": "5"}, 
      "inputs": []
    }, 
    {
      "op": "null", 
      "name": "fullyconnected12_bias", 
      "attr": {"num_hidden": "5"}, 
      "inputs": []
    }, 
    {
      "op": "FullyConnected", 
      "name": "fullyconnected12", 
      "attr": {"num_hidden": "5"}, 
      "inputs": [[264, 0, 0], [265, 0, 0], [266, 0, 0]]
    }, 
    {
      "op": "FullyConnected", 
      "name": "gru_t13__i2h", 
      "attr": {"num_hidden": "276"}, 
      "inputs": [[15, 13, 0], [16, 0, 0], [17, 0, 0]]
    }, 
    {
      "op": "SliceChannel", 
      "name": "gru_t13__i2h_slice", 
      "attr": {"num_outputs": "3"}, 
      "inputs": [[268, 0, 0]]
    }, 
    {
      "op": "FullyConnected", 
      "name": "gru_t13__h2h", 
      "attr": {"num_hidden": "276"}, 
      "inputs": [[263, 0, 0], [21, 0, 0], [22, 0, 0]]
    }, 
    {
      "op": "SliceChannel", 
      "name": "gru_t13__h2h_slice", 
      "attr": {"num_outputs": "3"}, 
      "inputs": [[270, 0, 0]]
    }, 
    {
      "op": "elemwise_add", 
      "name": "_plus40", 
      "inputs": [[269, 1, 0], [271, 1, 0]]
    }, 
    {
      "op": "Activation", 
      "name": "gru_t13__z_act", 
      "attr": {"act_type": "sigmoid"}, 
      "inputs": [[272, 0, 0]]
    }, 
    {
      "op": "_rminus_scalar", 
      "name": "_rminusscalar13", 
      "attr": {"scalar": "1.0"}, 
      "inputs": [[273, 0, 0]]
    }, 
    {
      "op": "elemwise_add", 
      "name": "_plus39", 
      "inputs": [[269, 0, 0], [271, 0, 0]]
    }, 
    {
      "op": "Activation", 
      "name": "gru_t13__r_act", 
      "attr": {"act_type": "sigmoid"}, 
      "inputs": [[275, 0, 0]]
    }, 
    {
      "op": "_mul", 
      "name": "_mul39", 
      "inputs": [[276, 0, 0], [271, 2, 0]]
    }, 
    {
      "op": "elemwise_add", 
      "name": "_plus41", 
      "inputs": [[269, 2, 0], [277, 0, 0]]
    }, 
    {
      "op": "Activation", 
      "name": "gru_t13__h_act", 
      "attr": {"act_type": "tanh"}, 
      "inputs": [[278, 0, 0]]
    }, 
    {
      "op": "_mul", 
      "name": "_mul40", 
      "inputs": [[274, 0, 0], [279, 0, 0]]
    }, 
    {
      "op": "_mul", 
      "name": "_mul41", 
      "inputs": [[273, 0, 0], [263, 0, 0]]
    }, 
    {
      "op": "elemwise_add", 
      "name": "gru_t13_out", 
      "inputs": [[280, 0, 0], [281, 0, 0]]
    }, 
    {
      "op": "Dropout", 
      "name": "dropout14", 
      "attr": {
        "mode": "training", 
        "p": "0.01"
      }, 
      "inputs": [[282, 0, 0]]
    }, 
    {
      "op": "null", 
      "name": "fullyconnected13_weight", 
      "attr": {"num_hidden": "5"}, 
      "inputs": []
    }, 
    {
      "op": "null", 
      "name": "fullyconnected13_bias", 
      "attr": {"num_hidden": "5"}, 
      "inputs": []
    }, 
    {
      "op": "FullyConnected", 
      "name": "fullyconnected13", 
      "attr": {"num_hidden": "5"}, 
      "inputs": [[283, 0, 0], [284, 0, 0], [285, 0, 0]]
    }, 
    {
      "op": "FullyConnected", 
      "name": "gru_t14__i2h", 
      "attr": {"num_hidden": "276"}, 
      "inputs": [[15, 14, 0], [16, 0, 0], [17, 0, 0]]
    }, 
    {
      "op": "SliceChannel", 
      "name": "gru_t14__i2h_slice", 
      "attr": {"num_outputs": "3"}, 
      "inputs": [[287, 0, 0]]
    }, 
    {
      "op": "FullyConnected", 
      "name": "gru_t14__h2h", 
      "attr": {"num_hidden": "276"}, 
      "inputs": [[282, 0, 0], [21, 0, 0], [22, 0, 0]]
    }, 
    {
      "op": "SliceChannel", 
      "name": "gru_t14__h2h_slice", 
      "attr": {"num_outputs": "3"}, 
      "inputs": [[289, 0, 0]]
    }, 
    {
      "op": "elemwise_add", 
      "name": "_plus43", 
      "inputs": [[288, 1, 0], [290, 1, 0]]
    }, 
    {
      "op": "Activation", 
      "name": "gru_t14__z_act", 
      "attr": {"act_type": "sigmoid"}, 
      "inputs": [[291, 0, 0]]
    }, 
    {
      "op": "_rminus_scalar", 
      "name": "_rminusscalar14", 
      "attr": {"scalar": "1.0"}, 
      "inputs": [[292, 0, 0]]
    }, 
    {
      "op": "elemwise_add", 
      "name": "_plus42", 
      "inputs": [[288, 0, 0], [290, 0, 0]]
    }, 
    {
      "op": "Activation", 
      "name": "gru_t14__r_act", 
      "attr": {"act_type": "sigmoid"}, 
      "inputs": [[294, 0, 0]]
    }, 
    {
      "op": "_mul", 
      "name": "_mul42", 
      "inputs": [[295, 0, 0], [290, 2, 0]]
    }, 
    {
      "op": "elemwise_add", 
      "name": "_plus44", 
      "inputs": [[288, 2, 0], [296, 0, 0]]
    }, 
    {
      "op": "Activation", 
      "name": "gru_t14__h_act", 
      "attr": {"act_type": "tanh"}, 
      "inputs": [[297, 0, 0]]
    }, 
    {
      "op": "_mul", 
      "name": "_mul43", 
      "inputs": [[293, 0, 0], [298, 0, 0]]
    }, 
    {
      "op": "_mul", 
      "name": "_mul44", 
      "inputs": [[292, 0, 0], [282, 0, 0]]
    }, 
    {
      "op": "elemwise_add", 
      "name": "gru_t14_out", 
      "inputs": [[299, 0, 0], [300, 0, 0]]
    }, 
    {
      "op": "Dropout", 
      "name": "dropout15", 
      "attr": {
        "mode": "training", 
        "p": "0.01"
      }, 
      "inputs": [[301, 0, 0]]
    }, 
    {
      "op": "null", 
      "name": "fullyconnected14_weight", 
      "attr": {"num_hidden": "5"}, 
      "inputs": []
    }, 
    {
      "op": "null", 
      "name": "fullyconnected14_bias", 
      "attr": {"num_hidden": "5"}, 
      "inputs": []
    }, 
    {
      "op": "FullyConnected", 
      "name": "fullyconnected14", 
      "attr": {"num_hidden": "5"}, 
      "inputs": [[302, 0, 0], [303, 0, 0], [304, 0, 0]]
    }, 
    {
      "op": "FullyConnected", 
      "name": "gru_t15__i2h", 
      "attr": {"num_hidden": "276"}, 
      "inputs": [[15, 15, 0], [16, 0, 0], [17, 0, 0]]
    }, 
    {
      "op": "SliceChannel", 
      "name": "gru_t15__i2h_slice", 
      "attr": {"num_outputs": "3"}, 
      "inputs": [[306, 0, 0]]
    }, 
    {
      "op": "FullyConnected", 
      "name": "gru_t15__h2h", 
      "attr": {"num_hidden": "276"}, 
      "inputs": [[301, 0, 0], [21, 0, 0], [22, 0, 0]]
    }, 
    {
      "op": "SliceChannel", 
      "name": "gru_t15__h2h_slice", 
      "attr": {"num_outputs": "3"}, 
      "inputs": [[308, 0, 0]]
    }, 
    {
      "op": "elemwise_add", 
      "name": "_plus46", 
      "inputs": [[307, 1, 0], [309, 1, 0]]
    }, 
    {
      "op": "Activation", 
      "name": "gru_t15__z_act", 
      "attr": {"act_type": "sigmoid"}, 
      "inputs": [[310, 0, 0]]
    }, 
    {
      "op": "_rminus_scalar", 
      "name": "_rminusscalar15", 
      "attr": {"scalar": "1.0"}, 
      "inputs": [[311, 0, 0]]
    }, 
    {
      "op": "elemwise_add", 
      "name": "_plus45", 
      "inputs": [[307, 0, 0], [309, 0, 0]]
    }, 
    {
      "op": "Activation", 
      "name": "gru_t15__r_act", 
      "attr": {"act_type": "sigmoid"}, 
      "inputs": [[313, 0, 0]]
    }, 
    {
      "op": "_mul", 
      "name": "_mul45", 
      "inputs": [[314, 0, 0], [309, 2, 0]]
    }, 
    {
      "op": "elemwise_add", 
      "name": "_plus47", 
      "inputs": [[307, 2, 0], [315, 0, 0]]
    }, 
    {
      "op": "Activation", 
      "name": "gru_t15__h_act", 
      "attr": {"act_type": "tanh"}, 
      "inputs": [[316, 0, 0]]
    }, 
    {
      "op": "_mul", 
      "name": "_mul46", 
      "inputs": [[312, 0, 0], [317, 0, 0]]
    }, 
    {
      "op": "_mul", 
      "name": "_mul47", 
      "inputs": [[311, 0, 0], [301, 0, 0]]
    }, 
    {
      "op": "elemwise_add", 
      "name": "gru_t15_out", 
      "inputs": [[318, 0, 0], [319, 0, 0]]
    }, 
    {
      "op": "Dropout", 
      "name": "dropout16", 
      "attr": {
        "mode": "training", 
        "p": "0.01"
      }, 
      "inputs": [[320, 0, 0]]
    }, 
    {
      "op": "null", 
      "name": "fullyconnected15_weight", 
      "attr": {"num_hidden": "5"}, 
      "inputs": []
    }, 
    {
      "op": "null", 
      "name": "fullyconnected15_bias", 
      "attr": {"num_hidden": "5"}, 
      "inputs": []
    }, 
    {
      "op": "FullyConnected", 
      "name": "fullyconnected15", 
      "attr": {"num_hidden": "5"}, 
      "inputs": [[321, 0, 0], [322, 0, 0], [323, 0, 0]]
    }, 
    {
      "op": "FullyConnected", 
      "name": "gru_t16__i2h", 
      "attr": {"num_hidden": "276"}, 
      "inputs": [[15, 16, 0], [16, 0, 0], [17, 0, 0]]
    }, 
    {
      "op": "SliceChannel", 
      "name": "gru_t16__i2h_slice", 
      "attr": {"num_outputs": "3"}, 
      "inputs": [[325, 0, 0]]
    }, 
    {
      "op": "FullyConnected", 
      "name": "gru_t16__h2h", 
      "attr": {"num_hidden": "276"}, 
      "inputs": [[320, 0, 0], [21, 0, 0], [22, 0, 0]]
    }, 
    {
      "op": "SliceChannel", 
      "name": "gru_t16__h2h_slice", 
      "attr": {"num_outputs": "3"}, 
      "inputs": [[327, 0, 0]]
    }, 
    {
      "op": "elemwise_add", 
      "name": "_plus49", 
      "inputs": [[326, 1, 0], [328, 1, 0]]
    }, 
    {
      "op": "Activation", 
      "name": "gru_t16__z_act", 
      "attr": {"act_type": "sigmoid"}, 
      "inputs": [[329, 0, 0]]
    }, 
    {
      "op": "_rminus_scalar", 
      "name": "_rminusscalar16", 
      "attr": {"scalar": "1.0"}, 
      "inputs": [[330, 0, 0]]
    }, 
    {
      "op": "elemwise_add", 
      "name": "_plus48", 
      "inputs": [[326, 0, 0], [328, 0, 0]]
    }, 
    {
      "op": "Activation", 
      "name": "gru_t16__r_act", 
      "attr": {"act_type": "sigmoid"}, 
      "inputs": [[332, 0, 0]]
    }, 
    {
      "op": "_mul", 
      "name": "_mul48", 
      "inputs": [[333, 0, 0], [328, 2, 0]]
    }, 
    {
      "op": "elemwise_add", 
      "name": "_plus50", 
      "inputs": [[326, 2, 0], [334, 0, 0]]
    }, 
    {
      "op": "Activation", 
      "name": "gru_t16__h_act", 
      "attr": {"act_type": "tanh"}, 
      "inputs": [[335, 0, 0]]
    }, 
    {
      "op": "_mul", 
      "name": "_mul49", 
      "inputs": [[331, 0, 0], [336, 0, 0]]
    }, 
    {
      "op": "_mul", 
      "name": "_mul50", 
      "inputs": [[330, 0, 0], [320, 0, 0]]
    }, 
    {
      "op": "elemwise_add", 
      "name": "gru_t16_out", 
      "inputs": [[337, 0, 0], [338, 0, 0]]
    }, 
    {
      "op": "Dropout", 
      "name": "dropout17", 
      "attr": {
        "mode": "training", 
        "p": "0.01"
      }, 
      "inputs": [[339, 0, 0]]
    }, 
    {
      "op": "null", 
      "name": "fullyconnected16_weight", 
      "attr": {"num_hidden": "5"}, 
      "inputs": []
    }, 
    {
      "op": "null", 
      "name": "fullyconnected16_bias", 
      "attr": {"num_hidden": "5"}, 
      "inputs": []
    }, 
    {
      "op": "FullyConnected", 
      "name": "fullyconnected16", 
      "attr": {"num_hidden": "5"}, 
      "inputs": [[340, 0, 0], [341, 0, 0], [342, 0, 0]]
    }, 
    {
      "op": "FullyConnected", 
      "name": "gru_t17__i2h", 
      "attr": {"num_hidden": "276"}, 
      "inputs": [[15, 17, 0], [16, 0, 0], [17, 0, 0]]
    }, 
    {
      "op": "SliceChannel", 
      "name": "gru_t17__i2h_slice", 
      "attr": {"num_outputs": "3"}, 
      "inputs": [[344, 0, 0]]
    }, 
    {
      "op": "FullyConnected", 
      "name": "gru_t17__h2h", 
      "attr": {"num_hidden": "276"}, 
      "inputs": [[339, 0, 0], [21, 0, 0], [22, 0, 0]]
    }, 
    {
      "op": "SliceChannel", 
      "name": "gru_t17__h2h_slice", 
      "attr": {"num_outputs": "3"}, 
      "inputs": [[346, 0, 0]]
    }, 
    {
      "op": "elemwise_add", 
      "name": "_plus52", 
      "inputs": [[345, 1, 0], [347, 1, 0]]
    }, 
    {
      "op": "Activation", 
      "name": "gru_t17__z_act", 
      "attr": {"act_type": "sigmoid"}, 
      "inputs": [[348, 0, 0]]
    }, 
    {
      "op": "_rminus_scalar", 
      "name": "_rminusscalar17", 
      "attr": {"scalar": "1.0"}, 
      "inputs": [[349, 0, 0]]
    }, 
    {
      "op": "elemwise_add", 
      "name": "_plus51", 
      "inputs": [[345, 0, 0], [347, 0, 0]]
    }, 
    {
      "op": "Activation", 
      "name": "gru_t17__r_act", 
      "attr": {"act_type": "sigmoid"}, 
      "inputs": [[351, 0, 0]]
    }, 
    {
      "op": "_mul", 
      "name": "_mul51", 
      "inputs": [[352, 0, 0], [347, 2, 0]]
    }, 
    {
      "op": "elemwise_add", 
      "name": "_plus53", 
      "inputs": [[345, 2, 0], [353, 0, 0]]
    }, 
    {
      "op": "Activation", 
      "name": "gru_t17__h_act", 
      "attr": {"act_type": "tanh"}, 
      "inputs": [[354, 0, 0]]
    }, 
    {
      "op": "_mul", 
      "name": "_mul52", 
      "inputs": [[350, 0, 0], [355, 0, 0]]
    }, 
    {
      "op": "_mul", 
      "name": "_mul53", 
      "inputs": [[349, 0, 0], [339, 0, 0]]
    }, 
    {
      "op": "elemwise_add", 
      "name": "gru_t17_out", 
      "inputs": [[356, 0, 0], [357, 0, 0]]
    }, 
    {
      "op": "Dropout", 
      "name": "dropout18", 
      "attr": {
        "mode": "training", 
        "p": "0.01"
      }, 
      "inputs": [[358, 0, 0]]
    }, 
    {
      "op": "null", 
      "name": "fullyconnected17_weight", 
      "attr": {"num_hidden": "5"}, 
      "inputs": []
    }, 
    {
      "op": "null", 
      "name": "fullyconnected17_bias", 
      "attr": {"num_hidden": "5"}, 
      "inputs": []
    }, 
    {
      "op": "FullyConnected", 
      "name": "fullyconnected17", 
      "attr": {"num_hidden": "5"}, 
      "inputs": [[359, 0, 0], [360, 0, 0], [361, 0, 0]]
    }, 
    {
      "op": "FullyConnected", 
      "name": "gru_t18__i2h", 
      "attr": {"num_hidden": "276"}, 
      "inputs": [[15, 18, 0], [16, 0, 0], [17, 0, 0]]
    }, 
    {
      "op": "SliceChannel", 
      "name": "gru_t18__i2h_slice", 
      "attr": {"num_outputs": "3"}, 
      "inputs": [[363, 0, 0]]
    }, 
    {
      "op": "FullyConnected", 
      "name": "gru_t18__h2h", 
      "attr": {"num_hidden": "276"}, 
      "inputs": [[358, 0, 0], [21, 0, 0], [22, 0, 0]]
    }, 
    {
      "op": "SliceChannel", 
      "name": "gru_t18__h2h_slice", 
      "attr": {"num_outputs": "3"}, 
      "inputs": [[365, 0, 0]]
    }, 
    {
      "op": "elemwise_add", 
      "name": "_plus55", 
      "inputs": [[364, 1, 0], [366, 1, 0]]
    }, 
    {
      "op": "Activation", 
      "name": "gru_t18__z_act", 
      "attr": {"act_type": "sigmoid"}, 
      "inputs": [[367, 0, 0]]
    }, 
    {
      "op": "_rminus_scalar", 
      "name": "_rminusscalar18", 
      "attr": {"scalar": "1.0"}, 
      "inputs": [[368, 0, 0]]
    }, 
    {
      "op": "elemwise_add", 
      "name": "_plus54", 
      "inputs": [[364, 0, 0], [366, 0, 0]]
    }, 
    {
      "op": "Activation", 
      "name": "gru_t18__r_act", 
      "attr": {"act_type": "sigmoid"}, 
      "inputs": [[370, 0, 0]]
    }, 
    {
      "op": "_mul", 
      "name": "_mul54", 
      "inputs": [[371, 0, 0], [366, 2, 0]]
    }, 
    {
      "op": "elemwise_add", 
      "name": "_plus56", 
      "inputs": [[364, 2, 0], [372, 0, 0]]
    }, 
    {
      "op": "Activation", 
      "name": "gru_t18__h_act", 
      "attr": {"act_type": "tanh"}, 
      "inputs": [[373, 0, 0]]
    }, 
    {
      "op": "_mul", 
      "name": "_mul55", 
      "inputs": [[369, 0, 0], [374, 0, 0]]
    }, 
    {
      "op": "_mul", 
      "name": "_mul56", 
      "inputs": [[368, 0, 0], [358, 0, 0]]
    }, 
    {
      "op": "elemwise_add", 
      "name": "gru_t18_out", 
      "inputs": [[375, 0, 0], [376, 0, 0]]
    }, 
    {
      "op": "Dropout", 
      "name": "dropout19", 
      "attr": {
        "mode": "training", 
        "p": "0.01"
      }, 
      "inputs": [[377, 0, 0]]
    }, 
    {
      "op": "null", 
      "name": "fullyconnected18_weight", 
      "attr": {"num_hidden": "5"}, 
      "inputs": []
    }, 
    {
      "op": "null", 
      "name": "fullyconnected18_bias", 
      "attr": {"num_hidden": "5"}, 
      "inputs": []
    }, 
    {
      "op": "FullyConnected", 
      "name": "fullyconnected18", 
      "attr": {"num_hidden": "5"}, 
      "inputs": [[378, 0, 0], [379, 0, 0], [380, 0, 0]]
    }, 
    {
      "op": "FullyConnected", 
      "name": "gru_t19__i2h", 
      "attr": {"num_hidden": "276"}, 
      "inputs": [[15, 19, 0], [16, 0, 0], [17, 0, 0]]
    }, 
    {
      "op": "SliceChannel", 
      "name": "gru_t19__i2h_slice", 
      "attr": {"num_outputs": "3"}, 
      "inputs": [[382, 0, 0]]
    }, 
    {
      "op": "FullyConnected", 
      "name": "gru_t19__h2h", 
      "attr": {"num_hidden": "276"}, 
      "inputs": [[377, 0, 0], [21, 0, 0], [22, 0, 0]]
    }, 
    {
      "op": "SliceChannel", 
      "name": "gru_t19__h2h_slice", 
      "attr": {"num_outputs": "3"}, 
      "inputs": [[384, 0, 0]]
    }, 
    {
      "op": "elemwise_add", 
      "name": "_plus58", 
      "inputs": [[383, 1, 0], [385, 1, 0]]
    }, 
    {
      "op": "Activation", 
      "name": "gru_t19__z_act", 
      "attr": {"act_type": "sigmoid"}, 
      "inputs": [[386, 0, 0]]
    }, 
    {
      "op": "_rminus_scalar", 
      "name": "_rminusscalar19", 
      "attr": {"scalar": "1.0"}, 
      "inputs": [[387, 0, 0]]
    }, 
    {
      "op": "elemwise_add", 
      "name": "_plus57", 
      "inputs": [[383, 0, 0], [385, 0, 0]]
    }, 
    {
      "op": "Activation", 
      "name": "gru_t19__r_act", 
      "attr": {"act_type": "sigmoid"}, 
      "inputs": [[389, 0, 0]]
    }, 
    {
      "op": "_mul", 
      "name": "_mul57", 
      "inputs": [[390, 0, 0], [385, 2, 0]]
    }, 
    {
      "op": "elemwise_add", 
      "name": "_plus59", 
      "inputs": [[383, 2, 0], [391, 0, 0]]
    }, 
    {
      "op": "Activation", 
      "name": "gru_t19__h_act", 
      "attr": {"act_type": "tanh"}, 
      "inputs": [[392, 0, 0]]
    }, 
    {
      "op": "_mul", 
      "name": "_mul58", 
      "inputs": [[388, 0, 0], [393, 0, 0]]
    }, 
    {
      "op": "_mul", 
      "name": "_mul59", 
      "inputs": [[387, 0, 0], [377, 0, 0]]
    }, 
    {
      "op": "elemwise_add", 
      "name": "gru_t19_out", 
      "inputs": [[394, 0, 0], [395, 0, 0]]
    }, 
    {
      "op": "Dropout", 
      "name": "dropout20", 
      "attr": {
        "mode": "training", 
        "p": "0.01"
      }, 
      "inputs": [[396, 0, 0]]
    }, 
    {
      "op": "null", 
      "name": "fullyconnected19_weight", 
      "attr": {"num_hidden": "5"}, 
      "inputs": []
    }, 
    {
      "op": "null", 
      "name": "fullyconnected19_bias", 
      "attr": {"num_hidden": "5"}, 
      "inputs": []
    }, 
    {
      "op": "FullyConnected", 
      "name": "fullyconnected19", 
      "attr": {"num_hidden": "5"}, 
      "inputs": [[397, 0, 0], [398, 0, 0], [399, 0, 0]]
    }, 
    {
      "op": "Concat", 
      "name": "concat1", 
      "attr": {
        "dim": "1", 
        "num_args": "20"
      }, 
      "inputs": [
        [39, 0, 0], 
        [58, 0, 0], 
        [77, 0, 0], 
        [96, 0, 0], 
        [115, 0, 0], 
        [134, 0, 0], 
        [153, 0, 0], 
        [172, 0, 0], 
        [191, 0, 0], 
        [210, 0, 0], 
        [229, 0, 0], 
        [248, 0, 0], 
        [267, 0, 0], 
        [286, 0, 0], 
        [305, 0, 0], 
        [324, 0, 0], 
        [343, 0, 0], 
        [362, 0, 0], 
        [381, 0, 0], 
        [400, 0, 0]
      ]
    }, 
    {
      "op": "SliceChannel", 
      "name": "split1", 
      "attr": {
        "axis": "1", 
        "num_outputs": "20", 
        "squeeze_axis": "1"
      }, 
      "inputs": [[14, 0, 0]]
    }, 
    {
      "op": "null", 
      "name": "lstm_i2h_weight", 
      "inputs": []
    }, 
    {
      "op": "null", 
      "name": "lstm_i2h_bias", 
      "attr": {"__init__": "[\"lstmbias\", {\"forget_bias\": 1.0}]"}, 
      "inputs": []
    }, 
    {
      "op": "FullyConnected", 
      "name": "lstm_t0_i2h", 
      "attr": {"num_hidden": "368"}, 
      "inputs": [[402, 0, 0], [403, 0, 0], [404, 0, 0]]
    }, 
    {
      "op": "_zeros", 
      "name": "lstm_begin_state_0", 
      "attr": {
        "__layout__": "NC", 
        "dtype": "float32", 
        "shape": "(0, 92)"
      }, 
      "inputs": []
    }, 
    {
      "op": "null", 
      "name": "lstm_h2h_weight", 
      "inputs": []
    }, 
    {
      "op": "null", 
      "name": "lstm_h2h_bias", 
      "inputs": []
    }, 
    {
      "op": "FullyConnected", 
      "name": "lstm_t0_h2h", 
      "attr": {"num_hidden": "368"}, 
      "inputs": [[406, 0, 0], [407, 0, 0], [408, 0, 0]]
    }, 
    {
      "op": "elemwise_add", 
      "name": "_plus60", 
      "inputs": [[405, 0, 0], [409, 0, 0]]
    }, 
    {
      "op": "SliceChannel", 
      "name": "lstm_t0_slice", 
      "attr": {"num_outputs": "4"}, 
      "inputs": [[410, 0, 0]]
    }, 
    {
      "op": "Activation", 
      "name": "lstm_t0_o", 
      "attr": {"act_type": "sigmoid"}, 
      "inputs": [[411, 3, 0]]
    }, 
    {
      "op": "Activation", 
      "name": "lstm_t0_f", 
      "attr": {"act_type": "sigmoid"}, 
      "inputs": [[411, 1, 0]]
    }, 
    {
      "op": "_zeros", 
      "name": "lstm_begin_state_1", 
      "attr": {
        "__layout__": "NC", 
        "dtype": "float32", 
        "shape": "(0, 92)"
      }, 
      "inputs": []
    }, 
    {
      "op": "_mul", 
      "name": "_mul60", 
      "inputs": [[413, 0, 0], [414, 0, 0]]
    }, 
    {
      "op": "Activation", 
      "name": "lstm_t0_i", 
      "attr": {"act_type": "sigmoid"}, 
      "inputs": [[411, 0, 0]]
    }, 
    {
      "op": "Activation", 
      "name": "lstm_t0_c", 
      "attr": {"act_type": "tanh"}, 
      "inputs": [[411, 2, 0]]
    }, 
    {
      "op": "_mul", 
      "name": "_mul61", 
      "inputs": [[416, 0, 0], [417, 0, 0]]
    }, 
    {
      "op": "elemwise_add", 
      "name": "lstm_t0_state", 
      "inputs": [[415, 0, 0], [418, 0, 0]]
    }, 
    {
      "op": "Activation", 
      "name": "activation2", 
      "attr": {"act_type": "tanh"}, 
      "inputs": [[419, 0, 0]]
    }, 
    {
      "op": "_mul", 
      "name": "lstm_t0_out", 
      "inputs": [[412, 0, 0], [420, 0, 0]]
    }, 
    {
      "op": "Dropout", 
      "name": "dropout21", 
      "attr": {
        "mode": "training", 
        "p": "0.01"
      }, 
      "inputs": [[421, 0, 0]]
    }, 
    {
      "op": "null", 
      "name": "fullyconnected20_weight", 
      "attr": {"num_hidden": "5"}, 
      "inputs": []
    }, 
    {
      "op": "null", 
      "name": "fullyconnected20_bias", 
      "attr": {"num_hidden": "5"}, 
      "inputs": []
    }, 
    {
      "op": "FullyConnected", 
      "name": "fullyconnected20", 
      "attr": {"num_hidden": "5"}, 
      "inputs": [[422, 0, 0], [423, 0, 0], [424, 0, 0]]
    }, 
    {
      "op": "FullyConnected", 
      "name": "lstm_t1_i2h", 
      "attr": {"num_hidden": "368"}, 
      "inputs": [[402, 1, 0], [403, 0, 0], [404, 0, 0]]
    }, 
    {
      "op": "FullyConnected", 
      "name": "lstm_t1_h2h", 
      "attr": {"num_hidden": "368"}, 
      "inputs": [[421, 0, 0], [407, 0, 0], [408, 0, 0]]
    }, 
    {
      "op": "elemwise_add", 
      "name": "_plus61", 
      "inputs": [[426, 0, 0], [427, 0, 0]]
    }, 
    {
      "op": "SliceChannel", 
      "name": "lstm_t1_slice", 
      "attr": {"num_outputs": "4"}, 
      "inputs": [[428, 0, 0]]
    }, 
    {
      "op": "Activation", 
      "name": "lstm_t1_o", 
      "attr": {"act_type": "sigmoid"}, 
      "inputs": [[429, 3, 0]]
    }, 
    {
      "op": "Activation", 
      "name": "lstm_t1_f", 
      "attr": {"act_type": "sigmoid"}, 
      "inputs": [[429, 1, 0]]
    }, 
    {
      "op": "_mul", 
      "name": "_mul62", 
      "inputs": [[431, 0, 0], [419, 0, 0]]
    }, 
    {
      "op": "Activation", 
      "name": "lstm_t1_i", 
      "attr": {"act_type": "sigmoid"}, 
      "inputs": [[429, 0, 0]]
    }, 
    {
      "op": "Activation", 
      "name": "lstm_t1_c", 
      "attr": {"act_type": "tanh"}, 
      "inputs": [[429, 2, 0]]
    }, 
    {
      "op": "_mul", 
      "name": "_mul63", 
      "inputs": [[433, 0, 0], [434, 0, 0]]
    }, 
    {
      "op": "elemwise_add", 
      "name": "lstm_t1_state", 
      "inputs": [[432, 0, 0], [435, 0, 0]]
    }, 
    {
      "op": "Activation", 
      "name": "activation3", 
      "attr": {"act_type": "tanh"}, 
      "inputs": [[436, 0, 0]]
    }, 
    {
      "op": "_mul", 
      "name": "lstm_t1_out", 
      "inputs": [[430, 0, 0], [437, 0, 0]]
    }, 
    {
      "op": "Dropout", 
      "name": "dropout22", 
      "attr": {
        "mode": "training", 
        "p": "0.01"
      }, 
      "inputs": [[438, 0, 0]]
    }, 
    {
      "op": "null", 
      "name": "fullyconnected21_weight", 
      "attr": {"num_hidden": "5"}, 
      "inputs": []
    }, 
    {
      "op": "null", 
      "name": "fullyconnected21_bias", 
      "attr": {"num_hidden": "5"}, 
      "inputs": []
    }, 
    {
      "op": "FullyConnected", 
      "name": "fullyconnected21", 
      "attr": {"num_hidden": "5"}, 
      "inputs": [[439, 0, 0], [440, 0, 0], [441, 0, 0]]
    }, 
    {
      "op": "FullyConnected", 
      "name": "lstm_t2_i2h", 
      "attr": {"num_hidden": "368"}, 
      "inputs": [[402, 2, 0], [403, 0, 0], [404, 0, 0]]
    }, 
    {
      "op": "FullyConnected", 
      "name": "lstm_t2_h2h", 
      "attr": {"num_hidden": "368"}, 
      "inputs": [[438, 0, 0], [407, 0, 0], [408, 0, 0]]
    }, 
    {
      "op": "elemwise_add", 
      "name": "_plus62", 
      "inputs": [[443, 0, 0], [444, 0, 0]]
    }, 
    {
      "op": "SliceChannel", 
      "name": "lstm_t2_slice", 
      "attr": {"num_outputs": "4"}, 
      "inputs": [[445, 0, 0]]
    }, 
    {
      "op": "Activation", 
      "name": "lstm_t2_o", 
      "attr": {"act_type": "sigmoid"}, 
      "inputs": [[446, 3, 0]]
    }, 
    {
      "op": "Activation", 
      "name": "lstm_t2_f", 
      "attr": {"act_type": "sigmoid"}, 
      "inputs": [[446, 1, 0]]
    }, 
    {
      "op": "_mul", 
      "name": "_mul64", 
      "inputs": [[448, 0, 0], [436, 0, 0]]
    }, 
    {
      "op": "Activation", 
      "name": "lstm_t2_i", 
      "attr": {"act_type": "sigmoid"}, 
      "inputs": [[446, 0, 0]]
    }, 
    {
      "op": "Activation", 
      "name": "lstm_t2_c", 
      "attr": {"act_type": "tanh"}, 
      "inputs": [[446, 2, 0]]
    }, 
    {
      "op": "_mul", 
      "name": "_mul65", 
      "inputs": [[450, 0, 0], [451, 0, 0]]
    }, 
    {
      "op": "elemwise_add", 
      "name": "lstm_t2_state", 
      "inputs": [[449, 0, 0], [452, 0, 0]]
    }, 
    {
      "op": "Activation", 
      "name": "activation4", 
      "attr": {"act_type": "tanh"}, 
      "inputs": [[453, 0, 0]]
    }, 
    {
      "op": "_mul", 
      "name": "lstm_t2_out", 
      "inputs": [[447, 0, 0], [454, 0, 0]]
    }, 
    {
      "op": "Dropout", 
      "name": "dropout23", 
      "attr": {
        "mode": "training", 
        "p": "0.01"
      }, 
      "inputs": [[455, 0, 0]]
    }, 
    {
      "op": "null", 
      "name": "fullyconnected22_weight", 
      "attr": {"num_hidden": "5"}, 
      "inputs": []
    }, 
    {
      "op": "null", 
      "name": "fullyconnected22_bias", 
      "attr": {"num_hidden": "5"}, 
      "inputs": []
    }, 
    {
      "op": "FullyConnected", 
      "name": "fullyconnected22", 
      "attr": {"num_hidden": "5"}, 
      "inputs": [[456, 0, 0], [457, 0, 0], [458, 0, 0]]
    }, 
    {
      "op": "FullyConnected", 
      "name": "lstm_t3_i2h", 
      "attr": {"num_hidden": "368"}, 
      "inputs": [[402, 3, 0], [403, 0, 0], [404, 0, 0]]
    }, 
    {
      "op": "FullyConnected", 
      "name": "lstm_t3_h2h", 
      "attr": {"num_hidden": "368"}, 
      "inputs": [[455, 0, 0], [407, 0, 0], [408, 0, 0]]
    }, 
    {
      "op": "elemwise_add", 
      "name": "_plus63", 
      "inputs": [[460, 0, 0], [461, 0, 0]]
    }, 
    {
      "op": "SliceChannel", 
      "name": "lstm_t3_slice", 
      "attr": {"num_outputs": "4"}, 
      "inputs": [[462, 0, 0]]
    }, 
    {
      "op": "Activation", 
      "name": "lstm_t3_o", 
      "attr": {"act_type": "sigmoid"}, 
      "inputs": [[463, 3, 0]]
    }, 
    {
      "op": "Activation", 
      "name": "lstm_t3_f", 
      "attr": {"act_type": "sigmoid"}, 
      "inputs": [[463, 1, 0]]
    }, 
    {
      "op": "_mul", 
      "name": "_mul66", 
      "inputs": [[465, 0, 0], [453, 0, 0]]
    }, 
    {
      "op": "Activation", 
      "name": "lstm_t3_i", 
      "attr": {"act_type": "sigmoid"}, 
      "inputs": [[463, 0, 0]]
    }, 
    {
      "op": "Activation", 
      "name": "lstm_t3_c", 
      "attr": {"act_type": "tanh"}, 
      "inputs": [[463, 2, 0]]
    }, 
    {
      "op": "_mul", 
      "name": "_mul67", 
      "inputs": [[467, 0, 0], [468, 0, 0]]
    }, 
    {
      "op": "elemwise_add", 
      "name": "lstm_t3_state", 
      "inputs": [[466, 0, 0], [469, 0, 0]]
    }, 
    {
      "op": "Activation", 
      "name": "activation5", 
      "attr": {"act_type": "tanh"}, 
      "inputs": [[470, 0, 0]]
    }, 
    {
      "op": "_mul", 
      "name": "lstm_t3_out", 
      "inputs": [[464, 0, 0], [471, 0, 0]]
    }, 
    {
      "op": "Dropout", 
      "name": "dropout24", 
      "attr": {
        "mode": "training", 
        "p": "0.01"
      }, 
      "inputs": [[472, 0, 0]]
    }, 
    {
      "op": "null", 
      "name": "fullyconnected23_weight", 
      "attr": {"num_hidden": "5"}, 
      "inputs": []
    }, 
    {
      "op": "null", 
      "name": "fullyconnected23_bias", 
      "attr": {"num_hidden": "5"}, 
      "inputs": []
    }, 
    {
      "op": "FullyConnected", 
      "name": "fullyconnected23", 
      "attr": {"num_hidden": "5"}, 
      "inputs": [[473, 0, 0], [474, 0, 0], [475, 0, 0]]
    }, 
    {
      "op": "FullyConnected", 
      "name": "lstm_t4_i2h", 
      "attr": {"num_hidden": "368"}, 
      "inputs": [[402, 4, 0], [403, 0, 0], [404, 0, 0]]
    }, 
    {
      "op": "FullyConnected", 
      "name": "lstm_t4_h2h", 
      "attr": {"num_hidden": "368"}, 
      "inputs": [[472, 0, 0], [407, 0, 0], [408, 0, 0]]
    }, 
    {
      "op": "elemwise_add", 
      "name": "_plus64", 
      "inputs": [[477, 0, 0], [478, 0, 0]]
    }, 
    {
      "op": "SliceChannel", 
      "name": "lstm_t4_slice", 
      "attr": {"num_outputs": "4"}, 
      "inputs": [[479, 0, 0]]
    }, 
    {
      "op": "Activation", 
      "name": "lstm_t4_o", 
      "attr": {"act_type": "sigmoid"}, 
      "inputs": [[480, 3, 0]]
    }, 
    {
      "op": "Activation", 
      "name": "lstm_t4_f", 
      "attr": {"act_type": "sigmoid"}, 
      "inputs": [[480, 1, 0]]
    }, 
    {
      "op": "_mul", 
      "name": "_mul68", 
      "inputs": [[482, 0, 0], [470, 0, 0]]
    }, 
    {
      "op": "Activation", 
      "name": "lstm_t4_i", 
      "attr": {"act_type": "sigmoid"}, 
      "inputs": [[480, 0, 0]]
    }, 
    {
      "op": "Activation", 
      "name": "lstm_t4_c", 
      "attr": {"act_type": "tanh"}, 
      "inputs": [[480, 2, 0]]
    }, 
    {
      "op": "_mul", 
      "name": "_mul69", 
      "inputs": [[484, 0, 0], [485, 0, 0]]
    }, 
    {
      "op": "elemwise_add", 
      "name": "lstm_t4_state", 
      "inputs": [[483, 0, 0], [486, 0, 0]]
    }, 
    {
      "op": "Activation", 
      "name": "activation6", 
      "attr": {"act_type": "tanh"}, 
      "inputs": [[487, 0, 0]]
    }, 
    {
      "op": "_mul", 
      "name": "lstm_t4_out", 
      "inputs": [[481, 0, 0], [488, 0, 0]]
    }, 
    {
      "op": "Dropout", 
      "name": "dropout25", 
      "attr": {
        "mode": "training", 
        "p": "0.01"
      }, 
      "inputs": [[489, 0, 0]]
    }, 
    {
      "op": "null", 
      "name": "fullyconnected24_weight", 
      "attr": {"num_hidden": "5"}, 
      "inputs": []
    }, 
    {
      "op": "null", 
      "name": "fullyconnected24_bias", 
      "attr": {"num_hidden": "5"}, 
      "inputs": []
    }, 
    {
      "op": "FullyConnected", 
      "name": "fullyconnected24", 
      "attr": {"num_hidden": "5"}, 
      "inputs": [[490, 0, 0], [491, 0, 0], [492, 0, 0]]
    }, 
    {
      "op": "FullyConnected", 
      "name": "lstm_t5_i2h", 
      "attr": {"num_hidden": "368"}, 
      "inputs": [[402, 5, 0], [403, 0, 0], [404, 0, 0]]
    }, 
    {
      "op": "FullyConnected", 
      "name": "lstm_t5_h2h", 
      "attr": {"num_hidden": "368"}, 
      "inputs": [[489, 0, 0], [407, 0, 0], [408, 0, 0]]
    }, 
    {
      "op": "elemwise_add", 
      "name": "_plus65", 
      "inputs": [[494, 0, 0], [495, 0, 0]]
    }, 
    {
      "op": "SliceChannel", 
      "name": "lstm_t5_slice", 
      "attr": {"num_outputs": "4"}, 
      "inputs": [[496, 0, 0]]
    }, 
    {
      "op": "Activation", 
      "name": "lstm_t5_o", 
      "attr": {"act_type": "sigmoid"}, 
      "inputs": [[497, 3, 0]]
    }, 
    {
      "op": "Activation", 
      "name": "lstm_t5_f", 
      "attr": {"act_type": "sigmoid"}, 
      "inputs": [[497, 1, 0]]
    }, 
    {
      "op": "_mul", 
      "name": "_mul70", 
      "inputs": [[499, 0, 0], [487, 0, 0]]
    }, 
    {
      "op": "Activation", 
      "name": "lstm_t5_i", 
      "attr": {"act_type": "sigmoid"}, 
      "inputs": [[497, 0, 0]]
    }, 
    {
      "op": "Activation", 
      "name": "lstm_t5_c", 
      "attr": {"act_type": "tanh"}, 
      "inputs": [[497, 2, 0]]
    }, 
    {
      "op": "_mul", 
      "name": "_mul71", 
      "inputs": [[501, 0, 0], [502, 0, 0]]
    }, 
    {
      "op": "elemwise_add", 
      "name": "lstm_t5_state", 
      "inputs": [[500, 0, 0], [503, 0, 0]]
    }, 
    {
      "op": "Activation", 
      "name": "activation7", 
      "attr": {"act_type": "tanh"}, 
      "inputs": [[504, 0, 0]]
    }, 
    {
      "op": "_mul", 
      "name": "lstm_t5_out", 
      "inputs": [[498, 0, 0], [505, 0, 0]]
    }, 
    {
      "op": "Dropout", 
      "name": "dropout26", 
      "attr": {
        "mode": "training", 
        "p": "0.01"
      }, 
      "inputs": [[506, 0, 0]]
    }, 
    {
      "op": "null", 
      "name": "fullyconnected25_weight", 
      "attr": {"num_hidden": "5"}, 
      "inputs": []
    }, 
    {
      "op": "null", 
      "name": "fullyconnected25_bias", 
      "attr": {"num_hidden": "5"}, 
      "inputs": []
    }, 
    {
      "op": "FullyConnected", 
      "name": "fullyconnected25", 
      "attr": {"num_hidden": "5"}, 
      "inputs": [[507, 0, 0], [508, 0, 0], [509, 0, 0]]
    }, 
    {
      "op": "FullyConnected", 
      "name": "lstm_t6_i2h", 
      "attr": {"num_hidden": "368"}, 
      "inputs": [[402, 6, 0], [403, 0, 0], [404, 0, 0]]
    }, 
    {
      "op": "FullyConnected", 
      "name": "lstm_t6_h2h", 
      "attr": {"num_hidden": "368"}, 
      "inputs": [[506, 0, 0], [407, 0, 0], [408, 0, 0]]
    }, 
    {
      "op": "elemwise_add", 
      "name": "_plus66", 
      "inputs": [[511, 0, 0], [512, 0, 0]]
    }, 
    {
      "op": "SliceChannel", 
      "name": "lstm_t6_slice", 
      "attr": {"num_outputs": "4"}, 
      "inputs": [[513, 0, 0]]
    }, 
    {
      "op": "Activation", 
      "name": "lstm_t6_o", 
      "attr": {"act_type": "sigmoid"}, 
      "inputs": [[514, 3, 0]]
    }, 
    {
      "op": "Activation", 
      "name": "lstm_t6_f", 
      "attr": {"act_type": "sigmoid"}, 
      "inputs": [[514, 1, 0]]
    }, 
    {
      "op": "_mul", 
      "name": "_mul72", 
      "inputs": [[516, 0, 0], [504, 0, 0]]
    }, 
    {
      "op": "Activation", 
      "name": "lstm_t6_i", 
      "attr": {"act_type": "sigmoid"}, 
      "inputs": [[514, 0, 0]]
    }, 
    {
      "op": "Activation", 
      "name": "lstm_t6_c", 
      "attr": {"act_type": "tanh"}, 
      "inputs": [[514, 2, 0]]
    }, 
    {
      "op": "_mul", 
      "name": "_mul73", 
      "inputs": [[518, 0, 0], [519, 0, 0]]
    }, 
    {
      "op": "elemwise_add", 
      "name": "lstm_t6_state", 
      "inputs": [[517, 0, 0], [520, 0, 0]]
    }, 
    {
      "op": "Activation", 
      "name": "activation8", 
      "attr": {"act_type": "tanh"}, 
      "inputs": [[521, 0, 0]]
    }, 
    {
      "op": "_mul", 
      "name": "lstm_t6_out", 
      "inputs": [[515, 0, 0], [522, 0, 0]]
    }, 
    {
      "op": "Dropout", 
      "name": "dropout27", 
      "attr": {
        "mode": "training", 
        "p": "0.01"
      }, 
      "inputs": [[523, 0, 0]]
    }, 
    {
      "op": "null", 
      "name": "fullyconnected26_weight", 
      "attr": {"num_hidden": "5"}, 
      "inputs": []
    }, 
    {
      "op": "null", 
      "name": "fullyconnected26_bias", 
      "attr": {"num_hidden": "5"}, 
      "inputs": []
    }, 
    {
      "op": "FullyConnected", 
      "name": "fullyconnected26", 
      "attr": {"num_hidden": "5"}, 
      "inputs": [[524, 0, 0], [525, 0, 0], [526, 0, 0]]
    }, 
    {
      "op": "FullyConnected", 
      "name": "lstm_t7_i2h", 
      "attr": {"num_hidden": "368"}, 
      "inputs": [[402, 7, 0], [403, 0, 0], [404, 0, 0]]
    }, 
    {
      "op": "FullyConnected", 
      "name": "lstm_t7_h2h", 
      "attr": {"num_hidden": "368"}, 
      "inputs": [[523, 0, 0], [407, 0, 0], [408, 0, 0]]
    }, 
    {
      "op": "elemwise_add", 
      "name": "_plus67", 
      "inputs": [[528, 0, 0], [529, 0, 0]]
    }, 
    {
      "op": "SliceChannel", 
      "name": "lstm_t7_slice", 
      "attr": {"num_outputs": "4"}, 
      "inputs": [[530, 0, 0]]
    }, 
    {
      "op": "Activation", 
      "name": "lstm_t7_o", 
      "attr": {"act_type": "sigmoid"}, 
      "inputs": [[531, 3, 0]]
    }, 
    {
      "op": "Activation", 
      "name": "lstm_t7_f", 
      "attr": {"act_type": "sigmoid"}, 
      "inputs": [[531, 1, 0]]
    }, 
    {
      "op": "_mul", 
      "name": "_mul74", 
      "inputs": [[533, 0, 0], [521, 0, 0]]
    }, 
    {
      "op": "Activation", 
      "name": "lstm_t7_i", 
      "attr": {"act_type": "sigmoid"}, 
      "inputs": [[531, 0, 0]]
    }, 
    {
      "op": "Activation", 
      "name": "lstm_t7_c", 
      "attr": {"act_type": "tanh"}, 
      "inputs": [[531, 2, 0]]
    }, 
    {
      "op": "_mul", 
      "name": "_mul75", 
      "inputs": [[535, 0, 0], [536, 0, 0]]
    }, 
    {
      "op": "elemwise_add", 
      "name": "lstm_t7_state", 
      "inputs": [[534, 0, 0], [537, 0, 0]]
    }, 
    {
      "op": "Activation", 
      "name": "activation9", 
      "attr": {"act_type": "tanh"}, 
      "inputs": [[538, 0, 0]]
    }, 
    {
      "op": "_mul", 
      "name": "lstm_t7_out", 
      "inputs": [[532, 0, 0], [539, 0, 0]]
    }, 
    {
      "op": "Dropout", 
      "name": "dropout28", 
      "attr": {
        "mode": "training", 
        "p": "0.01"
      }, 
      "inputs": [[540, 0, 0]]
    }, 
    {
      "op": "null", 
      "name": "fullyconnected27_weight", 
      "attr": {"num_hidden": "5"}, 
      "inputs": []
    }, 
    {
      "op": "null", 
      "name": "fullyconnected27_bias", 
      "attr": {"num_hidden": "5"}, 
      "inputs": []
    }, 
    {
      "op": "FullyConnected", 
      "name": "fullyconnected27", 
      "attr": {"num_hidden": "5"}, 
      "inputs": [[541, 0, 0], [542, 0, 0], [543, 0, 0]]
    }, 
    {
      "op": "FullyConnected", 
      "name": "lstm_t8_i2h", 
      "attr": {"num_hidden": "368"}, 
      "inputs": [[402, 8, 0], [403, 0, 0], [404, 0, 0]]
    }, 
    {
      "op": "FullyConnected", 
      "name": "lstm_t8_h2h", 
      "attr": {"num_hidden": "368"}, 
      "inputs": [[540, 0, 0], [407, 0, 0], [408, 0, 0]]
    }, 
    {
      "op": "elemwise_add", 
      "name": "_plus68", 
      "inputs": [[545, 0, 0], [546, 0, 0]]
    }, 
    {
      "op": "SliceChannel", 
      "name": "lstm_t8_slice", 
      "attr": {"num_outputs": "4"}, 
      "inputs": [[547, 0, 0]]
    }, 
    {
      "op": "Activation", 
      "name": "lstm_t8_o", 
      "attr": {"act_type": "sigmoid"}, 
      "inputs": [[548, 3, 0]]
    }, 
    {
      "op": "Activation", 
      "name": "lstm_t8_f", 
      "attr": {"act_type": "sigmoid"}, 
      "inputs": [[548, 1, 0]]
    }, 
    {
      "op": "_mul", 
      "name": "_mul76", 
      "inputs": [[550, 0, 0], [538, 0, 0]]
    }, 
    {
      "op": "Activation", 
      "name": "lstm_t8_i", 
      "attr": {"act_type": "sigmoid"}, 
      "inputs": [[548, 0, 0]]
    }, 
    {
      "op": "Activation", 
      "name": "lstm_t8_c", 
      "attr": {"act_type": "tanh"}, 
      "inputs": [[548, 2, 0]]
    }, 
    {
      "op": "_mul", 
      "name": "_mul77", 
      "inputs": [[552, 0, 0], [553, 0, 0]]
    }, 
    {
      "op": "elemwise_add", 
      "name": "lstm_t8_state", 
      "inputs": [[551, 0, 0], [554, 0, 0]]
    }, 
    {
      "op": "Activation", 
      "name": "activation10", 
      "attr": {"act_type": "tanh"}, 
      "inputs": [[555, 0, 0]]
    }, 
    {
      "op": "_mul", 
      "name": "lstm_t8_out", 
      "inputs": [[549, 0, 0], [556, 0, 0]]
    }, 
    {
      "op": "Dropout", 
      "name": "dropout29", 
      "attr": {
        "mode": "training", 
        "p": "0.01"
      }, 
      "inputs": [[557, 0, 0]]
    }, 
    {
      "op": "null", 
      "name": "fullyconnected28_weight", 
      "attr": {"num_hidden": "5"}, 
      "inputs": []
    }, 
    {
      "op": "null", 
      "name": "fullyconnected28_bias", 
      "attr": {"num_hidden": "5"}, 
      "inputs": []
    }, 
    {
      "op": "FullyConnected", 
      "name": "fullyconnected28", 
      "attr": {"num_hidden": "5"}, 
      "inputs": [[558, 0, 0], [559, 0, 0], [560, 0, 0]]
    }, 
    {
      "op": "FullyConnected", 
      "name": "lstm_t9_i2h", 
      "attr": {"num_hidden": "368"}, 
      "inputs": [[402, 9, 0], [403, 0, 0], [404, 0, 0]]
    }, 
    {
      "op": "FullyConnected", 
      "name": "lstm_t9_h2h", 
      "attr": {"num_hidden": "368"}, 
      "inputs": [[557, 0, 0], [407, 0, 0], [408, 0, 0]]
    }, 
    {
      "op": "elemwise_add", 
      "name": "_plus69", 
      "inputs": [[562, 0, 0], [563, 0, 0]]
    }, 
    {
      "op": "SliceChannel", 
      "name": "lstm_t9_slice", 
      "attr": {"num_outputs": "4"}, 
      "inputs": [[564, 0, 0]]
    }, 
    {
      "op": "Activation", 
      "name": "lstm_t9_o", 
      "attr": {"act_type": "sigmoid"}, 
      "inputs": [[565, 3, 0]]
    }, 
    {
      "op": "Activation", 
      "name": "lstm_t9_f", 
      "attr": {"act_type": "sigmoid"}, 
      "inputs": [[565, 1, 0]]
    }, 
    {
      "op": "_mul", 
      "name": "_mul78", 
      "inputs": [[567, 0, 0], [555, 0, 0]]
    }, 
    {
      "op": "Activation", 
      "name": "lstm_t9_i", 
      "attr": {"act_type": "sigmoid"}, 
      "inputs": [[565, 0, 0]]
    }, 
    {
      "op": "Activation", 
      "name": "lstm_t9_c", 
      "attr": {"act_type": "tanh"}, 
      "inputs": [[565, 2, 0]]
    }, 
    {
      "op": "_mul", 
      "name": "_mul79", 
      "inputs": [[569, 0, 0], [570, 0, 0]]
    }, 
    {
      "op": "elemwise_add", 
      "name": "lstm_t9_state", 
      "inputs": [[568, 0, 0], [571, 0, 0]]
    }, 
    {
      "op": "Activation", 
      "name": "activation11", 
      "attr": {"act_type": "tanh"}, 
      "inputs": [[572, 0, 0]]
    }, 
    {
      "op": "_mul", 
      "name": "lstm_t9_out", 
      "inputs": [[566, 0, 0], [573, 0, 0]]
    }, 
    {
      "op": "Dropout", 
      "name": "dropout30", 
      "attr": {
        "mode": "training", 
        "p": "0.01"
      }, 
      "inputs": [[574, 0, 0]]
    }, 
    {
      "op": "null", 
      "name": "fullyconnected29_weight", 
      "attr": {"num_hidden": "5"}, 
      "inputs": []
    }, 
    {
      "op": "null", 
      "name": "fullyconnected29_bias", 
      "attr": {"num_hidden": "5"}, 
      "inputs": []
    }, 
    {
      "op": "FullyConnected", 
      "name": "fullyconnected29", 
      "attr": {"num_hidden": "5"}, 
      "inputs": [[575, 0, 0], [576, 0, 0], [577, 0, 0]]
    }, 
    {
      "op": "FullyConnected", 
      "name": "lstm_t10_i2h", 
      "attr": {"num_hidden": "368"}, 
      "inputs": [[402, 10, 0], [403, 0, 0], [404, 0, 0]]
    }, 
    {
      "op": "FullyConnected", 
      "name": "lstm_t10_h2h", 
      "attr": {"num_hidden": "368"}, 
      "inputs": [[574, 0, 0], [407, 0, 0], [408, 0, 0]]
    }, 
    {
      "op": "elemwise_add", 
      "name": "_plus70", 
      "inputs": [[579, 0, 0], [580, 0, 0]]
    }, 
    {
      "op": "SliceChannel", 
      "name": "lstm_t10_slice", 
      "attr": {"num_outputs": "4"}, 
      "inputs": [[581, 0, 0]]
    }, 
    {
      "op": "Activation", 
      "name": "lstm_t10_o", 
      "attr": {"act_type": "sigmoid"}, 
      "inputs": [[582, 3, 0]]
    }, 
    {
      "op": "Activation", 
      "name": "lstm_t10_f", 
      "attr": {"act_type": "sigmoid"}, 
      "inputs": [[582, 1, 0]]
    }, 
    {
      "op": "_mul", 
      "name": "_mul80", 
      "inputs": [[584, 0, 0], [572, 0, 0]]
    }, 
    {
      "op": "Activation", 
      "name": "lstm_t10_i", 
      "attr": {"act_type": "sigmoid"}, 
      "inputs": [[582, 0, 0]]
    }, 
    {
      "op": "Activation", 
      "name": "lstm_t10_c", 
      "attr": {"act_type": "tanh"}, 
      "inputs": [[582, 2, 0]]
    }, 
    {
      "op": "_mul", 
      "name": "_mul81", 
      "inputs": [[586, 0, 0], [587, 0, 0]]
    }, 
    {
      "op": "elemwise_add", 
      "name": "lstm_t10_state", 
      "inputs": [[585, 0, 0], [588, 0, 0]]
    }, 
    {
      "op": "Activation", 
      "name": "activation12", 
      "attr": {"act_type": "tanh"}, 
      "inputs": [[589, 0, 0]]
    }, 
    {
      "op": "_mul", 
      "name": "lstm_t10_out", 
      "inputs": [[583, 0, 0], [590, 0, 0]]
    }, 
    {
      "op": "Dropout", 
      "name": "dropout31", 
      "attr": {
        "mode": "training", 
        "p": "0.01"
      }, 
      "inputs": [[591, 0, 0]]
    }, 
    {
      "op": "null", 
      "name": "fullyconnected30_weight", 
      "attr": {"num_hidden": "5"}, 
      "inputs": []
    }, 
    {
      "op": "null", 
      "name": "fullyconnected30_bias", 
      "attr": {"num_hidden": "5"}, 
      "inputs": []
    }, 
    {
      "op": "FullyConnected", 
      "name": "fullyconnected30", 
      "attr": {"num_hidden": "5"}, 
      "inputs": [[592, 0, 0], [593, 0, 0], [594, 0, 0]]
    }, 
    {
      "op": "FullyConnected", 
      "name": "lstm_t11_i2h", 
      "attr": {"num_hidden": "368"}, 
      "inputs": [[402, 11, 0], [403, 0, 0], [404, 0, 0]]
    }, 
    {
      "op": "FullyConnected", 
      "name": "lstm_t11_h2h", 
      "attr": {"num_hidden": "368"}, 
      "inputs": [[591, 0, 0], [407, 0, 0], [408, 0, 0]]
    }, 
    {
      "op": "elemwise_add", 
      "name": "_plus71", 
      "inputs": [[596, 0, 0], [597, 0, 0]]
    }, 
    {
      "op": "SliceChannel", 
      "name": "lstm_t11_slice", 
      "attr": {"num_outputs": "4"}, 
      "inputs": [[598, 0, 0]]
    }, 
    {
      "op": "Activation", 
      "name": "lstm_t11_o", 
      "attr": {"act_type": "sigmoid"}, 
      "inputs": [[599, 3, 0]]
    }, 
    {
      "op": "Activation", 
      "name": "lstm_t11_f", 
      "attr": {"act_type": "sigmoid"}, 
      "inputs": [[599, 1, 0]]
    }, 
    {
      "op": "_mul", 
      "name": "_mul82", 
      "inputs": [[601, 0, 0], [589, 0, 0]]
    }, 
    {
      "op": "Activation", 
      "name": "lstm_t11_i", 
      "attr": {"act_type": "sigmoid"}, 
      "inputs": [[599, 0, 0]]
    }, 
    {
      "op": "Activation", 
      "name": "lstm_t11_c", 
      "attr": {"act_type": "tanh"}, 
      "inputs": [[599, 2, 0]]
    }, 
    {
      "op": "_mul", 
      "name": "_mul83", 
      "inputs": [[603, 0, 0], [604, 0, 0]]
    }, 
    {
      "op": "elemwise_add", 
      "name": "lstm_t11_state", 
      "inputs": [[602, 0, 0], [605, 0, 0]]
    }, 
    {
      "op": "Activation", 
      "name": "activation13", 
      "attr": {"act_type": "tanh"}, 
      "inputs": [[606, 0, 0]]
    }, 
    {
      "op": "_mul", 
      "name": "lstm_t11_out", 
      "inputs": [[600, 0, 0], [607, 0, 0]]
    }, 
    {
      "op": "Dropout", 
      "name": "dropout32", 
      "attr": {
        "mode": "training", 
        "p": "0.01"
      }, 
      "inputs": [[608, 0, 0]]
    }, 
    {
      "op": "null", 
      "name": "fullyconnected31_weight", 
      "attr": {"num_hidden": "5"}, 
      "inputs": []
    }, 
    {
      "op": "null", 
      "name": "fullyconnected31_bias", 
      "attr": {"num_hidden": "5"}, 
      "inputs": []
    }, 
    {
      "op": "FullyConnected", 
      "name": "fullyconnected31", 
      "attr": {"num_hidden": "5"}, 
      "inputs": [[609, 0, 0], [610, 0, 0], [611, 0, 0]]
    }, 
    {
      "op": "FullyConnected", 
      "name": "lstm_t12_i2h", 
      "attr": {"num_hidden": "368"}, 
      "inputs": [[402, 12, 0], [403, 0, 0], [404, 0, 0]]
    }, 
    {
      "op": "FullyConnected", 
      "name": "lstm_t12_h2h", 
      "attr": {"num_hidden": "368"}, 
      "inputs": [[608, 0, 0], [407, 0, 0], [408, 0, 0]]
    }, 
    {
      "op": "elemwise_add", 
      "name": "_plus72", 
      "inputs": [[613, 0, 0], [614, 0, 0]]
    }, 
    {
      "op": "SliceChannel", 
      "name": "lstm_t12_slice", 
      "attr": {"num_outputs": "4"}, 
      "inputs": [[615, 0, 0]]
    }, 
    {
      "op": "Activation", 
      "name": "lstm_t12_o", 
      "attr": {"act_type": "sigmoid"}, 
      "inputs": [[616, 3, 0]]
    }, 
    {
      "op": "Activation", 
      "name": "lstm_t12_f", 
      "attr": {"act_type": "sigmoid"}, 
      "inputs": [[616, 1, 0]]
    }, 
    {
      "op": "_mul", 
      "name": "_mul84", 
      "inputs": [[618, 0, 0], [606, 0, 0]]
    }, 
    {
      "op": "Activation", 
      "name": "lstm_t12_i", 
      "attr": {"act_type": "sigmoid"}, 
      "inputs": [[616, 0, 0]]
    }, 
    {
      "op": "Activation", 
      "name": "lstm_t12_c", 
      "attr": {"act_type": "tanh"}, 
      "inputs": [[616, 2, 0]]
    }, 
    {
      "op": "_mul", 
      "name": "_mul85", 
      "inputs": [[620, 0, 0], [621, 0, 0]]
    }, 
    {
      "op": "elemwise_add", 
      "name": "lstm_t12_state", 
      "inputs": [[619, 0, 0], [622, 0, 0]]
    }, 
    {
      "op": "Activation", 
      "name": "activation14", 
      "attr": {"act_type": "tanh"}, 
      "inputs": [[623, 0, 0]]
    }, 
    {
      "op": "_mul", 
      "name": "lstm_t12_out", 
      "inputs": [[617, 0, 0], [624, 0, 0]]
    }, 
    {
      "op": "Dropout", 
      "name": "dropout33", 
      "attr": {
        "mode": "training", 
        "p": "0.01"
      }, 
      "inputs": [[625, 0, 0]]
    }, 
    {
      "op": "null", 
      "name": "fullyconnected32_weight", 
      "attr": {"num_hidden": "5"}, 
      "inputs": []
    }, 
    {
      "op": "null", 
      "name": "fullyconnected32_bias", 
      "attr": {"num_hidden": "5"}, 
      "inputs": []
    }, 
    {
      "op": "FullyConnected", 
      "name": "fullyconnected32", 
      "attr": {"num_hidden": "5"}, 
      "inputs": [[626, 0, 0], [627, 0, 0], [628, 0, 0]]
    }, 
    {
      "op": "FullyConnected", 
      "name": "lstm_t13_i2h", 
      "attr": {"num_hidden": "368"}, 
      "inputs": [[402, 13, 0], [403, 0, 0], [404, 0, 0]]
    }, 
    {
      "op": "FullyConnected", 
      "name": "lstm_t13_h2h", 
      "attr": {"num_hidden": "368"}, 
      "inputs": [[625, 0, 0], [407, 0, 0], [408, 0, 0]]
    }, 
    {
      "op": "elemwise_add", 
      "name": "_plus73", 
      "inputs": [[630, 0, 0], [631, 0, 0]]
    }, 
    {
      "op": "SliceChannel", 
      "name": "lstm_t13_slice", 
      "attr": {"num_outputs": "4"}, 
      "inputs": [[632, 0, 0]]
    }, 
    {
      "op": "Activation", 
      "name": "lstm_t13_o", 
      "attr": {"act_type": "sigmoid"}, 
      "inputs": [[633, 3, 0]]
    }, 
    {
      "op": "Activation", 
      "name": "lstm_t13_f", 
      "attr": {"act_type": "sigmoid"}, 
      "inputs": [[633, 1, 0]]
    }, 
    {
      "op": "_mul", 
      "name": "_mul86", 
      "inputs": [[635, 0, 0], [623, 0, 0]]
    }, 
    {
      "op": "Activation", 
      "name": "lstm_t13_i", 
      "attr": {"act_type": "sigmoid"}, 
      "inputs": [[633, 0, 0]]
    }, 
    {
      "op": "Activation", 
      "name": "lstm_t13_c", 
      "attr": {"act_type": "tanh"}, 
      "inputs": [[633, 2, 0]]
    }, 
    {
      "op": "_mul", 
      "name": "_mul87", 
      "inputs": [[637, 0, 0], [638, 0, 0]]
    }, 
    {
      "op": "elemwise_add", 
      "name": "lstm_t13_state", 
      "inputs": [[636, 0, 0], [639, 0, 0]]
    }, 
    {
      "op": "Activation", 
      "name": "activation15", 
      "attr": {"act_type": "tanh"}, 
      "inputs": [[640, 0, 0]]
    }, 
    {
      "op": "_mul", 
      "name": "lstm_t13_out", 
      "inputs": [[634, 0, 0], [641, 0, 0]]
    }, 
    {
      "op": "Dropout", 
      "name": "dropout34", 
      "attr": {
        "mode": "training", 
        "p": "0.01"
      }, 
      "inputs": [[642, 0, 0]]
    }, 
    {
      "op": "null", 
      "name": "fullyconnected33_weight", 
      "attr": {"num_hidden": "5"}, 
      "inputs": []
    }, 
    {
      "op": "null", 
      "name": "fullyconnected33_bias", 
      "attr": {"num_hidden": "5"}, 
      "inputs": []
    }, 
    {
      "op": "FullyConnected", 
      "name": "fullyconnected33", 
      "attr": {"num_hidden": "5"}, 
      "inputs": [[643, 0, 0], [644, 0, 0], [645, 0, 0]]
    }, 
    {
      "op": "FullyConnected", 
      "name": "lstm_t14_i2h", 
      "attr": {"num_hidden": "368"}, 
      "inputs": [[402, 14, 0], [403, 0, 0], [404, 0, 0]]
    }, 
    {
      "op": "FullyConnected", 
      "name": "lstm_t14_h2h", 
      "attr": {"num_hidden": "368"}, 
      "inputs": [[642, 0, 0], [407, 0, 0], [408, 0, 0]]
    }, 
    {
      "op": "elemwise_add", 
      "name": "_plus74", 
      "inputs": [[647, 0, 0], [648, 0, 0]]
    }, 
    {
      "op": "SliceChannel", 
      "name": "lstm_t14_slice", 
      "attr": {"num_outputs": "4"}, 
      "inputs": [[649, 0, 0]]
    }, 
    {
      "op": "Activation", 
      "name": "lstm_t14_o", 
      "attr": {"act_type": "sigmoid"}, 
      "inputs": [[650, 3, 0]]
    }, 
    {
      "op": "Activation", 
      "name": "lstm_t14_f", 
      "attr": {"act_type": "sigmoid"}, 
      "inputs": [[650, 1, 0]]
    }, 
    {
      "op": "_mul", 
      "name": "_mul88", 
      "inputs": [[652, 0, 0], [640, 0, 0]]
    }, 
    {
      "op": "Activation", 
      "name": "lstm_t14_i", 
      "attr": {"act_type": "sigmoid"}, 
      "inputs": [[650, 0, 0]]
    }, 
    {
      "op": "Activation", 
      "name": "lstm_t14_c", 
      "attr": {"act_type": "tanh"}, 
      "inputs": [[650, 2, 0]]
    }, 
    {
      "op": "_mul", 
      "name": "_mul89", 
      "inputs": [[654, 0, 0], [655, 0, 0]]
    }, 
    {
      "op": "elemwise_add", 
      "name": "lstm_t14_state", 
      "inputs": [[653, 0, 0], [656, 0, 0]]
    }, 
    {
      "op": "Activation", 
      "name": "activation16", 
      "attr": {"act_type": "tanh"}, 
      "inputs": [[657, 0, 0]]
    }, 
    {
      "op": "_mul", 
      "name": "lstm_t14_out", 
      "inputs": [[651, 0, 0], [658, 0, 0]]
    }, 
    {
      "op": "Dropout", 
      "name": "dropout35", 
      "attr": {
        "mode": "training", 
        "p": "0.01"
      }, 
      "inputs": [[659, 0, 0]]
    }, 
    {
      "op": "null", 
      "name": "fullyconnected34_weight", 
      "attr": {"num_hidden": "5"}, 
      "inputs": []
    }, 
    {
      "op": "null", 
      "name": "fullyconnected34_bias", 
      "attr": {"num_hidden": "5"}, 
      "inputs": []
    }, 
    {
      "op": "FullyConnected", 
      "name": "fullyconnected34", 
      "attr": {"num_hidden": "5"}, 
      "inputs": [[660, 0, 0], [661, 0, 0], [662, 0, 0]]
    }, 
    {
      "op": "FullyConnected", 
      "name": "lstm_t15_i2h", 
      "attr": {"num_hidden": "368"}, 
      "inputs": [[402, 15, 0], [403, 0, 0], [404, 0, 0]]
    }, 
    {
      "op": "FullyConnected", 
      "name": "lstm_t15_h2h", 
      "attr": {"num_hidden": "368"}, 
      "inputs": [[659, 0, 0], [407, 0, 0], [408, 0, 0]]
    }, 
    {
      "op": "elemwise_add", 
      "name": "_plus75", 
      "inputs": [[664, 0, 0], [665, 0, 0]]
    }, 
    {
      "op": "SliceChannel", 
      "name": "lstm_t15_slice", 
      "attr": {"num_outputs": "4"}, 
      "inputs": [[666, 0, 0]]
    }, 
    {
      "op": "Activation", 
      "name": "lstm_t15_o", 
      "attr": {"act_type": "sigmoid"}, 
      "inputs": [[667, 3, 0]]
    }, 
    {
      "op": "Activation", 
      "name": "lstm_t15_f", 
      "attr": {"act_type": "sigmoid"}, 
      "inputs": [[667, 1, 0]]
    }, 
    {
      "op": "_mul", 
      "name": "_mul90", 
      "inputs": [[669, 0, 0], [657, 0, 0]]
    }, 
    {
      "op": "Activation", 
      "name": "lstm_t15_i", 
      "attr": {"act_type": "sigmoid"}, 
      "inputs": [[667, 0, 0]]
    }, 
    {
      "op": "Activation", 
      "name": "lstm_t15_c", 
      "attr": {"act_type": "tanh"}, 
      "inputs": [[667, 2, 0]]
    }, 
    {
      "op": "_mul", 
      "name": "_mul91", 
      "inputs": [[671, 0, 0], [672, 0, 0]]
    }, 
    {
      "op": "elemwise_add", 
      "name": "lstm_t15_state", 
      "inputs": [[670, 0, 0], [673, 0, 0]]
    }, 
    {
      "op": "Activation", 
      "name": "activation17", 
      "attr": {"act_type": "tanh"}, 
      "inputs": [[674, 0, 0]]
    }, 
    {
      "op": "_mul", 
      "name": "lstm_t15_out", 
      "inputs": [[668, 0, 0], [675, 0, 0]]
    }, 
    {
      "op": "Dropout", 
      "name": "dropout36", 
      "attr": {
        "mode": "training", 
        "p": "0.01"
      }, 
      "inputs": [[676, 0, 0]]
    }, 
    {
      "op": "null", 
      "name": "fullyconnected35_weight", 
      "attr": {"num_hidden": "5"}, 
      "inputs": []
    }, 
    {
      "op": "null", 
      "name": "fullyconnected35_bias", 
      "attr": {"num_hidden": "5"}, 
      "inputs": []
    }, 
    {
      "op": "FullyConnected", 
      "name": "fullyconnected35", 
      "attr": {"num_hidden": "5"}, 
      "inputs": [[677, 0, 0], [678, 0, 0], [679, 0, 0]]
    }, 
    {
      "op": "FullyConnected", 
      "name": "lstm_t16_i2h", 
      "attr": {"num_hidden": "368"}, 
      "inputs": [[402, 16, 0], [403, 0, 0], [404, 0, 0]]
    }, 
    {
      "op": "FullyConnected", 
      "name": "lstm_t16_h2h", 
      "attr": {"num_hidden": "368"}, 
      "inputs": [[676, 0, 0], [407, 0, 0], [408, 0, 0]]
    }, 
    {
      "op": "elemwise_add", 
      "name": "_plus76", 
      "inputs": [[681, 0, 0], [682, 0, 0]]
    }, 
    {
      "op": "SliceChannel", 
      "name": "lstm_t16_slice", 
      "attr": {"num_outputs": "4"}, 
      "inputs": [[683, 0, 0]]
    }, 
    {
      "op": "Activation", 
      "name": "lstm_t16_o", 
      "attr": {"act_type": "sigmoid"}, 
      "inputs": [[684, 3, 0]]
    }, 
    {
      "op": "Activation", 
      "name": "lstm_t16_f", 
      "attr": {"act_type": "sigmoid"}, 
      "inputs": [[684, 1, 0]]
    }, 
    {
      "op": "_mul", 
      "name": "_mul92", 
      "inputs": [[686, 0, 0], [674, 0, 0]]
    }, 
    {
      "op": "Activation", 
      "name": "lstm_t16_i", 
      "attr": {"act_type": "sigmoid"}, 
      "inputs": [[684, 0, 0]]
    }, 
    {
      "op": "Activation", 
      "name": "lstm_t16_c", 
      "attr": {"act_type": "tanh"}, 
      "inputs": [[684, 2, 0]]
    }, 
    {
      "op": "_mul", 
      "name": "_mul93", 
      "inputs": [[688, 0, 0], [689, 0, 0]]
    }, 
    {
      "op": "elemwise_add", 
      "name": "lstm_t16_state", 
      "inputs": [[687, 0, 0], [690, 0, 0]]
    }, 
    {
      "op": "Activation", 
      "name": "activation18", 
      "attr": {"act_type": "tanh"}, 
      "inputs": [[691, 0, 0]]
    }, 
    {
      "op": "_mul", 
      "name": "lstm_t16_out", 
      "inputs": [[685, 0, 0], [692, 0, 0]]
    }, 
    {
      "op": "Dropout", 
      "name": "dropout37", 
      "attr": {
        "mode": "training", 
        "p": "0.01"
      }, 
      "inputs": [[693, 0, 0]]
    }, 
    {
      "op": "null", 
      "name": "fullyconnected36_weight", 
      "attr": {"num_hidden": "5"}, 
      "inputs": []
    }, 
    {
      "op": "null", 
      "name": "fullyconnected36_bias", 
      "attr": {"num_hidden": "5"}, 
      "inputs": []
    }, 
    {
      "op": "FullyConnected", 
      "name": "fullyconnected36", 
      "attr": {"num_hidden": "5"}, 
      "inputs": [[694, 0, 0], [695, 0, 0], [696, 0, 0]]
    }, 
    {
      "op": "FullyConnected", 
      "name": "lstm_t17_i2h", 
      "attr": {"num_hidden": "368"}, 
      "inputs": [[402, 17, 0], [403, 0, 0], [404, 0, 0]]
    }, 
    {
      "op": "FullyConnected", 
      "name": "lstm_t17_h2h", 
      "attr": {"num_hidden": "368"}, 
      "inputs": [[693, 0, 0], [407, 0, 0], [408, 0, 0]]
    }, 
    {
      "op": "elemwise_add", 
      "name": "_plus77", 
      "inputs": [[698, 0, 0], [699, 0, 0]]
    }, 
    {
      "op": "SliceChannel", 
      "name": "lstm_t17_slice", 
      "attr": {"num_outputs": "4"}, 
      "inputs": [[700, 0, 0]]
    }, 
    {
      "op": "Activation", 
      "name": "lstm_t17_o", 
      "attr": {"act_type": "sigmoid"}, 
      "inputs": [[701, 3, 0]]
    }, 
    {
      "op": "Activation", 
      "name": "lstm_t17_f", 
      "attr": {"act_type": "sigmoid"}, 
      "inputs": [[701, 1, 0]]
    }, 
    {
      "op": "_mul", 
      "name": "_mul94", 
      "inputs": [[703, 0, 0], [691, 0, 0]]
    }, 
    {
      "op": "Activation", 
      "name": "lstm_t17_i", 
      "attr": {"act_type": "sigmoid"}, 
      "inputs": [[701, 0, 0]]
    }, 
    {
      "op": "Activation", 
      "name": "lstm_t17_c", 
      "attr": {"act_type": "tanh"}, 
      "inputs": [[701, 2, 0]]
    }, 
    {
      "op": "_mul", 
      "name": "_mul95", 
      "inputs": [[705, 0, 0], [706, 0, 0]]
    }, 
    {
      "op": "elemwise_add", 
      "name": "lstm_t17_state", 
      "inputs": [[704, 0, 0], [707, 0, 0]]
    }, 
    {
      "op": "Activation", 
      "name": "activation19", 
      "attr": {"act_type": "tanh"}, 
      "inputs": [[708, 0, 0]]
    }, 
    {
      "op": "_mul", 
      "name": "lstm_t17_out", 
      "inputs": [[702, 0, 0], [709, 0, 0]]
    }, 
    {
      "op": "Dropout", 
      "name": "dropout38", 
      "attr": {
        "mode": "training", 
        "p": "0.01"
      }, 
      "inputs": [[710, 0, 0]]
    }, 
    {
      "op": "null", 
      "name": "fullyconnected37_weight", 
      "attr": {"num_hidden": "5"}, 
      "inputs": []
    }, 
    {
      "op": "null", 
      "name": "fullyconnected37_bias", 
      "attr": {"num_hidden": "5"}, 
      "inputs": []
    }, 
    {
      "op": "FullyConnected", 
      "name": "fullyconnected37", 
      "attr": {"num_hidden": "5"}, 
      "inputs": [[711, 0, 0], [712, 0, 0], [713, 0, 0]]
    }, 
    {
      "op": "FullyConnected", 
      "name": "lstm_t18_i2h", 
      "attr": {"num_hidden": "368"}, 
      "inputs": [[402, 18, 0], [403, 0, 0], [404, 0, 0]]
    }, 
    {
      "op": "FullyConnected", 
      "name": "lstm_t18_h2h", 
      "attr": {"num_hidden": "368"}, 
      "inputs": [[710, 0, 0], [407, 0, 0], [408, 0, 0]]
    }, 
    {
      "op": "elemwise_add", 
      "name": "_plus78", 
      "inputs": [[715, 0, 0], [716, 0, 0]]
    }, 
    {
      "op": "SliceChannel", 
      "name": "lstm_t18_slice", 
      "attr": {"num_outputs": "4"}, 
      "inputs": [[717, 0, 0]]
    }, 
    {
      "op": "Activation", 
      "name": "lstm_t18_o", 
      "attr": {"act_type": "sigmoid"}, 
      "inputs": [[718, 3, 0]]
    }, 
    {
      "op": "Activation", 
      "name": "lstm_t18_f", 
      "attr": {"act_type": "sigmoid"}, 
      "inputs": [[718, 1, 0]]
    }, 
    {
      "op": "_mul", 
      "name": "_mul96", 
      "inputs": [[720, 0, 0], [708, 0, 0]]
    }, 
    {
      "op": "Activation", 
      "name": "lstm_t18_i", 
      "attr": {"act_type": "sigmoid"}, 
      "inputs": [[718, 0, 0]]
    }, 
    {
      "op": "Activation", 
      "name": "lstm_t18_c", 
      "attr": {"act_type": "tanh"}, 
      "inputs": [[718, 2, 0]]
    }, 
    {
      "op": "_mul", 
      "name": "_mul97", 
      "inputs": [[722, 0, 0], [723, 0, 0]]
    }, 
    {
      "op": "elemwise_add", 
      "name": "lstm_t18_state", 
      "inputs": [[721, 0, 0], [724, 0, 0]]
    }, 
    {
      "op": "Activation", 
      "name": "activation20", 
      "attr": {"act_type": "tanh"}, 
      "inputs": [[725, 0, 0]]
    }, 
    {
      "op": "_mul", 
      "name": "lstm_t18_out", 
      "inputs": [[719, 0, 0], [726, 0, 0]]
    }, 
    {
      "op": "Dropout", 
      "name": "dropout39", 
      "attr": {
        "mode": "training", 
        "p": "0.01"
      }, 
      "inputs": [[727, 0, 0]]
    }, 
    {
      "op": "null", 
      "name": "fullyconnected38_weight", 
      "attr": {"num_hidden": "5"}, 
      "inputs": []
    }, 
    {
      "op": "null", 
      "name": "fullyconnected38_bias", 
      "attr": {"num_hidden": "5"}, 
      "inputs": []
    }, 
    {
      "op": "FullyConnected", 
      "name": "fullyconnected38", 
      "attr": {"num_hidden": "5"}, 
      "inputs": [[728, 0, 0], [729, 0, 0], [730, 0, 0]]
    }, 
    {
      "op": "FullyConnected", 
      "name": "lstm_t19_i2h", 
      "attr": {"num_hidden": "368"}, 
      "inputs": [[402, 19, 0], [403, 0, 0], [404, 0, 0]]
    }, 
    {
      "op": "FullyConnected", 
      "name": "lstm_t19_h2h", 
      "attr": {"num_hidden": "368"}, 
      "inputs": [[727, 0, 0], [407, 0, 0], [408, 0, 0]]
    }, 
    {
      "op": "elemwise_add", 
      "name": "_plus79", 
      "inputs": [[732, 0, 0], [733, 0, 0]]
    }, 
    {
      "op": "SliceChannel", 
      "name": "lstm_t19_slice", 
      "attr": {"num_outputs": "4"}, 
      "inputs": [[734, 0, 0]]
    }, 
    {
      "op": "Activation", 
      "name": "lstm_t19_o", 
      "attr": {"act_type": "sigmoid"}, 
      "inputs": [[735, 3, 0]]
    }, 
    {
      "op": "Activation", 
      "name": "lstm_t19_f", 
      "attr": {"act_type": "sigmoid"}, 
      "inputs": [[735, 1, 0]]
    }, 
    {
      "op": "_mul", 
      "name": "_mul98", 
      "inputs": [[737, 0, 0], [725, 0, 0]]
    }, 
    {
      "op": "Activation", 
      "name": "lstm_t19_i", 
      "attr": {"act_type": "sigmoid"}, 
      "inputs": [[735, 0, 0]]
    }, 
    {
      "op": "Activation", 
      "name": "lstm_t19_c", 
      "attr": {"act_type": "tanh"}, 
      "inputs": [[735, 2, 0]]
    }, 
    {
      "op": "_mul", 
      "name": "_mul99", 
      "inputs": [[739, 0, 0], [740, 0, 0]]
    }, 
    {
      "op": "elemwise_add", 
      "name": "lstm_t19_state", 
      "inputs": [[738, 0, 0], [741, 0, 0]]
    }, 
    {
      "op": "Activation", 
      "name": "activation21", 
      "attr": {"act_type": "tanh"}, 
      "inputs": [[742, 0, 0]]
    }, 
    {
      "op": "_mul", 
      "name": "lstm_t19_out", 
      "inputs": [[736, 0, 0], [743, 0, 0]]
    }, 
    {
      "op": "Dropout", 
      "name": "dropout40", 
      "attr": {
        "mode": "training", 
        "p": "0.01"
      }, 
      "inputs": [[744, 0, 0]]
    }, 
    {
      "op": "null", 
      "name": "fullyconnected39_weight", 
      "attr": {"num_hidden": "5"}, 
      "inputs": []
    }, 
    {
      "op": "null", 
      "name": "fullyconnected39_bias", 
      "attr": {"num_hidden": "5"}, 
      "inputs": []
    }, 
    {
      "op": "FullyConnected", 
      "name": "fullyconnected39", 
      "attr": {"num_hidden": "5"}, 
      "inputs": [[745, 0, 0], [746, 0, 0], [747, 0, 0]]
    }, 
    {
      "op": "Concat", 
      "name": "concat2", 
      "attr": {
        "dim": "1", 
        "num_args": "20"
      }, 
      "inputs": [
        [425, 0, 0], 
        [442, 0, 0], 
        [459, 0, 0], 
        [476, 0, 0], 
        [493, 0, 0], 
        [510, 0, 0], 
        [527, 0, 0], 
        [544, 0, 0], 
        [561, 0, 0], 
        [578, 0, 0], 
        [595, 0, 0], 
        [612, 0, 0], 
        [629, 0, 0], 
        [646, 0, 0], 
        [663, 0, 0], 
        [680, 0, 0], 
        [697, 0, 0], 
        [714, 0, 0], 
        [731, 0, 0], 
        [748, 0, 0]
      ]
    }, 
    {
      "op": "Concat", 
      "name": "concat3", 
      "attr": {
        "dim": "1", 
        "num_args": "2"
      }, 
      "inputs": [[401, 0, 0], [749, 0, 0]]
    }, 
    {
      "op": "Reshape", 
      "name": "reshape2", 
      "attr": {"target_shape": "(10, 40, 5)"}, 
      "inputs": [[750, 0, 0]]
    }, 
    {
      "op": "null", 
      "name": "seq_label", 
      "inputs": []
    }, 
    {
      "op": "SoftmaxOutput", 
      "name": "softmaxoutput0", 
      "attr": {"multi_output": "True"}, 
      "inputs": [[751, 0, 0], [752, 0, 0]]
    }
  ], 
  "arg_nodes": [
    0, 
    2, 
    3, 
    7, 
    8, 
    16, 
    17, 
    21, 
    22, 
    37, 
    38, 
    56, 
    57, 
    75, 
    76, 
    94, 
    95, 
    113, 
    114, 
    132, 
    133, 
    151, 
    152, 
    170, 
    171, 
    189, 
    190, 
    208, 
    209, 
    227, 
    228, 
    246, 
    247, 
    265, 
    266, 
    284, 
    285, 
    303, 
    304, 
    322, 
    323, 
    341, 
    342, 
    360, 
    361, 
    379, 
    380, 
    398, 
    399, 
    403, 
    404, 
    407, 
    408, 
    423, 
    424, 
    440, 
    441, 
    457, 
    458, 
    474, 
    475, 
    491, 
    492, 
    508, 
    509, 
    525, 
    526, 
    542, 
    543, 
    559, 
    560, 
    576, 
    577, 
    593, 
    594, 
    610, 
    611, 
    627, 
    628, 
    644, 
    645, 
    661, 
    662, 
    678, 
    679, 
    695, 
    696, 
    712, 
    713, 
    729, 
    730, 
    746, 
    747, 
    752
  ], 
  "node_row_ptr": [
    0, 
    1, 
    2, 
    3, 
    4, 
    5, 
    6, 
    7, 
    8, 
    9, 
    10, 
    11, 
    12, 
    13, 
    14, 
    16, 
    36, 
    37, 
    38, 
    39, 
    42, 
    43, 
    44, 
    45, 
    46, 
    49, 
    50, 
    51, 
    52, 
    53, 
    54, 
    55, 
    56, 
    57, 
    58, 
    59, 
    60, 
    62, 
    63, 
    64, 
    65, 
    66, 
    69, 
    70, 
    73, 
    74, 
    75, 
    76, 
    77, 
    78, 
    79, 
    80, 
    81, 
    82, 
    83, 
    84, 
    86, 
    87, 
    88, 
    89, 
    90, 
    93, 
    94, 
    97, 
    98, 
    99, 
    100, 
    101, 
    102, 
    103, 
    104, 
    105, 
    106, 
    107, 
    108, 
    110, 
    111, 
    112, 
    113, 
    114, 
    117, 
    118, 
    121, 
    122, 
    123, 
    124, 
    125, 
    126, 
    127, 
    128, 
    129, 
    130, 
    131, 
    132, 
    134, 
    135, 
    136, 
    137, 
    138, 
    141, 
    142, 
    145, 
    146, 
    147, 
    148, 
    149, 
    150, 
    151, 
    152, 
    153, 
    154, 
    155, 
    156, 
    158, 
    159, 
    160, 
    161, 
    162, 
    165, 
    166, 
    169, 
    170, 
    171, 
    172, 
    173, 
    174, 
    175, 
    176, 
    177, 
    178, 
    179, 
    180, 
    182, 
    183, 
    184, 
    185, 
    186, 
    189, 
    190, 
    193, 
    194, 
    195, 
    196, 
    197, 
    198, 
    199, 
    200, 
    201, 
    202, 
    203, 
    204, 
    206, 
    207, 
    208, 
    209, 
    210, 
    213, 
    214, 
    217, 
    218, 
    219, 
    220, 
    221, 
    222, 
    223, 
    224, 
    225, 
    226, 
    227, 
    228, 
    230, 
    231, 
    232, 
    233, 
    234, 
    237, 
    238, 
    241, 
    242, 
    243, 
    244, 
    245, 
    246, 
    247, 
    248, 
    249, 
    250, 
    251, 
    252, 
    254, 
    255, 
    256, 
    257, 
    258, 
    261, 
    262, 
    265, 
    266, 
    267, 
    268, 
    269, 
    270, 
    271, 
    272, 
    273, 
    274, 
    275, 
    276, 
    278, 
    279, 
    280, 
    281, 
    282, 
    285, 
    286, 
    289, 
    290, 
    291, 
    292, 
    293, 
    294, 
    295, 
    296, 
    297, 
    298, 
    299, 
    300, 
    302, 
    303, 
    304, 
    305, 
    306, 
    309, 
    310, 
    313, 
    314, 
    315, 
    316, 
    317, 
    318, 
    319, 
    320, 
    321, 
    322, 
    323, 
    324, 
    326, 
    327, 
    328, 
    329, 
    330, 
    333, 
    334, 
    337, 
    338, 
    339, 
    340, 
    341, 
    342, 
    343, 
    344, 
    345, 
    346, 
    347, 
    348, 
    350, 
    351, 
    352, 
    353, 
    354, 
    357, 
    358, 
    361, 
    362, 
    363, 
    364, 
    365, 
    366, 
    367, 
    368, 
    369, 
    370, 
    371, 
    372, 
    374, 
    375, 
    376, 
    377, 
    378, 
    381, 
    382, 
    385, 
    386, 
    387, 
    388, 
    389, 
    390, 
    391, 
    392, 
    393, 
    394, 
    395, 
    396, 
    398, 
    399, 
    400, 
    401, 
    402, 
    405, 
    406, 
    409, 
    410, 
    411, 
    412, 
    413, 
    414, 
    415, 
    416, 
    417, 
    418, 
    419, 
    420, 
    422, 
    423, 
    424, 
    425, 
    426, 
    429, 
    430, 
    433, 
    434, 
    435, 
    436, 
    437, 
    438, 
    439, 
    440, 
    441, 
    442, 
    443, 
    444, 
    446, 
    447, 
    448, 
    449, 
    450, 
    453, 
    454, 
    457, 
    458, 
    459, 
    460, 
    461, 
    462, 
    463, 
    464, 
    465, 
    466, 
    467, 
    468, 
    470, 
    471, 
    472, 
    473, 
    474, 
    477, 
    478, 
    481, 
    482, 
    483, 
    484, 
    485, 
    486, 
    487, 
    488, 
    489, 
    490, 
    491, 
    492, 
    494, 
    495, 
    496, 
    497, 
    498, 
    501, 
    502, 
    505, 
    506, 
    507, 
    508, 
    509, 
    510, 
    511, 
    512, 
    513, 
    514, 
    515, 
    516, 
    518, 
    519, 
    520, 
    521, 
    522, 
    542, 
    543, 
    544, 
    545, 
    546, 
    547, 
    548, 
    549, 
    550, 
    554, 
    555, 
    556, 
    557, 
    558, 
    559, 
    560, 
    561, 
    562, 
    563, 
    564, 
    566, 
    567, 
    568, 
    569, 
    570, 
    571, 
    572, 
    576, 
    577, 
    578, 
    579, 
    580, 
    581, 
    582, 
    583, 
    584, 
    585, 
    587, 
    588, 
    589, 
    590, 
    591, 
    592, 
    593, 
    597, 
    598, 
    599, 
    600, 
    601, 
    602, 
    603, 
    604, 
    605, 
    606, 
    608, 
    609, 
    610, 
    611, 
    612, 
    613, 
    614, 
    618, 
    619, 
    620, 
    621, 
    622, 
    623, 
    624, 
    625, 
    626, 
    627, 
    629, 
    630, 
    631, 
    632, 
    633, 
    634, 
    635, 
    639, 
    640, 
    641, 
    642, 
    643, 
    644, 
    645, 
    646, 
    647, 
    648, 
    650, 
    651, 
    652, 
    653, 
    654, 
    655, 
    656, 
    660, 
    661, 
    662, 
    663, 
    664, 
    665, 
    666, 
    667, 
    668, 
    669, 
    671, 
    672, 
    673, 
    674, 
    675, 
    676, 
    677, 
    681, 
    682, 
    683, 
    684, 
    685, 
    686, 
    687, 
    688, 
    689, 
    690, 
    692, 
    693, 
    694, 
    695, 
    696, 
    697, 
    698, 
    702, 
    703, 
    704, 
    705, 
    706, 
    707, 
    708, 
    709, 
    710, 
    711, 
    713, 
    714, 
    715, 
    716, 
    717, 
    718, 
    719, 
    723, 
    724, 
    725, 
    726, 
    727, 
    728, 
    729, 
    730, 
    731, 
    732, 
    734, 
    735, 
    736, 
    737, 
    738, 
    739, 
    740, 
    744, 
    745, 
    746, 
    747, 
    748, 
    749, 
    750, 
    751, 
    752, 
    753, 
    755, 
    756, 
    757, 
    758, 
    759, 
    760, 
    761, 
    765, 
    766, 
    767, 
    768, 
    769, 
    770, 
    771, 
    772, 
    773, 
    774, 
    776, 
    777, 
    778, 
    779, 
    780, 
    781, 
    782, 
    786, 
    787, 
    788, 
    789, 
    790, 
    791, 
    792, 
    793, 
    794, 
    795, 
    797, 
    798, 
    799, 
    800, 
    801, 
    802, 
    803, 
    807, 
    808, 
    809, 
    810, 
    811, 
    812, 
    813, 
    814, 
    815, 
    816, 
    818, 
    819, 
    820, 
    821, 
    822, 
    823, 
    824, 
    828, 
    829, 
    830, 
    831, 
    832, 
    833, 
    834, 
    835, 
    836, 
    837, 
    839, 
    840, 
    841, 
    842, 
    843, 
    844, 
    845, 
    849, 
    850, 
    851, 
    852, 
    853, 
    854, 
    855, 
    856, 
    857, 
    858, 
    860, 
    861, 
    862, 
    863, 
    864, 
    865, 
    866, 
    870, 
    871, 
    872, 
    873, 
    874, 
    875, 
    876, 
    877, 
    878, 
    879, 
    881, 
    882, 
    883, 
    884, 
    885, 
    886, 
    887, 
    891, 
    892, 
    893, 
    894, 
    895, 
    896, 
    897, 
    898, 
    899, 
    900, 
    902, 
    903, 
    904, 
    905, 
    906, 
    907, 
    908, 
    912, 
    913, 
    914, 
    915, 
    916, 
    917, 
    918, 
    919, 
    920, 
    921, 
    923, 
    924, 
    925, 
    926, 
    927, 
    928, 
    929, 
    933, 
    934, 
    935, 
    936, 
    937, 
    938, 
    939, 
    940, 
    941, 
    942, 
    944, 
    945, 
    946, 
    947, 
    948, 
    949, 
    950, 
    954, 
    955, 
    956, 
    957, 
    958, 
    959, 
    960, 
    961, 
    962, 
    963, 
    965, 
    966, 
    967, 
    968, 
    969, 
    970, 
    971, 
    972, 
    973
  ], 
  "heads": [[753, 0, 0]], 
  "attrs": {"mxnet_version": ["int", 1100]}
}