{
  "nodes": [
    {
      "op": "null", 
      "name": "data", 
      "inputs": []
    }, 
    {
      "op": "Reshape", 
      "name": "reshape0", 
      "attr": {"shape": "(0, 1, 100, -1)"}, 
      "inputs": [[0, 0, 0]]
    }, 
    {
      "op": "Pad", 
      "name": "pad0", 
      "attr": {
        "constant_value": "0", 
        "mode": "constant", 
        "pad_width": "(0, 0, 0, 0, 2, 0, 0, 0)"
      }, 
      "inputs": [[1, 0, 0]]
    }, 
    {
      "op": "null", 
      "name": "convolution0_weight", 
      "attr": {
        "kernel": "(3, 321)", 
        "num_filter": "4"
      }, 
      "inputs": []
    }, 
    {
      "op": "null", 
      "name": "convolution0_bias", 
      "attr": {
        "kernel": "(3, 321)", 
        "num_filter": "4"
      }, 
      "inputs": []
    }, 
    {
      "op": "Convolution", 
      "name": "convolution0", 
      "attr": {
        "kernel": "(3, 321)", 
        "num_filter": "4"
      }, 
      "inputs": [[2, 0, 0], [3, 0, 0], [4, 0, 0]]
    }, 
    {
      "op": "Activation", 
      "name": "activation0", 
      "attr": {"act_type": "relu"}, 
      "inputs": [[5, 0, 0]]
    }, 
    {
      "op": "transpose", 
      "name": "transpose0", 
      "attr": {"axes": "(0, 2, 1, 3)"}, 
      "inputs": [[6, 0, 0]]
    }, 
    {
      "op": "Reshape", 
      "name": "reshape1", 
      "attr": {"shape": "(0, 0, 0)"}, 
      "inputs": [[7, 0, 0]]
    }, 
    {
      "op": "Pad", 
      "name": "pad1", 
      "attr": {
        "constant_value": "0", 
        "mode": "constant", 
        "pad_width": "(0, 0, 0, 0, 3, 0, 0, 0)"
      }, 
      "inputs": [[1, 0, 0]]
    }, 
    {
      "op": "null", 
      "name": "convolution1_weight", 
      "attr": {
        "kernel": "(4, 321)", 
        "num_filter": "4"
      }, 
      "inputs": []
    }, 
    {
      "op": "null", 
      "name": "convolution1_bias", 
      "attr": {
        "kernel": "(4, 321)", 
        "num_filter": "4"
      }, 
      "inputs": []
    }, 
    {
      "op": "Convolution", 
      "name": "convolution1", 
      "attr": {
        "kernel": "(4, 321)", 
        "num_filter": "4"
      }, 
      "inputs": [[9, 0, 0], [10, 0, 0], [11, 0, 0]]
    }, 
    {
      "op": "Activation", 
      "name": "activation1", 
      "attr": {"act_type": "relu"}, 
      "inputs": [[12, 0, 0]]
    }, 
    {
      "op": "transpose", 
      "name": "transpose1", 
      "attr": {"axes": "(0, 2, 1, 3)"}, 
      "inputs": [[13, 0, 0]]
    }, 
    {
      "op": "Reshape", 
      "name": "reshape2", 
      "attr": {"shape": "(0, 0, 0)"}, 
      "inputs": [[14, 0, 0]]
    }, 
    {
      "op": "Pad", 
      "name": "pad2", 
      "attr": {
        "constant_value": "0", 
        "mode": "constant", 
        "pad_width": "(0, 0, 0, 0, 4, 0, 0, 0)"
      }, 
      "inputs": [[1, 0, 0]]
    }, 
    {
      "op": "null", 
      "name": "convolution2_weight", 
      "attr": {
        "kernel": "(5, 321)", 
        "num_filter": "4"
      }, 
      "inputs": []
    }, 
    {
      "op": "null", 
      "name": "convolution2_bias", 
      "attr": {
        "kernel": "(5, 321)", 
        "num_filter": "4"
      }, 
      "inputs": []
    }, 
    {
      "op": "Convolution", 
      "name": "convolution2", 
      "attr": {
        "kernel": "(5, 321)", 
        "num_filter": "4"
      }, 
      "inputs": [[16, 0, 0], [17, 0, 0], [18, 0, 0]]
    }, 
    {
      "op": "Activation", 
      "name": "activation2", 
      "attr": {"act_type": "relu"}, 
      "inputs": [[19, 0, 0]]
    }, 
    {
      "op": "transpose", 
      "name": "transpose2", 
      "attr": {"axes": "(0, 2, 1, 3)"}, 
      "inputs": [[20, 0, 0]]
    }, 
    {
      "op": "Reshape", 
      "name": "reshape3", 
      "attr": {"shape": "(0, 0, 0)"}, 
      "inputs": [[21, 0, 0]]
    }, 
    {
      "op": "Pad", 
      "name": "pad3", 
      "attr": {
        "constant_value": "0", 
        "mode": "constant", 
        "pad_width": "(0, 0, 0, 0, 5, 0, 0, 0)"
      }, 
      "inputs": [[1, 0, 0]]
    }, 
    {
      "op": "null", 
      "name": "convolution3_weight", 
      "attr": {
        "kernel": "(6, 321)", 
        "num_filter": "4"
      }, 
      "inputs": []
    }, 
    {
      "op": "null", 
      "name": "convolution3_bias", 
      "attr": {
        "kernel": "(6, 321)", 
        "num_filter": "4"
      }, 
      "inputs": []
    }, 
    {
      "op": "Convolution", 
      "name": "convolution3", 
      "attr": {
        "kernel": "(6, 321)", 
        "num_filter": "4"
      }, 
      "inputs": [[23, 0, 0], [24, 0, 0], [25, 0, 0]]
    }, 
    {
      "op": "Activation", 
      "name": "activation3", 
      "attr": {"act_type": "relu"}, 
      "inputs": [[26, 0, 0]]
    }, 
    {
      "op": "transpose", 
      "name": "transpose3", 
      "attr": {"axes": "(0, 2, 1, 3)"}, 
      "inputs": [[27, 0, 0]]
    }, 
    {
      "op": "Reshape", 
      "name": "reshape4", 
      "attr": {"shape": "(0, 0, 0)"}, 
      "inputs": [[28, 0, 0]]
    }, 
    {
      "op": "Pad", 
      "name": "pad4", 
      "attr": {
        "constant_value": "0", 
        "mode": "constant", 
        "pad_width": "(0, 0, 0, 0, 6, 0, 0, 0)"
      }, 
      "inputs": [[1, 0, 0]]
    }, 
    {
      "op": "null", 
      "name": "convolution4_weight", 
      "attr": {
        "kernel": "(7, 321)", 
        "num_filter": "4"
      }, 
      "inputs": []
    }, 
    {
      "op": "null", 
      "name": "convolution4_bias", 
      "attr": {
        "kernel": "(7, 321)", 
        "num_filter": "4"
      }, 
      "inputs": []
    }, 
    {
      "op": "Convolution", 
      "name": "convolution4", 
      "attr": {
        "kernel": "(7, 321)", 
        "num_filter": "4"
      }, 
      "inputs": [[30, 0, 0], [31, 0, 0], [32, 0, 0]]
    }, 
    {
      "op": "Activation", 
      "name": "activation4", 
      "attr": {"act_type": "relu"}, 
      "inputs": [[33, 0, 0]]
    }, 
    {
      "op": "transpose", 
      "name": "transpose4", 
      "attr": {"axes": "(0, 2, 1, 3)"}, 
      "inputs": [[34, 0, 0]]
    }, 
    {
      "op": "Reshape", 
      "name": "reshape5", 
      "attr": {"shape": "(0, 0, 0)"}, 
      "inputs": [[35, 0, 0]]
    }, 
    {
      "op": "Pad", 
      "name": "pad5", 
      "attr": {
        "constant_value": "0", 
        "mode": "constant", 
        "pad_width": "(0, 0, 0, 0, 7, 0, 0, 0)"
      }, 
      "inputs": [[1, 0, 0]]
    }, 
    {
      "op": "null", 
      "name": "convolution5_weight", 
      "attr": {
        "kernel": "(8, 321)", 
        "num_filter": "4"
      }, 
      "inputs": []
    }, 
    {
      "op": "null", 
      "name": "convolution5_bias", 
      "attr": {
        "kernel": "(8, 321)", 
        "num_filter": "4"
      }, 
      "inputs": []
    }, 
    {
      "op": "Convolution", 
      "name": "convolution5", 
      "attr": {
        "kernel": "(8, 321)", 
        "num_filter": "4"
      }, 
      "inputs": [[37, 0, 0], [38, 0, 0], [39, 0, 0]]
    }, 
    {
      "op": "Activation", 
      "name": "activation5", 
      "attr": {"act_type": "relu"}, 
      "inputs": [[40, 0, 0]]
    }, 
    {
      "op": "transpose", 
      "name": "transpose5", 
      "attr": {"axes": "(0, 2, 1, 3)"}, 
      "inputs": [[41, 0, 0]]
    }, 
    {
      "op": "Reshape", 
      "name": "reshape6", 
      "attr": {"shape": "(0, 0, 0)"}, 
      "inputs": [[42, 0, 0]]
    }, 
    {
      "op": "Concat", 
      "name": "concat0", 
      "attr": {
        "dim": "2", 
        "num_args": "6"
      }, 
      "inputs": [[8, 0, 0], [15, 0, 0], [22, 0, 0], [29, 0, 0], [36, 0, 0], [43, 0, 0]]
    }, 
    {
      "op": "Dropout", 
      "name": "dropout0", 
      "attr": {"p": "0.5"}, 
      "inputs": [[44, 0, 0]]
    }, 
    {
      "op": "SliceChannel", 
      "name": "split0", 
      "attr": {
        "axis": "1", 
        "num_outputs": "100", 
        "squeeze_axis": "1"
      }, 
      "inputs": [[45, 0, 0]]
    }, 
    {
      "op": "null", 
      "name": "gru_i2h_weight", 
      "inputs": []
    }, 
    {
      "op": "null", 
      "name": "gru_i2h_bias", 
      "inputs": []
    }, 
    {
      "op": "FullyConnected", 
      "name": "gru_t99__i2h", 
      "attr": {"num_hidden": "15"}, 
      "inputs": [[46, 99, 0], [47, 0, 0], [48, 0, 0]]
    }, 
    {
      "op": "SliceChannel", 
      "name": "gru_t99__i2h_slice", 
      "attr": {"num_outputs": "3"}, 
      "inputs": [[49, 0, 0]]
    }, 
    {
      "op": "FullyConnected", 
      "name": "gru_t98__i2h", 
      "attr": {"num_hidden": "15"}, 
      "inputs": [[46, 98, 0], [47, 0, 0], [48, 0, 0]]
    }, 
    {
      "op": "SliceChannel", 
      "name": "gru_t98__i2h_slice", 
      "attr": {"num_outputs": "3"}, 
      "inputs": [[51, 0, 0]]
    }, 
    {
      "op": "FullyConnected", 
      "name": "gru_t97__i2h", 
      "attr": {"num_hidden": "15"}, 
      "inputs": [[46, 97, 0], [47, 0, 0], [48, 0, 0]]
    }, 
    {
      "op": "SliceChannel", 
      "name": "gru_t97__i2h_slice", 
      "attr": {"num_outputs": "3"}, 
      "inputs": [[53, 0, 0]]
    }, 
    {
      "op": "FullyConnected", 
      "name": "gru_t96__i2h", 
      "attr": {"num_hidden": "15"}, 
      "inputs": [[46, 96, 0], [47, 0, 0], [48, 0, 0]]
    }, 
    {
      "op": "SliceChannel", 
      "name": "gru_t96__i2h_slice", 
      "attr": {"num_outputs": "3"}, 
      "inputs": [[55, 0, 0]]
    }, 
    {
      "op": "FullyConnected", 
      "name": "gru_t95__i2h", 
      "attr": {"num_hidden": "15"}, 
      "inputs": [[46, 95, 0], [47, 0, 0], [48, 0, 0]]
    }, 
    {
      "op": "SliceChannel", 
      "name": "gru_t95__i2h_slice", 
      "attr": {"num_outputs": "3"}, 
      "inputs": [[57, 0, 0]]
    }, 
    {
      "op": "FullyConnected", 
      "name": "gru_t94__i2h", 
      "attr": {"num_hidden": "15"}, 
      "inputs": [[46, 94, 0], [47, 0, 0], [48, 0, 0]]
    }, 
    {
      "op": "SliceChannel", 
      "name": "gru_t94__i2h_slice", 
      "attr": {"num_outputs": "3"}, 
      "inputs": [[59, 0, 0]]
    }, 
    {
      "op": "FullyConnected", 
      "name": "gru_t93__i2h", 
      "attr": {"num_hidden": "15"}, 
      "inputs": [[46, 93, 0], [47, 0, 0], [48, 0, 0]]
    }, 
    {
      "op": "SliceChannel", 
      "name": "gru_t93__i2h_slice", 
      "attr": {"num_outputs": "3"}, 
      "inputs": [[61, 0, 0]]
    }, 
    {
      "op": "FullyConnected", 
      "name": "gru_t92__i2h", 
      "attr": {"num_hidden": "15"}, 
      "inputs": [[46, 92, 0], [47, 0, 0], [48, 0, 0]]
    }, 
    {
      "op": "SliceChannel", 
      "name": "gru_t92__i2h_slice", 
      "attr": {"num_outputs": "3"}, 
      "inputs": [[63, 0, 0]]
    }, 
    {
      "op": "FullyConnected", 
      "name": "gru_t91__i2h", 
      "attr": {"num_hidden": "15"}, 
      "inputs": [[46, 91, 0], [47, 0, 0], [48, 0, 0]]
    }, 
    {
      "op": "SliceChannel", 
      "name": "gru_t91__i2h_slice", 
      "attr": {"num_outputs": "3"}, 
      "inputs": [[65, 0, 0]]
    }, 
    {
      "op": "FullyConnected", 
      "name": "gru_t90__i2h", 
      "attr": {"num_hidden": "15"}, 
      "inputs": [[46, 90, 0], [47, 0, 0], [48, 0, 0]]
    }, 
    {
      "op": "SliceChannel", 
      "name": "gru_t90__i2h_slice", 
      "attr": {"num_outputs": "3"}, 
      "inputs": [[67, 0, 0]]
    }, 
    {
      "op": "FullyConnected", 
      "name": "gru_t89__i2h", 
      "attr": {"num_hidden": "15"}, 
      "inputs": [[46, 89, 0], [47, 0, 0], [48, 0, 0]]
    }, 
    {
      "op": "SliceChannel", 
      "name": "gru_t89__i2h_slice", 
      "attr": {"num_outputs": "3"}, 
      "inputs": [[69, 0, 0]]
    }, 
    {
      "op": "FullyConnected", 
      "name": "gru_t88__i2h", 
      "attr": {"num_hidden": "15"}, 
      "inputs": [[46, 88, 0], [47, 0, 0], [48, 0, 0]]
    }, 
    {
      "op": "SliceChannel", 
      "name": "gru_t88__i2h_slice", 
      "attr": {"num_outputs": "3"}, 
      "inputs": [[71, 0, 0]]
    }, 
    {
      "op": "FullyConnected", 
      "name": "gru_t87__i2h", 
      "attr": {"num_hidden": "15"}, 
      "inputs": [[46, 87, 0], [47, 0, 0], [48, 0, 0]]
    }, 
    {
      "op": "SliceChannel", 
      "name": "gru_t87__i2h_slice", 
      "attr": {"num_outputs": "3"}, 
      "inputs": [[73, 0, 0]]
    }, 
    {
      "op": "FullyConnected", 
      "name": "gru_t86__i2h", 
      "attr": {"num_hidden": "15"}, 
      "inputs": [[46, 86, 0], [47, 0, 0], [48, 0, 0]]
    }, 
    {
      "op": "SliceChannel", 
      "name": "gru_t86__i2h_slice", 
      "attr": {"num_outputs": "3"}, 
      "inputs": [[75, 0, 0]]
    }, 
    {
      "op": "FullyConnected", 
      "name": "gru_t85__i2h", 
      "attr": {"num_hidden": "15"}, 
      "inputs": [[46, 85, 0], [47, 0, 0], [48, 0, 0]]
    }, 
    {
      "op": "SliceChannel", 
      "name": "gru_t85__i2h_slice", 
      "attr": {"num_outputs": "3"}, 
      "inputs": [[77, 0, 0]]
    }, 
    {
      "op": "FullyConnected", 
      "name": "gru_t84__i2h", 
      "attr": {"num_hidden": "15"}, 
      "inputs": [[46, 84, 0], [47, 0, 0], [48, 0, 0]]
    }, 
    {
      "op": "SliceChannel", 
      "name": "gru_t84__i2h_slice", 
      "attr": {"num_outputs": "3"}, 
      "inputs": [[79, 0, 0]]
    }, 
    {
      "op": "FullyConnected", 
      "name": "gru_t83__i2h", 
      "attr": {"num_hidden": "15"}, 
      "inputs": [[46, 83, 0], [47, 0, 0], [48, 0, 0]]
    }, 
    {
      "op": "SliceChannel", 
      "name": "gru_t83__i2h_slice", 
      "attr": {"num_outputs": "3"}, 
      "inputs": [[81, 0, 0]]
    }, 
    {
      "op": "FullyConnected", 
      "name": "gru_t82__i2h", 
      "attr": {"num_hidden": "15"}, 
      "inputs": [[46, 82, 0], [47, 0, 0], [48, 0, 0]]
    }, 
    {
      "op": "SliceChannel", 
      "name": "gru_t82__i2h_slice", 
      "attr": {"num_outputs": "3"}, 
      "inputs": [[83, 0, 0]]
    }, 
    {
      "op": "FullyConnected", 
      "name": "gru_t81__i2h", 
      "attr": {"num_hidden": "15"}, 
      "inputs": [[46, 81, 0], [47, 0, 0], [48, 0, 0]]
    }, 
    {
      "op": "SliceChannel", 
      "name": "gru_t81__i2h_slice", 
      "attr": {"num_outputs": "3"}, 
      "inputs": [[85, 0, 0]]
    }, 
    {
      "op": "FullyConnected", 
      "name": "gru_t80__i2h", 
      "attr": {"num_hidden": "15"}, 
      "inputs": [[46, 80, 0], [47, 0, 0], [48, 0, 0]]
    }, 
    {
      "op": "SliceChannel", 
      "name": "gru_t80__i2h_slice", 
      "attr": {"num_outputs": "3"}, 
      "inputs": [[87, 0, 0]]
    }, 
    {
      "op": "FullyConnected", 
      "name": "gru_t79__i2h", 
      "attr": {"num_hidden": "15"}, 
      "inputs": [[46, 79, 0], [47, 0, 0], [48, 0, 0]]
    }, 
    {
      "op": "SliceChannel", 
      "name": "gru_t79__i2h_slice", 
      "attr": {"num_outputs": "3"}, 
      "inputs": [[89, 0, 0]]
    }, 
    {
      "op": "FullyConnected", 
      "name": "gru_t78__i2h", 
      "attr": {"num_hidden": "15"}, 
      "inputs": [[46, 78, 0], [47, 0, 0], [48, 0, 0]]
    }, 
    {
      "op": "SliceChannel", 
      "name": "gru_t78__i2h_slice", 
      "attr": {"num_outputs": "3"}, 
      "inputs": [[91, 0, 0]]
    }, 
    {
      "op": "FullyConnected", 
      "name": "gru_t77__i2h", 
      "attr": {"num_hidden": "15"}, 
      "inputs": [[46, 77, 0], [47, 0, 0], [48, 0, 0]]
    }, 
    {
      "op": "SliceChannel", 
      "name": "gru_t77__i2h_slice", 
      "attr": {"num_outputs": "3"}, 
      "inputs": [[93, 0, 0]]
    }, 
    {
      "op": "FullyConnected", 
      "name": "gru_t76__i2h", 
      "attr": {"num_hidden": "15"}, 
      "inputs": [[46, 76, 0], [47, 0, 0], [48, 0, 0]]
    }, 
    {
      "op": "SliceChannel", 
      "name": "gru_t76__i2h_slice", 
      "attr": {"num_outputs": "3"}, 
      "inputs": [[95, 0, 0]]
    }, 
    {
      "op": "FullyConnected", 
      "name": "gru_t75__i2h", 
      "attr": {"num_hidden": "15"}, 
      "inputs": [[46, 75, 0], [47, 0, 0], [48, 0, 0]]
    }, 
    {
      "op": "SliceChannel", 
      "name": "gru_t75__i2h_slice", 
      "attr": {"num_outputs": "3"}, 
      "inputs": [[97, 0, 0]]
    }, 
    {
      "op": "FullyConnected", 
      "name": "gru_t74__i2h", 
      "attr": {"num_hidden": "15"}, 
      "inputs": [[46, 74, 0], [47, 0, 0], [48, 0, 0]]
    }, 
    {
      "op": "SliceChannel", 
      "name": "gru_t74__i2h_slice", 
      "attr": {"num_outputs": "3"}, 
      "inputs": [[99, 0, 0]]
    }, 
    {
      "op": "FullyConnected", 
      "name": "gru_t73__i2h", 
      "attr": {"num_hidden": "15"}, 
      "inputs": [[46, 73, 0], [47, 0, 0], [48, 0, 0]]
    }, 
    {
      "op": "SliceChannel", 
      "name": "gru_t73__i2h_slice", 
      "attr": {"num_outputs": "3"}, 
      "inputs": [[101, 0, 0]]
    }, 
    {
      "op": "FullyConnected", 
      "name": "gru_t72__i2h", 
      "attr": {"num_hidden": "15"}, 
      "inputs": [[46, 72, 0], [47, 0, 0], [48, 0, 0]]
    }, 
    {
      "op": "SliceChannel", 
      "name": "gru_t72__i2h_slice", 
      "attr": {"num_outputs": "3"}, 
      "inputs": [[103, 0, 0]]
    }, 
    {
      "op": "FullyConnected", 
      "name": "gru_t71__i2h", 
      "attr": {"num_hidden": "15"}, 
      "inputs": [[46, 71, 0], [47, 0, 0], [48, 0, 0]]
    }, 
    {
      "op": "SliceChannel", 
      "name": "gru_t71__i2h_slice", 
      "attr": {"num_outputs": "3"}, 
      "inputs": [[105, 0, 0]]
    }, 
    {
      "op": "FullyConnected", 
      "name": "gru_t70__i2h", 
      "attr": {"num_hidden": "15"}, 
      "inputs": [[46, 70, 0], [47, 0, 0], [48, 0, 0]]
    }, 
    {
      "op": "SliceChannel", 
      "name": "gru_t70__i2h_slice", 
      "attr": {"num_outputs": "3"}, 
      "inputs": [[107, 0, 0]]
    }, 
    {
      "op": "FullyConnected", 
      "name": "gru_t69__i2h", 
      "attr": {"num_hidden": "15"}, 
      "inputs": [[46, 69, 0], [47, 0, 0], [48, 0, 0]]
    }, 
    {
      "op": "SliceChannel", 
      "name": "gru_t69__i2h_slice", 
      "attr": {"num_outputs": "3"}, 
      "inputs": [[109, 0, 0]]
    }, 
    {
      "op": "FullyConnected", 
      "name": "gru_t68__i2h", 
      "attr": {"num_hidden": "15"}, 
      "inputs": [[46, 68, 0], [47, 0, 0], [48, 0, 0]]
    }, 
    {
      "op": "SliceChannel", 
      "name": "gru_t68__i2h_slice", 
      "attr": {"num_outputs": "3"}, 
      "inputs": [[111, 0, 0]]
    }, 
    {
      "op": "FullyConnected", 
      "name": "gru_t67__i2h", 
      "attr": {"num_hidden": "15"}, 
      "inputs": [[46, 67, 0], [47, 0, 0], [48, 0, 0]]
    }, 
    {
      "op": "SliceChannel", 
      "name": "gru_t67__i2h_slice", 
      "attr": {"num_outputs": "3"}, 
      "inputs": [[113, 0, 0]]
    }, 
    {
      "op": "FullyConnected", 
      "name": "gru_t66__i2h", 
      "attr": {"num_hidden": "15"}, 
      "inputs": [[46, 66, 0], [47, 0, 0], [48, 0, 0]]
    }, 
    {
      "op": "SliceChannel", 
      "name": "gru_t66__i2h_slice", 
      "attr": {"num_outputs": "3"}, 
      "inputs": [[115, 0, 0]]
    }, 
    {
      "op": "FullyConnected", 
      "name": "gru_t65__i2h", 
      "attr": {"num_hidden": "15"}, 
      "inputs": [[46, 65, 0], [47, 0, 0], [48, 0, 0]]
    }, 
    {
      "op": "SliceChannel", 
      "name": "gru_t65__i2h_slice", 
      "attr": {"num_outputs": "3"}, 
      "inputs": [[117, 0, 0]]
    }, 
    {
      "op": "FullyConnected", 
      "name": "gru_t64__i2h", 
      "attr": {"num_hidden": "15"}, 
      "inputs": [[46, 64, 0], [47, 0, 0], [48, 0, 0]]
    }, 
    {
      "op": "SliceChannel", 
      "name": "gru_t64__i2h_slice", 
      "attr": {"num_outputs": "3"}, 
      "inputs": [[119, 0, 0]]
    }, 
    {
      "op": "FullyConnected", 
      "name": "gru_t63__i2h", 
      "attr": {"num_hidden": "15"}, 
      "inputs": [[46, 63, 0], [47, 0, 0], [48, 0, 0]]
    }, 
    {
      "op": "SliceChannel", 
      "name": "gru_t63__i2h_slice", 
      "attr": {"num_outputs": "3"}, 
      "inputs": [[121, 0, 0]]
    }, 
    {
      "op": "FullyConnected", 
      "name": "gru_t62__i2h", 
      "attr": {"num_hidden": "15"}, 
      "inputs": [[46, 62, 0], [47, 0, 0], [48, 0, 0]]
    }, 
    {
      "op": "SliceChannel", 
      "name": "gru_t62__i2h_slice", 
      "attr": {"num_outputs": "3"}, 
      "inputs": [[123, 0, 0]]
    }, 
    {
      "op": "FullyConnected", 
      "name": "gru_t61__i2h", 
      "attr": {"num_hidden": "15"}, 
      "inputs": [[46, 61, 0], [47, 0, 0], [48, 0, 0]]
    }, 
    {
      "op": "SliceChannel", 
      "name": "gru_t61__i2h_slice", 
      "attr": {"num_outputs": "3"}, 
      "inputs": [[125, 0, 0]]
    }, 
    {
      "op": "FullyConnected", 
      "name": "gru_t60__i2h", 
      "attr": {"num_hidden": "15"}, 
      "inputs": [[46, 60, 0], [47, 0, 0], [48, 0, 0]]
    }, 
    {
      "op": "SliceChannel", 
      "name": "gru_t60__i2h_slice", 
      "attr": {"num_outputs": "3"}, 
      "inputs": [[127, 0, 0]]
    }, 
    {
      "op": "FullyConnected", 
      "name": "gru_t59__i2h", 
      "attr": {"num_hidden": "15"}, 
      "inputs": [[46, 59, 0], [47, 0, 0], [48, 0, 0]]
    }, 
    {
      "op": "SliceChannel", 
      "name": "gru_t59__i2h_slice", 
      "attr": {"num_outputs": "3"}, 
      "inputs": [[129, 0, 0]]
    }, 
    {
      "op": "FullyConnected", 
      "name": "gru_t58__i2h", 
      "attr": {"num_hidden": "15"}, 
      "inputs": [[46, 58, 0], [47, 0, 0], [48, 0, 0]]
    }, 
    {
      "op": "SliceChannel", 
      "name": "gru_t58__i2h_slice", 
      "attr": {"num_outputs": "3"}, 
      "inputs": [[131, 0, 0]]
    }, 
    {
      "op": "FullyConnected", 
      "name": "gru_t57__i2h", 
      "attr": {"num_hidden": "15"}, 
      "inputs": [[46, 57, 0], [47, 0, 0], [48, 0, 0]]
    }, 
    {
      "op": "SliceChannel", 
      "name": "gru_t57__i2h_slice", 
      "attr": {"num_outputs": "3"}, 
      "inputs": [[133, 0, 0]]
    }, 
    {
      "op": "FullyConnected", 
      "name": "gru_t56__i2h", 
      "attr": {"num_hidden": "15"}, 
      "inputs": [[46, 56, 0], [47, 0, 0], [48, 0, 0]]
    }, 
    {
      "op": "SliceChannel", 
      "name": "gru_t56__i2h_slice", 
      "attr": {"num_outputs": "3"}, 
      "inputs": [[135, 0, 0]]
    }, 
    {
      "op": "FullyConnected", 
      "name": "gru_t55__i2h", 
      "attr": {"num_hidden": "15"}, 
      "inputs": [[46, 55, 0], [47, 0, 0], [48, 0, 0]]
    }, 
    {
      "op": "SliceChannel", 
      "name": "gru_t55__i2h_slice", 
      "attr": {"num_outputs": "3"}, 
      "inputs": [[137, 0, 0]]
    }, 
    {
      "op": "FullyConnected", 
      "name": "gru_t54__i2h", 
      "attr": {"num_hidden": "15"}, 
      "inputs": [[46, 54, 0], [47, 0, 0], [48, 0, 0]]
    }, 
    {
      "op": "SliceChannel", 
      "name": "gru_t54__i2h_slice", 
      "attr": {"num_outputs": "3"}, 
      "inputs": [[139, 0, 0]]
    }, 
    {
      "op": "FullyConnected", 
      "name": "gru_t53__i2h", 
      "attr": {"num_hidden": "15"}, 
      "inputs": [[46, 53, 0], [47, 0, 0], [48, 0, 0]]
    }, 
    {
      "op": "SliceChannel", 
      "name": "gru_t53__i2h_slice", 
      "attr": {"num_outputs": "3"}, 
      "inputs": [[141, 0, 0]]
    }, 
    {
      "op": "FullyConnected", 
      "name": "gru_t52__i2h", 
      "attr": {"num_hidden": "15"}, 
      "inputs": [[46, 52, 0], [47, 0, 0], [48, 0, 0]]
    }, 
    {
      "op": "SliceChannel", 
      "name": "gru_t52__i2h_slice", 
      "attr": {"num_outputs": "3"}, 
      "inputs": [[143, 0, 0]]
    }, 
    {
      "op": "FullyConnected", 
      "name": "gru_t51__i2h", 
      "attr": {"num_hidden": "15"}, 
      "inputs": [[46, 51, 0], [47, 0, 0], [48, 0, 0]]
    }, 
    {
      "op": "SliceChannel", 
      "name": "gru_t51__i2h_slice", 
      "attr": {"num_outputs": "3"}, 
      "inputs": [[145, 0, 0]]
    }, 
    {
      "op": "FullyConnected", 
      "name": "gru_t50__i2h", 
      "attr": {"num_hidden": "15"}, 
      "inputs": [[46, 50, 0], [47, 0, 0], [48, 0, 0]]
    }, 
    {
      "op": "SliceChannel", 
      "name": "gru_t50__i2h_slice", 
      "attr": {"num_outputs": "3"}, 
      "inputs": [[147, 0, 0]]
    }, 
    {
      "op": "FullyConnected", 
      "name": "gru_t49__i2h", 
      "attr": {"num_hidden": "15"}, 
      "inputs": [[46, 49, 0], [47, 0, 0], [48, 0, 0]]
    }, 
    {
      "op": "SliceChannel", 
      "name": "gru_t49__i2h_slice", 
      "attr": {"num_outputs": "3"}, 
      "inputs": [[149, 0, 0]]
    }, 
    {
      "op": "FullyConnected", 
      "name": "gru_t48__i2h", 
      "attr": {"num_hidden": "15"}, 
      "inputs": [[46, 48, 0], [47, 0, 0], [48, 0, 0]]
    }, 
    {
      "op": "SliceChannel", 
      "name": "gru_t48__i2h_slice", 
      "attr": {"num_outputs": "3"}, 
      "inputs": [[151, 0, 0]]
    }, 
    {
      "op": "FullyConnected", 
      "name": "gru_t47__i2h", 
      "attr": {"num_hidden": "15"}, 
      "inputs": [[46, 47, 0], [47, 0, 0], [48, 0, 0]]
    }, 
    {
      "op": "SliceChannel", 
      "name": "gru_t47__i2h_slice", 
      "attr": {"num_outputs": "3"}, 
      "inputs": [[153, 0, 0]]
    }, 
    {
      "op": "FullyConnected", 
      "name": "gru_t46__i2h", 
      "attr": {"num_hidden": "15"}, 
      "inputs": [[46, 46, 0], [47, 0, 0], [48, 0, 0]]
    }, 
    {
      "op": "SliceChannel", 
      "name": "gru_t46__i2h_slice", 
      "attr": {"num_outputs": "3"}, 
      "inputs": [[155, 0, 0]]
    }, 
    {
      "op": "FullyConnected", 
      "name": "gru_t45__i2h", 
      "attr": {"num_hidden": "15"}, 
      "inputs": [[46, 45, 0], [47, 0, 0], [48, 0, 0]]
    }, 
    {
      "op": "SliceChannel", 
      "name": "gru_t45__i2h_slice", 
      "attr": {"num_outputs": "3"}, 
      "inputs": [[157, 0, 0]]
    }, 
    {
      "op": "FullyConnected", 
      "name": "gru_t44__i2h", 
      "attr": {"num_hidden": "15"}, 
      "inputs": [[46, 44, 0], [47, 0, 0], [48, 0, 0]]
    }, 
    {
      "op": "SliceChannel", 
      "name": "gru_t44__i2h_slice", 
      "attr": {"num_outputs": "3"}, 
      "inputs": [[159, 0, 0]]
    }, 
    {
      "op": "FullyConnected", 
      "name": "gru_t43__i2h", 
      "attr": {"num_hidden": "15"}, 
      "inputs": [[46, 43, 0], [47, 0, 0], [48, 0, 0]]
    }, 
    {
      "op": "SliceChannel", 
      "name": "gru_t43__i2h_slice", 
      "attr": {"num_outputs": "3"}, 
      "inputs": [[161, 0, 0]]
    }, 
    {
      "op": "FullyConnected", 
      "name": "gru_t42__i2h", 
      "attr": {"num_hidden": "15"}, 
      "inputs": [[46, 42, 0], [47, 0, 0], [48, 0, 0]]
    }, 
    {
      "op": "SliceChannel", 
      "name": "gru_t42__i2h_slice", 
      "attr": {"num_outputs": "3"}, 
      "inputs": [[163, 0, 0]]
    }, 
    {
      "op": "FullyConnected", 
      "name": "gru_t41__i2h", 
      "attr": {"num_hidden": "15"}, 
      "inputs": [[46, 41, 0], [47, 0, 0], [48, 0, 0]]
    }, 
    {
      "op": "SliceChannel", 
      "name": "gru_t41__i2h_slice", 
      "attr": {"num_outputs": "3"}, 
      "inputs": [[165, 0, 0]]
    }, 
    {
      "op": "FullyConnected", 
      "name": "gru_t40__i2h", 
      "attr": {"num_hidden": "15"}, 
      "inputs": [[46, 40, 0], [47, 0, 0], [48, 0, 0]]
    }, 
    {
      "op": "SliceChannel", 
      "name": "gru_t40__i2h_slice", 
      "attr": {"num_outputs": "3"}, 
      "inputs": [[167, 0, 0]]
    }, 
    {
      "op": "FullyConnected", 
      "name": "gru_t39__i2h", 
      "attr": {"num_hidden": "15"}, 
      "inputs": [[46, 39, 0], [47, 0, 0], [48, 0, 0]]
    }, 
    {
      "op": "SliceChannel", 
      "name": "gru_t39__i2h_slice", 
      "attr": {"num_outputs": "3"}, 
      "inputs": [[169, 0, 0]]
    }, 
    {
      "op": "FullyConnected", 
      "name": "gru_t38__i2h", 
      "attr": {"num_hidden": "15"}, 
      "inputs": [[46, 38, 0], [47, 0, 0], [48, 0, 0]]
    }, 
    {
      "op": "SliceChannel", 
      "name": "gru_t38__i2h_slice", 
      "attr": {"num_outputs": "3"}, 
      "inputs": [[171, 0, 0]]
    }, 
    {
      "op": "FullyConnected", 
      "name": "gru_t37__i2h", 
      "attr": {"num_hidden": "15"}, 
      "inputs": [[46, 37, 0], [47, 0, 0], [48, 0, 0]]
    }, 
    {
      "op": "SliceChannel", 
      "name": "gru_t37__i2h_slice", 
      "attr": {"num_outputs": "3"}, 
      "inputs": [[173, 0, 0]]
    }, 
    {
      "op": "FullyConnected", 
      "name": "gru_t36__i2h", 
      "attr": {"num_hidden": "15"}, 
      "inputs": [[46, 36, 0], [47, 0, 0], [48, 0, 0]]
    }, 
    {
      "op": "SliceChannel", 
      "name": "gru_t36__i2h_slice", 
      "attr": {"num_outputs": "3"}, 
      "inputs": [[175, 0, 0]]
    }, 
    {
      "op": "FullyConnected", 
      "name": "gru_t35__i2h", 
      "attr": {"num_hidden": "15"}, 
      "inputs": [[46, 35, 0], [47, 0, 0], [48, 0, 0]]
    }, 
    {
      "op": "SliceChannel", 
      "name": "gru_t35__i2h_slice", 
      "attr": {"num_outputs": "3"}, 
      "inputs": [[177, 0, 0]]
    }, 
    {
      "op": "FullyConnected", 
      "name": "gru_t34__i2h", 
      "attr": {"num_hidden": "15"}, 
      "inputs": [[46, 34, 0], [47, 0, 0], [48, 0, 0]]
    }, 
    {
      "op": "SliceChannel", 
      "name": "gru_t34__i2h_slice", 
      "attr": {"num_outputs": "3"}, 
      "inputs": [[179, 0, 0]]
    }, 
    {
      "op": "FullyConnected", 
      "name": "gru_t33__i2h", 
      "attr": {"num_hidden": "15"}, 
      "inputs": [[46, 33, 0], [47, 0, 0], [48, 0, 0]]
    }, 
    {
      "op": "SliceChannel", 
      "name": "gru_t33__i2h_slice", 
      "attr": {"num_outputs": "3"}, 
      "inputs": [[181, 0, 0]]
    }, 
    {
      "op": "FullyConnected", 
      "name": "gru_t32__i2h", 
      "attr": {"num_hidden": "15"}, 
      "inputs": [[46, 32, 0], [47, 0, 0], [48, 0, 0]]
    }, 
    {
      "op": "SliceChannel", 
      "name": "gru_t32__i2h_slice", 
      "attr": {"num_outputs": "3"}, 
      "inputs": [[183, 0, 0]]
    }, 
    {
      "op": "FullyConnected", 
      "name": "gru_t31__i2h", 
      "attr": {"num_hidden": "15"}, 
      "inputs": [[46, 31, 0], [47, 0, 0], [48, 0, 0]]
    }, 
    {
      "op": "SliceChannel", 
      "name": "gru_t31__i2h_slice", 
      "attr": {"num_outputs": "3"}, 
      "inputs": [[185, 0, 0]]
    }, 
    {
      "op": "FullyConnected", 
      "name": "gru_t30__i2h", 
      "attr": {"num_hidden": "15"}, 
      "inputs": [[46, 30, 0], [47, 0, 0], [48, 0, 0]]
    }, 
    {
      "op": "SliceChannel", 
      "name": "gru_t30__i2h_slice", 
      "attr": {"num_outputs": "3"}, 
      "inputs": [[187, 0, 0]]
    }, 
    {
      "op": "FullyConnected", 
      "name": "gru_t29__i2h", 
      "attr": {"num_hidden": "15"}, 
      "inputs": [[46, 29, 0], [47, 0, 0], [48, 0, 0]]
    }, 
    {
      "op": "SliceChannel", 
      "name": "gru_t29__i2h_slice", 
      "attr": {"num_outputs": "3"}, 
      "inputs": [[189, 0, 0]]
    }, 
    {
      "op": "FullyConnected", 
      "name": "gru_t28__i2h", 
      "attr": {"num_hidden": "15"}, 
      "inputs": [[46, 28, 0], [47, 0, 0], [48, 0, 0]]
    }, 
    {
      "op": "SliceChannel", 
      "name": "gru_t28__i2h_slice", 
      "attr": {"num_outputs": "3"}, 
      "inputs": [[191, 0, 0]]
    }, 
    {
      "op": "FullyConnected", 
      "name": "gru_t27__i2h", 
      "attr": {"num_hidden": "15"}, 
      "inputs": [[46, 27, 0], [47, 0, 0], [48, 0, 0]]
    }, 
    {
      "op": "SliceChannel", 
      "name": "gru_t27__i2h_slice", 
      "attr": {"num_outputs": "3"}, 
      "inputs": [[193, 0, 0]]
    }, 
    {
      "op": "FullyConnected", 
      "name": "gru_t26__i2h", 
      "attr": {"num_hidden": "15"}, 
      "inputs": [[46, 26, 0], [47, 0, 0], [48, 0, 0]]
    }, 
    {
      "op": "SliceChannel", 
      "name": "gru_t26__i2h_slice", 
      "attr": {"num_outputs": "3"}, 
      "inputs": [[195, 0, 0]]
    }, 
    {
      "op": "FullyConnected", 
      "name": "gru_t25__i2h", 
      "attr": {"num_hidden": "15"}, 
      "inputs": [[46, 25, 0], [47, 0, 0], [48, 0, 0]]
    }, 
    {
      "op": "SliceChannel", 
      "name": "gru_t25__i2h_slice", 
      "attr": {"num_outputs": "3"}, 
      "inputs": [[197, 0, 0]]
    }, 
    {
      "op": "FullyConnected", 
      "name": "gru_t24__i2h", 
      "attr": {"num_hidden": "15"}, 
      "inputs": [[46, 24, 0], [47, 0, 0], [48, 0, 0]]
    }, 
    {
      "op": "SliceChannel", 
      "name": "gru_t24__i2h_slice", 
      "attr": {"num_outputs": "3"}, 
      "inputs": [[199, 0, 0]]
    }, 
    {
      "op": "FullyConnected", 
      "name": "gru_t23__i2h", 
      "attr": {"num_hidden": "15"}, 
      "inputs": [[46, 23, 0], [47, 0, 0], [48, 0, 0]]
    }, 
    {
      "op": "SliceChannel", 
      "name": "gru_t23__i2h_slice", 
      "attr": {"num_outputs": "3"}, 
      "inputs": [[201, 0, 0]]
    }, 
    {
      "op": "FullyConnected", 
      "name": "gru_t22__i2h", 
      "attr": {"num_hidden": "15"}, 
      "inputs": [[46, 22, 0], [47, 0, 0], [48, 0, 0]]
    }, 
    {
      "op": "SliceChannel", 
      "name": "gru_t22__i2h_slice", 
      "attr": {"num_outputs": "3"}, 
      "inputs": [[203, 0, 0]]
    }, 
    {
      "op": "FullyConnected", 
      "name": "gru_t21__i2h", 
      "attr": {"num_hidden": "15"}, 
      "inputs": [[46, 21, 0], [47, 0, 0], [48, 0, 0]]
    }, 
    {
      "op": "SliceChannel", 
      "name": "gru_t21__i2h_slice", 
      "attr": {"num_outputs": "3"}, 
      "inputs": [[205, 0, 0]]
    }, 
    {
      "op": "FullyConnected", 
      "name": "gru_t20__i2h", 
      "attr": {"num_hidden": "15"}, 
      "inputs": [[46, 20, 0], [47, 0, 0], [48, 0, 0]]
    }, 
    {
      "op": "SliceChannel", 
      "name": "gru_t20__i2h_slice", 
      "attr": {"num_outputs": "3"}, 
      "inputs": [[207, 0, 0]]
    }, 
    {
      "op": "FullyConnected", 
      "name": "gru_t19__i2h", 
      "attr": {"num_hidden": "15"}, 
      "inputs": [[46, 19, 0], [47, 0, 0], [48, 0, 0]]
    }, 
    {
      "op": "SliceChannel", 
      "name": "gru_t19__i2h_slice", 
      "attr": {"num_outputs": "3"}, 
      "inputs": [[209, 0, 0]]
    }, 
    {
      "op": "FullyConnected", 
      "name": "gru_t18__i2h", 
      "attr": {"num_hidden": "15"}, 
      "inputs": [[46, 18, 0], [47, 0, 0], [48, 0, 0]]
    }, 
    {
      "op": "SliceChannel", 
      "name": "gru_t18__i2h_slice", 
      "attr": {"num_outputs": "3"}, 
      "inputs": [[211, 0, 0]]
    }, 
    {
      "op": "FullyConnected", 
      "name": "gru_t17__i2h", 
      "attr": {"num_hidden": "15"}, 
      "inputs": [[46, 17, 0], [47, 0, 0], [48, 0, 0]]
    }, 
    {
      "op": "SliceChannel", 
      "name": "gru_t17__i2h_slice", 
      "attr": {"num_outputs": "3"}, 
      "inputs": [[213, 0, 0]]
    }, 
    {
      "op": "FullyConnected", 
      "name": "gru_t16__i2h", 
      "attr": {"num_hidden": "15"}, 
      "inputs": [[46, 16, 0], [47, 0, 0], [48, 0, 0]]
    }, 
    {
      "op": "SliceChannel", 
      "name": "gru_t16__i2h_slice", 
      "attr": {"num_outputs": "3"}, 
      "inputs": [[215, 0, 0]]
    }, 
    {
      "op": "FullyConnected", 
      "name": "gru_t15__i2h", 
      "attr": {"num_hidden": "15"}, 
      "inputs": [[46, 15, 0], [47, 0, 0], [48, 0, 0]]
    }, 
    {
      "op": "SliceChannel", 
      "name": "gru_t15__i2h_slice", 
      "attr": {"num_outputs": "3"}, 
      "inputs": [[217, 0, 0]]
    }, 
    {
      "op": "FullyConnected", 
      "name": "gru_t14__i2h", 
      "attr": {"num_hidden": "15"}, 
      "inputs": [[46, 14, 0], [47, 0, 0], [48, 0, 0]]
    }, 
    {
      "op": "SliceChannel", 
      "name": "gru_t14__i2h_slice", 
      "attr": {"num_outputs": "3"}, 
      "inputs": [[219, 0, 0]]
    }, 
    {
      "op": "FullyConnected", 
      "name": "gru_t13__i2h", 
      "attr": {"num_hidden": "15"}, 
      "inputs": [[46, 13, 0], [47, 0, 0], [48, 0, 0]]
    }, 
    {
      "op": "SliceChannel", 
      "name": "gru_t13__i2h_slice", 
      "attr": {"num_outputs": "3"}, 
      "inputs": [[221, 0, 0]]
    }, 
    {
      "op": "FullyConnected", 
      "name": "gru_t12__i2h", 
      "attr": {"num_hidden": "15"}, 
      "inputs": [[46, 12, 0], [47, 0, 0], [48, 0, 0]]
    }, 
    {
      "op": "SliceChannel", 
      "name": "gru_t12__i2h_slice", 
      "attr": {"num_outputs": "3"}, 
      "inputs": [[223, 0, 0]]
    }, 
    {
      "op": "FullyConnected", 
      "name": "gru_t11__i2h", 
      "attr": {"num_hidden": "15"}, 
      "inputs": [[46, 11, 0], [47, 0, 0], [48, 0, 0]]
    }, 
    {
      "op": "SliceChannel", 
      "name": "gru_t11__i2h_slice", 
      "attr": {"num_outputs": "3"}, 
      "inputs": [[225, 0, 0]]
    }, 
    {
      "op": "FullyConnected", 
      "name": "gru_t10__i2h", 
      "attr": {"num_hidden": "15"}, 
      "inputs": [[46, 10, 0], [47, 0, 0], [48, 0, 0]]
    }, 
    {
      "op": "SliceChannel", 
      "name": "gru_t10__i2h_slice", 
      "attr": {"num_outputs": "3"}, 
      "inputs": [[227, 0, 0]]
    }, 
    {
      "op": "FullyConnected", 
      "name": "gru_t9__i2h", 
      "attr": {"num_hidden": "15"}, 
      "inputs": [[46, 9, 0], [47, 0, 0], [48, 0, 0]]
    }, 
    {
      "op": "SliceChannel", 
      "name": "gru_t9__i2h_slice", 
      "attr": {"num_outputs": "3"}, 
      "inputs": [[229, 0, 0]]
    }, 
    {
      "op": "FullyConnected", 
      "name": "gru_t8__i2h", 
      "attr": {"num_hidden": "15"}, 
      "inputs": [[46, 8, 0], [47, 0, 0], [48, 0, 0]]
    }, 
    {
      "op": "SliceChannel", 
      "name": "gru_t8__i2h_slice", 
      "attr": {"num_outputs": "3"}, 
      "inputs": [[231, 0, 0]]
    }, 
    {
      "op": "FullyConnected", 
      "name": "gru_t7__i2h", 
      "attr": {"num_hidden": "15"}, 
      "inputs": [[46, 7, 0], [47, 0, 0], [48, 0, 0]]
    }, 
    {
      "op": "SliceChannel", 
      "name": "gru_t7__i2h_slice", 
      "attr": {"num_outputs": "3"}, 
      "inputs": [[233, 0, 0]]
    }, 
    {
      "op": "FullyConnected", 
      "name": "gru_t6__i2h", 
      "attr": {"num_hidden": "15"}, 
      "inputs": [[46, 6, 0], [47, 0, 0], [48, 0, 0]]
    }, 
    {
      "op": "SliceChannel", 
      "name": "gru_t6__i2h_slice", 
      "attr": {"num_outputs": "3"}, 
      "inputs": [[235, 0, 0]]
    }, 
    {
      "op": "FullyConnected", 
      "name": "gru_t5__i2h", 
      "attr": {"num_hidden": "15"}, 
      "inputs": [[46, 5, 0], [47, 0, 0], [48, 0, 0]]
    }, 
    {
      "op": "SliceChannel", 
      "name": "gru_t5__i2h_slice", 
      "attr": {"num_outputs": "3"}, 
      "inputs": [[237, 0, 0]]
    }, 
    {
      "op": "FullyConnected", 
      "name": "gru_t4__i2h", 
      "attr": {"num_hidden": "15"}, 
      "inputs": [[46, 4, 0], [47, 0, 0], [48, 0, 0]]
    }, 
    {
      "op": "SliceChannel", 
      "name": "gru_t4__i2h_slice", 
      "attr": {"num_outputs": "3"}, 
      "inputs": [[239, 0, 0]]
    }, 
    {
      "op": "FullyConnected", 
      "name": "gru_t3__i2h", 
      "attr": {"num_hidden": "15"}, 
      "inputs": [[46, 3, 0], [47, 0, 0], [48, 0, 0]]
    }, 
    {
      "op": "SliceChannel", 
      "name": "gru_t3__i2h_slice", 
      "attr": {"num_outputs": "3"}, 
      "inputs": [[241, 0, 0]]
    }, 
    {
      "op": "FullyConnected", 
      "name": "gru_t2__i2h", 
      "attr": {"num_hidden": "15"}, 
      "inputs": [[46, 2, 0], [47, 0, 0], [48, 0, 0]]
    }, 
    {
      "op": "SliceChannel", 
      "name": "gru_t2__i2h_slice", 
      "attr": {"num_outputs": "3"}, 
      "inputs": [[243, 0, 0]]
    }, 
    {
      "op": "FullyConnected", 
      "name": "gru_t1__i2h", 
      "attr": {"num_hidden": "15"}, 
      "inputs": [[46, 1, 0], [47, 0, 0], [48, 0, 0]]
    }, 
    {
      "op": "SliceChannel", 
      "name": "gru_t1__i2h_slice", 
      "attr": {"num_outputs": "3"}, 
      "inputs": [[245, 0, 0]]
    }, 
    {
      "op": "FullyConnected", 
      "name": "gru_t0__i2h", 
      "attr": {"num_hidden": "15"}, 
      "inputs": [[46, 0, 0], [47, 0, 0], [48, 0, 0]]
    }, 
    {
      "op": "SliceChannel", 
      "name": "gru_t0__i2h_slice", 
      "attr": {"num_outputs": "3"}, 
      "inputs": [[247, 0, 0]]
    }, 
    {
      "op": "_zeros", 
      "name": "gru_begin_state_0", 
      "attr": {
        "__layout__": "NC", 
        "dtype": "float32", 
        "shape": "(0, 5)"
      }, 
      "inputs": []
    }, 
    {
      "op": "null", 
      "name": "gru_h2h_weight", 
      "inputs": []
    }, 
    {
      "op": "null", 
      "name": "gru_h2h_bias", 
      "inputs": []
    }, 
    {
      "op": "FullyConnected", 
      "name": "gru_t0__h2h", 
      "attr": {"num_hidden": "15"}, 
      "inputs": [[249, 0, 0], [250, 0, 0], [251, 0, 0]]
    }, 
    {
      "op": "SliceChannel", 
      "name": "gru_t0__h2h_slice", 
      "attr": {"num_outputs": "3"}, 
      "inputs": [[252, 0, 0]]
    }, 
    {
      "op": "elemwise_add", 
      "name": "_plus1", 
      "inputs": [[248, 1, 0], [253, 1, 0]]
    }, 
    {
      "op": "Activation", 
      "name": "gru_t0__z_act", 
      "attr": {"act_type": "sigmoid"}, 
      "inputs": [[254, 0, 0]]
    }, 
    {
      "op": "_rminus_scalar", 
      "name": "_rminusscalar0", 
      "attr": {"scalar": "1.0"}, 
      "inputs": [[255, 0, 0]]
    }, 
    {
      "op": "elemwise_add", 
      "name": "_plus0", 
      "inputs": [[248, 0, 0], [253, 0, 0]]
    }, 
    {
      "op": "Activation", 
      "name": "gru_t0__r_act", 
      "attr": {"act_type": "sigmoid"}, 
      "inputs": [[257, 0, 0]]
    }, 
    {
      "op": "_mul", 
      "name": "_mul0", 
      "inputs": [[258, 0, 0], [253, 2, 0]]
    }, 
    {
      "op": "elemwise_add", 
      "name": "_plus2", 
      "inputs": [[248, 2, 0], [259, 0, 0]]
    }, 
    {
      "op": "Activation", 
      "name": "gru_t0__h_act", 
      "attr": {"act_type": "tanh"}, 
      "inputs": [[260, 0, 0]]
    }, 
    {
      "op": "_mul", 
      "name": "_mul1", 
      "inputs": [[256, 0, 0], [261, 0, 0]]
    }, 
    {
      "op": "_mul", 
      "name": "_mul2", 
      "inputs": [[255, 0, 0], [249, 0, 0]]
    }, 
    {
      "op": "elemwise_add", 
      "name": "gru_t0_out", 
      "inputs": [[262, 0, 0], [263, 0, 0]]
    }, 
    {
      "op": "FullyConnected", 
      "name": "gru_t1__h2h", 
      "attr": {"num_hidden": "15"}, 
      "inputs": [[264, 0, 0], [250, 0, 0], [251, 0, 0]]
    }, 
    {
      "op": "SliceChannel", 
      "name": "gru_t1__h2h_slice", 
      "attr": {"num_outputs": "3"}, 
      "inputs": [[265, 0, 0]]
    }, 
    {
      "op": "elemwise_add", 
      "name": "_plus4", 
      "inputs": [[246, 1, 0], [266, 1, 0]]
    }, 
    {
      "op": "Activation", 
      "name": "gru_t1__z_act", 
      "attr": {"act_type": "sigmoid"}, 
      "inputs": [[267, 0, 0]]
    }, 
    {
      "op": "_rminus_scalar", 
      "name": "_rminusscalar1", 
      "attr": {"scalar": "1.0"}, 
      "inputs": [[268, 0, 0]]
    }, 
    {
      "op": "elemwise_add", 
      "name": "_plus3", 
      "inputs": [[246, 0, 0], [266, 0, 0]]
    }, 
    {
      "op": "Activation", 
      "name": "gru_t1__r_act", 
      "attr": {"act_type": "sigmoid"}, 
      "inputs": [[270, 0, 0]]
    }, 
    {
      "op": "_mul", 
      "name": "_mul3", 
      "inputs": [[271, 0, 0], [266, 2, 0]]
    }, 
    {
      "op": "elemwise_add", 
      "name": "_plus5", 
      "inputs": [[246, 2, 0], [272, 0, 0]]
    }, 
    {
      "op": "Activation", 
      "name": "gru_t1__h_act", 
      "attr": {"act_type": "tanh"}, 
      "inputs": [[273, 0, 0]]
    }, 
    {
      "op": "_mul", 
      "name": "_mul4", 
      "inputs": [[269, 0, 0], [274, 0, 0]]
    }, 
    {
      "op": "_mul", 
      "name": "_mul5", 
      "inputs": [[268, 0, 0], [264, 0, 0]]
    }, 
    {
      "op": "elemwise_add", 
      "name": "gru_t1_out", 
      "inputs": [[275, 0, 0], [276, 0, 0]]
    }, 
    {
      "op": "FullyConnected", 
      "name": "gru_t2__h2h", 
      "attr": {"num_hidden": "15"}, 
      "inputs": [[277, 0, 0], [250, 0, 0], [251, 0, 0]]
    }, 
    {
      "op": "SliceChannel", 
      "name": "gru_t2__h2h_slice", 
      "attr": {"num_outputs": "3"}, 
      "inputs": [[278, 0, 0]]
    }, 
    {
      "op": "elemwise_add", 
      "name": "_plus7", 
      "inputs": [[244, 1, 0], [279, 1, 0]]
    }, 
    {
      "op": "Activation", 
      "name": "gru_t2__z_act", 
      "attr": {"act_type": "sigmoid"}, 
      "inputs": [[280, 0, 0]]
    }, 
    {
      "op": "_rminus_scalar", 
      "name": "_rminusscalar2", 
      "attr": {"scalar": "1.0"}, 
      "inputs": [[281, 0, 0]]
    }, 
    {
      "op": "elemwise_add", 
      "name": "_plus6", 
      "inputs": [[244, 0, 0], [279, 0, 0]]
    }, 
    {
      "op": "Activation", 
      "name": "gru_t2__r_act", 
      "attr": {"act_type": "sigmoid"}, 
      "inputs": [[283, 0, 0]]
    }, 
    {
      "op": "_mul", 
      "name": "_mul6", 
      "inputs": [[284, 0, 0], [279, 2, 0]]
    }, 
    {
      "op": "elemwise_add", 
      "name": "_plus8", 
      "inputs": [[244, 2, 0], [285, 0, 0]]
    }, 
    {
      "op": "Activation", 
      "name": "gru_t2__h_act", 
      "attr": {"act_type": "tanh"}, 
      "inputs": [[286, 0, 0]]
    }, 
    {
      "op": "_mul", 
      "name": "_mul7", 
      "inputs": [[282, 0, 0], [287, 0, 0]]
    }, 
    {
      "op": "_mul", 
      "name": "_mul8", 
      "inputs": [[281, 0, 0], [277, 0, 0]]
    }, 
    {
      "op": "elemwise_add", 
      "name": "gru_t2_out", 
      "inputs": [[288, 0, 0], [289, 0, 0]]
    }, 
    {
      "op": "FullyConnected", 
      "name": "gru_t3__h2h", 
      "attr": {"num_hidden": "15"}, 
      "inputs": [[290, 0, 0], [250, 0, 0], [251, 0, 0]]
    }, 
    {
      "op": "SliceChannel", 
      "name": "gru_t3__h2h_slice", 
      "attr": {"num_outputs": "3"}, 
      "inputs": [[291, 0, 0]]
    }, 
    {
      "op": "elemwise_add", 
      "name": "_plus10", 
      "inputs": [[242, 1, 0], [292, 1, 0]]
    }, 
    {
      "op": "Activation", 
      "name": "gru_t3__z_act", 
      "attr": {"act_type": "sigmoid"}, 
      "inputs": [[293, 0, 0]]
    }, 
    {
      "op": "_rminus_scalar", 
      "name": "_rminusscalar3", 
      "attr": {"scalar": "1.0"}, 
      "inputs": [[294, 0, 0]]
    }, 
    {
      "op": "elemwise_add", 
      "name": "_plus9", 
      "inputs": [[242, 0, 0], [292, 0, 0]]
    }, 
    {
      "op": "Activation", 
      "name": "gru_t3__r_act", 
      "attr": {"act_type": "sigmoid"}, 
      "inputs": [[296, 0, 0]]
    }, 
    {
      "op": "_mul", 
      "name": "_mul9", 
      "inputs": [[297, 0, 0], [292, 2, 0]]
    }, 
    {
      "op": "elemwise_add", 
      "name": "_plus11", 
      "inputs": [[242, 2, 0], [298, 0, 0]]
    }, 
    {
      "op": "Activation", 
      "name": "gru_t3__h_act", 
      "attr": {"act_type": "tanh"}, 
      "inputs": [[299, 0, 0]]
    }, 
    {
      "op": "_mul", 
      "name": "_mul10", 
      "inputs": [[295, 0, 0], [300, 0, 0]]
    }, 
    {
      "op": "_mul", 
      "name": "_mul11", 
      "inputs": [[294, 0, 0], [290, 0, 0]]
    }, 
    {
      "op": "elemwise_add", 
      "name": "gru_t3_out", 
      "inputs": [[301, 0, 0], [302, 0, 0]]
    }, 
    {
      "op": "FullyConnected", 
      "name": "gru_t4__h2h", 
      "attr": {"num_hidden": "15"}, 
      "inputs": [[303, 0, 0], [250, 0, 0], [251, 0, 0]]
    }, 
    {
      "op": "SliceChannel", 
      "name": "gru_t4__h2h_slice", 
      "attr": {"num_outputs": "3"}, 
      "inputs": [[304, 0, 0]]
    }, 
    {
      "op": "elemwise_add", 
      "name": "_plus13", 
      "inputs": [[240, 1, 0], [305, 1, 0]]
    }, 
    {
      "op": "Activation", 
      "name": "gru_t4__z_act", 
      "attr": {"act_type": "sigmoid"}, 
      "inputs": [[306, 0, 0]]
    }, 
    {
      "op": "_rminus_scalar", 
      "name": "_rminusscalar4", 
      "attr": {"scalar": "1.0"}, 
      "inputs": [[307, 0, 0]]
    }, 
    {
      "op": "elemwise_add", 
      "name": "_plus12", 
      "inputs": [[240, 0, 0], [305, 0, 0]]
    }, 
    {
      "op": "Activation", 
      "name": "gru_t4__r_act", 
      "attr": {"act_type": "sigmoid"}, 
      "inputs": [[309, 0, 0]]
    }, 
    {
      "op": "_mul", 
      "name": "_mul12", 
      "inputs": [[310, 0, 0], [305, 2, 0]]
    }, 
    {
      "op": "elemwise_add", 
      "name": "_plus14", 
      "inputs": [[240, 2, 0], [311, 0, 0]]
    }, 
    {
      "op": "Activation", 
      "name": "gru_t4__h_act", 
      "attr": {"act_type": "tanh"}, 
      "inputs": [[312, 0, 0]]
    }, 
    {
      "op": "_mul", 
      "name": "_mul13", 
      "inputs": [[308, 0, 0], [313, 0, 0]]
    }, 
    {
      "op": "_mul", 
      "name": "_mul14", 
      "inputs": [[307, 0, 0], [303, 0, 0]]
    }, 
    {
      "op": "elemwise_add", 
      "name": "gru_t4_out", 
      "inputs": [[314, 0, 0], [315, 0, 0]]
    }, 
    {
      "op": "FullyConnected", 
      "name": "gru_t5__h2h", 
      "attr": {"num_hidden": "15"}, 
      "inputs": [[316, 0, 0], [250, 0, 0], [251, 0, 0]]
    }, 
    {
      "op": "SliceChannel", 
      "name": "gru_t5__h2h_slice", 
      "attr": {"num_outputs": "3"}, 
      "inputs": [[317, 0, 0]]
    }, 
    {
      "op": "elemwise_add", 
      "name": "_plus16", 
      "inputs": [[238, 1, 0], [318, 1, 0]]
    }, 
    {
      "op": "Activation", 
      "name": "gru_t5__z_act", 
      "attr": {"act_type": "sigmoid"}, 
      "inputs": [[319, 0, 0]]
    }, 
    {
      "op": "_rminus_scalar", 
      "name": "_rminusscalar5", 
      "attr": {"scalar": "1.0"}, 
      "inputs": [[320, 0, 0]]
    }, 
    {
      "op": "elemwise_add", 
      "name": "_plus15", 
      "inputs": [[238, 0, 0], [318, 0, 0]]
    }, 
    {
      "op": "Activation", 
      "name": "gru_t5__r_act", 
      "attr": {"act_type": "sigmoid"}, 
      "inputs": [[322, 0, 0]]
    }, 
    {
      "op": "_mul", 
      "name": "_mul15", 
      "inputs": [[323, 0, 0], [318, 2, 0]]
    }, 
    {
      "op": "elemwise_add", 
      "name": "_plus17", 
      "inputs": [[238, 2, 0], [324, 0, 0]]
    }, 
    {
      "op": "Activation", 
      "name": "gru_t5__h_act", 
      "attr": {"act_type": "tanh"}, 
      "inputs": [[325, 0, 0]]
    }, 
    {
      "op": "_mul", 
      "name": "_mul16", 
      "inputs": [[321, 0, 0], [326, 0, 0]]
    }, 
    {
      "op": "_mul", 
      "name": "_mul17", 
      "inputs": [[320, 0, 0], [316, 0, 0]]
    }, 
    {
      "op": "elemwise_add", 
      "name": "gru_t5_out", 
      "inputs": [[327, 0, 0], [328, 0, 0]]
    }, 
    {
      "op": "FullyConnected", 
      "name": "gru_t6__h2h", 
      "attr": {"num_hidden": "15"}, 
      "inputs": [[329, 0, 0], [250, 0, 0], [251, 0, 0]]
    }, 
    {
      "op": "SliceChannel", 
      "name": "gru_t6__h2h_slice", 
      "attr": {"num_outputs": "3"}, 
      "inputs": [[330, 0, 0]]
    }, 
    {
      "op": "elemwise_add", 
      "name": "_plus19", 
      "inputs": [[236, 1, 0], [331, 1, 0]]
    }, 
    {
      "op": "Activation", 
      "name": "gru_t6__z_act", 
      "attr": {"act_type": "sigmoid"}, 
      "inputs": [[332, 0, 0]]
    }, 
    {
      "op": "_rminus_scalar", 
      "name": "_rminusscalar6", 
      "attr": {"scalar": "1.0"}, 
      "inputs": [[333, 0, 0]]
    }, 
    {
      "op": "elemwise_add", 
      "name": "_plus18", 
      "inputs": [[236, 0, 0], [331, 0, 0]]
    }, 
    {
      "op": "Activation", 
      "name": "gru_t6__r_act", 
      "attr": {"act_type": "sigmoid"}, 
      "inputs": [[335, 0, 0]]
    }, 
    {
      "op": "_mul", 
      "name": "_mul18", 
      "inputs": [[336, 0, 0], [331, 2, 0]]
    }, 
    {
      "op": "elemwise_add", 
      "name": "_plus20", 
      "inputs": [[236, 2, 0], [337, 0, 0]]
    }, 
    {
      "op": "Activation", 
      "name": "gru_t6__h_act", 
      "attr": {"act_type": "tanh"}, 
      "inputs": [[338, 0, 0]]
    }, 
    {
      "op": "_mul", 
      "name": "_mul19", 
      "inputs": [[334, 0, 0], [339, 0, 0]]
    }, 
    {
      "op": "_mul", 
      "name": "_mul20", 
      "inputs": [[333, 0, 0], [329, 0, 0]]
    }, 
    {
      "op": "elemwise_add", 
      "name": "gru_t6_out", 
      "inputs": [[340, 0, 0], [341, 0, 0]]
    }, 
    {
      "op": "FullyConnected", 
      "name": "gru_t7__h2h", 
      "attr": {"num_hidden": "15"}, 
      "inputs": [[342, 0, 0], [250, 0, 0], [251, 0, 0]]
    }, 
    {
      "op": "SliceChannel", 
      "name": "gru_t7__h2h_slice", 
      "attr": {"num_outputs": "3"}, 
      "inputs": [[343, 0, 0]]
    }, 
    {
      "op": "elemwise_add", 
      "name": "_plus22", 
      "inputs": [[234, 1, 0], [344, 1, 0]]
    }, 
    {
      "op": "Activation", 
      "name": "gru_t7__z_act", 
      "attr": {"act_type": "sigmoid"}, 
      "inputs": [[345, 0, 0]]
    }, 
    {
      "op": "_rminus_scalar", 
      "name": "_rminusscalar7", 
      "attr": {"scalar": "1.0"}, 
      "inputs": [[346, 0, 0]]
    }, 
    {
      "op": "elemwise_add", 
      "name": "_plus21", 
      "inputs": [[234, 0, 0], [344, 0, 0]]
    }, 
    {
      "op": "Activation", 
      "name": "gru_t7__r_act", 
      "attr": {"act_type": "sigmoid"}, 
      "inputs": [[348, 0, 0]]
    }, 
    {
      "op": "_mul", 
      "name": "_mul21", 
      "inputs": [[349, 0, 0], [344, 2, 0]]
    }, 
    {
      "op": "elemwise_add", 
      "name": "_plus23", 
      "inputs": [[234, 2, 0], [350, 0, 0]]
    }, 
    {
      "op": "Activation", 
      "name": "gru_t7__h_act", 
      "attr": {"act_type": "tanh"}, 
      "inputs": [[351, 0, 0]]
    }, 
    {
      "op": "_mul", 
      "name": "_mul22", 
      "inputs": [[347, 0, 0], [352, 0, 0]]
    }, 
    {
      "op": "_mul", 
      "name": "_mul23", 
      "inputs": [[346, 0, 0], [342, 0, 0]]
    }, 
    {
      "op": "elemwise_add", 
      "name": "gru_t7_out", 
      "inputs": [[353, 0, 0], [354, 0, 0]]
    }, 
    {
      "op": "FullyConnected", 
      "name": "gru_t8__h2h", 
      "attr": {"num_hidden": "15"}, 
      "inputs": [[355, 0, 0], [250, 0, 0], [251, 0, 0]]
    }, 
    {
      "op": "SliceChannel", 
      "name": "gru_t8__h2h_slice", 
      "attr": {"num_outputs": "3"}, 
      "inputs": [[356, 0, 0]]
    }, 
    {
      "op": "elemwise_add", 
      "name": "_plus25", 
      "inputs": [[232, 1, 0], [357, 1, 0]]
    }, 
    {
      "op": "Activation", 
      "name": "gru_t8__z_act", 
      "attr": {"act_type": "sigmoid"}, 
      "inputs": [[358, 0, 0]]
    }, 
    {
      "op": "_rminus_scalar", 
      "name": "_rminusscalar8", 
      "attr": {"scalar": "1.0"}, 
      "inputs": [[359, 0, 0]]
    }, 
    {
      "op": "elemwise_add", 
      "name": "_plus24", 
      "inputs": [[232, 0, 0], [357, 0, 0]]
    }, 
    {
      "op": "Activation", 
      "name": "gru_t8__r_act", 
      "attr": {"act_type": "sigmoid"}, 
      "inputs": [[361, 0, 0]]
    }, 
    {
      "op": "_mul", 
      "name": "_mul24", 
      "inputs": [[362, 0, 0], [357, 2, 0]]
    }, 
    {
      "op": "elemwise_add", 
      "name": "_plus26", 
      "inputs": [[232, 2, 0], [363, 0, 0]]
    }, 
    {
      "op": "Activation", 
      "name": "gru_t8__h_act", 
      "attr": {"act_type": "tanh"}, 
      "inputs": [[364, 0, 0]]
    }, 
    {
      "op": "_mul", 
      "name": "_mul25", 
      "inputs": [[360, 0, 0], [365, 0, 0]]
    }, 
    {
      "op": "_mul", 
      "name": "_mul26", 
      "inputs": [[359, 0, 0], [355, 0, 0]]
    }, 
    {
      "op": "elemwise_add", 
      "name": "gru_t8_out", 
      "inputs": [[366, 0, 0], [367, 0, 0]]
    }, 
    {
      "op": "FullyConnected", 
      "name": "gru_t9__h2h", 
      "attr": {"num_hidden": "15"}, 
      "inputs": [[368, 0, 0], [250, 0, 0], [251, 0, 0]]
    }, 
    {
      "op": "SliceChannel", 
      "name": "gru_t9__h2h_slice", 
      "attr": {"num_outputs": "3"}, 
      "inputs": [[369, 0, 0]]
    }, 
    {
      "op": "elemwise_add", 
      "name": "_plus28", 
      "inputs": [[230, 1, 0], [370, 1, 0]]
    }, 
    {
      "op": "Activation", 
      "name": "gru_t9__z_act", 
      "attr": {"act_type": "sigmoid"}, 
      "inputs": [[371, 0, 0]]
    }, 
    {
      "op": "_rminus_scalar", 
      "name": "_rminusscalar9", 
      "attr": {"scalar": "1.0"}, 
      "inputs": [[372, 0, 0]]
    }, 
    {
      "op": "elemwise_add", 
      "name": "_plus27", 
      "inputs": [[230, 0, 0], [370, 0, 0]]
    }, 
    {
      "op": "Activation", 
      "name": "gru_t9__r_act", 
      "attr": {"act_type": "sigmoid"}, 
      "inputs": [[374, 0, 0]]
    }, 
    {
      "op": "_mul", 
      "name": "_mul27", 
      "inputs": [[375, 0, 0], [370, 2, 0]]
    }, 
    {
      "op": "elemwise_add", 
      "name": "_plus29", 
      "inputs": [[230, 2, 0], [376, 0, 0]]
    }, 
    {
      "op": "Activation", 
      "name": "gru_t9__h_act", 
      "attr": {"act_type": "tanh"}, 
      "inputs": [[377, 0, 0]]
    }, 
    {
      "op": "_mul", 
      "name": "_mul28", 
      "inputs": [[373, 0, 0], [378, 0, 0]]
    }, 
    {
      "op": "_mul", 
      "name": "_mul29", 
      "inputs": [[372, 0, 0], [368, 0, 0]]
    }, 
    {
      "op": "elemwise_add", 
      "name": "gru_t9_out", 
      "inputs": [[379, 0, 0], [380, 0, 0]]
    }, 
    {
      "op": "FullyConnected", 
      "name": "gru_t10__h2h", 
      "attr": {"num_hidden": "15"}, 
      "inputs": [[381, 0, 0], [250, 0, 0], [251, 0, 0]]
    }, 
    {
      "op": "SliceChannel", 
      "name": "gru_t10__h2h_slice", 
      "attr": {"num_outputs": "3"}, 
      "inputs": [[382, 0, 0]]
    }, 
    {
      "op": "elemwise_add", 
      "name": "_plus31", 
      "inputs": [[228, 1, 0], [383, 1, 0]]
    }, 
    {
      "op": "Activation", 
      "name": "gru_t10__z_act", 
      "attr": {"act_type": "sigmoid"}, 
      "inputs": [[384, 0, 0]]
    }, 
    {
      "op": "_rminus_scalar", 
      "name": "_rminusscalar10", 
      "attr": {"scalar": "1.0"}, 
      "inputs": [[385, 0, 0]]
    }, 
    {
      "op": "elemwise_add", 
      "name": "_plus30", 
      "inputs": [[228, 0, 0], [383, 0, 0]]
    }, 
    {
      "op": "Activation", 
      "name": "gru_t10__r_act", 
      "attr": {"act_type": "sigmoid"}, 
      "inputs": [[387, 0, 0]]
    }, 
    {
      "op": "_mul", 
      "name": "_mul30", 
      "inputs": [[388, 0, 0], [383, 2, 0]]
    }, 
    {
      "op": "elemwise_add", 
      "name": "_plus32", 
      "inputs": [[228, 2, 0], [389, 0, 0]]
    }, 
    {
      "op": "Activation", 
      "name": "gru_t10__h_act", 
      "attr": {"act_type": "tanh"}, 
      "inputs": [[390, 0, 0]]
    }, 
    {
      "op": "_mul", 
      "name": "_mul31", 
      "inputs": [[386, 0, 0], [391, 0, 0]]
    }, 
    {
      "op": "_mul", 
      "name": "_mul32", 
      "inputs": [[385, 0, 0], [381, 0, 0]]
    }, 
    {
      "op": "elemwise_add", 
      "name": "gru_t10_out", 
      "inputs": [[392, 0, 0], [393, 0, 0]]
    }, 
    {
      "op": "FullyConnected", 
      "name": "gru_t11__h2h", 
      "attr": {"num_hidden": "15"}, 
      "inputs": [[394, 0, 0], [250, 0, 0], [251, 0, 0]]
    }, 
    {
      "op": "SliceChannel", 
      "name": "gru_t11__h2h_slice", 
      "attr": {"num_outputs": "3"}, 
      "inputs": [[395, 0, 0]]
    }, 
    {
      "op": "elemwise_add", 
      "name": "_plus34", 
      "inputs": [[226, 1, 0], [396, 1, 0]]
    }, 
    {
      "op": "Activation", 
      "name": "gru_t11__z_act", 
      "attr": {"act_type": "sigmoid"}, 
      "inputs": [[397, 0, 0]]
    }, 
    {
      "op": "_rminus_scalar", 
      "name": "_rminusscalar11", 
      "attr": {"scalar": "1.0"}, 
      "inputs": [[398, 0, 0]]
    }, 
    {
      "op": "elemwise_add", 
      "name": "_plus33", 
      "inputs": [[226, 0, 0], [396, 0, 0]]
    }, 
    {
      "op": "Activation", 
      "name": "gru_t11__r_act", 
      "attr": {"act_type": "sigmoid"}, 
      "inputs": [[400, 0, 0]]
    }, 
    {
      "op": "_mul", 
      "name": "_mul33", 
      "inputs": [[401, 0, 0], [396, 2, 0]]
    }, 
    {
      "op": "elemwise_add", 
      "name": "_plus35", 
      "inputs": [[226, 2, 0], [402, 0, 0]]
    }, 
    {
      "op": "Activation", 
      "name": "gru_t11__h_act", 
      "attr": {"act_type": "tanh"}, 
      "inputs": [[403, 0, 0]]
    }, 
    {
      "op": "_mul", 
      "name": "_mul34", 
      "inputs": [[399, 0, 0], [404, 0, 0]]
    }, 
    {
      "op": "_mul", 
      "name": "_mul35", 
      "inputs": [[398, 0, 0], [394, 0, 0]]
    }, 
    {
      "op": "elemwise_add", 
      "name": "gru_t11_out", 
      "inputs": [[405, 0, 0], [406, 0, 0]]
    }, 
    {
      "op": "FullyConnected", 
      "name": "gru_t12__h2h", 
      "attr": {"num_hidden": "15"}, 
      "inputs": [[407, 0, 0], [250, 0, 0], [251, 0, 0]]
    }, 
    {
      "op": "SliceChannel", 
      "name": "gru_t12__h2h_slice", 
      "attr": {"num_outputs": "3"}, 
      "inputs": [[408, 0, 0]]
    }, 
    {
      "op": "elemwise_add", 
      "name": "_plus37", 
      "inputs": [[224, 1, 0], [409, 1, 0]]
    }, 
    {
      "op": "Activation", 
      "name": "gru_t12__z_act", 
      "attr": {"act_type": "sigmoid"}, 
      "inputs": [[410, 0, 0]]
    }, 
    {
      "op": "_rminus_scalar", 
      "name": "_rminusscalar12", 
      "attr": {"scalar": "1.0"}, 
      "inputs": [[411, 0, 0]]
    }, 
    {
      "op": "elemwise_add", 
      "name": "_plus36", 
      "inputs": [[224, 0, 0], [409, 0, 0]]
    }, 
    {
      "op": "Activation", 
      "name": "gru_t12__r_act", 
      "attr": {"act_type": "sigmoid"}, 
      "inputs": [[413, 0, 0]]
    }, 
    {
      "op": "_mul", 
      "name": "_mul36", 
      "inputs": [[414, 0, 0], [409, 2, 0]]
    }, 
    {
      "op": "elemwise_add", 
      "name": "_plus38", 
      "inputs": [[224, 2, 0], [415, 0, 0]]
    }, 
    {
      "op": "Activation", 
      "name": "gru_t12__h_act", 
      "attr": {"act_type": "tanh"}, 
      "inputs": [[416, 0, 0]]
    }, 
    {
      "op": "_mul", 
      "name": "_mul37", 
      "inputs": [[412, 0, 0], [417, 0, 0]]
    }, 
    {
      "op": "_mul", 
      "name": "_mul38", 
      "inputs": [[411, 0, 0], [407, 0, 0]]
    }, 
    {
      "op": "elemwise_add", 
      "name": "gru_t12_out", 
      "inputs": [[418, 0, 0], [419, 0, 0]]
    }, 
    {
      "op": "FullyConnected", 
      "name": "gru_t13__h2h", 
      "attr": {"num_hidden": "15"}, 
      "inputs": [[420, 0, 0], [250, 0, 0], [251, 0, 0]]
    }, 
    {
      "op": "SliceChannel", 
      "name": "gru_t13__h2h_slice", 
      "attr": {"num_outputs": "3"}, 
      "inputs": [[421, 0, 0]]
    }, 
    {
      "op": "elemwise_add", 
      "name": "_plus40", 
      "inputs": [[222, 1, 0], [422, 1, 0]]
    }, 
    {
      "op": "Activation", 
      "name": "gru_t13__z_act", 
      "attr": {"act_type": "sigmoid"}, 
      "inputs": [[423, 0, 0]]
    }, 
    {
      "op": "_rminus_scalar", 
      "name": "_rminusscalar13", 
      "attr": {"scalar": "1.0"}, 
      "inputs": [[424, 0, 0]]
    }, 
    {
      "op": "elemwise_add", 
      "name": "_plus39", 
      "inputs": [[222, 0, 0], [422, 0, 0]]
    }, 
    {
      "op": "Activation", 
      "name": "gru_t13__r_act", 
      "attr": {"act_type": "sigmoid"}, 
      "inputs": [[426, 0, 0]]
    }, 
    {
      "op": "_mul", 
      "name": "_mul39", 
      "inputs": [[427, 0, 0], [422, 2, 0]]
    }, 
    {
      "op": "elemwise_add", 
      "name": "_plus41", 
      "inputs": [[222, 2, 0], [428, 0, 0]]
    }, 
    {
      "op": "Activation", 
      "name": "gru_t13__h_act", 
      "attr": {"act_type": "tanh"}, 
      "inputs": [[429, 0, 0]]
    }, 
    {
      "op": "_mul", 
      "name": "_mul40", 
      "inputs": [[425, 0, 0], [430, 0, 0]]
    }, 
    {
      "op": "_mul", 
      "name": "_mul41", 
      "inputs": [[424, 0, 0], [420, 0, 0]]
    }, 
    {
      "op": "elemwise_add", 
      "name": "gru_t13_out", 
      "inputs": [[431, 0, 0], [432, 0, 0]]
    }, 
    {
      "op": "FullyConnected", 
      "name": "gru_t14__h2h", 
      "attr": {"num_hidden": "15"}, 
      "inputs": [[433, 0, 0], [250, 0, 0], [251, 0, 0]]
    }, 
    {
      "op": "SliceChannel", 
      "name": "gru_t14__h2h_slice", 
      "attr": {"num_outputs": "3"}, 
      "inputs": [[434, 0, 0]]
    }, 
    {
      "op": "elemwise_add", 
      "name": "_plus43", 
      "inputs": [[220, 1, 0], [435, 1, 0]]
    }, 
    {
      "op": "Activation", 
      "name": "gru_t14__z_act", 
      "attr": {"act_type": "sigmoid"}, 
      "inputs": [[436, 0, 0]]
    }, 
    {
      "op": "_rminus_scalar", 
      "name": "_rminusscalar14", 
      "attr": {"scalar": "1.0"}, 
      "inputs": [[437, 0, 0]]
    }, 
    {
      "op": "elemwise_add", 
      "name": "_plus42", 
      "inputs": [[220, 0, 0], [435, 0, 0]]
    }, 
    {
      "op": "Activation", 
      "name": "gru_t14__r_act", 
      "attr": {"act_type": "sigmoid"}, 
      "inputs": [[439, 0, 0]]
    }, 
    {
      "op": "_mul", 
      "name": "_mul42", 
      "inputs": [[440, 0, 0], [435, 2, 0]]
    }, 
    {
      "op": "elemwise_add", 
      "name": "_plus44", 
      "inputs": [[220, 2, 0], [441, 0, 0]]
    }, 
    {
      "op": "Activation", 
      "name": "gru_t14__h_act", 
      "attr": {"act_type": "tanh"}, 
      "inputs": [[442, 0, 0]]
    }, 
    {
      "op": "_mul", 
      "name": "_mul43", 
      "inputs": [[438, 0, 0], [443, 0, 0]]
    }, 
    {
      "op": "_mul", 
      "name": "_mul44", 
      "inputs": [[437, 0, 0], [433, 0, 0]]
    }, 
    {
      "op": "elemwise_add", 
      "name": "gru_t14_out", 
      "inputs": [[444, 0, 0], [445, 0, 0]]
    }, 
    {
      "op": "FullyConnected", 
      "name": "gru_t15__h2h", 
      "attr": {"num_hidden": "15"}, 
      "inputs": [[446, 0, 0], [250, 0, 0], [251, 0, 0]]
    }, 
    {
      "op": "SliceChannel", 
      "name": "gru_t15__h2h_slice", 
      "attr": {"num_outputs": "3"}, 
      "inputs": [[447, 0, 0]]
    }, 
    {
      "op": "elemwise_add", 
      "name": "_plus46", 
      "inputs": [[218, 1, 0], [448, 1, 0]]
    }, 
    {
      "op": "Activation", 
      "name": "gru_t15__z_act", 
      "attr": {"act_type": "sigmoid"}, 
      "inputs": [[449, 0, 0]]
    }, 
    {
      "op": "_rminus_scalar", 
      "name": "_rminusscalar15", 
      "attr": {"scalar": "1.0"}, 
      "inputs": [[450, 0, 0]]
    }, 
    {
      "op": "elemwise_add", 
      "name": "_plus45", 
      "inputs": [[218, 0, 0], [448, 0, 0]]
    }, 
    {
      "op": "Activation", 
      "name": "gru_t15__r_act", 
      "attr": {"act_type": "sigmoid"}, 
      "inputs": [[452, 0, 0]]
    }, 
    {
      "op": "_mul", 
      "name": "_mul45", 
      "inputs": [[453, 0, 0], [448, 2, 0]]
    }, 
    {
      "op": "elemwise_add", 
      "name": "_plus47", 
      "inputs": [[218, 2, 0], [454, 0, 0]]
    }, 
    {
      "op": "Activation", 
      "name": "gru_t15__h_act", 
      "attr": {"act_type": "tanh"}, 
      "inputs": [[455, 0, 0]]
    }, 
    {
      "op": "_mul", 
      "name": "_mul46", 
      "inputs": [[451, 0, 0], [456, 0, 0]]
    }, 
    {
      "op": "_mul", 
      "name": "_mul47", 
      "inputs": [[450, 0, 0], [446, 0, 0]]
    }, 
    {
      "op": "elemwise_add", 
      "name": "gru_t15_out", 
      "inputs": [[457, 0, 0], [458, 0, 0]]
    }, 
    {
      "op": "FullyConnected", 
      "name": "gru_t16__h2h", 
      "attr": {"num_hidden": "15"}, 
      "inputs": [[459, 0, 0], [250, 0, 0], [251, 0, 0]]
    }, 
    {
      "op": "SliceChannel", 
      "name": "gru_t16__h2h_slice", 
      "attr": {"num_outputs": "3"}, 
      "inputs": [[460, 0, 0]]
    }, 
    {
      "op": "elemwise_add", 
      "name": "_plus49", 
      "inputs": [[216, 1, 0], [461, 1, 0]]
    }, 
    {
      "op": "Activation", 
      "name": "gru_t16__z_act", 
      "attr": {"act_type": "sigmoid"}, 
      "inputs": [[462, 0, 0]]
    }, 
    {
      "op": "_rminus_scalar", 
      "name": "_rminusscalar16", 
      "attr": {"scalar": "1.0"}, 
      "inputs": [[463, 0, 0]]
    }, 
    {
      "op": "elemwise_add", 
      "name": "_plus48", 
      "inputs": [[216, 0, 0], [461, 0, 0]]
    }, 
    {
      "op": "Activation", 
      "name": "gru_t16__r_act", 
      "attr": {"act_type": "sigmoid"}, 
      "inputs": [[465, 0, 0]]
    }, 
    {
      "op": "_mul", 
      "name": "_mul48", 
      "inputs": [[466, 0, 0], [461, 2, 0]]
    }, 
    {
      "op": "elemwise_add", 
      "name": "_plus50", 
      "inputs": [[216, 2, 0], [467, 0, 0]]
    }, 
    {
      "op": "Activation", 
      "name": "gru_t16__h_act", 
      "attr": {"act_type": "tanh"}, 
      "inputs": [[468, 0, 0]]
    }, 
    {
      "op": "_mul", 
      "name": "_mul49", 
      "inputs": [[464, 0, 0], [469, 0, 0]]
    }, 
    {
      "op": "_mul", 
      "name": "_mul50", 
      "inputs": [[463, 0, 0], [459, 0, 0]]
    }, 
    {
      "op": "elemwise_add", 
      "name": "gru_t16_out", 
      "inputs": [[470, 0, 0], [471, 0, 0]]
    }, 
    {
      "op": "FullyConnected", 
      "name": "gru_t17__h2h", 
      "attr": {"num_hidden": "15"}, 
      "inputs": [[472, 0, 0], [250, 0, 0], [251, 0, 0]]
    }, 
    {
      "op": "SliceChannel", 
      "name": "gru_t17__h2h_slice", 
      "attr": {"num_outputs": "3"}, 
      "inputs": [[473, 0, 0]]
    }, 
    {
      "op": "elemwise_add", 
      "name": "_plus52", 
      "inputs": [[214, 1, 0], [474, 1, 0]]
    }, 
    {
      "op": "Activation", 
      "name": "gru_t17__z_act", 
      "attr": {"act_type": "sigmoid"}, 
      "inputs": [[475, 0, 0]]
    }, 
    {
      "op": "_rminus_scalar", 
      "name": "_rminusscalar17", 
      "attr": {"scalar": "1.0"}, 
      "inputs": [[476, 0, 0]]
    }, 
    {
      "op": "elemwise_add", 
      "name": "_plus51", 
      "inputs": [[214, 0, 0], [474, 0, 0]]
    }, 
    {
      "op": "Activation", 
      "name": "gru_t17__r_act", 
      "attr": {"act_type": "sigmoid"}, 
      "inputs": [[478, 0, 0]]
    }, 
    {
      "op": "_mul", 
      "name": "_mul51", 
      "inputs": [[479, 0, 0], [474, 2, 0]]
    }, 
    {
      "op": "elemwise_add", 
      "name": "_plus53", 
      "inputs": [[214, 2, 0], [480, 0, 0]]
    }, 
    {
      "op": "Activation", 
      "name": "gru_t17__h_act", 
      "attr": {"act_type": "tanh"}, 
      "inputs": [[481, 0, 0]]
    }, 
    {
      "op": "_mul", 
      "name": "_mul52", 
      "inputs": [[477, 0, 0], [482, 0, 0]]
    }, 
    {
      "op": "_mul", 
      "name": "_mul53", 
      "inputs": [[476, 0, 0], [472, 0, 0]]
    }, 
    {
      "op": "elemwise_add", 
      "name": "gru_t17_out", 
      "inputs": [[483, 0, 0], [484, 0, 0]]
    }, 
    {
      "op": "FullyConnected", 
      "name": "gru_t18__h2h", 
      "attr": {"num_hidden": "15"}, 
      "inputs": [[485, 0, 0], [250, 0, 0], [251, 0, 0]]
    }, 
    {
      "op": "SliceChannel", 
      "name": "gru_t18__h2h_slice", 
      "attr": {"num_outputs": "3"}, 
      "inputs": [[486, 0, 0]]
    }, 
    {
      "op": "elemwise_add", 
      "name": "_plus55", 
      "inputs": [[212, 1, 0], [487, 1, 0]]
    }, 
    {
      "op": "Activation", 
      "name": "gru_t18__z_act", 
      "attr": {"act_type": "sigmoid"}, 
      "inputs": [[488, 0, 0]]
    }, 
    {
      "op": "_rminus_scalar", 
      "name": "_rminusscalar18", 
      "attr": {"scalar": "1.0"}, 
      "inputs": [[489, 0, 0]]
    }, 
    {
      "op": "elemwise_add", 
      "name": "_plus54", 
      "inputs": [[212, 0, 0], [487, 0, 0]]
    }, 
    {
      "op": "Activation", 
      "name": "gru_t18__r_act", 
      "attr": {"act_type": "sigmoid"}, 
      "inputs": [[491, 0, 0]]
    }, 
    {
      "op": "_mul", 
      "name": "_mul54", 
      "inputs": [[492, 0, 0], [487, 2, 0]]
    }, 
    {
      "op": "elemwise_add", 
      "name": "_plus56", 
      "inputs": [[212, 2, 0], [493, 0, 0]]
    }, 
    {
      "op": "Activation", 
      "name": "gru_t18__h_act", 
      "attr": {"act_type": "tanh"}, 
      "inputs": [[494, 0, 0]]
    }, 
    {
      "op": "_mul", 
      "name": "_mul55", 
      "inputs": [[490, 0, 0], [495, 0, 0]]
    }, 
    {
      "op": "_mul", 
      "name": "_mul56", 
      "inputs": [[489, 0, 0], [485, 0, 0]]
    }, 
    {
      "op": "elemwise_add", 
      "name": "gru_t18_out", 
      "inputs": [[496, 0, 0], [497, 0, 0]]
    }, 
    {
      "op": "FullyConnected", 
      "name": "gru_t19__h2h", 
      "attr": {"num_hidden": "15"}, 
      "inputs": [[498, 0, 0], [250, 0, 0], [251, 0, 0]]
    }, 
    {
      "op": "SliceChannel", 
      "name": "gru_t19__h2h_slice", 
      "attr": {"num_outputs": "3"}, 
      "inputs": [[499, 0, 0]]
    }, 
    {
      "op": "elemwise_add", 
      "name": "_plus58", 
      "inputs": [[210, 1, 0], [500, 1, 0]]
    }, 
    {
      "op": "Activation", 
      "name": "gru_t19__z_act", 
      "attr": {"act_type": "sigmoid"}, 
      "inputs": [[501, 0, 0]]
    }, 
    {
      "op": "_rminus_scalar", 
      "name": "_rminusscalar19", 
      "attr": {"scalar": "1.0"}, 
      "inputs": [[502, 0, 0]]
    }, 
    {
      "op": "elemwise_add", 
      "name": "_plus57", 
      "inputs": [[210, 0, 0], [500, 0, 0]]
    }, 
    {
      "op": "Activation", 
      "name": "gru_t19__r_act", 
      "attr": {"act_type": "sigmoid"}, 
      "inputs": [[504, 0, 0]]
    }, 
    {
      "op": "_mul", 
      "name": "_mul57", 
      "inputs": [[505, 0, 0], [500, 2, 0]]
    }, 
    {
      "op": "elemwise_add", 
      "name": "_plus59", 
      "inputs": [[210, 2, 0], [506, 0, 0]]
    }, 
    {
      "op": "Activation", 
      "name": "gru_t19__h_act", 
      "attr": {"act_type": "tanh"}, 
      "inputs": [[507, 0, 0]]
    }, 
    {
      "op": "_mul", 
      "name": "_mul58", 
      "inputs": [[503, 0, 0], [508, 0, 0]]
    }, 
    {
      "op": "_mul", 
      "name": "_mul59", 
      "inputs": [[502, 0, 0], [498, 0, 0]]
    }, 
    {
      "op": "elemwise_add", 
      "name": "gru_t19_out", 
      "inputs": [[509, 0, 0], [510, 0, 0]]
    }, 
    {
      "op": "FullyConnected", 
      "name": "gru_t20__h2h", 
      "attr": {"num_hidden": "15"}, 
      "inputs": [[511, 0, 0], [250, 0, 0], [251, 0, 0]]
    }, 
    {
      "op": "SliceChannel", 
      "name": "gru_t20__h2h_slice", 
      "attr": {"num_outputs": "3"}, 
      "inputs": [[512, 0, 0]]
    }, 
    {
      "op": "elemwise_add", 
      "name": "_plus61", 
      "inputs": [[208, 1, 0], [513, 1, 0]]
    }, 
    {
      "op": "Activation", 
      "name": "gru_t20__z_act", 
      "attr": {"act_type": "sigmoid"}, 
      "inputs": [[514, 0, 0]]
    }, 
    {
      "op": "_rminus_scalar", 
      "name": "_rminusscalar20", 
      "attr": {"scalar": "1.0"}, 
      "inputs": [[515, 0, 0]]
    }, 
    {
      "op": "elemwise_add", 
      "name": "_plus60", 
      "inputs": [[208, 0, 0], [513, 0, 0]]
    }, 
    {
      "op": "Activation", 
      "name": "gru_t20__r_act", 
      "attr": {"act_type": "sigmoid"}, 
      "inputs": [[517, 0, 0]]
    }, 
    {
      "op": "_mul", 
      "name": "_mul60", 
      "inputs": [[518, 0, 0], [513, 2, 0]]
    }, 
    {
      "op": "elemwise_add", 
      "name": "_plus62", 
      "inputs": [[208, 2, 0], [519, 0, 0]]
    }, 
    {
      "op": "Activation", 
      "name": "gru_t20__h_act", 
      "attr": {"act_type": "tanh"}, 
      "inputs": [[520, 0, 0]]
    }, 
    {
      "op": "_mul", 
      "name": "_mul61", 
      "inputs": [[516, 0, 0], [521, 0, 0]]
    }, 
    {
      "op": "_mul", 
      "name": "_mul62", 
      "inputs": [[515, 0, 0], [511, 0, 0]]
    }, 
    {
      "op": "elemwise_add", 
      "name": "gru_t20_out", 
      "inputs": [[522, 0, 0], [523, 0, 0]]
    }, 
    {
      "op": "FullyConnected", 
      "name": "gru_t21__h2h", 
      "attr": {"num_hidden": "15"}, 
      "inputs": [[524, 0, 0], [250, 0, 0], [251, 0, 0]]
    }, 
    {
      "op": "SliceChannel", 
      "name": "gru_t21__h2h_slice", 
      "attr": {"num_outputs": "3"}, 
      "inputs": [[525, 0, 0]]
    }, 
    {
      "op": "elemwise_add", 
      "name": "_plus64", 
      "inputs": [[206, 1, 0], [526, 1, 0]]
    }, 
    {
      "op": "Activation", 
      "name": "gru_t21__z_act", 
      "attr": {"act_type": "sigmoid"}, 
      "inputs": [[527, 0, 0]]
    }, 
    {
      "op": "_rminus_scalar", 
      "name": "_rminusscalar21", 
      "attr": {"scalar": "1.0"}, 
      "inputs": [[528, 0, 0]]
    }, 
    {
      "op": "elemwise_add", 
      "name": "_plus63", 
      "inputs": [[206, 0, 0], [526, 0, 0]]
    }, 
    {
      "op": "Activation", 
      "name": "gru_t21__r_act", 
      "attr": {"act_type": "sigmoid"}, 
      "inputs": [[530, 0, 0]]
    }, 
    {
      "op": "_mul", 
      "name": "_mul63", 
      "inputs": [[531, 0, 0], [526, 2, 0]]
    }, 
    {
      "op": "elemwise_add", 
      "name": "_plus65", 
      "inputs": [[206, 2, 0], [532, 0, 0]]
    }, 
    {
      "op": "Activation", 
      "name": "gru_t21__h_act", 
      "attr": {"act_type": "tanh"}, 
      "inputs": [[533, 0, 0]]
    }, 
    {
      "op": "_mul", 
      "name": "_mul64", 
      "inputs": [[529, 0, 0], [534, 0, 0]]
    }, 
    {
      "op": "_mul", 
      "name": "_mul65", 
      "inputs": [[528, 0, 0], [524, 0, 0]]
    }, 
    {
      "op": "elemwise_add", 
      "name": "gru_t21_out", 
      "inputs": [[535, 0, 0], [536, 0, 0]]
    }, 
    {
      "op": "FullyConnected", 
      "name": "gru_t22__h2h", 
      "attr": {"num_hidden": "15"}, 
      "inputs": [[537, 0, 0], [250, 0, 0], [251, 0, 0]]
    }, 
    {
      "op": "SliceChannel", 
      "name": "gru_t22__h2h_slice", 
      "attr": {"num_outputs": "3"}, 
      "inputs": [[538, 0, 0]]
    }, 
    {
      "op": "elemwise_add", 
      "name": "_plus67", 
      "inputs": [[204, 1, 0], [539, 1, 0]]
    }, 
    {
      "op": "Activation", 
      "name": "gru_t22__z_act", 
      "attr": {"act_type": "sigmoid"}, 
      "inputs": [[540, 0, 0]]
    }, 
    {
      "op": "_rminus_scalar", 
      "name": "_rminusscalar22", 
      "attr": {"scalar": "1.0"}, 
      "inputs": [[541, 0, 0]]
    }, 
    {
      "op": "elemwise_add", 
      "name": "_plus66", 
      "inputs": [[204, 0, 0], [539, 0, 0]]
    }, 
    {
      "op": "Activation", 
      "name": "gru_t22__r_act", 
      "attr": {"act_type": "sigmoid"}, 
      "inputs": [[543, 0, 0]]
    }, 
    {
      "op": "_mul", 
      "name": "_mul66", 
      "inputs": [[544, 0, 0], [539, 2, 0]]
    }, 
    {
      "op": "elemwise_add", 
      "name": "_plus68", 
      "inputs": [[204, 2, 0], [545, 0, 0]]
    }, 
    {
      "op": "Activation", 
      "name": "gru_t22__h_act", 
      "attr": {"act_type": "tanh"}, 
      "inputs": [[546, 0, 0]]
    }, 
    {
      "op": "_mul", 
      "name": "_mul67", 
      "inputs": [[542, 0, 0], [547, 0, 0]]
    }, 
    {
      "op": "_mul", 
      "name": "_mul68", 
      "inputs": [[541, 0, 0], [537, 0, 0]]
    }, 
    {
      "op": "elemwise_add", 
      "name": "gru_t22_out", 
      "inputs": [[548, 0, 0], [549, 0, 0]]
    }, 
    {
      "op": "FullyConnected", 
      "name": "gru_t23__h2h", 
      "attr": {"num_hidden": "15"}, 
      "inputs": [[550, 0, 0], [250, 0, 0], [251, 0, 0]]
    }, 
    {
      "op": "SliceChannel", 
      "name": "gru_t23__h2h_slice", 
      "attr": {"num_outputs": "3"}, 
      "inputs": [[551, 0, 0]]
    }, 
    {
      "op": "elemwise_add", 
      "name": "_plus70", 
      "inputs": [[202, 1, 0], [552, 1, 0]]
    }, 
    {
      "op": "Activation", 
      "name": "gru_t23__z_act", 
      "attr": {"act_type": "sigmoid"}, 
      "inputs": [[553, 0, 0]]
    }, 
    {
      "op": "_rminus_scalar", 
      "name": "_rminusscalar23", 
      "attr": {"scalar": "1.0"}, 
      "inputs": [[554, 0, 0]]
    }, 
    {
      "op": "elemwise_add", 
      "name": "_plus69", 
      "inputs": [[202, 0, 0], [552, 0, 0]]
    }, 
    {
      "op": "Activation", 
      "name": "gru_t23__r_act", 
      "attr": {"act_type": "sigmoid"}, 
      "inputs": [[556, 0, 0]]
    }, 
    {
      "op": "_mul", 
      "name": "_mul69", 
      "inputs": [[557, 0, 0], [552, 2, 0]]
    }, 
    {
      "op": "elemwise_add", 
      "name": "_plus71", 
      "inputs": [[202, 2, 0], [558, 0, 0]]
    }, 
    {
      "op": "Activation", 
      "name": "gru_t23__h_act", 
      "attr": {"act_type": "tanh"}, 
      "inputs": [[559, 0, 0]]
    }, 
    {
      "op": "_mul", 
      "name": "_mul70", 
      "inputs": [[555, 0, 0], [560, 0, 0]]
    }, 
    {
      "op": "_mul", 
      "name": "_mul71", 
      "inputs": [[554, 0, 0], [550, 0, 0]]
    }, 
    {
      "op": "elemwise_add", 
      "name": "gru_t23_out", 
      "inputs": [[561, 0, 0], [562, 0, 0]]
    }, 
    {
      "op": "FullyConnected", 
      "name": "gru_t24__h2h", 
      "attr": {"num_hidden": "15"}, 
      "inputs": [[563, 0, 0], [250, 0, 0], [251, 0, 0]]
    }, 
    {
      "op": "SliceChannel", 
      "name": "gru_t24__h2h_slice", 
      "attr": {"num_outputs": "3"}, 
      "inputs": [[564, 0, 0]]
    }, 
    {
      "op": "elemwise_add", 
      "name": "_plus73", 
      "inputs": [[200, 1, 0], [565, 1, 0]]
    }, 
    {
      "op": "Activation", 
      "name": "gru_t24__z_act", 
      "attr": {"act_type": "sigmoid"}, 
      "inputs": [[566, 0, 0]]
    }, 
    {
      "op": "_rminus_scalar", 
      "name": "_rminusscalar24", 
      "attr": {"scalar": "1.0"}, 
      "inputs": [[567, 0, 0]]
    }, 
    {
      "op": "elemwise_add", 
      "name": "_plus72", 
      "inputs": [[200, 0, 0], [565, 0, 0]]
    }, 
    {
      "op": "Activation", 
      "name": "gru_t24__r_act", 
      "attr": {"act_type": "sigmoid"}, 
      "inputs": [[569, 0, 0]]
    }, 
    {
      "op": "_mul", 
      "name": "_mul72", 
      "inputs": [[570, 0, 0], [565, 2, 0]]
    }, 
    {
      "op": "elemwise_add", 
      "name": "_plus74", 
      "inputs": [[200, 2, 0], [571, 0, 0]]
    }, 
    {
      "op": "Activation", 
      "name": "gru_t24__h_act", 
      "attr": {"act_type": "tanh"}, 
      "inputs": [[572, 0, 0]]
    }, 
    {
      "op": "_mul", 
      "name": "_mul73", 
      "inputs": [[568, 0, 0], [573, 0, 0]]
    }, 
    {
      "op": "_mul", 
      "name": "_mul74", 
      "inputs": [[567, 0, 0], [563, 0, 0]]
    }, 
    {
      "op": "elemwise_add", 
      "name": "gru_t24_out", 
      "inputs": [[574, 0, 0], [575, 0, 0]]
    }, 
    {
      "op": "FullyConnected", 
      "name": "gru_t25__h2h", 
      "attr": {"num_hidden": "15"}, 
      "inputs": [[576, 0, 0], [250, 0, 0], [251, 0, 0]]
    }, 
    {
      "op": "SliceChannel", 
      "name": "gru_t25__h2h_slice", 
      "attr": {"num_outputs": "3"}, 
      "inputs": [[577, 0, 0]]
    }, 
    {
      "op": "elemwise_add", 
      "name": "_plus76", 
      "inputs": [[198, 1, 0], [578, 1, 0]]
    }, 
    {
      "op": "Activation", 
      "name": "gru_t25__z_act", 
      "attr": {"act_type": "sigmoid"}, 
      "inputs": [[579, 0, 0]]
    }, 
    {
      "op": "_rminus_scalar", 
      "name": "_rminusscalar25", 
      "attr": {"scalar": "1.0"}, 
      "inputs": [[580, 0, 0]]
    }, 
    {
      "op": "elemwise_add", 
      "name": "_plus75", 
      "inputs": [[198, 0, 0], [578, 0, 0]]
    }, 
    {
      "op": "Activation", 
      "name": "gru_t25__r_act", 
      "attr": {"act_type": "sigmoid"}, 
      "inputs": [[582, 0, 0]]
    }, 
    {
      "op": "_mul", 
      "name": "_mul75", 
      "inputs": [[583, 0, 0], [578, 2, 0]]
    }, 
    {
      "op": "elemwise_add", 
      "name": "_plus77", 
      "inputs": [[198, 2, 0], [584, 0, 0]]
    }, 
    {
      "op": "Activation", 
      "name": "gru_t25__h_act", 
      "attr": {"act_type": "tanh"}, 
      "inputs": [[585, 0, 0]]
    }, 
    {
      "op": "_mul", 
      "name": "_mul76", 
      "inputs": [[581, 0, 0], [586, 0, 0]]
    }, 
    {
      "op": "_mul", 
      "name": "_mul77", 
      "inputs": [[580, 0, 0], [576, 0, 0]]
    }, 
    {
      "op": "elemwise_add", 
      "name": "gru_t25_out", 
      "inputs": [[587, 0, 0], [588, 0, 0]]
    }, 
    {
      "op": "FullyConnected", 
      "name": "gru_t26__h2h", 
      "attr": {"num_hidden": "15"}, 
      "inputs": [[589, 0, 0], [250, 0, 0], [251, 0, 0]]
    }, 
    {
      "op": "SliceChannel", 
      "name": "gru_t26__h2h_slice", 
      "attr": {"num_outputs": "3"}, 
      "inputs": [[590, 0, 0]]
    }, 
    {
      "op": "elemwise_add", 
      "name": "_plus79", 
      "inputs": [[196, 1, 0], [591, 1, 0]]
    }, 
    {
      "op": "Activation", 
      "name": "gru_t26__z_act", 
      "attr": {"act_type": "sigmoid"}, 
      "inputs": [[592, 0, 0]]
    }, 
    {
      "op": "_rminus_scalar", 
      "name": "_rminusscalar26", 
      "attr": {"scalar": "1.0"}, 
      "inputs": [[593, 0, 0]]
    }, 
    {
      "op": "elemwise_add", 
      "name": "_plus78", 
      "inputs": [[196, 0, 0], [591, 0, 0]]
    }, 
    {
      "op": "Activation", 
      "name": "gru_t26__r_act", 
      "attr": {"act_type": "sigmoid"}, 
      "inputs": [[595, 0, 0]]
    }, 
    {
      "op": "_mul", 
      "name": "_mul78", 
      "inputs": [[596, 0, 0], [591, 2, 0]]
    }, 
    {
      "op": "elemwise_add", 
      "name": "_plus80", 
      "inputs": [[196, 2, 0], [597, 0, 0]]
    }, 
    {
      "op": "Activation", 
      "name": "gru_t26__h_act", 
      "attr": {"act_type": "tanh"}, 
      "inputs": [[598, 0, 0]]
    }, 
    {
      "op": "_mul", 
      "name": "_mul79", 
      "inputs": [[594, 0, 0], [599, 0, 0]]
    }, 
    {
      "op": "_mul", 
      "name": "_mul80", 
      "inputs": [[593, 0, 0], [589, 0, 0]]
    }, 
    {
      "op": "elemwise_add", 
      "name": "gru_t26_out", 
      "inputs": [[600, 0, 0], [601, 0, 0]]
    }, 
    {
      "op": "FullyConnected", 
      "name": "gru_t27__h2h", 
      "attr": {"num_hidden": "15"}, 
      "inputs": [[602, 0, 0], [250, 0, 0], [251, 0, 0]]
    }, 
    {
      "op": "SliceChannel", 
      "name": "gru_t27__h2h_slice", 
      "attr": {"num_outputs": "3"}, 
      "inputs": [[603, 0, 0]]
    }, 
    {
      "op": "elemwise_add", 
      "name": "_plus82", 
      "inputs": [[194, 1, 0], [604, 1, 0]]
    }, 
    {
      "op": "Activation", 
      "name": "gru_t27__z_act", 
      "attr": {"act_type": "sigmoid"}, 
      "inputs": [[605, 0, 0]]
    }, 
    {
      "op": "_rminus_scalar", 
      "name": "_rminusscalar27", 
      "attr": {"scalar": "1.0"}, 
      "inputs": [[606, 0, 0]]
    }, 
    {
      "op": "elemwise_add", 
      "name": "_plus81", 
      "inputs": [[194, 0, 0], [604, 0, 0]]
    }, 
    {
      "op": "Activation", 
      "name": "gru_t27__r_act", 
      "attr": {"act_type": "sigmoid"}, 
      "inputs": [[608, 0, 0]]
    }, 
    {
      "op": "_mul", 
      "name": "_mul81", 
      "inputs": [[609, 0, 0], [604, 2, 0]]
    }, 
    {
      "op": "elemwise_add", 
      "name": "_plus83", 
      "inputs": [[194, 2, 0], [610, 0, 0]]
    }, 
    {
      "op": "Activation", 
      "name": "gru_t27__h_act", 
      "attr": {"act_type": "tanh"}, 
      "inputs": [[611, 0, 0]]
    }, 
    {
      "op": "_mul", 
      "name": "_mul82", 
      "inputs": [[607, 0, 0], [612, 0, 0]]
    }, 
    {
      "op": "_mul", 
      "name": "_mul83", 
      "inputs": [[606, 0, 0], [602, 0, 0]]
    }, 
    {
      "op": "elemwise_add", 
      "name": "gru_t27_out", 
      "inputs": [[613, 0, 0], [614, 0, 0]]
    }, 
    {
      "op": "FullyConnected", 
      "name": "gru_t28__h2h", 
      "attr": {"num_hidden": "15"}, 
      "inputs": [[615, 0, 0], [250, 0, 0], [251, 0, 0]]
    }, 
    {
      "op": "SliceChannel", 
      "name": "gru_t28__h2h_slice", 
      "attr": {"num_outputs": "3"}, 
      "inputs": [[616, 0, 0]]
    }, 
    {
      "op": "elemwise_add", 
      "name": "_plus85", 
      "inputs": [[192, 1, 0], [617, 1, 0]]
    }, 
    {
      "op": "Activation", 
      "name": "gru_t28__z_act", 
      "attr": {"act_type": "sigmoid"}, 
      "inputs": [[618, 0, 0]]
    }, 
    {
      "op": "_rminus_scalar", 
      "name": "_rminusscalar28", 
      "attr": {"scalar": "1.0"}, 
      "inputs": [[619, 0, 0]]
    }, 
    {
      "op": "elemwise_add", 
      "name": "_plus84", 
      "inputs": [[192, 0, 0], [617, 0, 0]]
    }, 
    {
      "op": "Activation", 
      "name": "gru_t28__r_act", 
      "attr": {"act_type": "sigmoid"}, 
      "inputs": [[621, 0, 0]]
    }, 
    {
      "op": "_mul", 
      "name": "_mul84", 
      "inputs": [[622, 0, 0], [617, 2, 0]]
    }, 
    {
      "op": "elemwise_add", 
      "name": "_plus86", 
      "inputs": [[192, 2, 0], [623, 0, 0]]
    }, 
    {
      "op": "Activation", 
      "name": "gru_t28__h_act", 
      "attr": {"act_type": "tanh"}, 
      "inputs": [[624, 0, 0]]
    }, 
    {
      "op": "_mul", 
      "name": "_mul85", 
      "inputs": [[620, 0, 0], [625, 0, 0]]
    }, 
    {
      "op": "_mul", 
      "name": "_mul86", 
      "inputs": [[619, 0, 0], [615, 0, 0]]
    }, 
    {
      "op": "elemwise_add", 
      "name": "gru_t28_out", 
      "inputs": [[626, 0, 0], [627, 0, 0]]
    }, 
    {
      "op": "FullyConnected", 
      "name": "gru_t29__h2h", 
      "attr": {"num_hidden": "15"}, 
      "inputs": [[628, 0, 0], [250, 0, 0], [251, 0, 0]]
    }, 
    {
      "op": "SliceChannel", 
      "name": "gru_t29__h2h_slice", 
      "attr": {"num_outputs": "3"}, 
      "inputs": [[629, 0, 0]]
    }, 
    {
      "op": "elemwise_add", 
      "name": "_plus88", 
      "inputs": [[190, 1, 0], [630, 1, 0]]
    }, 
    {
      "op": "Activation", 
      "name": "gru_t29__z_act", 
      "attr": {"act_type": "sigmoid"}, 
      "inputs": [[631, 0, 0]]
    }, 
    {
      "op": "_rminus_scalar", 
      "name": "_rminusscalar29", 
      "attr": {"scalar": "1.0"}, 
      "inputs": [[632, 0, 0]]
    }, 
    {
      "op": "elemwise_add", 
      "name": "_plus87", 
      "inputs": [[190, 0, 0], [630, 0, 0]]
    }, 
    {
      "op": "Activation", 
      "name": "gru_t29__r_act", 
      "attr": {"act_type": "sigmoid"}, 
      "inputs": [[634, 0, 0]]
    }, 
    {
      "op": "_mul", 
      "name": "_mul87", 
      "inputs": [[635, 0, 0], [630, 2, 0]]
    }, 
    {
      "op": "elemwise_add", 
      "name": "_plus89", 
      "inputs": [[190, 2, 0], [636, 0, 0]]
    }, 
    {
      "op": "Activation", 
      "name": "gru_t29__h_act", 
      "attr": {"act_type": "tanh"}, 
      "inputs": [[637, 0, 0]]
    }, 
    {
      "op": "_mul", 
      "name": "_mul88", 
      "inputs": [[633, 0, 0], [638, 0, 0]]
    }, 
    {
      "op": "_mul", 
      "name": "_mul89", 
      "inputs": [[632, 0, 0], [628, 0, 0]]
    }, 
    {
      "op": "elemwise_add", 
      "name": "gru_t29_out", 
      "inputs": [[639, 0, 0], [640, 0, 0]]
    }, 
    {
      "op": "FullyConnected", 
      "name": "gru_t30__h2h", 
      "attr": {"num_hidden": "15"}, 
      "inputs": [[641, 0, 0], [250, 0, 0], [251, 0, 0]]
    }, 
    {
      "op": "SliceChannel", 
      "name": "gru_t30__h2h_slice", 
      "attr": {"num_outputs": "3"}, 
      "inputs": [[642, 0, 0]]
    }, 
    {
      "op": "elemwise_add", 
      "name": "_plus91", 
      "inputs": [[188, 1, 0], [643, 1, 0]]
    }, 
    {
      "op": "Activation", 
      "name": "gru_t30__z_act", 
      "attr": {"act_type": "sigmoid"}, 
      "inputs": [[644, 0, 0]]
    }, 
    {
      "op": "_rminus_scalar", 
      "name": "_rminusscalar30", 
      "attr": {"scalar": "1.0"}, 
      "inputs": [[645, 0, 0]]
    }, 
    {
      "op": "elemwise_add", 
      "name": "_plus90", 
      "inputs": [[188, 0, 0], [643, 0, 0]]
    }, 
    {
      "op": "Activation", 
      "name": "gru_t30__r_act", 
      "attr": {"act_type": "sigmoid"}, 
      "inputs": [[647, 0, 0]]
    }, 
    {
      "op": "_mul", 
      "name": "_mul90", 
      "inputs": [[648, 0, 0], [643, 2, 0]]
    }, 
    {
      "op": "elemwise_add", 
      "name": "_plus92", 
      "inputs": [[188, 2, 0], [649, 0, 0]]
    }, 
    {
      "op": "Activation", 
      "name": "gru_t30__h_act", 
      "attr": {"act_type": "tanh"}, 
      "inputs": [[650, 0, 0]]
    }, 
    {
      "op": "_mul", 
      "name": "_mul91", 
      "inputs": [[646, 0, 0], [651, 0, 0]]
    }, 
    {
      "op": "_mul", 
      "name": "_mul92", 
      "inputs": [[645, 0, 0], [641, 0, 0]]
    }, 
    {
      "op": "elemwise_add", 
      "name": "gru_t30_out", 
      "inputs": [[652, 0, 0], [653, 0, 0]]
    }, 
    {
      "op": "FullyConnected", 
      "name": "gru_t31__h2h", 
      "attr": {"num_hidden": "15"}, 
      "inputs": [[654, 0, 0], [250, 0, 0], [251, 0, 0]]
    }, 
    {
      "op": "SliceChannel", 
      "name": "gru_t31__h2h_slice", 
      "attr": {"num_outputs": "3"}, 
      "inputs": [[655, 0, 0]]
    }, 
    {
      "op": "elemwise_add", 
      "name": "_plus94", 
      "inputs": [[186, 1, 0], [656, 1, 0]]
    }, 
    {
      "op": "Activation", 
      "name": "gru_t31__z_act", 
      "attr": {"act_type": "sigmoid"}, 
      "inputs": [[657, 0, 0]]
    }, 
    {
      "op": "_rminus_scalar", 
      "name": "_rminusscalar31", 
      "attr": {"scalar": "1.0"}, 
      "inputs": [[658, 0, 0]]
    }, 
    {
      "op": "elemwise_add", 
      "name": "_plus93", 
      "inputs": [[186, 0, 0], [656, 0, 0]]
    }, 
    {
      "op": "Activation", 
      "name": "gru_t31__r_act", 
      "attr": {"act_type": "sigmoid"}, 
      "inputs": [[660, 0, 0]]
    }, 
    {
      "op": "_mul", 
      "name": "_mul93", 
      "inputs": [[661, 0, 0], [656, 2, 0]]
    }, 
    {
      "op": "elemwise_add", 
      "name": "_plus95", 
      "inputs": [[186, 2, 0], [662, 0, 0]]
    }, 
    {
      "op": "Activation", 
      "name": "gru_t31__h_act", 
      "attr": {"act_type": "tanh"}, 
      "inputs": [[663, 0, 0]]
    }, 
    {
      "op": "_mul", 
      "name": "_mul94", 
      "inputs": [[659, 0, 0], [664, 0, 0]]
    }, 
    {
      "op": "_mul", 
      "name": "_mul95", 
      "inputs": [[658, 0, 0], [654, 0, 0]]
    }, 
    {
      "op": "elemwise_add", 
      "name": "gru_t31_out", 
      "inputs": [[665, 0, 0], [666, 0, 0]]
    }, 
    {
      "op": "FullyConnected", 
      "name": "gru_t32__h2h", 
      "attr": {"num_hidden": "15"}, 
      "inputs": [[667, 0, 0], [250, 0, 0], [251, 0, 0]]
    }, 
    {
      "op": "SliceChannel", 
      "name": "gru_t32__h2h_slice", 
      "attr": {"num_outputs": "3"}, 
      "inputs": [[668, 0, 0]]
    }, 
    {
      "op": "elemwise_add", 
      "name": "_plus97", 
      "inputs": [[184, 1, 0], [669, 1, 0]]
    }, 
    {
      "op": "Activation", 
      "name": "gru_t32__z_act", 
      "attr": {"act_type": "sigmoid"}, 
      "inputs": [[670, 0, 0]]
    }, 
    {
      "op": "_rminus_scalar", 
      "name": "_rminusscalar32", 
      "attr": {"scalar": "1.0"}, 
      "inputs": [[671, 0, 0]]
    }, 
    {
      "op": "elemwise_add", 
      "name": "_plus96", 
      "inputs": [[184, 0, 0], [669, 0, 0]]
    }, 
    {
      "op": "Activation", 
      "name": "gru_t32__r_act", 
      "attr": {"act_type": "sigmoid"}, 
      "inputs": [[673, 0, 0]]
    }, 
    {
      "op": "_mul", 
      "name": "_mul96", 
      "inputs": [[674, 0, 0], [669, 2, 0]]
    }, 
    {
      "op": "elemwise_add", 
      "name": "_plus98", 
      "inputs": [[184, 2, 0], [675, 0, 0]]
    }, 
    {
      "op": "Activation", 
      "name": "gru_t32__h_act", 
      "attr": {"act_type": "tanh"}, 
      "inputs": [[676, 0, 0]]
    }, 
    {
      "op": "_mul", 
      "name": "_mul97", 
      "inputs": [[672, 0, 0], [677, 0, 0]]
    }, 
    {
      "op": "_mul", 
      "name": "_mul98", 
      "inputs": [[671, 0, 0], [667, 0, 0]]
    }, 
    {
      "op": "elemwise_add", 
      "name": "gru_t32_out", 
      "inputs": [[678, 0, 0], [679, 0, 0]]
    }, 
    {
      "op": "FullyConnected", 
      "name": "gru_t33__h2h", 
      "attr": {"num_hidden": "15"}, 
      "inputs": [[680, 0, 0], [250, 0, 0], [251, 0, 0]]
    }, 
    {
      "op": "SliceChannel", 
      "name": "gru_t33__h2h_slice", 
      "attr": {"num_outputs": "3"}, 
      "inputs": [[681, 0, 0]]
    }, 
    {
      "op": "elemwise_add", 
      "name": "_plus100", 
      "inputs": [[182, 1, 0], [682, 1, 0]]
    }, 
    {
      "op": "Activation", 
      "name": "gru_t33__z_act", 
      "attr": {"act_type": "sigmoid"}, 
      "inputs": [[683, 0, 0]]
    }, 
    {
      "op": "_rminus_scalar", 
      "name": "_rminusscalar33", 
      "attr": {"scalar": "1.0"}, 
      "inputs": [[684, 0, 0]]
    }, 
    {
      "op": "elemwise_add", 
      "name": "_plus99", 
      "inputs": [[182, 0, 0], [682, 0, 0]]
    }, 
    {
      "op": "Activation", 
      "name": "gru_t33__r_act", 
      "attr": {"act_type": "sigmoid"}, 
      "inputs": [[686, 0, 0]]
    }, 
    {
      "op": "_mul", 
      "name": "_mul99", 
      "inputs": [[687, 0, 0], [682, 2, 0]]
    }, 
    {
      "op": "elemwise_add", 
      "name": "_plus101", 
      "inputs": [[182, 2, 0], [688, 0, 0]]
    }, 
    {
      "op": "Activation", 
      "name": "gru_t33__h_act", 
      "attr": {"act_type": "tanh"}, 
      "inputs": [[689, 0, 0]]
    }, 
    {
      "op": "_mul", 
      "name": "_mul100", 
      "inputs": [[685, 0, 0], [690, 0, 0]]
    }, 
    {
      "op": "_mul", 
      "name": "_mul101", 
      "inputs": [[684, 0, 0], [680, 0, 0]]
    }, 
    {
      "op": "elemwise_add", 
      "name": "gru_t33_out", 
      "inputs": [[691, 0, 0], [692, 0, 0]]
    }, 
    {
      "op": "FullyConnected", 
      "name": "gru_t34__h2h", 
      "attr": {"num_hidden": "15"}, 
      "inputs": [[693, 0, 0], [250, 0, 0], [251, 0, 0]]
    }, 
    {
      "op": "SliceChannel", 
      "name": "gru_t34__h2h_slice", 
      "attr": {"num_outputs": "3"}, 
      "inputs": [[694, 0, 0]]
    }, 
    {
      "op": "elemwise_add", 
      "name": "_plus103", 
      "inputs": [[180, 1, 0], [695, 1, 0]]
    }, 
    {
      "op": "Activation", 
      "name": "gru_t34__z_act", 
      "attr": {"act_type": "sigmoid"}, 
      "inputs": [[696, 0, 0]]
    }, 
    {
      "op": "_rminus_scalar", 
      "name": "_rminusscalar34", 
      "attr": {"scalar": "1.0"}, 
      "inputs": [[697, 0, 0]]
    }, 
    {
      "op": "elemwise_add", 
      "name": "_plus102", 
      "inputs": [[180, 0, 0], [695, 0, 0]]
    }, 
    {
      "op": "Activation", 
      "name": "gru_t34__r_act", 
      "attr": {"act_type": "sigmoid"}, 
      "inputs": [[699, 0, 0]]
    }, 
    {
      "op": "_mul", 
      "name": "_mul102", 
      "inputs": [[700, 0, 0], [695, 2, 0]]
    }, 
    {
      "op": "elemwise_add", 
      "name": "_plus104", 
      "inputs": [[180, 2, 0], [701, 0, 0]]
    }, 
    {
      "op": "Activation", 
      "name": "gru_t34__h_act", 
      "attr": {"act_type": "tanh"}, 
      "inputs": [[702, 0, 0]]
    }, 
    {
      "op": "_mul", 
      "name": "_mul103", 
      "inputs": [[698, 0, 0], [703, 0, 0]]
    }, 
    {
      "op": "_mul", 
      "name": "_mul104", 
      "inputs": [[697, 0, 0], [693, 0, 0]]
    }, 
    {
      "op": "elemwise_add", 
      "name": "gru_t34_out", 
      "inputs": [[704, 0, 0], [705, 0, 0]]
    }, 
    {
      "op": "FullyConnected", 
      "name": "gru_t35__h2h", 
      "attr": {"num_hidden": "15"}, 
      "inputs": [[706, 0, 0], [250, 0, 0], [251, 0, 0]]
    }, 
    {
      "op": "SliceChannel", 
      "name": "gru_t35__h2h_slice", 
      "attr": {"num_outputs": "3"}, 
      "inputs": [[707, 0, 0]]
    }, 
    {
      "op": "elemwise_add", 
      "name": "_plus106", 
      "inputs": [[178, 1, 0], [708, 1, 0]]
    }, 
    {
      "op": "Activation", 
      "name": "gru_t35__z_act", 
      "attr": {"act_type": "sigmoid"}, 
      "inputs": [[709, 0, 0]]
    }, 
    {
      "op": "_rminus_scalar", 
      "name": "_rminusscalar35", 
      "attr": {"scalar": "1.0"}, 
      "inputs": [[710, 0, 0]]
    }, 
    {
      "op": "elemwise_add", 
      "name": "_plus105", 
      "inputs": [[178, 0, 0], [708, 0, 0]]
    }, 
    {
      "op": "Activation", 
      "name": "gru_t35__r_act", 
      "attr": {"act_type": "sigmoid"}, 
      "inputs": [[712, 0, 0]]
    }, 
    {
      "op": "_mul", 
      "name": "_mul105", 
      "inputs": [[713, 0, 0], [708, 2, 0]]
    }, 
    {
      "op": "elemwise_add", 
      "name": "_plus107", 
      "inputs": [[178, 2, 0], [714, 0, 0]]
    }, 
    {
      "op": "Activation", 
      "name": "gru_t35__h_act", 
      "attr": {"act_type": "tanh"}, 
      "inputs": [[715, 0, 0]]
    }, 
    {
      "op": "_mul", 
      "name": "_mul106", 
      "inputs": [[711, 0, 0], [716, 0, 0]]
    }, 
    {
      "op": "_mul", 
      "name": "_mul107", 
      "inputs": [[710, 0, 0], [706, 0, 0]]
    }, 
    {
      "op": "elemwise_add", 
      "name": "gru_t35_out", 
      "inputs": [[717, 0, 0], [718, 0, 0]]
    }, 
    {
      "op": "FullyConnected", 
      "name": "gru_t36__h2h", 
      "attr": {"num_hidden": "15"}, 
      "inputs": [[719, 0, 0], [250, 0, 0], [251, 0, 0]]
    }, 
    {
      "op": "SliceChannel", 
      "name": "gru_t36__h2h_slice", 
      "attr": {"num_outputs": "3"}, 
      "inputs": [[720, 0, 0]]
    }, 
    {
      "op": "elemwise_add", 
      "name": "_plus109", 
      "inputs": [[176, 1, 0], [721, 1, 0]]
    }, 
    {
      "op": "Activation", 
      "name": "gru_t36__z_act", 
      "attr": {"act_type": "sigmoid"}, 
      "inputs": [[722, 0, 0]]
    }, 
    {
      "op": "_rminus_scalar", 
      "name": "_rminusscalar36", 
      "attr": {"scalar": "1.0"}, 
      "inputs": [[723, 0, 0]]
    }, 
    {
      "op": "elemwise_add", 
      "name": "_plus108", 
      "inputs": [[176, 0, 0], [721, 0, 0]]
    }, 
    {
      "op": "Activation", 
      "name": "gru_t36__r_act", 
      "attr": {"act_type": "sigmoid"}, 
      "inputs": [[725, 0, 0]]
    }, 
    {
      "op": "_mul", 
      "name": "_mul108", 
      "inputs": [[726, 0, 0], [721, 2, 0]]
    }, 
    {
      "op": "elemwise_add", 
      "name": "_plus110", 
      "inputs": [[176, 2, 0], [727, 0, 0]]
    }, 
    {
      "op": "Activation", 
      "name": "gru_t36__h_act", 
      "attr": {"act_type": "tanh"}, 
      "inputs": [[728, 0, 0]]
    }, 
    {
      "op": "_mul", 
      "name": "_mul109", 
      "inputs": [[724, 0, 0], [729, 0, 0]]
    }, 
    {
      "op": "_mul", 
      "name": "_mul110", 
      "inputs": [[723, 0, 0], [719, 0, 0]]
    }, 
    {
      "op": "elemwise_add", 
      "name": "gru_t36_out", 
      "inputs": [[730, 0, 0], [731, 0, 0]]
    }, 
    {
      "op": "FullyConnected", 
      "name": "gru_t37__h2h", 
      "attr": {"num_hidden": "15"}, 
      "inputs": [[732, 0, 0], [250, 0, 0], [251, 0, 0]]
    }, 
    {
      "op": "SliceChannel", 
      "name": "gru_t37__h2h_slice", 
      "attr": {"num_outputs": "3"}, 
      "inputs": [[733, 0, 0]]
    }, 
    {
      "op": "elemwise_add", 
      "name": "_plus112", 
      "inputs": [[174, 1, 0], [734, 1, 0]]
    }, 
    {
      "op": "Activation", 
      "name": "gru_t37__z_act", 
      "attr": {"act_type": "sigmoid"}, 
      "inputs": [[735, 0, 0]]
    }, 
    {
      "op": "_rminus_scalar", 
      "name": "_rminusscalar37", 
      "attr": {"scalar": "1.0"}, 
      "inputs": [[736, 0, 0]]
    }, 
    {
      "op": "elemwise_add", 
      "name": "_plus111", 
      "inputs": [[174, 0, 0], [734, 0, 0]]
    }, 
    {
      "op": "Activation", 
      "name": "gru_t37__r_act", 
      "attr": {"act_type": "sigmoid"}, 
      "inputs": [[738, 0, 0]]
    }, 
    {
      "op": "_mul", 
      "name": "_mul111", 
      "inputs": [[739, 0, 0], [734, 2, 0]]
    }, 
    {
      "op": "elemwise_add", 
      "name": "_plus113", 
      "inputs": [[174, 2, 0], [740, 0, 0]]
    }, 
    {
      "op": "Activation", 
      "name": "gru_t37__h_act", 
      "attr": {"act_type": "tanh"}, 
      "inputs": [[741, 0, 0]]
    }, 
    {
      "op": "_mul", 
      "name": "_mul112", 
      "inputs": [[737, 0, 0], [742, 0, 0]]
    }, 
    {
      "op": "_mul", 
      "name": "_mul113", 
      "inputs": [[736, 0, 0], [732, 0, 0]]
    }, 
    {
      "op": "elemwise_add", 
      "name": "gru_t37_out", 
      "inputs": [[743, 0, 0], [744, 0, 0]]
    }, 
    {
      "op": "FullyConnected", 
      "name": "gru_t38__h2h", 
      "attr": {"num_hidden": "15"}, 
      "inputs": [[745, 0, 0], [250, 0, 0], [251, 0, 0]]
    }, 
    {
      "op": "SliceChannel", 
      "name": "gru_t38__h2h_slice", 
      "attr": {"num_outputs": "3"}, 
      "inputs": [[746, 0, 0]]
    }, 
    {
      "op": "elemwise_add", 
      "name": "_plus115", 
      "inputs": [[172, 1, 0], [747, 1, 0]]
    }, 
    {
      "op": "Activation", 
      "name": "gru_t38__z_act", 
      "attr": {"act_type": "sigmoid"}, 
      "inputs": [[748, 0, 0]]
    }, 
    {
      "op": "_rminus_scalar", 
      "name": "_rminusscalar38", 
      "attr": {"scalar": "1.0"}, 
      "inputs": [[749, 0, 0]]
    }, 
    {
      "op": "elemwise_add", 
      "name": "_plus114", 
      "inputs": [[172, 0, 0], [747, 0, 0]]
    }, 
    {
      "op": "Activation", 
      "name": "gru_t38__r_act", 
      "attr": {"act_type": "sigmoid"}, 
      "inputs": [[751, 0, 0]]
    }, 
    {
      "op": "_mul", 
      "name": "_mul114", 
      "inputs": [[752, 0, 0], [747, 2, 0]]
    }, 
    {
      "op": "elemwise_add", 
      "name": "_plus116", 
      "inputs": [[172, 2, 0], [753, 0, 0]]
    }, 
    {
      "op": "Activation", 
      "name": "gru_t38__h_act", 
      "attr": {"act_type": "tanh"}, 
      "inputs": [[754, 0, 0]]
    }, 
    {
      "op": "_mul", 
      "name": "_mul115", 
      "inputs": [[750, 0, 0], [755, 0, 0]]
    }, 
    {
      "op": "_mul", 
      "name": "_mul116", 
      "inputs": [[749, 0, 0], [745, 0, 0]]
    }, 
    {
      "op": "elemwise_add", 
      "name": "gru_t38_out", 
      "inputs": [[756, 0, 0], [757, 0, 0]]
    }, 
    {
      "op": "FullyConnected", 
      "name": "gru_t39__h2h", 
      "attr": {"num_hidden": "15"}, 
      "inputs": [[758, 0, 0], [250, 0, 0], [251, 0, 0]]
    }, 
    {
      "op": "SliceChannel", 
      "name": "gru_t39__h2h_slice", 
      "attr": {"num_outputs": "3"}, 
      "inputs": [[759, 0, 0]]
    }, 
    {
      "op": "elemwise_add", 
      "name": "_plus118", 
      "inputs": [[170, 1, 0], [760, 1, 0]]
    }, 
    {
      "op": "Activation", 
      "name": "gru_t39__z_act", 
      "attr": {"act_type": "sigmoid"}, 
      "inputs": [[761, 0, 0]]
    }, 
    {
      "op": "_rminus_scalar", 
      "name": "_rminusscalar39", 
      "attr": {"scalar": "1.0"}, 
      "inputs": [[762, 0, 0]]
    }, 
    {
      "op": "elemwise_add", 
      "name": "_plus117", 
      "inputs": [[170, 0, 0], [760, 0, 0]]
    }, 
    {
      "op": "Activation", 
      "name": "gru_t39__r_act", 
      "attr": {"act_type": "sigmoid"}, 
      "inputs": [[764, 0, 0]]
    }, 
    {
      "op": "_mul", 
      "name": "_mul117", 
      "inputs": [[765, 0, 0], [760, 2, 0]]
    }, 
    {
      "op": "elemwise_add", 
      "name": "_plus119", 
      "inputs": [[170, 2, 0], [766, 0, 0]]
    }, 
    {
      "op": "Activation", 
      "name": "gru_t39__h_act", 
      "attr": {"act_type": "tanh"}, 
      "inputs": [[767, 0, 0]]
    }, 
    {
      "op": "_mul", 
      "name": "_mul118", 
      "inputs": [[763, 0, 0], [768, 0, 0]]
    }, 
    {
      "op": "_mul", 
      "name": "_mul119", 
      "inputs": [[762, 0, 0], [758, 0, 0]]
    }, 
    {
      "op": "elemwise_add", 
      "name": "gru_t39_out", 
      "inputs": [[769, 0, 0], [770, 0, 0]]
    }, 
    {
      "op": "FullyConnected", 
      "name": "gru_t40__h2h", 
      "attr": {"num_hidden": "15"}, 
      "inputs": [[771, 0, 0], [250, 0, 0], [251, 0, 0]]
    }, 
    {
      "op": "SliceChannel", 
      "name": "gru_t40__h2h_slice", 
      "attr": {"num_outputs": "3"}, 
      "inputs": [[772, 0, 0]]
    }, 
    {
      "op": "elemwise_add", 
      "name": "_plus121", 
      "inputs": [[168, 1, 0], [773, 1, 0]]
    }, 
    {
      "op": "Activation", 
      "name": "gru_t40__z_act", 
      "attr": {"act_type": "sigmoid"}, 
      "inputs": [[774, 0, 0]]
    }, 
    {
      "op": "_rminus_scalar", 
      "name": "_rminusscalar40", 
      "attr": {"scalar": "1.0"}, 
      "inputs": [[775, 0, 0]]
    }, 
    {
      "op": "elemwise_add", 
      "name": "_plus120", 
      "inputs": [[168, 0, 0], [773, 0, 0]]
    }, 
    {
      "op": "Activation", 
      "name": "gru_t40__r_act", 
      "attr": {"act_type": "sigmoid"}, 
      "inputs": [[777, 0, 0]]
    }, 
    {
      "op": "_mul", 
      "name": "_mul120", 
      "inputs": [[778, 0, 0], [773, 2, 0]]
    }, 
    {
      "op": "elemwise_add", 
      "name": "_plus122", 
      "inputs": [[168, 2, 0], [779, 0, 0]]
    }, 
    {
      "op": "Activation", 
      "name": "gru_t40__h_act", 
      "attr": {"act_type": "tanh"}, 
      "inputs": [[780, 0, 0]]
    }, 
    {
      "op": "_mul", 
      "name": "_mul121", 
      "inputs": [[776, 0, 0], [781, 0, 0]]
    }, 
    {
      "op": "_mul", 
      "name": "_mul122", 
      "inputs": [[775, 0, 0], [771, 0, 0]]
    }, 
    {
      "op": "elemwise_add", 
      "name": "gru_t40_out", 
      "inputs": [[782, 0, 0], [783, 0, 0]]
    }, 
    {
      "op": "FullyConnected", 
      "name": "gru_t41__h2h", 
      "attr": {"num_hidden": "15"}, 
      "inputs": [[784, 0, 0], [250, 0, 0], [251, 0, 0]]
    }, 
    {
      "op": "SliceChannel", 
      "name": "gru_t41__h2h_slice", 
      "attr": {"num_outputs": "3"}, 
      "inputs": [[785, 0, 0]]
    }, 
    {
      "op": "elemwise_add", 
      "name": "_plus124", 
      "inputs": [[166, 1, 0], [786, 1, 0]]
    }, 
    {
      "op": "Activation", 
      "name": "gru_t41__z_act", 
      "attr": {"act_type": "sigmoid"}, 
      "inputs": [[787, 0, 0]]
    }, 
    {
      "op": "_rminus_scalar", 
      "name": "_rminusscalar41", 
      "attr": {"scalar": "1.0"}, 
      "inputs": [[788, 0, 0]]
    }, 
    {
      "op": "elemwise_add", 
      "name": "_plus123", 
      "inputs": [[166, 0, 0], [786, 0, 0]]
    }, 
    {
      "op": "Activation", 
      "name": "gru_t41__r_act", 
      "attr": {"act_type": "sigmoid"}, 
      "inputs": [[790, 0, 0]]
    }, 
    {
      "op": "_mul", 
      "name": "_mul123", 
      "inputs": [[791, 0, 0], [786, 2, 0]]
    }, 
    {
      "op": "elemwise_add", 
      "name": "_plus125", 
      "inputs": [[166, 2, 0], [792, 0, 0]]
    }, 
    {
      "op": "Activation", 
      "name": "gru_t41__h_act", 
      "attr": {"act_type": "tanh"}, 
      "inputs": [[793, 0, 0]]
    }, 
    {
      "op": "_mul", 
      "name": "_mul124", 
      "inputs": [[789, 0, 0], [794, 0, 0]]
    }, 
    {
      "op": "_mul", 
      "name": "_mul125", 
      "inputs": [[788, 0, 0], [784, 0, 0]]
    }, 
    {
      "op": "elemwise_add", 
      "name": "gru_t41_out", 
      "inputs": [[795, 0, 0], [796, 0, 0]]
    }, 
    {
      "op": "FullyConnected", 
      "name": "gru_t42__h2h", 
      "attr": {"num_hidden": "15"}, 
      "inputs": [[797, 0, 0], [250, 0, 0], [251, 0, 0]]
    }, 
    {
      "op": "SliceChannel", 
      "name": "gru_t42__h2h_slice", 
      "attr": {"num_outputs": "3"}, 
      "inputs": [[798, 0, 0]]
    }, 
    {
      "op": "elemwise_add", 
      "name": "_plus127", 
      "inputs": [[164, 1, 0], [799, 1, 0]]
    }, 
    {
      "op": "Activation", 
      "name": "gru_t42__z_act", 
      "attr": {"act_type": "sigmoid"}, 
      "inputs": [[800, 0, 0]]
    }, 
    {
      "op": "_rminus_scalar", 
      "name": "_rminusscalar42", 
      "attr": {"scalar": "1.0"}, 
      "inputs": [[801, 0, 0]]
    }, 
    {
      "op": "elemwise_add", 
      "name": "_plus126", 
      "inputs": [[164, 0, 0], [799, 0, 0]]
    }, 
    {
      "op": "Activation", 
      "name": "gru_t42__r_act", 
      "attr": {"act_type": "sigmoid"}, 
      "inputs": [[803, 0, 0]]
    }, 
    {
      "op": "_mul", 
      "name": "_mul126", 
      "inputs": [[804, 0, 0], [799, 2, 0]]
    }, 
    {
      "op": "elemwise_add", 
      "name": "_plus128", 
      "inputs": [[164, 2, 0], [805, 0, 0]]
    }, 
    {
      "op": "Activation", 
      "name": "gru_t42__h_act", 
      "attr": {"act_type": "tanh"}, 
      "inputs": [[806, 0, 0]]
    }, 
    {
      "op": "_mul", 
      "name": "_mul127", 
      "inputs": [[802, 0, 0], [807, 0, 0]]
    }, 
    {
      "op": "_mul", 
      "name": "_mul128", 
      "inputs": [[801, 0, 0], [797, 0, 0]]
    }, 
    {
      "op": "elemwise_add", 
      "name": "gru_t42_out", 
      "inputs": [[808, 0, 0], [809, 0, 0]]
    }, 
    {
      "op": "FullyConnected", 
      "name": "gru_t43__h2h", 
      "attr": {"num_hidden": "15"}, 
      "inputs": [[810, 0, 0], [250, 0, 0], [251, 0, 0]]
    }, 
    {
      "op": "SliceChannel", 
      "name": "gru_t43__h2h_slice", 
      "attr": {"num_outputs": "3"}, 
      "inputs": [[811, 0, 0]]
    }, 
    {
      "op": "elemwise_add", 
      "name": "_plus130", 
      "inputs": [[162, 1, 0], [812, 1, 0]]
    }, 
    {
      "op": "Activation", 
      "name": "gru_t43__z_act", 
      "attr": {"act_type": "sigmoid"}, 
      "inputs": [[813, 0, 0]]
    }, 
    {
      "op": "_rminus_scalar", 
      "name": "_rminusscalar43", 
      "attr": {"scalar": "1.0"}, 
      "inputs": [[814, 0, 0]]
    }, 
    {
      "op": "elemwise_add", 
      "name": "_plus129", 
      "inputs": [[162, 0, 0], [812, 0, 0]]
    }, 
    {
      "op": "Activation", 
      "name": "gru_t43__r_act", 
      "attr": {"act_type": "sigmoid"}, 
      "inputs": [[816, 0, 0]]
    }, 
    {
      "op": "_mul", 
      "name": "_mul129", 
      "inputs": [[817, 0, 0], [812, 2, 0]]
    }, 
    {
      "op": "elemwise_add", 
      "name": "_plus131", 
      "inputs": [[162, 2, 0], [818, 0, 0]]
    }, 
    {
      "op": "Activation", 
      "name": "gru_t43__h_act", 
      "attr": {"act_type": "tanh"}, 
      "inputs": [[819, 0, 0]]
    }, 
    {
      "op": "_mul", 
      "name": "_mul130", 
      "inputs": [[815, 0, 0], [820, 0, 0]]
    }, 
    {
      "op": "_mul", 
      "name": "_mul131", 
      "inputs": [[814, 0, 0], [810, 0, 0]]
    }, 
    {
      "op": "elemwise_add", 
      "name": "gru_t43_out", 
      "inputs": [[821, 0, 0], [822, 0, 0]]
    }, 
    {
      "op": "FullyConnected", 
      "name": "gru_t44__h2h", 
      "attr": {"num_hidden": "15"}, 
      "inputs": [[823, 0, 0], [250, 0, 0], [251, 0, 0]]
    }, 
    {
      "op": "SliceChannel", 
      "name": "gru_t44__h2h_slice", 
      "attr": {"num_outputs": "3"}, 
      "inputs": [[824, 0, 0]]
    }, 
    {
      "op": "elemwise_add", 
      "name": "_plus133", 
      "inputs": [[160, 1, 0], [825, 1, 0]]
    }, 
    {
      "op": "Activation", 
      "name": "gru_t44__z_act", 
      "attr": {"act_type": "sigmoid"}, 
      "inputs": [[826, 0, 0]]
    }, 
    {
      "op": "_rminus_scalar", 
      "name": "_rminusscalar44", 
      "attr": {"scalar": "1.0"}, 
      "inputs": [[827, 0, 0]]
    }, 
    {
      "op": "elemwise_add", 
      "name": "_plus132", 
      "inputs": [[160, 0, 0], [825, 0, 0]]
    }, 
    {
      "op": "Activation", 
      "name": "gru_t44__r_act", 
      "attr": {"act_type": "sigmoid"}, 
      "inputs": [[829, 0, 0]]
    }, 
    {
      "op": "_mul", 
      "name": "_mul132", 
      "inputs": [[830, 0, 0], [825, 2, 0]]
    }, 
    {
      "op": "elemwise_add", 
      "name": "_plus134", 
      "inputs": [[160, 2, 0], [831, 0, 0]]
    }, 
    {
      "op": "Activation", 
      "name": "gru_t44__h_act", 
      "attr": {"act_type": "tanh"}, 
      "inputs": [[832, 0, 0]]
    }, 
    {
      "op": "_mul", 
      "name": "_mul133", 
      "inputs": [[828, 0, 0], [833, 0, 0]]
    }, 
    {
      "op": "_mul", 
      "name": "_mul134", 
      "inputs": [[827, 0, 0], [823, 0, 0]]
    }, 
    {
      "op": "elemwise_add", 
      "name": "gru_t44_out", 
      "inputs": [[834, 0, 0], [835, 0, 0]]
    }, 
    {
      "op": "FullyConnected", 
      "name": "gru_t45__h2h", 
      "attr": {"num_hidden": "15"}, 
      "inputs": [[836, 0, 0], [250, 0, 0], [251, 0, 0]]
    }, 
    {
      "op": "SliceChannel", 
      "name": "gru_t45__h2h_slice", 
      "attr": {"num_outputs": "3"}, 
      "inputs": [[837, 0, 0]]
    }, 
    {
      "op": "elemwise_add", 
      "name": "_plus136", 
      "inputs": [[158, 1, 0], [838, 1, 0]]
    }, 
    {
      "op": "Activation", 
      "name": "gru_t45__z_act", 
      "attr": {"act_type": "sigmoid"}, 
      "inputs": [[839, 0, 0]]
    }, 
    {
      "op": "_rminus_scalar", 
      "name": "_rminusscalar45", 
      "attr": {"scalar": "1.0"}, 
      "inputs": [[840, 0, 0]]
    }, 
    {
      "op": "elemwise_add", 
      "name": "_plus135", 
      "inputs": [[158, 0, 0], [838, 0, 0]]
    }, 
    {
      "op": "Activation", 
      "name": "gru_t45__r_act", 
      "attr": {"act_type": "sigmoid"}, 
      "inputs": [[842, 0, 0]]
    }, 
    {
      "op": "_mul", 
      "name": "_mul135", 
      "inputs": [[843, 0, 0], [838, 2, 0]]
    }, 
    {
      "op": "elemwise_add", 
      "name": "_plus137", 
      "inputs": [[158, 2, 0], [844, 0, 0]]
    }, 
    {
      "op": "Activation", 
      "name": "gru_t45__h_act", 
      "attr": {"act_type": "tanh"}, 
      "inputs": [[845, 0, 0]]
    }, 
    {
      "op": "_mul", 
      "name": "_mul136", 
      "inputs": [[841, 0, 0], [846, 0, 0]]
    }, 
    {
      "op": "_mul", 
      "name": "_mul137", 
      "inputs": [[840, 0, 0], [836, 0, 0]]
    }, 
    {
      "op": "elemwise_add", 
      "name": "gru_t45_out", 
      "inputs": [[847, 0, 0], [848, 0, 0]]
    }, 
    {
      "op": "FullyConnected", 
      "name": "gru_t46__h2h", 
      "attr": {"num_hidden": "15"}, 
      "inputs": [[849, 0, 0], [250, 0, 0], [251, 0, 0]]
    }, 
    {
      "op": "SliceChannel", 
      "name": "gru_t46__h2h_slice", 
      "attr": {"num_outputs": "3"}, 
      "inputs": [[850, 0, 0]]
    }, 
    {
      "op": "elemwise_add", 
      "name": "_plus139", 
      "inputs": [[156, 1, 0], [851, 1, 0]]
    }, 
    {
      "op": "Activation", 
      "name": "gru_t46__z_act", 
      "attr": {"act_type": "sigmoid"}, 
      "inputs": [[852, 0, 0]]
    }, 
    {
      "op": "_rminus_scalar", 
      "name": "_rminusscalar46", 
      "attr": {"scalar": "1.0"}, 
      "inputs": [[853, 0, 0]]
    }, 
    {
      "op": "elemwise_add", 
      "name": "_plus138", 
      "inputs": [[156, 0, 0], [851, 0, 0]]
    }, 
    {
      "op": "Activation", 
      "name": "gru_t46__r_act", 
      "attr": {"act_type": "sigmoid"}, 
      "inputs": [[855, 0, 0]]
    }, 
    {
      "op": "_mul", 
      "name": "_mul138", 
      "inputs": [[856, 0, 0], [851, 2, 0]]
    }, 
    {
      "op": "elemwise_add", 
      "name": "_plus140", 
      "inputs": [[156, 2, 0], [857, 0, 0]]
    }, 
    {
      "op": "Activation", 
      "name": "gru_t46__h_act", 
      "attr": {"act_type": "tanh"}, 
      "inputs": [[858, 0, 0]]
    }, 
    {
      "op": "_mul", 
      "name": "_mul139", 
      "inputs": [[854, 0, 0], [859, 0, 0]]
    }, 
    {
      "op": "_mul", 
      "name": "_mul140", 
      "inputs": [[853, 0, 0], [849, 0, 0]]
    }, 
    {
      "op": "elemwise_add", 
      "name": "gru_t46_out", 
      "inputs": [[860, 0, 0], [861, 0, 0]]
    }, 
    {
      "op": "FullyConnected", 
      "name": "gru_t47__h2h", 
      "attr": {"num_hidden": "15"}, 
      "inputs": [[862, 0, 0], [250, 0, 0], [251, 0, 0]]
    }, 
    {
      "op": "SliceChannel", 
      "name": "gru_t47__h2h_slice", 
      "attr": {"num_outputs": "3"}, 
      "inputs": [[863, 0, 0]]
    }, 
    {
      "op": "elemwise_add", 
      "name": "_plus142", 
      "inputs": [[154, 1, 0], [864, 1, 0]]
    }, 
    {
      "op": "Activation", 
      "name": "gru_t47__z_act", 
      "attr": {"act_type": "sigmoid"}, 
      "inputs": [[865, 0, 0]]
    }, 
    {
      "op": "_rminus_scalar", 
      "name": "_rminusscalar47", 
      "attr": {"scalar": "1.0"}, 
      "inputs": [[866, 0, 0]]
    }, 
    {
      "op": "elemwise_add", 
      "name": "_plus141", 
      "inputs": [[154, 0, 0], [864, 0, 0]]
    }, 
    {
      "op": "Activation", 
      "name": "gru_t47__r_act", 
      "attr": {"act_type": "sigmoid"}, 
      "inputs": [[868, 0, 0]]
    }, 
    {
      "op": "_mul", 
      "name": "_mul141", 
      "inputs": [[869, 0, 0], [864, 2, 0]]
    }, 
    {
      "op": "elemwise_add", 
      "name": "_plus143", 
      "inputs": [[154, 2, 0], [870, 0, 0]]
    }, 
    {
      "op": "Activation", 
      "name": "gru_t47__h_act", 
      "attr": {"act_type": "tanh"}, 
      "inputs": [[871, 0, 0]]
    }, 
    {
      "op": "_mul", 
      "name": "_mul142", 
      "inputs": [[867, 0, 0], [872, 0, 0]]
    }, 
    {
      "op": "_mul", 
      "name": "_mul143", 
      "inputs": [[866, 0, 0], [862, 0, 0]]
    }, 
    {
      "op": "elemwise_add", 
      "name": "gru_t47_out", 
      "inputs": [[873, 0, 0], [874, 0, 0]]
    }, 
    {
      "op": "FullyConnected", 
      "name": "gru_t48__h2h", 
      "attr": {"num_hidden": "15"}, 
      "inputs": [[875, 0, 0], [250, 0, 0], [251, 0, 0]]
    }, 
    {
      "op": "SliceChannel", 
      "name": "gru_t48__h2h_slice", 
      "attr": {"num_outputs": "3"}, 
      "inputs": [[876, 0, 0]]
    }, 
    {
      "op": "elemwise_add", 
      "name": "_plus145", 
      "inputs": [[152, 1, 0], [877, 1, 0]]
    }, 
    {
      "op": "Activation", 
      "name": "gru_t48__z_act", 
      "attr": {"act_type": "sigmoid"}, 
      "inputs": [[878, 0, 0]]
    }, 
    {
      "op": "_rminus_scalar", 
      "name": "_rminusscalar48", 
      "attr": {"scalar": "1.0"}, 
      "inputs": [[879, 0, 0]]
    }, 
    {
      "op": "elemwise_add", 
      "name": "_plus144", 
      "inputs": [[152, 0, 0], [877, 0, 0]]
    }, 
    {
      "op": "Activation", 
      "name": "gru_t48__r_act", 
      "attr": {"act_type": "sigmoid"}, 
      "inputs": [[881, 0, 0]]
    }, 
    {
      "op": "_mul", 
      "name": "_mul144", 
      "inputs": [[882, 0, 0], [877, 2, 0]]
    }, 
    {
      "op": "elemwise_add", 
      "name": "_plus146", 
      "inputs": [[152, 2, 0], [883, 0, 0]]
    }, 
    {
      "op": "Activation", 
      "name": "gru_t48__h_act", 
      "attr": {"act_type": "tanh"}, 
      "inputs": [[884, 0, 0]]
    }, 
    {
      "op": "_mul", 
      "name": "_mul145", 
      "inputs": [[880, 0, 0], [885, 0, 0]]
    }, 
    {
      "op": "_mul", 
      "name": "_mul146", 
      "inputs": [[879, 0, 0], [875, 0, 0]]
    }, 
    {
      "op": "elemwise_add", 
      "name": "gru_t48_out", 
      "inputs": [[886, 0, 0], [887, 0, 0]]
    }, 
    {
      "op": "FullyConnected", 
      "name": "gru_t49__h2h", 
      "attr": {"num_hidden": "15"}, 
      "inputs": [[888, 0, 0], [250, 0, 0], [251, 0, 0]]
    }, 
    {
      "op": "SliceChannel", 
      "name": "gru_t49__h2h_slice", 
      "attr": {"num_outputs": "3"}, 
      "inputs": [[889, 0, 0]]
    }, 
    {
      "op": "elemwise_add", 
      "name": "_plus148", 
      "inputs": [[150, 1, 0], [890, 1, 0]]
    }, 
    {
      "op": "Activation", 
      "name": "gru_t49__z_act", 
      "attr": {"act_type": "sigmoid"}, 
      "inputs": [[891, 0, 0]]
    }, 
    {
      "op": "_rminus_scalar", 
      "name": "_rminusscalar49", 
      "attr": {"scalar": "1.0"}, 
      "inputs": [[892, 0, 0]]
    }, 
    {
      "op": "elemwise_add", 
      "name": "_plus147", 
      "inputs": [[150, 0, 0], [890, 0, 0]]
    }, 
    {
      "op": "Activation", 
      "name": "gru_t49__r_act", 
      "attr": {"act_type": "sigmoid"}, 
      "inputs": [[894, 0, 0]]
    }, 
    {
      "op": "_mul", 
      "name": "_mul147", 
      "inputs": [[895, 0, 0], [890, 2, 0]]
    }, 
    {
      "op": "elemwise_add", 
      "name": "_plus149", 
      "inputs": [[150, 2, 0], [896, 0, 0]]
    }, 
    {
      "op": "Activation", 
      "name": "gru_t49__h_act", 
      "attr": {"act_type": "tanh"}, 
      "inputs": [[897, 0, 0]]
    }, 
    {
      "op": "_mul", 
      "name": "_mul148", 
      "inputs": [[893, 0, 0], [898, 0, 0]]
    }, 
    {
      "op": "_mul", 
      "name": "_mul149", 
      "inputs": [[892, 0, 0], [888, 0, 0]]
    }, 
    {
      "op": "elemwise_add", 
      "name": "gru_t49_out", 
      "inputs": [[899, 0, 0], [900, 0, 0]]
    }, 
    {
      "op": "FullyConnected", 
      "name": "gru_t50__h2h", 
      "attr": {"num_hidden": "15"}, 
      "inputs": [[901, 0, 0], [250, 0, 0], [251, 0, 0]]
    }, 
    {
      "op": "SliceChannel", 
      "name": "gru_t50__h2h_slice", 
      "attr": {"num_outputs": "3"}, 
      "inputs": [[902, 0, 0]]
    }, 
    {
      "op": "elemwise_add", 
      "name": "_plus151", 
      "inputs": [[148, 1, 0], [903, 1, 0]]
    }, 
    {
      "op": "Activation", 
      "name": "gru_t50__z_act", 
      "attr": {"act_type": "sigmoid"}, 
      "inputs": [[904, 0, 0]]
    }, 
    {
      "op": "_rminus_scalar", 
      "name": "_rminusscalar50", 
      "attr": {"scalar": "1.0"}, 
      "inputs": [[905, 0, 0]]
    }, 
    {
      "op": "elemwise_add", 
      "name": "_plus150", 
      "inputs": [[148, 0, 0], [903, 0, 0]]
    }, 
    {
      "op": "Activation", 
      "name": "gru_t50__r_act", 
      "attr": {"act_type": "sigmoid"}, 
      "inputs": [[907, 0, 0]]
    }, 
    {
      "op": "_mul", 
      "name": "_mul150", 
      "inputs": [[908, 0, 0], [903, 2, 0]]
    }, 
    {
      "op": "elemwise_add", 
      "name": "_plus152", 
      "inputs": [[148, 2, 0], [909, 0, 0]]
    }, 
    {
      "op": "Activation", 
      "name": "gru_t50__h_act", 
      "attr": {"act_type": "tanh"}, 
      "inputs": [[910, 0, 0]]
    }, 
    {
      "op": "_mul", 
      "name": "_mul151", 
      "inputs": [[906, 0, 0], [911, 0, 0]]
    }, 
    {
      "op": "_mul", 
      "name": "_mul152", 
      "inputs": [[905, 0, 0], [901, 0, 0]]
    }, 
    {
      "op": "elemwise_add", 
      "name": "gru_t50_out", 
      "inputs": [[912, 0, 0], [913, 0, 0]]
    }, 
    {
      "op": "FullyConnected", 
      "name": "gru_t51__h2h", 
      "attr": {"num_hidden": "15"}, 
      "inputs": [[914, 0, 0], [250, 0, 0], [251, 0, 0]]
    }, 
    {
      "op": "SliceChannel", 
      "name": "gru_t51__h2h_slice", 
      "attr": {"num_outputs": "3"}, 
      "inputs": [[915, 0, 0]]
    }, 
    {
      "op": "elemwise_add", 
      "name": "_plus154", 
      "inputs": [[146, 1, 0], [916, 1, 0]]
    }, 
    {
      "op": "Activation", 
      "name": "gru_t51__z_act", 
      "attr": {"act_type": "sigmoid"}, 
      "inputs": [[917, 0, 0]]
    }, 
    {
      "op": "_rminus_scalar", 
      "name": "_rminusscalar51", 
      "attr": {"scalar": "1.0"}, 
      "inputs": [[918, 0, 0]]
    }, 
    {
      "op": "elemwise_add", 
      "name": "_plus153", 
      "inputs": [[146, 0, 0], [916, 0, 0]]
    }, 
    {
      "op": "Activation", 
      "name": "gru_t51__r_act", 
      "attr": {"act_type": "sigmoid"}, 
      "inputs": [[920, 0, 0]]
    }, 
    {
      "op": "_mul", 
      "name": "_mul153", 
      "inputs": [[921, 0, 0], [916, 2, 0]]
    }, 
    {
      "op": "elemwise_add", 
      "name": "_plus155", 
      "inputs": [[146, 2, 0], [922, 0, 0]]
    }, 
    {
      "op": "Activation", 
      "name": "gru_t51__h_act", 
      "attr": {"act_type": "tanh"}, 
      "inputs": [[923, 0, 0]]
    }, 
    {
      "op": "_mul", 
      "name": "_mul154", 
      "inputs": [[919, 0, 0], [924, 0, 0]]
    }, 
    {
      "op": "_mul", 
      "name": "_mul155", 
      "inputs": [[918, 0, 0], [914, 0, 0]]
    }, 
    {
      "op": "elemwise_add", 
      "name": "gru_t51_out", 
      "inputs": [[925, 0, 0], [926, 0, 0]]
    }, 
    {
      "op": "FullyConnected", 
      "name": "gru_t52__h2h", 
      "attr": {"num_hidden": "15"}, 
      "inputs": [[927, 0, 0], [250, 0, 0], [251, 0, 0]]
    }, 
    {
      "op": "SliceChannel", 
      "name": "gru_t52__h2h_slice", 
      "attr": {"num_outputs": "3"}, 
      "inputs": [[928, 0, 0]]
    }, 
    {
      "op": "elemwise_add", 
      "name": "_plus157", 
      "inputs": [[144, 1, 0], [929, 1, 0]]
    }, 
    {
      "op": "Activation", 
      "name": "gru_t52__z_act", 
      "attr": {"act_type": "sigmoid"}, 
      "inputs": [[930, 0, 0]]
    }, 
    {
      "op": "_rminus_scalar", 
      "name": "_rminusscalar52", 
      "attr": {"scalar": "1.0"}, 
      "inputs": [[931, 0, 0]]
    }, 
    {
      "op": "elemwise_add", 
      "name": "_plus156", 
      "inputs": [[144, 0, 0], [929, 0, 0]]
    }, 
    {
      "op": "Activation", 
      "name": "gru_t52__r_act", 
      "attr": {"act_type": "sigmoid"}, 
      "inputs": [[933, 0, 0]]
    }, 
    {
      "op": "_mul", 
      "name": "_mul156", 
      "inputs": [[934, 0, 0], [929, 2, 0]]
    }, 
    {
      "op": "elemwise_add", 
      "name": "_plus158", 
      "inputs": [[144, 2, 0], [935, 0, 0]]
    }, 
    {
      "op": "Activation", 
      "name": "gru_t52__h_act", 
      "attr": {"act_type": "tanh"}, 
      "inputs": [[936, 0, 0]]
    }, 
    {
      "op": "_mul", 
      "name": "_mul157", 
      "inputs": [[932, 0, 0], [937, 0, 0]]
    }, 
    {
      "op": "_mul", 
      "name": "_mul158", 
      "inputs": [[931, 0, 0], [927, 0, 0]]
    }, 
    {
      "op": "elemwise_add", 
      "name": "gru_t52_out", 
      "inputs": [[938, 0, 0], [939, 0, 0]]
    }, 
    {
      "op": "FullyConnected", 
      "name": "gru_t53__h2h", 
      "attr": {"num_hidden": "15"}, 
      "inputs": [[940, 0, 0], [250, 0, 0], [251, 0, 0]]
    }, 
    {
      "op": "SliceChannel", 
      "name": "gru_t53__h2h_slice", 
      "attr": {"num_outputs": "3"}, 
      "inputs": [[941, 0, 0]]
    }, 
    {
      "op": "elemwise_add", 
      "name": "_plus160", 
      "inputs": [[142, 1, 0], [942, 1, 0]]
    }, 
    {
      "op": "Activation", 
      "name": "gru_t53__z_act", 
      "attr": {"act_type": "sigmoid"}, 
      "inputs": [[943, 0, 0]]
    }, 
    {
      "op": "_rminus_scalar", 
      "name": "_rminusscalar53", 
      "attr": {"scalar": "1.0"}, 
      "inputs": [[944, 0, 0]]
    }, 
    {
      "op": "elemwise_add", 
      "name": "_plus159", 
      "inputs": [[142, 0, 0], [942, 0, 0]]
    }, 
    {
      "op": "Activation", 
      "name": "gru_t53__r_act", 
      "attr": {"act_type": "sigmoid"}, 
      "inputs": [[946, 0, 0]]
    }, 
    {
      "op": "_mul", 
      "name": "_mul159", 
      "inputs": [[947, 0, 0], [942, 2, 0]]
    }, 
    {
      "op": "elemwise_add", 
      "name": "_plus161", 
      "inputs": [[142, 2, 0], [948, 0, 0]]
    }, 
    {
      "op": "Activation", 
      "name": "gru_t53__h_act", 
      "attr": {"act_type": "tanh"}, 
      "inputs": [[949, 0, 0]]
    }, 
    {
      "op": "_mul", 
      "name": "_mul160", 
      "inputs": [[945, 0, 0], [950, 0, 0]]
    }, 
    {
      "op": "_mul", 
      "name": "_mul161", 
      "inputs": [[944, 0, 0], [940, 0, 0]]
    }, 
    {
      "op": "elemwise_add", 
      "name": "gru_t53_out", 
      "inputs": [[951, 0, 0], [952, 0, 0]]
    }, 
    {
      "op": "FullyConnected", 
      "name": "gru_t54__h2h", 
      "attr": {"num_hidden": "15"}, 
      "inputs": [[953, 0, 0], [250, 0, 0], [251, 0, 0]]
    }, 
    {
      "op": "SliceChannel", 
      "name": "gru_t54__h2h_slice", 
      "attr": {"num_outputs": "3"}, 
      "inputs": [[954, 0, 0]]
    }, 
    {
      "op": "elemwise_add", 
      "name": "_plus163", 
      "inputs": [[140, 1, 0], [955, 1, 0]]
    }, 
    {
      "op": "Activation", 
      "name": "gru_t54__z_act", 
      "attr": {"act_type": "sigmoid"}, 
      "inputs": [[956, 0, 0]]
    }, 
    {
      "op": "_rminus_scalar", 
      "name": "_rminusscalar54", 
      "attr": {"scalar": "1.0"}, 
      "inputs": [[957, 0, 0]]
    }, 
    {
      "op": "elemwise_add", 
      "name": "_plus162", 
      "inputs": [[140, 0, 0], [955, 0, 0]]
    }, 
    {
      "op": "Activation", 
      "name": "gru_t54__r_act", 
      "attr": {"act_type": "sigmoid"}, 
      "inputs": [[959, 0, 0]]
    }, 
    {
      "op": "_mul", 
      "name": "_mul162", 
      "inputs": [[960, 0, 0], [955, 2, 0]]
    }, 
    {
      "op": "elemwise_add", 
      "name": "_plus164", 
      "inputs": [[140, 2, 0], [961, 0, 0]]
    }, 
    {
      "op": "Activation", 
      "name": "gru_t54__h_act", 
      "attr": {"act_type": "tanh"}, 
      "inputs": [[962, 0, 0]]
    }, 
    {
      "op": "_mul", 
      "name": "_mul163", 
      "inputs": [[958, 0, 0], [963, 0, 0]]
    }, 
    {
      "op": "_mul", 
      "name": "_mul164", 
      "inputs": [[957, 0, 0], [953, 0, 0]]
    }, 
    {
      "op": "elemwise_add", 
      "name": "gru_t54_out", 
      "inputs": [[964, 0, 0], [965, 0, 0]]
    }, 
    {
      "op": "FullyConnected", 
      "name": "gru_t55__h2h", 
      "attr": {"num_hidden": "15"}, 
      "inputs": [[966, 0, 0], [250, 0, 0], [251, 0, 0]]
    }, 
    {
      "op": "SliceChannel", 
      "name": "gru_t55__h2h_slice", 
      "attr": {"num_outputs": "3"}, 
      "inputs": [[967, 0, 0]]
    }, 
    {
      "op": "elemwise_add", 
      "name": "_plus166", 
      "inputs": [[138, 1, 0], [968, 1, 0]]
    }, 
    {
      "op": "Activation", 
      "name": "gru_t55__z_act", 
      "attr": {"act_type": "sigmoid"}, 
      "inputs": [[969, 0, 0]]
    }, 
    {
      "op": "_rminus_scalar", 
      "name": "_rminusscalar55", 
      "attr": {"scalar": "1.0"}, 
      "inputs": [[970, 0, 0]]
    }, 
    {
      "op": "elemwise_add", 
      "name": "_plus165", 
      "inputs": [[138, 0, 0], [968, 0, 0]]
    }, 
    {
      "op": "Activation", 
      "name": "gru_t55__r_act", 
      "attr": {"act_type": "sigmoid"}, 
      "inputs": [[972, 0, 0]]
    }, 
    {
      "op": "_mul", 
      "name": "_mul165", 
      "inputs": [[973, 0, 0], [968, 2, 0]]
    }, 
    {
      "op": "elemwise_add", 
      "name": "_plus167", 
      "inputs": [[138, 2, 0], [974, 0, 0]]
    }, 
    {
      "op": "Activation", 
      "name": "gru_t55__h_act", 
      "attr": {"act_type": "tanh"}, 
      "inputs": [[975, 0, 0]]
    }, 
    {
      "op": "_mul", 
      "name": "_mul166", 
      "inputs": [[971, 0, 0], [976, 0, 0]]
    }, 
    {
      "op": "_mul", 
      "name": "_mul167", 
      "inputs": [[970, 0, 0], [966, 0, 0]]
    }, 
    {
      "op": "elemwise_add", 
      "name": "gru_t55_out", 
      "inputs": [[977, 0, 0], [978, 0, 0]]
    }, 
    {
      "op": "FullyConnected", 
      "name": "gru_t56__h2h", 
      "attr": {"num_hidden": "15"}, 
      "inputs": [[979, 0, 0], [250, 0, 0], [251, 0, 0]]
    }, 
    {
      "op": "SliceChannel", 
      "name": "gru_t56__h2h_slice", 
      "attr": {"num_outputs": "3"}, 
      "inputs": [[980, 0, 0]]
    }, 
    {
      "op": "elemwise_add", 
      "name": "_plus169", 
      "inputs": [[136, 1, 0], [981, 1, 0]]
    }, 
    {
      "op": "Activation", 
      "name": "gru_t56__z_act", 
      "attr": {"act_type": "sigmoid"}, 
      "inputs": [[982, 0, 0]]
    }, 
    {
      "op": "_rminus_scalar", 
      "name": "_rminusscalar56", 
      "attr": {"scalar": "1.0"}, 
      "inputs": [[983, 0, 0]]
    }, 
    {
      "op": "elemwise_add", 
      "name": "_plus168", 
      "inputs": [[136, 0, 0], [981, 0, 0]]
    }, 
    {
      "op": "Activation", 
      "name": "gru_t56__r_act", 
      "attr": {"act_type": "sigmoid"}, 
      "inputs": [[985, 0, 0]]
    }, 
    {
      "op": "_mul", 
      "name": "_mul168", 
      "inputs": [[986, 0, 0], [981, 2, 0]]
    }, 
    {
      "op": "elemwise_add", 
      "name": "_plus170", 
      "inputs": [[136, 2, 0], [987, 0, 0]]
    }, 
    {
      "op": "Activation", 
      "name": "gru_t56__h_act", 
      "attr": {"act_type": "tanh"}, 
      "inputs": [[988, 0, 0]]
    }, 
    {
      "op": "_mul", 
      "name": "_mul169", 
      "inputs": [[984, 0, 0], [989, 0, 0]]
    }, 
    {
      "op": "_mul", 
      "name": "_mul170", 
      "inputs": [[983, 0, 0], [979, 0, 0]]
    }, 
    {
      "op": "elemwise_add", 
      "name": "gru_t56_out", 
      "inputs": [[990, 0, 0], [991, 0, 0]]
    }, 
    {
      "op": "FullyConnected", 
      "name": "gru_t57__h2h", 
      "attr": {"num_hidden": "15"}, 
      "inputs": [[992, 0, 0], [250, 0, 0], [251, 0, 0]]
    }, 
    {
      "op": "SliceChannel", 
      "name": "gru_t57__h2h_slice", 
      "attr": {"num_outputs": "3"}, 
      "inputs": [[993, 0, 0]]
    }, 
    {
      "op": "elemwise_add", 
      "name": "_plus172", 
      "inputs": [[134, 1, 0], [994, 1, 0]]
    }, 
    {
      "op": "Activation", 
      "name": "gru_t57__z_act", 
      "attr": {"act_type": "sigmoid"}, 
      "inputs": [[995, 0, 0]]
    }, 
    {
      "op": "_rminus_scalar", 
      "name": "_rminusscalar57", 
      "attr": {"scalar": "1.0"}, 
      "inputs": [[996, 0, 0]]
    }, 
    {
      "op": "elemwise_add", 
      "name": "_plus171", 
      "inputs": [[134, 0, 0], [994, 0, 0]]
    }, 
    {
      "op": "Activation", 
      "name": "gru_t57__r_act", 
      "attr": {"act_type": "sigmoid"}, 
      "inputs": [[998, 0, 0]]
    }, 
    {
      "op": "_mul", 
      "name": "_mul171", 
      "inputs": [[999, 0, 0], [994, 2, 0]]
    }, 
    {
      "op": "elemwise_add", 
      "name": "_plus173", 
      "inputs": [[134, 2, 0], [1000, 0, 0]]
    }, 
    {
      "op": "Activation", 
      "name": "gru_t57__h_act", 
      "attr": {"act_type": "tanh"}, 
      "inputs": [[1001, 0, 0]]
    }, 
    {
      "op": "_mul", 
      "name": "_mul172", 
      "inputs": [[997, 0, 0], [1002, 0, 0]]
    }, 
    {
      "op": "_mul", 
      "name": "_mul173", 
      "inputs": [[996, 0, 0], [992, 0, 0]]
    }, 
    {
      "op": "elemwise_add", 
      "name": "gru_t57_out", 
      "inputs": [[1003, 0, 0], [1004, 0, 0]]
    }, 
    {
      "op": "FullyConnected", 
      "name": "gru_t58__h2h", 
      "attr": {"num_hidden": "15"}, 
      "inputs": [[1005, 0, 0], [250, 0, 0], [251, 0, 0]]
    }, 
    {
      "op": "SliceChannel", 
      "name": "gru_t58__h2h_slice", 
      "attr": {"num_outputs": "3"}, 
      "inputs": [[1006, 0, 0]]
    }, 
    {
      "op": "elemwise_add", 
      "name": "_plus175", 
      "inputs": [[132, 1, 0], [1007, 1, 0]]
    }, 
    {
      "op": "Activation", 
      "name": "gru_t58__z_act", 
      "attr": {"act_type": "sigmoid"}, 
      "inputs": [[1008, 0, 0]]
    }, 
    {
      "op": "_rminus_scalar", 
      "name": "_rminusscalar58", 
      "attr": {"scalar": "1.0"}, 
      "inputs": [[1009, 0, 0]]
    }, 
    {
      "op": "elemwise_add", 
      "name": "_plus174", 
      "inputs": [[132, 0, 0], [1007, 0, 0]]
    }, 
    {
      "op": "Activation", 
      "name": "gru_t58__r_act", 
      "attr": {"act_type": "sigmoid"}, 
      "inputs": [[1011, 0, 0]]
    }, 
    {
      "op": "_mul", 
      "name": "_mul174", 
      "inputs": [[1012, 0, 0], [1007, 2, 0]]
    }, 
    {
      "op": "elemwise_add", 
      "name": "_plus176", 
      "inputs": [[132, 2, 0], [1013, 0, 0]]
    }, 
    {
      "op": "Activation", 
      "name": "gru_t58__h_act", 
      "attr": {"act_type": "tanh"}, 
      "inputs": [[1014, 0, 0]]
    }, 
    {
      "op": "_mul", 
      "name": "_mul175", 
      "inputs": [[1010, 0, 0], [1015, 0, 0]]
    }, 
    {
      "op": "_mul", 
      "name": "_mul176", 
      "inputs": [[1009, 0, 0], [1005, 0, 0]]
    }, 
    {
      "op": "elemwise_add", 
      "name": "gru_t58_out", 
      "inputs": [[1016, 0, 0], [1017, 0, 0]]
    }, 
    {
      "op": "FullyConnected", 
      "name": "gru_t59__h2h", 
      "attr": {"num_hidden": "15"}, 
      "inputs": [[1018, 0, 0], [250, 0, 0], [251, 0, 0]]
    }, 
    {
      "op": "SliceChannel", 
      "name": "gru_t59__h2h_slice", 
      "attr": {"num_outputs": "3"}, 
      "inputs": [[1019, 0, 0]]
    }, 
    {
      "op": "elemwise_add", 
      "name": "_plus178", 
      "inputs": [[130, 1, 0], [1020, 1, 0]]
    }, 
    {
      "op": "Activation", 
      "name": "gru_t59__z_act", 
      "attr": {"act_type": "sigmoid"}, 
      "inputs": [[1021, 0, 0]]
    }, 
    {
      "op": "_rminus_scalar", 
      "name": "_rminusscalar59", 
      "attr": {"scalar": "1.0"}, 
      "inputs": [[1022, 0, 0]]
    }, 
    {
      "op": "elemwise_add", 
      "name": "_plus177", 
      "inputs": [[130, 0, 0], [1020, 0, 0]]
    }, 
    {
      "op": "Activation", 
      "name": "gru_t59__r_act", 
      "attr": {"act_type": "sigmoid"}, 
      "inputs": [[1024, 0, 0]]
    }, 
    {
      "op": "_mul", 
      "name": "_mul177", 
      "inputs": [[1025, 0, 0], [1020, 2, 0]]
    }, 
    {
      "op": "elemwise_add", 
      "name": "_plus179", 
      "inputs": [[130, 2, 0], [1026, 0, 0]]
    }, 
    {
      "op": "Activation", 
      "name": "gru_t59__h_act", 
      "attr": {"act_type": "tanh"}, 
      "inputs": [[1027, 0, 0]]
    }, 
    {
      "op": "_mul", 
      "name": "_mul178", 
      "inputs": [[1023, 0, 0], [1028, 0, 0]]
    }, 
    {
      "op": "_mul", 
      "name": "_mul179", 
      "inputs": [[1022, 0, 0], [1018, 0, 0]]
    }, 
    {
      "op": "elemwise_add", 
      "name": "gru_t59_out", 
      "inputs": [[1029, 0, 0], [1030, 0, 0]]
    }, 
    {
      "op": "FullyConnected", 
      "name": "gru_t60__h2h", 
      "attr": {"num_hidden": "15"}, 
      "inputs": [[1031, 0, 0], [250, 0, 0], [251, 0, 0]]
    }, 
    {
      "op": "SliceChannel", 
      "name": "gru_t60__h2h_slice", 
      "attr": {"num_outputs": "3"}, 
      "inputs": [[1032, 0, 0]]
    }, 
    {
      "op": "elemwise_add", 
      "name": "_plus181", 
      "inputs": [[128, 1, 0], [1033, 1, 0]]
    }, 
    {
      "op": "Activation", 
      "name": "gru_t60__z_act", 
      "attr": {"act_type": "sigmoid"}, 
      "inputs": [[1034, 0, 0]]
    }, 
    {
      "op": "_rminus_scalar", 
      "name": "_rminusscalar60", 
      "attr": {"scalar": "1.0"}, 
      "inputs": [[1035, 0, 0]]
    }, 
    {
      "op": "elemwise_add", 
      "name": "_plus180", 
      "inputs": [[128, 0, 0], [1033, 0, 0]]
    }, 
    {
      "op": "Activation", 
      "name": "gru_t60__r_act", 
      "attr": {"act_type": "sigmoid"}, 
      "inputs": [[1037, 0, 0]]
    }, 
    {
      "op": "_mul", 
      "name": "_mul180", 
      "inputs": [[1038, 0, 0], [1033, 2, 0]]
    }, 
    {
      "op": "elemwise_add", 
      "name": "_plus182", 
      "inputs": [[128, 2, 0], [1039, 0, 0]]
    }, 
    {
      "op": "Activation", 
      "name": "gru_t60__h_act", 
      "attr": {"act_type": "tanh"}, 
      "inputs": [[1040, 0, 0]]
    }, 
    {
      "op": "_mul", 
      "name": "_mul181", 
      "inputs": [[1036, 0, 0], [1041, 0, 0]]
    }, 
    {
      "op": "_mul", 
      "name": "_mul182", 
      "inputs": [[1035, 0, 0], [1031, 0, 0]]
    }, 
    {
      "op": "elemwise_add", 
      "name": "gru_t60_out", 
      "inputs": [[1042, 0, 0], [1043, 0, 0]]
    }, 
    {
      "op": "FullyConnected", 
      "name": "gru_t61__h2h", 
      "attr": {"num_hidden": "15"}, 
      "inputs": [[1044, 0, 0], [250, 0, 0], [251, 0, 0]]
    }, 
    {
      "op": "SliceChannel", 
      "name": "gru_t61__h2h_slice", 
      "attr": {"num_outputs": "3"}, 
      "inputs": [[1045, 0, 0]]
    }, 
    {
      "op": "elemwise_add", 
      "name": "_plus184", 
      "inputs": [[126, 1, 0], [1046, 1, 0]]
    }, 
    {
      "op": "Activation", 
      "name": "gru_t61__z_act", 
      "attr": {"act_type": "sigmoid"}, 
      "inputs": [[1047, 0, 0]]
    }, 
    {
      "op": "_rminus_scalar", 
      "name": "_rminusscalar61", 
      "attr": {"scalar": "1.0"}, 
      "inputs": [[1048, 0, 0]]
    }, 
    {
      "op": "elemwise_add", 
      "name": "_plus183", 
      "inputs": [[126, 0, 0], [1046, 0, 0]]
    }, 
    {
      "op": "Activation", 
      "name": "gru_t61__r_act", 
      "attr": {"act_type": "sigmoid"}, 
      "inputs": [[1050, 0, 0]]
    }, 
    {
      "op": "_mul", 
      "name": "_mul183", 
      "inputs": [[1051, 0, 0], [1046, 2, 0]]
    }, 
    {
      "op": "elemwise_add", 
      "name": "_plus185", 
      "inputs": [[126, 2, 0], [1052, 0, 0]]
    }, 
    {
      "op": "Activation", 
      "name": "gru_t61__h_act", 
      "attr": {"act_type": "tanh"}, 
      "inputs": [[1053, 0, 0]]
    }, 
    {
      "op": "_mul", 
      "name": "_mul184", 
      "inputs": [[1049, 0, 0], [1054, 0, 0]]
    }, 
    {
      "op": "_mul", 
      "name": "_mul185", 
      "inputs": [[1048, 0, 0], [1044, 0, 0]]
    }, 
    {
      "op": "elemwise_add", 
      "name": "gru_t61_out", 
      "inputs": [[1055, 0, 0], [1056, 0, 0]]
    }, 
    {
      "op": "FullyConnected", 
      "name": "gru_t62__h2h", 
      "attr": {"num_hidden": "15"}, 
      "inputs": [[1057, 0, 0], [250, 0, 0], [251, 0, 0]]
    }, 
    {
      "op": "SliceChannel", 
      "name": "gru_t62__h2h_slice", 
      "attr": {"num_outputs": "3"}, 
      "inputs": [[1058, 0, 0]]
    }, 
    {
      "op": "elemwise_add", 
      "name": "_plus187", 
      "inputs": [[124, 1, 0], [1059, 1, 0]]
    }, 
    {
      "op": "Activation", 
      "name": "gru_t62__z_act", 
      "attr": {"act_type": "sigmoid"}, 
      "inputs": [[1060, 0, 0]]
    }, 
    {
      "op": "_rminus_scalar", 
      "name": "_rminusscalar62", 
      "attr": {"scalar": "1.0"}, 
      "inputs": [[1061, 0, 0]]
    }, 
    {
      "op": "elemwise_add", 
      "name": "_plus186", 
      "inputs": [[124, 0, 0], [1059, 0, 0]]
    }, 
    {
      "op": "Activation", 
      "name": "gru_t62__r_act", 
      "attr": {"act_type": "sigmoid"}, 
      "inputs": [[1063, 0, 0]]
    }, 
    {
      "op": "_mul", 
      "name": "_mul186", 
      "inputs": [[1064, 0, 0], [1059, 2, 0]]
    }, 
    {
      "op": "elemwise_add", 
      "name": "_plus188", 
      "inputs": [[124, 2, 0], [1065, 0, 0]]
    }, 
    {
      "op": "Activation", 
      "name": "gru_t62__h_act", 
      "attr": {"act_type": "tanh"}, 
      "inputs": [[1066, 0, 0]]
    }, 
    {
      "op": "_mul", 
      "name": "_mul187", 
      "inputs": [[1062, 0, 0], [1067, 0, 0]]
    }, 
    {
      "op": "_mul", 
      "name": "_mul188", 
      "inputs": [[1061, 0, 0], [1057, 0, 0]]
    }, 
    {
      "op": "elemwise_add", 
      "name": "gru_t62_out", 
      "inputs": [[1068, 0, 0], [1069, 0, 0]]
    }, 
    {
      "op": "FullyConnected", 
      "name": "gru_t63__h2h", 
      "attr": {"num_hidden": "15"}, 
      "inputs": [[1070, 0, 0], [250, 0, 0], [251, 0, 0]]
    }, 
    {
      "op": "SliceChannel", 
      "name": "gru_t63__h2h_slice", 
      "attr": {"num_outputs": "3"}, 
      "inputs": [[1071, 0, 0]]
    }, 
    {
      "op": "elemwise_add", 
      "name": "_plus190", 
      "inputs": [[122, 1, 0], [1072, 1, 0]]
    }, 
    {
      "op": "Activation", 
      "name": "gru_t63__z_act", 
      "attr": {"act_type": "sigmoid"}, 
      "inputs": [[1073, 0, 0]]
    }, 
    {
      "op": "_rminus_scalar", 
      "name": "_rminusscalar63", 
      "attr": {"scalar": "1.0"}, 
      "inputs": [[1074, 0, 0]]
    }, 
    {
      "op": "elemwise_add", 
      "name": "_plus189", 
      "inputs": [[122, 0, 0], [1072, 0, 0]]
    }, 
    {
      "op": "Activation", 
      "name": "gru_t63__r_act", 
      "attr": {"act_type": "sigmoid"}, 
      "inputs": [[1076, 0, 0]]
    }, 
    {
      "op": "_mul", 
      "name": "_mul189", 
      "inputs": [[1077, 0, 0], [1072, 2, 0]]
    }, 
    {
      "op": "elemwise_add", 
      "name": "_plus191", 
      "inputs": [[122, 2, 0], [1078, 0, 0]]
    }, 
    {
      "op": "Activation", 
      "name": "gru_t63__h_act", 
      "attr": {"act_type": "tanh"}, 
      "inputs": [[1079, 0, 0]]
    }, 
    {
      "op": "_mul", 
      "name": "_mul190", 
      "inputs": [[1075, 0, 0], [1080, 0, 0]]
    }, 
    {
      "op": "_mul", 
      "name": "_mul191", 
      "inputs": [[1074, 0, 0], [1070, 0, 0]]
    }, 
    {
      "op": "elemwise_add", 
      "name": "gru_t63_out", 
      "inputs": [[1081, 0, 0], [1082, 0, 0]]
    }, 
    {
      "op": "FullyConnected", 
      "name": "gru_t64__h2h", 
      "attr": {"num_hidden": "15"}, 
      "inputs": [[1083, 0, 0], [250, 0, 0], [251, 0, 0]]
    }, 
    {
      "op": "SliceChannel", 
      "name": "gru_t64__h2h_slice", 
      "attr": {"num_outputs": "3"}, 
      "inputs": [[1084, 0, 0]]
    }, 
    {
      "op": "elemwise_add", 
      "name": "_plus193", 
      "inputs": [[120, 1, 0], [1085, 1, 0]]
    }, 
    {
      "op": "Activation", 
      "name": "gru_t64__z_act", 
      "attr": {"act_type": "sigmoid"}, 
      "inputs": [[1086, 0, 0]]
    }, 
    {
      "op": "_rminus_scalar", 
      "name": "_rminusscalar64", 
      "attr": {"scalar": "1.0"}, 
      "inputs": [[1087, 0, 0]]
    }, 
    {
      "op": "elemwise_add", 
      "name": "_plus192", 
      "inputs": [[120, 0, 0], [1085, 0, 0]]
    }, 
    {
      "op": "Activation", 
      "name": "gru_t64__r_act", 
      "attr": {"act_type": "sigmoid"}, 
      "inputs": [[1089, 0, 0]]
    }, 
    {
      "op": "_mul", 
      "name": "_mul192", 
      "inputs": [[1090, 0, 0], [1085, 2, 0]]
    }, 
    {
      "op": "elemwise_add", 
      "name": "_plus194", 
      "inputs": [[120, 2, 0], [1091, 0, 0]]
    }, 
    {
      "op": "Activation", 
      "name": "gru_t64__h_act", 
      "attr": {"act_type": "tanh"}, 
      "inputs": [[1092, 0, 0]]
    }, 
    {
      "op": "_mul", 
      "name": "_mul193", 
      "inputs": [[1088, 0, 0], [1093, 0, 0]]
    }, 
    {
      "op": "_mul", 
      "name": "_mul194", 
      "inputs": [[1087, 0, 0], [1083, 0, 0]]
    }, 
    {
      "op": "elemwise_add", 
      "name": "gru_t64_out", 
      "inputs": [[1094, 0, 0], [1095, 0, 0]]
    }, 
    {
      "op": "FullyConnected", 
      "name": "gru_t65__h2h", 
      "attr": {"num_hidden": "15"}, 
      "inputs": [[1096, 0, 0], [250, 0, 0], [251, 0, 0]]
    }, 
    {
      "op": "SliceChannel", 
      "name": "gru_t65__h2h_slice", 
      "attr": {"num_outputs": "3"}, 
      "inputs": [[1097, 0, 0]]
    }, 
    {
      "op": "elemwise_add", 
      "name": "_plus196", 
      "inputs": [[118, 1, 0], [1098, 1, 0]]
    }, 
    {
      "op": "Activation", 
      "name": "gru_t65__z_act", 
      "attr": {"act_type": "sigmoid"}, 
      "inputs": [[1099, 0, 0]]
    }, 
    {
      "op": "_rminus_scalar", 
      "name": "_rminusscalar65", 
      "attr": {"scalar": "1.0"}, 
      "inputs": [[1100, 0, 0]]
    }, 
    {
      "op": "elemwise_add", 
      "name": "_plus195", 
      "inputs": [[118, 0, 0], [1098, 0, 0]]
    }, 
    {
      "op": "Activation", 
      "name": "gru_t65__r_act", 
      "attr": {"act_type": "sigmoid"}, 
      "inputs": [[1102, 0, 0]]
    }, 
    {
      "op": "_mul", 
      "name": "_mul195", 
      "inputs": [[1103, 0, 0], [1098, 2, 0]]
    }, 
    {
      "op": "elemwise_add", 
      "name": "_plus197", 
      "inputs": [[118, 2, 0], [1104, 0, 0]]
    }, 
    {
      "op": "Activation", 
      "name": "gru_t65__h_act", 
      "attr": {"act_type": "tanh"}, 
      "inputs": [[1105, 0, 0]]
    }, 
    {
      "op": "_mul", 
      "name": "_mul196", 
      "inputs": [[1101, 0, 0], [1106, 0, 0]]
    }, 
    {
      "op": "_mul", 
      "name": "_mul197", 
      "inputs": [[1100, 0, 0], [1096, 0, 0]]
    }, 
    {
      "op": "elemwise_add", 
      "name": "gru_t65_out", 
      "inputs": [[1107, 0, 0], [1108, 0, 0]]
    }, 
    {
      "op": "FullyConnected", 
      "name": "gru_t66__h2h", 
      "attr": {"num_hidden": "15"}, 
      "inputs": [[1109, 0, 0], [250, 0, 0], [251, 0, 0]]
    }, 
    {
      "op": "SliceChannel", 
      "name": "gru_t66__h2h_slice", 
      "attr": {"num_outputs": "3"}, 
      "inputs": [[1110, 0, 0]]
    }, 
    {
      "op": "elemwise_add", 
      "name": "_plus199", 
      "inputs": [[116, 1, 0], [1111, 1, 0]]
    }, 
    {
      "op": "Activation", 
      "name": "gru_t66__z_act", 
      "attr": {"act_type": "sigmoid"}, 
      "inputs": [[1112, 0, 0]]
    }, 
    {
      "op": "_rminus_scalar", 
      "name": "_rminusscalar66", 
      "attr": {"scalar": "1.0"}, 
      "inputs": [[1113, 0, 0]]
    }, 
    {
      "op": "elemwise_add", 
      "name": "_plus198", 
      "inputs": [[116, 0, 0], [1111, 0, 0]]
    }, 
    {
      "op": "Activation", 
      "name": "gru_t66__r_act", 
      "attr": {"act_type": "sigmoid"}, 
      "inputs": [[1115, 0, 0]]
    }, 
    {
      "op": "_mul", 
      "name": "_mul198", 
      "inputs": [[1116, 0, 0], [1111, 2, 0]]
    }, 
    {
      "op": "elemwise_add", 
…
    3787, 
    3790, 
    3791, 
    3794, 
    3795, 
    3798, 
    3799, 
    3802, 
    3803, 
    3806, 
    3807, 
    3810, 
    3811, 
    3814, 
    3815, 
    3818, 
    3819, 
    3822, 
    3823, 
    3826, 
    3827, 
    3830, 
    3831, 
    3834, 
    3835, 
    3838, 
    3839, 
    3842, 
    3843, 
    3846, 
    3847, 
    3850, 
    3851, 
    3854, 
    3855, 
    3858, 
    3859, 
    3862, 
    3863, 
    3866, 
    3867, 
    3870, 
    3871, 
    3874, 
    3875, 
    3878, 
    3879, 
    3882, 
    3883, 
    3886, 
    3887, 
    3890, 
    3891, 
    3894, 
    3895, 
    3898, 
    3899, 
    3902, 
    3903, 
    3906, 
    3907, 
    3910, 
    3911, 
    3914, 
    3915, 
    3918, 
    3919, 
    3922, 
    3923, 
    3926, 
    3927, 
    3930, 
    3931, 
    3934, 
    3935, 
    3938, 
    3939, 
    3942, 
    3943, 
    3946, 
    3947, 
    3950, 
    3951, 
    3954, 
    3955, 
    3958, 
    3959, 
    3962, 
    3963, 
    3966, 
    3967, 
    3970, 
    3971, 
    3974, 
    3975, 
    3978, 
    3979, 
    3982, 
    3983, 
    3986, 
    3987, 
    3990, 
    3991, 
    3994, 
    3995, 
    3998, 
    3999, 
    4002, 
    4003, 
    4006, 
    4007, 
    4010, 
    4011, 
    4014, 
    4015, 
    4018, 
    4019, 
    4022, 
    4023, 
    4026, 
    4027, 
    4030, 
    4031, 
    4034, 
    4035, 
    4038, 
    4039, 
    4042, 
    4043, 
    4046, 
    4047, 
    4050, 
    4051, 
    4054, 
    4055, 
    4058, 
    4059, 
    4062, 
    4063, 
    4066, 
    4067, 
    4070, 
    4071, 
    4074, 
    4075, 
    4078, 
    4079, 
    4082, 
    4083, 
    4086, 
    4087, 
    4090, 
    4091, 
    4094, 
    4095, 
    4098, 
    4099, 
    4102, 
    4103, 
    4106, 
    4107, 
    4110, 
    4111, 
    4114, 
    4115, 
    4118, 
    4119, 
    4122, 
    4123, 
    4126, 
    4127, 
    4130, 
    4131, 
    4134, 
    4135, 
    4138, 
    4139, 
    4142, 
    4143, 
    4146, 
    4147, 
    4150, 
    4151, 
    4154, 
    4155, 
    4158, 
    4159, 
    4162, 
    4163, 
    4166, 
    4167, 
    4170, 
    4171, 
    4174, 
    4175, 
    4178, 
    4179, 
    4182, 
    4183, 
    4186, 
    4187, 
    4190, 
    4191, 
    4194, 
    4195, 
    4198, 
    4199, 
    4202, 
    4203, 
    4206, 
    4207, 
    4210, 
    4211, 
    4214, 
    4215, 
    4218, 
    4219, 
    4222, 
    4223, 
    4226, 
    4227, 
    4230, 
    4231, 
    4234, 
    4235, 
    4238, 
    4239, 
    4242, 
    4243, 
    4246, 
    4247, 
    4250, 
    4251, 
    4254, 
    4255, 
    4258, 
    4259, 
    4262, 
    4263, 
    4266, 
    4267, 
    4270, 
    4271, 
    4274, 
    4275, 
    4278, 
    4279, 
    4282, 
    4283, 
    4286, 
    4287, 
    4290, 
    4291, 
    4294, 
    4295, 
    4298, 
    4299, 
    4302, 
    4303, 
    4306, 
    4307, 
    4310, 
    4311, 
    4314, 
    4315, 
    4318, 
    4319, 
    4322, 
    4323, 
    4327
  ], 
  "node_row_ptr": [
    0, 
    1, 
    2, 
    3, 
    4, 
    5, 
    6, 
    7, 
    8, 
    9, 
    10, 
    11, 
    12, 
    13, 
    14, 
    15, 
    16, 
    17, 
    18, 
    19, 
    20, 
    21, 
    22, 
    23, 
    24, 
    25, 
    26, 
    27, 
    28, 
    29, 
    30, 
    31, 
    32, 
    33, 
    34, 
    35, 
    36, 
    37, 
    38, 
    39, 
    40, 
    41, 
    42, 
    43, 
    44, 
    45, 
    47, 
    147, 
    148, 
    149, 
    150, 
    153, 
    154, 
    157, 
    158, 
    161, 
    162, 
    165, 
    166, 
    169, 
    170, 
    173, 
    174, 
    177, 
    178, 
    181, 
    182, 
    185, 
    186, 
    189, 
    190, 
    193, 
    194, 
    197, 
    198, 
    201, 
    202, 
    205, 
    206, 
    209, 
    210, 
    213, 
    214, 
    217, 
    218, 
    221, 
    222, 
    225, 
    226, 
    229, 
    230, 
    233, 
    234, 
    237, 
    238, 
    241, 
    242, 
    245, 
    246, 
    249, 
    250, 
    253, 
    254, 
    257, 
    258, 
    261, 
    262, 
    265, 
    266, 
    269, 
    270, 
    273, 
    274, 
    277, 
    278, 
    281, 
    282, 
    285, 
    286, 
    289, 
    290, 
    293, 
    294, 
    297, 
    298, 
    301, 
    302, 
    305, 
    306, 
    309, 
    310, 
    313, 
    314, 
    317, 
    318, 
    321, 
    322, 
    325, 
    326, 
    329, 
    330, 
    333, 
    334, 
    337, 
    338, 
    341, 
    342, 
    345, 
    346, 
    349, 
    350, 
    353, 
    354, 
    357, 
    358, 
    361, 
    362, 
    365, 
    366, 
    369, 
    370, 
    373, 
    374, 
    377, 
    378, 
    381, 
    382, 
    385, 
    386, 
    389, 
    390, 
    393, 
    394, 
    397, 
    398, 
    401, 
    402, 
    405, 
    406, 
    409, 
    410, 
    413, 
    414, 
    417, 
    418, 
    421, 
    422, 
    425, 
    426, 
    429, 
    430, 
    433, 
    434, 
    437, 
    438, 
    441, 
    442, 
    445, 
    446, 
    449, 
    450, 
    453, 
    454, 
    457, 
    458, 
    461, 
    462, 
    465, 
    466, 
    469, 
    470, 
    473, 
    474, 
    477, 
    478, 
    481, 
    482, 
    485, 
    486, 
    489, 
    490, 
    493, 
    494, 
    497, 
    498, 
    501, 
    502, 
    505, 
    506, 
    509, 
    510, 
    513, 
    514, 
    517, 
    518, 
    521, 
    522, 
    525, 
    526, 
    529, 
    530, 
    533, 
    534, 
    537, 
    538, 
    541, 
    542, 
    545, 
    546, 
    549, 
    550, 
    551, 
    552, 
    553, 
    556, 
    557, 
    558, 
    559, 
    560, 
    561, 
    562, 
    563, 
    564, 
    565, 
    566, 
    567, 
    568, 
    571, 
    572, 
    573, 
    574, 
    575, 
    576, 
    577, 
    578, 
    579, 
    580, 
    581, 
    582, 
    583, 
    586, 
    587, 
    588, 
    589, 
    590, 
    591, 
    592, 
    593, 
    594, 
    595, 
    596, 
    597, 
    598, 
    601, 
    602, 
    603, 
    604, 
    605, 
    606, 
    607, 
    608, 
    609, 
    610, 
    611, 
    612, 
    613, 
    616, 
    617, 
    618, 
    619, 
    620, 
    621, 
    622, 
    623, 
    624, 
    625, 
    626, 
    627, 
    628, 
    631, 
    632, 
    633, 
    634, 
    635, 
    636, 
    637, 
    638, 
    639, 
    640, 
    641, 
    642, 
    643, 
    646, 
    647, 
    648, 
    649, 
    650, 
    651, 
    652, 
    653, 
    654, 
    655, 
    656, 
    657, 
    658, 
    661, 
    662, 
    663, 
    664, 
    665, 
    666, 
    667, 
    668, 
    669, 
    670, 
    671, 
    672, 
    673, 
    676, 
    677, 
    678, 
    679, 
    680, 
    681, 
    682, 
    683, 
    684, 
    685, 
    686, 
    687, 
    688, 
    691, 
    692, 
    693, 
    694, 
    695, 
    696, 
    697, 
    698, 
    699, 
    700, 
    701, 
    702, 
    703, 
    706, 
    707, 
    708, 
    709, 
    710, 
    711, 
    712, 
    713, 
    714, 
    715, 
    716, 
    717, 
    718, 
    721, 
    722, 
    723, 
    724, 
    725, 
    726, 
    727, 
    728, 
    729, 
    730, 
    731, 
    732, 
    733, 
    736, 
    737, 
    738, 
    739, 
    740, 
    741, 
    742, 
    743, 
    744, 
    745, 
    746, 
    747, 
    748, 
    751, 
    752, 
    753, 
    754, 
    755, 
    756, 
    757, 
    758, 
    759, 
    760, 
    761, 
    762, 
    763, 
    766, 
    767, 
    768, 
    769, 
    770, 
    771, 
    772, 
    773, 
    774, 
    775, 
    776, 
    777, 
    778, 
    781, 
    782, 
    783, 
    784, 
    785, 
    786, 
    787, 
    788, 
    789, 
    790, 
    791, 
    792, 
    793, 
    796, 
    797, 
    798, 
    799, 
    800, 
    801, 
    802, 
    803, 
    804, 
    805, 
    806, 
    807, 
    808, 
    811, 
    812, 
    813, 
    814, 
    815, 
    816, 
    817, 
    818, 
    819, 
    820, 
    821, 
    822, 
    823, 
    826, 
    827, 
    828, 
    829, 
    830, 
    831, 
    832, 
    833, 
    834, 
    835, 
    836, 
    837, 
    838, 
    841, 
    842, 
    843, 
    844, 
    845, 
    846, 
    847, 
    848, 
    849, 
    850, 
    851, 
    852, 
    853, 
    856, 
    857, 
    858, 
    859, 
    860, 
    861, 
    862, 
    863, 
    864, 
    865, 
    866, 
    867, 
    868, 
    871, 
    872, 
    873, 
    874, 
    875, 
    876, 
    877, 
    878, 
    879, 
    880, 
    881, 
    882, 
    883, 
    886, 
    887, 
    888, 
    889, 
    890, 
    891, 
    892, 
    893, 
    894, 
    895, 
    896, 
    897, 
    898, 
    901, 
    902, 
    903, 
    904, 
    905, 
    906, 
    907, 
    908, 
    909, 
    910, 
    911, 
    912, 
    913, 
    916, 
    917, 
    918, 
    919, 
    920, 
    921, 
    922, 
    923, 
    924, 
    925, 
    926, 
    927, 
    928, 
    931, 
    932, 
    933, 
    934, 
    935, 
    936, 
    937, 
    938, 
    939, 
    940, 
    941, 
    942, 
    943, 
    946, 
    947, 
    948, 
    949, 
    950, 
    951, 
    952, 
    953, 
    954, 
    955, 
    956, 
    957, 
    958, 
    961, 
    962, 
    963, 
    964, 
    965, 
    966, 
    967, 
    968, 
    969, 
    970, 
    971, 
    972, 
    973, 
    976, 
    977, 
    978, 
    979, 
    980, 
    981, 
    982, 
    983, 
    984, 
    985, 
    986, 
    987, 
    988, 
    991, 
    992, 
    993, 
    994, 
    995, 
    996, 
    997, 
    998, 
    999, 
    1000, 
    1001, 
    1002, 
    1003, 
    1006, 
    1007, 
    1008, 
    1009, 
    1010, 
    1011, 
    1012, 
    1013, 
    1014, 
    1015, 
    1016, 
    1017, 
    1018, 
    1021, 
    1022, 
    1023, 
    1024, 
    1025, 
    1026, 
    1027, 
    1028, 
    1029, 
    1030, 
    1031, 
    1032, 
    1033, 
    1036, 
    1037, 
    1038, 
    1039, 
    1040, 
    1041, 
    1042, 
    1043, 
    1044, 
    1045, 
    1046, 
    1047, 
    1048, 
    1051, 
    1052, 
    1053, 
    1054, 
    1055, 
    1056, 
    1057, 
    1058, 
    1059, 
    1060, 
    1061, 
    1062, 
    1063, 
    1066, 
    1067, 
    1068, 
    1069, 
    1070, 
    1071, 
    1072, 
    1073, 
    1074, 
    1075, 
    1076, 
    1077, 
    1078, 
    1081, 
    1082, 
    1083, 
    1084, 
    1085, 
    1086, 
    1087, 
    1088, 
    1089, 
    1090, 
    1091, 
    1092, 
    1093, 
    1096, 
    1097, 
    1098, 
    1099, 
    1100, 
    1101, 
    1102, 
    1103, 
    1104, 
    1105, 
    1106, 
    1107, 
    1108, 
    1111, 
    1112, 
    1113, 
    1114, 
    1115, 
    1116, 
    1117, 
    1118, 
    1119, 
    1120, 
    1121, 
    1122, 
    1123, 
    1126, 
    1127, 
    1128, 
    1129, 
    1130, 
    1131, 
    1132, 
    1133, 
    1134, 
    1135, 
    1136, 
    1137, 
    1138, 
    1141, 
    1142, 
    1143, 
    1144, 
    1145, 
    1146, 
    1147, 
    1148, 
    1149, 
    1150, 
    1151, 
    1152, 
    1153, 
    1156, 
    1157, 
    1158, 
    1159, 
    1160, 
    1161, 
    1162, 
    1163, 
    1164, 
    1165, 
    1166, 
    1167, 
    1168, 
    1171, 
    1172, 
    1173, 
    1174, 
    1175, 
    1176, 
    1177, 
    1178, 
    1179, 
    1180, 
    1181, 
    1182, 
    1183, 
    1186, 
    1187, 
    1188, 
    1189, 
    1190, 
    1191, 
    1192, 
    1193, 
    1194, 
    1195, 
    1196, 
    1197, 
    1198, 
    1201, 
    1202, 
    1203, 
    1204, 
    1205, 
    1206, 
    1207, 
    1208, 
    1209, 
    1210, 
    1211, 
    1212, 
    1213, 
    1216, 
    1217, 
    1218, 
    1219, 
    1220, 
    1221, 
    1222, 
    1223, 
    1224, 
    1225, 
    1226, 
    1227, 
    1228, 
    1231, 
    1232, 
    1233, 
    1234, 
    1235, 
    1236, 
    1237, 
    1238, 
    1239, 
    1240, 
    1241, 
    1242, 
    1243, 
    1246, 
    1247, 
    1248, 
    1249, 
    1250, 
    1251, 
    1252, 
    1253, 
    1254, 
    1255, 
    1256, 
    1257, 
    1258, 
    1261, 
    1262, 
    1263, 
    1264, 
    1265, 
    1266, 
    1267, 
    1268, 
    1269, 
    1270, 
    1271, 
    1272, 
    1273, 
    1276, 
    1277, 
    1278, 
    1279, 
    1280, 
    1281, 
    1282, 
    1283, 
    1284, 
    1285, 
    1286, 
    1287, 
    1288, 
    1291, 
    1292, 
    1293, 
    1294, 
    1295, 
    1296, 
    1297, 
    1298, 
    1299, 
    1300, 
    1301, 
    1302, 
    1303, 
    1306, 
    1307, 
    1308, 
    1309, 
    1310, 
    1311, 
    1312, 
    1313, 
    1314, 
    1315, 
    1316, 
    1317, 
    1318, 
    1321, 
    1322, 
    1323, 
    1324, 
    1325, 
    1326, 
    1327, 
    1328, 
    1329, 
    1330, 
    1331, 
    1332, 
    1333, 
    1336, 
    1337, 
    1338, 
    1339, 
    1340, 
    1341, 
    1342, 
    1343, 
    1344, 
    1345, 
    1346, 
    1347, 
    1348, 
    1351, 
    1352, 
    1353, 
    1354, 
    1355, 
    1356, 
    1357, 
    1358, 
    1359, 
    1360, 
    1361, 
    1362, 
    1363, 
    1366, 
    1367, 
    1368, 
    1369, 
    1370, 
    1371, 
    1372, 
    1373, 
    1374, 
    1375, 
    1376, 
    1377, 
    1378, 
    1381, 
    1382, 
    1383, 
    1384, 
    1385, 
    1386, 
    1387, 
    1388, 
    1389, 
    1390, 
    1391, 
    1392, 
    1393, 
    1396, 
    1397, 
    1398, 
    1399, 
    1400, 
    1401, 
    1402, 
    1403, 
    1404, 
    1405, 
    1406, 
    1407, 
    1408, 
    1411, 
    1412, 
    1413, 
    1414, 
    1415, 
    1416, 
    1417, 
    1418, 
    1419, 
    1420, 
    1421, 
    1422, 
    1423, 
    1426, 
    1427, 
    1428, 
    1429, 
    1430, 
    1431, 
    1432, 
    1433, 
    1434, 
    1435, 
    1436, 
    1437, 
    1438, 
    1441, 
    1442, 
    1443, 
    1444, 
    1445, 
    1446, 
    1447, 
    1448, 
    1449, 
    1450, 
    1451, 
    1452, 
    1453, 
    1456, 
    1457, 
    1458, 
    1459, 
    1460, 
    1461, 
    1462, 
    1463, 
    1464, 
    1465, 
    1466, 
    1467, 
    1468, 
    1471, 
    1472, 
    1473, 
    1474, 
    1475, 
    1476, 
    1477, 
    1478, 
    1479, 
    1480, 
    1481, 
    1482, 
    1483, 
    1486, 
    1487, 
    1488, 
    1489, 
    1490, 
    1491, 
    1492, 
    1493, 
    1494, 
    1495, 
    1496, 
    1497, 
    1498, 
    1501, 
    1502, 
    1503, 
    1504, 
    1505, 
    1506, 
    1507, 
    1508, 
    1509, 
    1510, 
    1511, 
    1512, 
    1513, 
    1516, 
    1517, 
    1518, 
    1519, 
    1520, 
    1521, 
    1522, 
    1523, 
    1524, 
    1525, 
    1526, 
    1527, 
    1528, 
    1531, 
    1532, 
    1533, 
    1534, 
    1535, 
    1536, 
    1537, 
    1538, 
    1539, 
    1540, 
    1541, 
    1542, 
    1543, 
    1546, 
    1547, 
    1548, 
    1549, 
    1550, 
    1551, 
    1552, 
    1553, 
    1554, 
    1555, 
    1556, 
    1557, 
    1558, 
    1561, 
    1562, 
    1563, 
    1564, 
    1565, 
    1566, 
    1567, 
    1568, 
    1569, 
    1570, 
    1571, 
    1572, 
    1573, 
    1576, 
    1577, 
    1578, 
    1579, 
    1580, 
    1581, 
    1582, 
    1583, 
    1584, 
    1585, 
    1586, 
    1587, 
    1588, 
    1591, 
    1592, 
    1593, 
    1594, 
    1595, 
    1596, 
    1597, 
    1598, 
    1599, 
    1600, 
    1601, 
    1602, 
    1603, 
    1606, 
    1607, 
    1608, 
    1609, 
    1610, 
    1611, 
    1612, 
    1613, 
    1614, 
    1615, 
    1616, 
    1617, 
    1618, 
    1621, 
    1622, 
    1623, 
    1624, 
    1625, 
    1626, 
    1627, 
    1628, 
    1629, 
    1630, 
    1631, 
    1632, 
    1633, 
    1636, 
    1637, 
    1638, 
    1639, 
    1640, 
    1641, 
    1642, 
    1643, 
    1644, 
    1645, 
    1646, 
    1647, 
    1648, 
    1651, 
    1652, 
    1653, 
    1654, 
    1655, 
    1656, 
    1657, 
    1658, 
    1659, 
    1660, 
    1661, 
    1662, 
    1663, 
    1666, 
    1667, 
    1668, 
    1669, 
    1670, 
    1671, 
    1672, 
    1673, 
    1674, 
    1675, 
    1676, 
    1677, 
    1678, 
    1681, 
    1682, 
    1683, 
    1684, 
    1685, 
    1686, 
    1687, 
    1688, 
    1689, 
    1690, 
    1691, 
    1692, 
    1693, 
    1696, 
    1697, 
    1698, 
    1699, 
    1700, 
    1701, 
    1702, 
    1703, 
    1704, 
    1705, 
    1706, 
    1707, 
    1708, 
    1711, 
    1712, 
    1713, 
    1714, 
    1715, 
    1716, 
    1717, 
    1718, 
    1719, 
    1720, 
    1721, 
    1722, 
    1723, 
    1726, 
    1727, 
    1728, 
    1729, 
    1730, 
    1731, 
    1732, 
    1733, 
    1734, 
    1735, 
    1736, 
    1737, 
    1738, 
    1741, 
    1742, 
    1743, 
    1744, 
    1745, 
    1746, 
    1747, 
    1748, 
    1749, 
    1750, 
    1751, 
    1752, 
    1753, 
    1756, 
    1757, 
    1758, 
    1759, 
    1760, 
    1761, 
    1762, 
    1763, 
    1764, 
    1765, 
    1766, 
    1767, 
    1768, 
    1771, 
    1772, 
    1773, 
    1774, 
    1775, 
    1776, 
    1777, 
    1778, 
    1779, 
    1780, 
    1781, 
    1782, 
    1783, 
    1786, 
    1787, 
    1788, 
    1789, 
    1790, 
    1791, 
    1792, 
    1793, 
    1794, 
    1795, 
    1796, 
    1797, 
    1798, 
    1801, 
    1802, 
    1803, 
    1804, 
    1805, 
    1806, 
    1807, 
    1808, 
    1809, 
    1810, 
    1811, 
    1812, 
    1813, 
    1816, 
    1817, 
    1818, 
    1819, 
    1820, 
    1821, 
    1822, 
    1823, 
    1824, 
    1825, 
    1826, 
    1827, 
    1828, 
    1831, 
    1832, 
    1833, 
    1834, 
    1835, 
    1836, 
    1837, 
    1838, 
    1839, 
    1840, 
    1841, 
    1842, 
    1843, 
    1846, 
    1847, 
    1848, 
    1849, 
    1850, 
    1851, 
    1852, 
    1853, 
    1854, 
    1855, 
    1856, 
    1857, 
    1858, 
    1861, 
    1862, 
    1863, 
    1864, 
    1865, 
    1866, 
    1867, 
    1868, 
    1869, 
    1870, 
    1871, 
    1872, 
    1873, 
    1876, 
    1877, 
    1878, 
    1879, 
    1880, 
    1881, 
    1882, 
    1883, 
    1884, 
    1885, 
    1886, 
    1887, 
    1888, 
    1891, 
    1892, 
    1893, 
    1894, 
    1895, 
    1896, 
    1897, 
    1898, 
    1899, 
    1900, 
    1901, 
    1902, 
    1903, 
    1906, 
    1907, 
    1908, 
    1909, 
    1910, 
    1911, 
    1912, 
    1913, 
    1914, 
    1915, 
    1916, 
    1917, 
    1918, 
    1921, 
    1922, 
    1923, 
    1924, 
    1925, 
    1926, 
    1927, 
    1928, 
    1929, 
    1930, 
    1931, 
    1932, 
    1933, 
    1936, 
    1937, 
    1938, 
    1939, 
    1940, 
    1941, 
    1942, 
    1943, 
    1944, 
    1945, 
    1946, 
    1947, 
    1948, 
    1951, 
    1952, 
    1953, 
    1954, 
    1955, 
    1956, 
    1957, 
    1958, 
    1959, 
    1960, 
    1961, 
    1962, 
    1963, 
    1966, 
    1967, 
    1968, 
    1969, 
    1970, 
    1971, 
    1972, 
    1973, 
    1974, 
    1975, 
    1976, 
    1977, 
    1978, 
    1981, 
    1982, 
    1983, 
    1984, 
    1985, 
    1986, 
    1987, 
    1988, 
    1989, 
    1990, 
    1991, 
    1992, 
    1993, 
    1996, 
    1997, 
    1998, 
    1999, 
    2000, 
    2001, 
    2002, 
    2003, 
    2004, 
    2005, 
    2006, 
    2007, 
    2008, 
    2011, 
    2012, 
    2013, 
    2014, 
    2015, 
    2016, 
    2017, 
    2018, 
    2019, 
    2020, 
    2021, 
    2022, 
    2023, 
    2026, 
    2027, 
    2028, 
    2029, 
    2030, 
    2031, 
    2032, 
    2033, 
    2034, 
    2035, 
    2036, 
    2037, 
    2038, 
    2041, 
    2042, 
    2043, 
    2044, 
    2045, 
    2046, 
    2047, 
    2048, 
    2049, 
    2050, 
    2051, 
    2052, 
    2054, 
    2154, 
    2155, 
    2156, 
    2157, 
    2158, 
    2159, 
    2160, 
    2161, 
    2162, 
    2166, 
    2167, 
    2168, 
    2169, 
    2170, 
    2171, 
    2172, 
    2173, 
    2174, 
    2175, 
    2176, 
    2178, 
    2179, 
    2180, 
    2181, 
    2182, 
    2183, 
    2184, 
    2185, 
    2186, 
    2187, 
    2188, 
    2189, 
    2190, 
    2191, 
    2192, 
    2193, 
    2194, 
    2195, 
    2196, 
    2197, 
    2198, 
    2199, 
    2200, 
    2201, 
    2202, 
    2203, 
    2204, 
    2208, 
    2209, 
    2210, 
    2211, 
    2212, 
    2213, 
    2214, 
    2215, 
    2216, 
    2217, 
    2218, 
    2219, 
    2223, 
    2224, 
    2225, 
    2226, 
    2227, 
    2228, 
    2229, 
    2230, 
    2231, 
    2232, 
    2233, 
    2234, 
    2238, 
    2239, 
    2240, 
    2241, 
    2242, 
    2243, 
    2244, 
    2245, 
    2246, 
    2247, 
    2248, 
    2249, 
    2253, 
    2254, 
    2255, 
    2256, 
    2257, 
    2258, 
    2259, 
    2260, 
    2261, 
    2262, 
    2263, 
    2264, 
    2268, 
    2269, 
    2270, 
    2271, 
    2272, 
    2273, 
    2274, 
    2275, 
    2276, 
    2277, 
    2278, 
    2279, 
    2283, 
    2284, 
    2285, 
    2286, 
    2287, 
    2288, 
    2289, 
    2290, 
    2291, 
    2292, 
    2293, 
    2294, 
    2298, 
    2299, 
    2300, 
    2301, 
    2302, 
    2303, 
    2304, 
    2305, 
    2306, 
    2307, 
    2308, 
    2309, 
    2313, 
    2314, 
    2315, 
    2316, 
    2317, 
    2318, 
    2319, 
    2320, 
    2321, 
    2322, 
    2323, 
    2324, 
    2328, 
    2329, 
    2330, 
    2331, 
    2332, 
    2333, 
    2334, 
    2335, 
    2336, 
    2337, 
    2338, 
    2339, 
    2343, 
    2344, 
    2345, 
    2346, 
    2347, 
    2348, 
    2349, 
    2350, 
    2351, 
    2352, 
    2353, 
    2354, 
    2358, 
    2359, 
    2360, 
    2361, 
    2362, 
    2363, 
    2364, 
    2365, 
    2366, 
    2367, 
    2368, 
    2369, 
    2373, 
    2374, 
    2375, 
    2376, 
    2377, 
    2378, 
    2379, 
    2380, 
    2381, 
    2382, 
    2383, 
    2384, 
    2388, 
    2389, 
    2390, 
    2391, 
    2392, 
    2393, 
    2394, 
    2395, 
    2396, 
    2397, 
    2398, 
    2399, 
    2403, 
    2404, 
    2405, 
    2406, 
    2407, 
    2408, 
    2409, 
    2410, 
    2411, 
    2412, 
    2413, 
    2414, 
    2418, 
    2419, 
    2420, 
    2421, 
    2422, 
    2423, 
    2424, 
    2425, 
    2426, 
    2427, 
    2428, 
    2429, 
    2433, 
    2434, 
    2435, 
    2436, 
    2437, 
    2438, 
    2439, 
    2440, 
    2441, 
    2442, 
    2443, 
    2444, 
    2448, 
    2449, 
    2450, 
    2451, 
    2452, 
    2453, 
    2454, 
    2455, 
    2456, 
    2457, 
    2458, 
    2459, 
    2463, 
    2464, 
    2465, 
    2466, 
    2467, 
    2468, 
    2469, 
    2470, 
    2471, 
    2472, 
    2473, 
    2474, 
    2478, 
    2479, 
    2480, 
    2481, 
    2482, 
    2483, 
    2484, 
    2485, 
    2486, 
    2487, 
    2488, 
    2489, 
    2493, 
    2494, 
    2495, 
    2496, 
    2497, 
    2498, 
    2499, 
    2500, 
    2501, 
    2502, 
    2503, 
    2504, 
    2508, 
    2509, 
    2510, 
    2511, 
    2512, 
    2513, 
    2514, 
    2515, 
    2516, 
    2517, 
    2518, 
    2519, 
    2523, 
    2524, 
    2525, 
    2526, 
    2527, 
    2528, 
    2529, 
    2530, 
    2531, 
    2532, 
    2533, 
    2534, 
    2538, 
    2539, 
    2540, 
    2541, 
    2542, 
    2543, 
    2544, 
    2545, 
    2546, 
    2547, 
    2548, 
    2549, 
    2553, 
    2554, 
    2555, 
    2556, 
    2557, 
    2558, 
    2559, 
    2560, 
    2561, 
    2562, 
    2564, 
    2565, 
    2567, 
    2568, 
    2569, 
    2570, 
    2574, 
    2575, 
    2576, 
    2577, 
    2578, 
    2579, 
    2580, 
    2581, 
    2582, 
    2583, 
    2585, 
    2586, 
    2588, 
    2589, 
    2590, 
    2591, 
    2595, 
    2596, 
    2597, 
    2598, 
    2599, 
    2600, 
    2601, 
    2602, 
    2603, 
    2604, 
    2606, 
    2607, 
    2609, 
    2610, 
    2611, 
    2612, 
    2616, 
    2617, 
    2618, 
    2619, 
    2620, 
    2621, 
    2622, 
    2623, 
    2624, 
    2625, 
    2627, 
    2628, 
    2630, 
    2631, 
    2632, 
    2633, 
    2637, 
    2638, 
    2639, 
    2640, 
    2641, 
    2642, 
    2643, 
    2644, 
    2645, 
    2646, 
    2648, 
    2649, 
    2651, 
    2652, 
    2653, 
    2654, 
    2658, 
    2659, 
    2660, 
    2661, 
    2662, 
    2663, 
    2664, 
    2665, 
    2666, 
    2667, 
    2669, 
    2670, 
    2672, 
    2673, 
    2674, 
    2675, 
    2679, 
    2680, 
    2681, 
    2682, 
    2683, 
    2684, 
    2685, 
    2686, 
    2687, 
    2688, 
    2690, 
    2691, 
    2693, 
    2694, 
    2695, 
    2696, 
    2700, 
    2701, 
    2702, 
    2703, 
    2704, 
    2705, 
    2706, 
    2707, 
    2708, 
    2709, 
    2711, 
    2712, 
    2714, 
    2715, 
    2716, 
    2717, 
    2721, 
    2722, 
    2723, 
    2724, 
    2725, 
    2726, 
    2727, 
    2728, 
    2729, 
    2730, 
    2732, 
    2733, 
    2735, 
    2736, 
    2737, 
    2738, 
    2742, 
    2743, 
    2744, 
    2745, 
    2746, 
    2747, 
    2748, 
    2749, 
    2750, 
    2751, 
    2753, 
    2754, 
    2756, 
    2757, 
    2758, 
    2759, 
    2763, 
    2764, 
    2765, 
    2766, 
    2767, 
    2768, 
    2769, 
    2770, 
    2771, 
    2772, 
    2774, 
    2775, 
    2777, 
    2778, 
    2779, 
    2780, 
    2784, 
    2785, 
    2786, 
    2787, 
    2788, 
    2789, 
    2790, 
    2791, 
    2792, 
    2793, 
    2795, 
    2796, 
    2798, 
    2799, 
    2800, 
    2801, 
    2805, 
    2806, 
    2807, 
    2808, 
    2809, 
    2810, 
    2811, 
    2812, 
    2813, 
    2814, 
    2816, 
    2817, 
    2819, 
    2820, 
    2821, 
    2822, 
    2826, 
    2827, 
    2828, 
    2829, 
    2830, 
    2831, 
    2832, 
    2833, 
    2834, 
    2835, 
    2837, 
    2838, 
    2840, 
    2841, 
    2842, 
    2843, 
    2847, 
    2848, 
    2849, 
    2850, 
    2851, 
    2852, 
    2853, 
    2854, 
    2855, 
    2856, 
    2858, 
    2859, 
    2861, 
    2862, 
    2863, 
    2864, 
    2868, 
    2869, 
    2870, 
    2871, 
    2872, 
    2873, 
    2874, 
    2875, 
    2876, 
    2877, 
    2879, 
    2880, 
    2882, 
    2883, 
    2884, 
    2885, 
    2889, 
    2890, 
    2891, 
    2892, 
    2893, 
    2894, 
    2895, 
    2896, 
    2897, 
    2898, 
    2900, 
    2901, 
    2903, 
    2904, 
    2905, 
    2906, 
    2910, 
    2911, 
    2912, 
    2913, 
    2914, 
    2915, 
    2916, 
    2917, 
    2918, 
    2919, 
    2921, 
    2922, 
    2924, 
    2925, 
    2926, 
    2927, 
    2931, 
    2932, 
    2933, 
    2934, 
    2935, 
    2936, 
    2937, 
    2938, 
    2939, 
    2940, 
    2942, 
    2943, 
    2945, 
    2946, 
    2947, 
    2948, 
    2952, 
    2953, 
    2954, 
    2955, 
    2956, 
    2957, 
    2958, 
    2959, 
    2960, 
    2961, 
    2963, 
    2964, 
    2966, 
    2967, 
    2968, 
    2969, 
    2973, 
    2974, 
    2975, 
    2976, 
    2977, 
    2978, 
    2979, 
    2980, 
    2981, 
    2982, 
    2984, 
    2985, 
    2987, 
    2988, 
    2989, 
    2990, 
    2994, 
    2995, 
    2996, 
    2997, 
    2998, 
    2999, 
    3000, 
    3001, 
    3002, 
    3003, 
    3005, 
    3006, 
    3008, 
    3009, 
    3010, 
    3011, 
    3015, 
    3016, 
    3017, 
    3018, 
    3019, 
    3020, 
    3021, 
    3022, 
    3023, 
    3024, 
    3026, 
    3027, 
    3029, 
    3030, 
    3031, 
    3032, 
    3036, 
    3037, 
    3038, 
    3039, 
    3040, 
    3041, 
    3042, 
    3043, 
    3044, 
    3045, 
    3047, 
    3048, 
    3049, 
    3050, 
    3051, 
    3055, 
    3056, 
    3057, 
    3058, 
    3059, 
    3060, 
    3061, 
    3062, 
    3063, 
    3064, 
    3066, 
    3067, 
    3068, 
    3069, 
    3070, 
    3074, 
    3075, 
    3076, 
    3077, 
    3078, 
    3079, 
    3080, 
    3081, 
    3082, 
    3083, 
    3085, 
    3086, 
    3087, 
    3088, 
    3089, 
    3093, 
    3094, 
    3095, 
    3096, 
    3097, 
    3098, 
    3099, 
    3100, 
    3101, 
    3102, 
    3104, 
    3105, 
    3106, 
    3107, 
    3108, 
    3112, 
    3113, 
    3114, 
    3115, 
    3116, 
    3117, 
    3118, 
    3119, 
    3120, 
    3121, 
    3123, 
    3124, 
    3125, 
    3126, 
    3127, 
    3131, 
    3132, 
    3133, 
    3134, 
    3135, 
    3136, 
    3137, 
    3138, 
    3139, 
    3140, 
    3142, 
    3143, 
    3144, 
    3145, 
    3146, 
    3150, 
    3151, 
    3152, 
    3153, 
    3154, 
    3155, 
    3156, 
    3157, 
    3158, 
    3159, 
    3161, 
    3162, 
    3163, 
    3164, 
    3165, 
    3169, 
    3170, 
    3171, 
    3172, 
    3173, 
    3174, 
    3175, 
    3176, 
    3177, 
    3178, 
    3180, 
    3181, 
    3182, 
    3183, 
    3184, 
    3188, 
    3189, 
    3190, 
    3191, 
    3192, 
    3193, 
    3194, 
    3195, 
    3196, 
    3197, 
    3199, 
    3200, 
    3201, 
    3202, 
    3203, 
    3207, 
    3208, 
    3209, 
    3210, 
    3211, 
    3212, 
    3213, 
    3214, 
    3215, 
    3216, 
    3218, 
    3219, 
    3220, 
    3221, 
    3222, 
    3226, 
    3227, 
    3228, 
    3229, 
    3230, 
    3231, 
    3232, 
    3233, 
    3234, 
    3235, 
    3237, 
    3238, 
    3239, 
    3240, 
    3241, 
    3245, 
    3246, 
    3247, 
    3248, 
    3249, 
    3250, 
    3251, 
    3252, 
    3253, 
    3254, 
    3256, 
    3257, 
    3258, 
    3259, 
    3260, 
    3264, 
    3265, 
    3266, 
    3267, 
    3268, 
    3269, 
    3270, 
    3271, 
    3272, 
    3273, 
    3275, 
    3276, 
    3277, 
    3278, 
    3279, 
    3283, 
    3284, 
    3285, 
    3286, 
    3287, 
    3288, 
    3289, 
    3290, 
    3291, 
    3292, 
    3294, 
    3295, 
    3296, 
    3297, 
    3298, 
    3302, 
    3303, 
    3304, 
    3305, 
    3306, 
    3307, 
    3308, 
    3309, 
    3310, 
    3311, 
    3313, 
    3314, 
    3315, 
    3316, 
    3317, 
    3321, 
    3322, 
    3323, 
    3324, 
    3325, 
    3326, 
    3327, 
    3328, 
    3329, 
    3330, 
    3332, 
    3333, 
    3334, 
    3335, 
    3336, 
    3340, 
    3341, 
    3342, 
    3343, 
    3344, 
    3345, 
    3346, 
    3347, 
    3348, 
    3349, 
    3351, 
    3352, 
    3353, 
    3354, 
    3355, 
    3359, 
    3360, 
    3361, 
    3362, 
    3363, 
    3364, 
    3365, 
    3366, 
    3367, 
    3368, 
    3370, 
    3371, 
    3372, 
    3373, 
    3374, 
    3378, 
    3379, 
    3380, 
    3381, 
    3382, 
    3383, 
    3384, 
    3385, 
    3386, 
    3387, 
    3389, 
    3390, 
    3391, 
    3392, 
    3393, 
    3397, 
    3398, 
    3399, 
    3400, 
    3401, 
    3402, 
    3403, 
    3404, 
    3405, 
    3406, 
    3408, 
    3409, 
    3410, 
    3411, 
    3412, 
    3416, 
    3417, 
    3418, 
    3419, 
    3420, 
    3421, 
    3422, 
    3423, 
    3424, 
    3425, 
    3427, 
    3428, 
    3429, 
    3430, 
    3431, 
    3435, 
    3436, 
    3437, 
    3438, 
    3439, 
    3440, 
    3441, 
    3442, 
    3443, 
    3444, 
    3446, 
    3447, 
    3448, 
    3449, 
    3450, 
    3454, 
    3455, 
    3456, 
    3457, 
    3458, 
    3459, 
    3460, 
    3461, 
    3462, 
    3463, 
    3465, 
    3466, 
    3467, 
    3468, 
    3469, 
    3473, 
    3474, 
    3475, 
    3476, 
    3477, 
    3478, 
    3479, 
    3480, 
    3481, 
    3482, 
    3484, 
    3485, 
    3486, 
    3487, 
    3488, 
    3492, 
    3493, 
    3494, 
    3495, 
    3496, 
    3497, 
    3498, 
    3499, 
    3500, 
    3501, 
    3503, 
    3504, 
    3505, 
    3506, 
    3507, 
    3511, 
    3512, 
    3513, 
    3514, 
    3515, 
    3516, 
    3517, 
    3518, 
    3519, 
    3520, 
    3522, 
    3523, 
    3524, 
    3525, 
    3526, 
    3530, 
    3531, 
    3532, 
    3533, 
    3534, 
    3535, 
    3536, 
    3537, 
    3538, 
    3539, 
    3541, 
    3542, 
    3543, 
    3544, 
    3545, 
    3549, 
    3550, 
    3551, 
    3552, 
    3553, 
    3554, 
    3555, 
    3556, 
    3557, 
    3558, 
    3560, 
    3561, 
    3562, 
    3563, 
    3564, 
    3568, 
    3569, 
    3570, 
    3571, 
    3572, 
    3573, 
    3574, 
    3575, 
    3576, 
    3577, 
    3579, 
    3580, 
    3581, 
    3582, 
    3583, 
    3587, 
    3588, 
    3589, 
    3590, 
    3591, 
    3592, 
    3593, 
    3594, 
    3595, 
    3596, 
    3598, 
    3599, 
    3600, 
    3601, 
    3602, 
    3606, 
    3607, 
    3608, 
    3609, 
    3610, 
    3611, 
    3612, 
    3613, 
    3614, 
    3615, 
    3617, 
    3618, 
    3619, 
    3620, 
    3621, 
    3625, 
    3626, 
    3627, 
    3628, 
    3629, 
    3630, 
    3631, 
    3632, 
    3633, 
    3634, 
    3636, 
    3637, 
    3638, 
    3639, 
    3640, 
    3644, 
    3645, 
    3646, 
    3647, 
    3648, 
    3649, 
    3650, 
    3651, 
    3652, 
    3653, 
    3655, 
    3656, 
    3657, 
    3658, 
    3659, 
    3663, 
    3664, 
    3665, 
    3666, 
    3667, 
    3668, 
    3669, 
    3670, 
    3671, 
    3672, 
    3674, 
    3675, 
    3676, 
    3677, 
    3678, 
    3682, 
    3683, 
    3684, 
    3685, 
    3686, 
    3687, 
    3688, 
    3689, 
    3690, 
    3691, 
    3693, 
    3694, 
    3695, 
    3696, 
    3697, 
    3701, 
    3702, 
    3703, 
    3704, 
    3705, 
    3706, 
    3707, 
    3708, 
    3709, 
    3710, 
    3712, 
    3713, 
    3714, 
    3715, 
    3716, 
    3720, 
    3721, 
    3722, 
    3723, 
    3724, 
    3725, 
    3726, 
    3727, 
    3728, 
    3729, 
    3731, 
    3732, 
    3733, 
    3734, 
    3735, 
    3739, 
    3740, 
    3741, 
    3742, 
    3743, 
    3744, 
    3745, 
    3746, 
    3747, 
    3748, 
    3750, 
    3751, 
    3752, 
    3753, 
    3754, 
    3758, 
    3759, 
    3760, 
    3761, 
    3762, 
    3763, 
    3764, 
    3765, 
    3766, 
    3767, 
    3769, 
    3770, 
    3771, 
    3772, 
    3773, 
    3777, 
    3778, 
    3779, 
    3780, 
    3781, 
    3782, 
    3783, 
    3784, 
    3785, 
    3786, 
    3788, 
    3789, 
    3790, 
    3791, 
    3792, 
    3796, 
    3797, 
    3798, 
    3799, 
    3800, 
    3801, 
    3802, 
    3803, 
    3804, 
    3805, 
    3807, 
    3808, 
    3809, 
    3810, 
    3811, 
    3815, 
    3816, 
    3817, 
    3818, 
    3819, 
    3820, 
    3821, 
    3822, 
    3823, 
    3824, 
    3826, 
    3827, 
    3828, 
    3829, 
    3830, 
    3834, 
    3835, 
    3836, 
    3837, 
    3838, 
    3839, 
    3840, 
    3841, 
    3842, 
    3843, 
    3845, 
    3846, 
    3847, 
    3848, 
    3849, 
    3853, 
    3854, 
    3855, 
    3856, 
    3857, 
    3858, 
    3859, 
    3860, 
    3861, 
    3862, 
    3864, 
    3865, 
    3866, 
    3867, 
    3868, 
    3872, 
    3873, 
    3874, 
    3875, 
    3876, 
    3877, 
    3878, 
    3879, 
    3880, 
    3881, 
    3883, 
    3884, 
    3885, 
    3886, 
    3887, 
    3891, 
    3892, 
    3893, 
    3894, 
    3895, 
    3896, 
    3897, 
    3898, 
    3899, 
    3900, 
    3902, 
    3903, 
    3904, 
    3905, 
    3906, 
    3910, 
    3911, 
    3912, 
    3913, 
    3914, 
    3915, 
    3916, 
    3917, 
    3918, 
    3919, 
    3921, 
    3922, 
    3923, 
    3924, 
    3925, 
    3929, 
    3930, 
    3931, 
    3932, 
    3933, 
    3934, 
    3935, 
    3936, 
    3937, 
    3938, 
    3940, 
    3941, 
    3942, 
    3943, 
    3944, 
    3948, 
    3949, 
    3950, 
    3951, 
    3952, 
    3953, 
    3954, 
    3955, 
    3956, 
    3957, 
    3959, 
    3960, 
    3961, 
    3962, 
    3963, 
    3967, 
    3968, 
    3969, 
    3970, 
    3971, 
    3972, 
    3973, 
    3974, 
    3975, 
    3976, 
    3978, 
    3979, 
    3980, 
    3981, 
    3982, 
    3986, 
    3987, 
    3988, 
    3989, 
    3990, 
    3991, 
    3992, 
    3993, 
    3994, 
    3995, 
    3997, 
    3998, 
    3999, 
    4000, 
    4001, 
    4005, 
    4006, 
    4007, 
    4008, 
    4009, 
    4010, 
    4011, 
    4012, 
    4013, 
    4014, 
    4016, 
    4017, 
    4018, 
    4019, 
    4020, 
    4024, 
    4025, 
    4026, 
    4027, 
    4028, 
    4029, 
    4030, 
    4031, 
    4032, 
    4033, 
    4035, 
    4036, 
    4037, 
    4038, 
    4039, 
    4040, 
    4041, 
    4042, 
    4043, 
    4044, 
    4045, 
    4046, 
    4047, 
    4048, 
    4049, 
    4050, 
    4051, 
    4052, 
    4053, 
    4054, 
    4055, 
    4056, 
    4057, 
    4058, 
    4059, 
    4060, 
    4061, 
    4062, 
    4063, 
    4064, 
    4065, 
    4066, 
    4067, 
    4068, 
    4069, 
    4070, 
    4071, 
    4072, 
    4073, 
    4074, 
    4075, 
    4076, 
    4077, 
    4078, 
    4079, 
    4080, 
    4081, 
    4082, 
    4083, 
    4084, 
    4085, 
    4086, 
    4087, 
    4088, 
    4089, 
    4090, 
    4091, 
    4092, 
    4093, 
    4094, 
    4095, 
    4096, 
    4097, 
    4098, 
    4099, 
    4100, 
    4101, 
    4102, 
    4103, 
    4104, 
    4105, 
    4106, 
    4107, 
    4108, 
    4109, 
    4110, 
    4111, 
    4112, 
    4113, 
    4114, 
    4115, 
    4116, 
    4117, 
    4118, 
    4119, 
    4120, 
    4121, 
    4122, 
    4123, 
    4124, 
    4125, 
    4126, 
    4127, 
    4128, 
    4129, 
    4130, 
    4131, 
    4132, 
    4133, 
    4134, 
    4135, 
    4136, 
    4137, 
    4138, 
    4139, 
    4140, 
    4141, 
    4142, 
    4143, 
    4144, 
    4145, 
    4146, 
    4147, 
    4148, 
    4149, 
    4150, 
    4151, 
    4152, 
    4153, 
    4154, 
    4155, 
    4156, 
    4157, 
    4158, 
    4159, 
    4160, 
    4161, 
    4162, 
    4163, 
    4164, 
    4165, 
    4166, 
    4167, 
    4168, 
    4169, 
    4170, 
    4171, 
    4172, 
    4173, 
    4174, 
    4175, 
    4176, 
    4177, 
    4178, 
    4179, 
    4180, 
    4181, 
    4182, 
    4183, 
    4184, 
    4185, 
    4186, 
    4187, 
    4188, 
    4189, 
    4190, 
    4191, 
    4192, 
    4193, 
    4194, 
    4195, 
    4196, 
    4197, 
    4198, 
    4199, 
    4200, 
    4201, 
    4202, 
    4203, 
    4204, 
    4205, 
    4206, 
    4207, 
    4208, 
    4209, 
    4210, 
    4211, 
    4212, 
    4213, 
    4214, 
    4215, 
    4216, 
    4217, 
    4218, 
    4219, 
    4220, 
    4221, 
    4222, 
    4223, 
    4224, 
    4225, 
    4226, 
    4227, 
    4228, 
    4229, 
    4230, 
    4231, 
    4232, 
    4233, 
    4234, 
    4235, 
    4236, 
    4237, 
    4238, 
    4239, 
    4240, 
    4241, 
    4242, 
    4243, 
    4244, 
    4245, 
    4246, 
    4247, 
    4248, 
    4249, 
    4250, 
    4251, 
    4252, 
    4253, 
    4254, 
    4255, 
    4256, 
    4257, 
    4258, 
    4259, 
    4260, 
    4261, 
    4262, 
    4263, 
    4264, 
    4265, 
    4266, 
    4267, 
    4268, 
    4269, 
    4270, 
    4271, 
    4272, 
    4273, 
    4274, 
    4275, 
    4276, 
    4277, 
    4278, 
    4279, 
    4280, 
    4281, 
    4282, 
    4283, 
    4284, 
    4285, 
    4286, 
    4287, 
    4288, 
    4289, 
    4290, 
    4291, 
    4292, 
    4293, 
    4294, 
    4295, 
    4296, 
    4297, 
    4298, 
    4299, 
    4300, 
    4301, 
    4302, 
    4303, 
    4304, 
    4305, 
    4306, 
    4307, 
    4308, 
    4309, 
    4310, 
    4311, 
    4312, 
    4313, 
    4314, 
    4315, 
    4316, 
    4317, 
    4318, 
    4319, 
    4320, 
    4321, 
    4322, 
    4323, 
    4324, 
    4325, 
    4326, 
    4327, 
    4328, 
    4329, 
    4330, 
    4331, 
    4332, 
    4333, 
    4334, 
    4335, 
    4336, 
    4337, 
    4338, 
    4339, 
    4340, 
    4341, 
    4342, 
    4343, 
    4344, 
    4345, 
    4346, 
    4347, 
    4348, 
    4349, 
    4350, 
    4351, 
    4352, 
    4353, 
    4354, 
    4355, 
    4356, 
    4357, 
    4358, 
    4359, 
    4360, 
    4361, 
    4362, 
    4363, 
    4364, 
    4365, 
    4366, 
    4367, 
    4368, 
    4369, 
    4370, 
    4371, 
    4372, 
    4373, 
    4374, 
    4375, 
    4376, 
    4377, 
    4378, 
    4379, 
    4380, 
    4381, 
    4382, 
    4383, 
    4384, 
    4385, 
    4386, 
    4387, 
    4388, 
    4389, 
    4390, 
    4391, 
    4392, 
    4393, 
    4394, 
    4395, 
    4396, 
    4397, 
    4398, 
    4399, 
    4400, 
    4401, 
    4402, 
    4403, 
    4404, 
    4405, 
    4406, 
    4407, 
    4408, 
    4409, 
    4410, 
    4411, 
    4412, 
    4413, 
    4414, 
    4415, 
    4416, 
    4417, 
    4418, 
    4419, 
    4420, 
    4421, 
    4422, 
    4423, 
    4424, 
    4425, 
    4426, 
    4427, 
    4428, 
    4429, 
    4430, 
    4431, 
    4432, 
    4433, 
    4434, 
    4435, 
    4436, 
    4437, 
    4438, 
    4439, 
    4440, 
    4441, 
    4442, 
    4443, 
    4444, 
    4445, 
    4446, 
    4447, 
    4448, 
    4449, 
    4450, 
    4451, 
    4452, 
    4453, 
    4454, 
    4455, 
    4456, 
    4457, 
    4458, 
    4459, 
    4460, 
    4461, 
    4462, 
    4463, 
    4464, 
    4465, 
    4466, 
    4467, 
    4468, 
    4469, 
    4470, 
    4471, 
    4472, 
    4473, 
    4474, 
    4475, 
    4476, 
    4477, 
    4478, 
    4479, 
    4480, 
    4481, 
    4482, 
    4483, 
    4484, 
    4485, 
    4486, 
    4487, 
    4488, 
    4489, 
    4490, 
    4491, 
    4492, 
    4493, 
    4494, 
    4495, 
    4496, 
    4497, 
    4498, 
    4499, 
    4500, 
    4501, 
    4502, 
    4503, 
    4504, 
    4505, 
    4506, 
    4507, 
    4508, 
    4509, 
    4510, 
    4511, 
    4512, 
    4513, 
    4514, 
    4515, 
    4516, 
    4517, 
    4518, 
    4519, 
    4520, 
    4521, 
    4522, 
    4523, 
    4524, 
    4525, 
    4526, 
    4527, 
    4528, 
    4529, 
    4530, 
    4531, 
    4532, 
    4533, 
    4534, 
    4535, 
    4536, 
    4537, 
    4538, 
    4539, 
    4540, 
    4541, 
    4542, 
    4543, 
    4544, 
    4545, 
    4546, 
    4547, 
    4548, 
    4549, 
    4550, 
    4551, 
    4552, 
    4553, 
    4554, 
    4555, 
    4556, 
    4557, 
    4558, 
    4559, 
    4560, 
    4561, 
    4562, 
    4563, 
    4564, 
    4565, 
    4566, 
    4567, 
    4568, 
    4569, 
    4570, 
    4571, 
    4572, 
    4573, 
    4574, 
    4575, 
    4576, 
    4577, 
    4578, 
    4579, 
    4580, 
    4581, 
    4582, 
    4583, 
    4584, 
    4585, 
    4586, 
    4587, 
    4588, 
    4589, 
    4590, 
    4591, 
    4592, 
    4593, 
    4594, 
    4595, 
    4596, 
    4597, 
    4598, 
    4599, 
    4600, 
    4601, 
    4602, 
    4603, 
    4604, 
    4605, 
    4606, 
    4607, 
    4608, 
    4609, 
    4610, 
    4611, 
    4612, 
    4613, 
    4614, 
    4615, 
    4616, 
    4617, 
    4618, 
    4619, 
    4620, 
    4621, 
    4622, 
    4623, 
    4624, 
    4625, 
    4626, 
    4627, 
    4628, 
    4629, 
    4630, 
    4631, 
    4632, 
    4633, 
    4634, 
    4635, 
    4636, 
    4637, 
    4638, 
    4639, 
    4640, 
    4641, 
    4642, 
    4643, 
    4644, 
    4645, 
    4646, 
    4647, 
    4648, 
    4649, 
    4650, 
    4651, 
    4652, 
    4653, 
    4654, 
    4655, 
    4656, 
    4657, 
    4658, 
    4659, 
    4660, 
    4661, 
    4662, 
    4663, 
    4664, 
    4665, 
    4666, 
    4667, 
    4668, 
    4669, 
    4670, 
    4671, 
    4672, 
    4673, 
    4674, 
    4675, 
    4676, 
    4677, 
    4678, 
    4679, 
    4680, 
    4681, 
    4682, 
    4683, 
    4684, 
    4685, 
    4686, 
    4687, 
    4688, 
    4689, 
    4690, 
    4691, 
    4692, 
    4693, 
    4694, 
    4695, 
    4696, 
    4697, 
    4698, 
    4699, 
    4700, 
    4701, 
    4702, 
    4703, 
    4704, 
    4705, 
    4706, 
    4707, 
    4708, 
    4709, 
    4710, 
    4711, 
    4712, 
    4713, 
    4714, 
    4715, 
    4716, 
    4717, 
    4718, 
    4719, 
    4720, 
    4721, 
    4722, 
    4723, 
    4724, 
    4725, 
    4726, 
    4727, 
    4728, 
    4729, 
    4730, 
    4731, 
    4732, 
    4733, 
    4734, 
    4735, 
    4736, 
    4737, 
    4738, 
    4739, 
    4740, 
    4741, 
    4742, 
    4743, 
    4744, 
    4745, 
    4746, 
    4747, 
    4748, 
    4749, 
    4750, 
    4751, 
    4752, 
    4753, 
    4754, 
    4755, 
    4756, 
    4757, 
    4758, 
    4759, 
    4760, 
    4761, 
    4762, 
    4763, 
    4764, 
    4765, 
    4766, 
    4767, 
    4768, 
    4769, 
    4770, 
    4771, 
    4772, 
    4773, 
    4774, 
    4775, 
    4776, 
    4777, 
    4778, 
    4779, 
    4780, 
    4781, 
    4782, 
    4783, 
    4784, 
    4785, 
    4786, 
    4787, 
    4788, 
    4789, 
    4790, 
    4791, 
    4792, 
    4793, 
    4794, 
    4795, 
    4796, 
    4797, 
    4798, 
    4799, 
    4800, 
    4801, 
    4802, 
    4803, 
    4804, 
    4805, 
    4806, 
    4807, 
    4808, 
    4809, 
    4810, 
    4811, 
    4812, 
    4813, 
    4814, 
    4815, 
    4816, 
    4817, 
    4818, 
    4819, 
    4820, 
    4821, 
    4822, 
    4823, 
    4824, 
    4825, 
    4826, 
    4827, 
    4828, 
    4829, 
    4830, 
    4831, 
    4832, 
    4833, 
    4834, 
    4835, 
    4836, 
    4837, 
    4838, 
    4839, 
    4840, 
    4841, 
    4842, 
    4843, 
    4844, 
    4845, 
    4846, 
    4847, 
    4848, 
    4849, 
    4850, 
    4851, 
    4852, 
    4853, 
    4854, 
    4855, 
    4856, 
    4857, 
    4858, 
    4859, 
    4860, 
    4861, 
    4862, 
    4863, 
    4864, 
    4865, 
    4866, 
    4867, 
    4868, 
    4869, 
    4870, 
    4871, 
    4872, 
    4873, 
    4874, 
    4875, 
    4876, 
    4877, 
    4878, 
    4879, 
    4880, 
    4881, 
    4882, 
    4883, 
    4884, 
    4885, 
    4886, 
    4887, 
    4888, 
    4889, 
    4890, 
    4891, 
    4892, 
    4893, 
    4894, 
    4895, 
    4896, 
    4897, 
    4898, 
    4899, 
    4900, 
    4901, 
    4902, 
    4903, 
    4904, 
    4905, 
    4906, 
    4907, 
    4908, 
    4909, 
    4910, 
    4911, 
    4912, 
    4913, 
    4914, 
    4915, 
    4916, 
    4917, 
    4918, 
    4919, 
    4920, 
    4921, 
    4922, 
    4923, 
    4924, 
    4925, 
    4926, 
    4927, 
    4928, 
    4929, 
    4930, 
    4931, 
    4932, 
    4933, 
    4934, 
    4935, 
    4936, 
    4937, 
    4938, 
    4939, 
    4940, 
    4941, 
    4942, 
    4943, 
    4944, 
    4945, 
    4946, 
    4947, 
    4948, 
    4949, 
    4950, 
    4951, 
    4952, 
    4953, 
    4954, 
    4955, 
    4956, 
    4957, 
    4958, 
    4959, 
    4960, 
    4961, 
    4962, 
    4963, 
    4964, 
    4965, 
    4966, 
    4967, 
    4968, 
    4969, 
    4970, 
    4971, 
    4972, 
    4973, 
    4974, 
    4975, 
    4976, 
    4977, 
    4978, 
    4979, 
    4980, 
    4981, 
    4982, 
    4983, 
    4984, 
    4985, 
    4986, 
    4987, 
    4988, 
    4989, 
    4990, 
    4991, 
    4992, 
    4993, 
    4994, 
    4995, 
    4996, 
    4997, 
    4998, 
    4999, 
    5000, 
    5001, 
    5002, 
    5003, 
    5004, 
    5005, 
    5006, 
    5007, 
    5008, 
    5009, 
    5010, 
    5011, 
    5012, 
    5013, 
    5014, 
    5015, 
    5016, 
    5017, 
    5018, 
    5019, 
    5020, 
    5021, 
    5022, 
    5023, 
    5024, 
    5025, 
    5026, 
    5027, 
    5028, 
    5029, 
    5030, 
    5031, 
    5032, 
    5033, 
    5034, 
    5035, 
    5036, 
    5037, 
    5038, 
    5039, 
    5040, 
    5041, 
    5042, 
    5043, 
    5044, 
    5045, 
    5046, 
    5047, 
    5048, 
    5049, 
    5050, 
    5051, 
    5052, 
    5053, 
    5054, 
    5055, 
    5056, 
    5057, 
    5058, 
    5059, 
    5060, 
    5061, 
    5062, 
    5063, 
    5064, 
    5065, 
    5066, 
    5067, 
    5068, 
    5069, 
    5070, 
    5071, 
    5072, 
    5073, 
    5074, 
    5075, 
    5076, 
    5077, 
    5078, 
    5079, 
    5080, 
    5081, 
    5082, 
    5083, 
    5084, 
    5085, 
    5086, 
    5087, 
    5088, 
    5089, 
    5090, 
    5091, 
    5092, 
    5093, 
    5094, 
    5095, 
    5096, 
    5097, 
    5098, 
    5099, 
    5100, 
    5101, 
    5102, 
    5103, 
    5104, 
    5105, 
    5106, 
    5107, 
    5108, 
    5109, 
    5110, 
    5111, 
    5112, 
    5113, 
    5114, 
    5115, 
    5116, 
    5117, 
    5118, 
    5119, 
    5120, 
    5121, 
    5122, 
    5123, 
    5124, 
    5125, 
    5126, 
    5127, 
    5128, 
    5129, 
    5130, 
    5131, 
    5132, 
    5133, 
    5134, 
    5135, 
    5136, 
    5137, 
    5138, 
    5139, 
    5140, 
    5141, 
    5142, 
    5143, 
    5144, 
    5145, 
    5146, 
    5147, 
    5148, 
    5149, 
    5150, 
    5151, 
    5152, 
    5153, 
    5154, 
    5155, 
    5156, 
    5157, 
    5158, 
    5159, 
    5160, 
    5161, 
    5162, 
    5163, 
    5164, 
    5165, 
    5166, 
    5167, 
    5168, 
    5169, 
    5170, 
    5171, 
    5172, 
    5173, 
    5174, 
    5175, 
    5176, 
    5177, 
    5178, 
    5179, 
    5180, 
    5181, 
    5182, 
    5183, 
    5184, 
    5185, 
    5186, 
    5187, 
    5188, 
    5189, 
    5190, 
    5191, 
    5192, 
    5193, 
    5194, 
    5195, 
    5196, 
    5197, 
    5198, 
    5199, 
    5200, 
    5201, 
    5202, 
    5203, 
    5204, 
    5205, 
    5206, 
    5207, 
    5208, 
    5209, 
    5210, 
    5211, 
    5212, 
    5213, 
    5214, 
    5215, 
    5216, 
    5217, 
    5218, 
    5219, 
    5220, 
    5221, 
    5222, 
    5223, 
    5224, 
    5225, 
    5226, 
    5227, 
    5228, 
    5229, 
    5230, 
    5231, 
    5232, 
    5233, 
    5234, 
    5235, 
    5236, 
    5237, 
    5238, 
    5239, 
    5240, 
    5241, 
    5242, 
    5243, 
    5244, 
    5245, 
    5246, 
    5247, 
    5248, 
    5249, 
    5250, 
    5251, 
    5252, 
    5253, 
    5254, 
    5255, 
    5256, 
    5257, 
    5258, 
    5259, 
    5260, 
    5261, 
    5262, 
    5263, 
    5264, 
    5265, 
    5266, 
    5267, 
    5268, 
    5269, 
    5270, 
    5271, 
    5272, 
    5273, 
    5274, 
    5275, 
    5276, 
    5277, 
    5278, 
    5279, 
    5280, 
    5281, 
    5282, 
    5283, 
    5284, 
    5285, 
    5286, 
    5287, 
    5288, 
    5289, 
    5290, 
    5291, 
    5292, 
    5293, 
    5294, 
    5295, 
    5296, 
    5297, 
    5298, 
    5299, 
    5300, 
    5301, 
    5302, 
    5303, 
    5304, 
    5305, 
    5306, 
    5307, 
    5308, 
    5309, 
    5310, 
    5311, 
    5312, 
    5313, 
    5314, 
    5315, 
    5316, 
    5317, 
    5318, 
    5319, 
    5320, 
    5321, 
    5322, 
    5323, 
    5324, 
    5325, 
    5326, 
    5327, 
    5328, 
    5329
  ], 
  "heads": [[4328, 0, 0]], 
  "attrs": {"mxnet_version": ["int", 1100]}
}