{
  "nodes": [
    {
      "op": "null", 
      "name": "data", 
      "inputs": []
    }, 
    {
      "op": "Reshape", 
      "name": "reshape0", 
      "attrs": {"shape": "(0, 1, 168, -1)"}, 
      "inputs": [[0, 0, 0]]
    }, 
    {
      "op": "Pad", 
      "name": "pad0", 
      "attrs": {
        "constant_value": "0", 
        "mode": "constant", 
        "pad_width": "(0, 0, 0, 0, 5, 0, 0, 0)"
      }, 
      "inputs": [[1, 0, 0]]
    }, 
    {
      "op": "null", 
      "name": "convolution0_weight", 
      "attrs": {
        "kernel": "(6, 321)", 
        "num_filter": "100"
      }, 
      "inputs": []
    }, 
    {
      "op": "null", 
      "name": "convolution0_bias", 
      "attrs": {
        "kernel": "(6, 321)", 
        "num_filter": "100"
      }, 
      "inputs": []
    }, 
    {
      "op": "Convolution", 
      "name": "convolution0", 
      "attrs": {
        "kernel": "(6, 321)", 
        "num_filter": "100"
      }, 
      "inputs": [[2, 0, 0], [3, 0, 0], [4, 0, 0]]
    }, 
    {
      "op": "Activation", 
      "name": "activation0", 
      "attrs": {"act_type": "relu"}, 
      "inputs": [[5, 0, 0]]
    }, 
    {
      "op": "transpose", 
      "name": "transpose0", 
      "attrs": {"axes": "(0, 2, 1, 3)"}, 
      "inputs": [[6, 0, 0]]
    }, 
    {
      "op": "Reshape", 
      "name": "reshape1", 
      "attrs": {"shape": "(0, 0, 0)"}, 
      "inputs": [[7, 0, 0]]
    }, 
    {
      "op": "Pad", 
      "name": "pad1", 
      "attrs": {
        "constant_value": "0", 
        "mode": "constant", 
        "pad_width": "(0, 0, 0, 0, 11, 0, 0, 0)"
      }, 
      "inputs": [[1, 0, 0]]
    }, 
    {
      "op": "null", 
      "name": "convolution1_weight", 
      "attrs": {
        "kernel": "(12, 321)", 
        "num_filter": "100"
      }, 
      "inputs": []
    }, 
    {
      "op": "null", 
      "name": "convolution1_bias", 
      "attrs": {
        "kernel": "(12, 321)", 
        "num_filter": "100"
      }, 
      "inputs": []
    }, 
    {
      "op": "Convolution", 
      "name": "convolution1", 
      "attrs": {
        "kernel": "(12, 321)", 
        "num_filter": "100"
      }, 
      "inputs": [[9, 0, 0], [10, 0, 0], [11, 0, 0]]
    }, 
    {
      "op": "Activation", 
      "name": "activation1", 
      "attrs": {"act_type": "relu"}, 
      "inputs": [[12, 0, 0]]
    }, 
    {
      "op": "transpose", 
      "name": "transpose1", 
      "attrs": {"axes": "(0, 2, 1, 3)"}, 
      "inputs": [[13, 0, 0]]
    }, 
    {
      "op": "Reshape", 
      "name": "reshape2", 
      "attrs": {"shape": "(0, 0, 0)"}, 
      "inputs": [[14, 0, 0]]
    }, 
    {
      "op": "Pad", 
      "name": "pad2", 
      "attrs": {
        "constant_value": "0", 
        "mode": "constant", 
        "pad_width": "(0, 0, 0, 0, 17, 0, 0, 0)"
      }, 
      "inputs": [[1, 0, 0]]
    }, 
    {
      "op": "null", 
      "name": "convolution2_weight", 
      "attrs": {
        "kernel": "(18, 321)", 
        "num_filter": "100"
      }, 
      "inputs": []
    }, 
    {
      "op": "null", 
      "name": "convolution2_bias", 
      "attrs": {
        "kernel": "(18, 321)", 
        "num_filter": "100"
      }, 
      "inputs": []
    }, 
    {
      "op": "Convolution", 
      "name": "convolution2", 
      "attrs": {
        "kernel": "(18, 321)", 
        "num_filter": "100"
      }, 
      "inputs": [[16, 0, 0], [17, 0, 0], [18, 0, 0]]
    }, 
    {
      "op": "Activation", 
      "name": "activation2", 
      "attrs": {"act_type": "relu"}, 
      "inputs": [[19, 0, 0]]
    }, 
    {
      "op": "transpose", 
      "name": "transpose2", 
      "attrs": {"axes": "(0, 2, 1, 3)"}, 
      "inputs": [[20, 0, 0]]
    }, 
    {
      "op": "Reshape", 
      "name": "reshape3", 
      "attrs": {"shape": "(0, 0, 0)"}, 
      "inputs": [[21, 0, 0]]
    }, 
    {
      "op": "Concat", 
      "name": "concat0", 
      "attrs": {
        "dim": "2", 
        "num_args": "3"
      }, 
      "inputs": [[8, 0, 0], [15, 0, 0], [22, 0, 0]]
    }, 
    {
      "op": "Dropout", 
      "name": "dropout0", 
      "attrs": {"p": "0.2"}, 
      "inputs": [[23, 0, 0]]
    }, 
    {
      "op": "SliceChannel", 
      "name": "split0", 
      "attrs": {
        "axis": "1", 
        "num_outputs": "168", 
        "squeeze_axis": "1"
      }, 
      "inputs": [[24, 0, 0]]
    }, 
    {
      "op": "null", 
      "name": "gru_i2h_weight", 
      "inputs": []
    }, 
    {
      "op": "null", 
      "name": "gru_i2h_bias", 
      "inputs": []
    }, 
    {
      "op": "FullyConnected", 
      "name": "gru_t167__i2h", 
      "attrs": {"num_hidden": "300"}, 
      "inputs": [[25, 167, 0], [26, 0, 0], [27, 0, 0]]
    }, 
    {
      "op": "SliceChannel", 
      "name": "gru_t167__i2h_slice", 
      "attrs": {"num_outputs": "3"}, 
      "inputs": [[28, 0, 0]]
    }, 
    {
      "op": "FullyConnected", 
      "name": "gru_t166__i2h", 
      "attrs": {"num_hidden": "300"}, 
      "inputs": [[25, 166, 0], [26, 0, 0], [27, 0, 0]]
    }, 
    {
      "op": "SliceChannel", 
      "name": "gru_t166__i2h_slice", 
      "attrs": {"num_outputs": "3"}, 
      "inputs": [[30, 0, 0]]
    }, 
    {
      "op": "FullyConnected", 
      "name": "gru_t165__i2h", 
      "attrs": {"num_hidden": "300"}, 
      "inputs": [[25, 165, 0], [26, 0, 0], [27, 0, 0]]
    }, 
    {
      "op": "SliceChannel", 
      "name": "gru_t165__i2h_slice", 
      "attrs": {"num_outputs": "3"}, 
      "inputs": [[32, 0, 0]]
    }, 
    {
      "op": "FullyConnected", 
      "name": "gru_t164__i2h", 
      "attrs": {"num_hidden": "300"}, 
      "inputs": [[25, 164, 0], [26, 0, 0], [27, 0, 0]]
    }, 
    {
      "op": "SliceChannel", 
      "name": "gru_t164__i2h_slice", 
      "attrs": {"num_outputs": "3"}, 
      "inputs": [[34, 0, 0]]
    }, 
    {
      "op": "FullyConnected", 
      "name": "gru_t163__i2h", 
      "attrs": {"num_hidden": "300"}, 
      "inputs": [[25, 163, 0], [26, 0, 0], [27, 0, 0]]
    }, 
    {
      "op": "SliceChannel", 
      "name": "gru_t163__i2h_slice", 
      "attrs": {"num_outputs": "3"}, 
      "inputs": [[36, 0, 0]]
    }, 
    {
      "op": "FullyConnected", 
      "name": "gru_t162__i2h", 
      "attrs": {"num_hidden": "300"}, 
      "inputs": [[25, 162, 0], [26, 0, 0], [27, 0, 0]]
    }, 
    {
      "op": "SliceChannel", 
      "name": "gru_t162__i2h_slice", 
      "attrs": {"num_outputs": "3"}, 
      "inputs": [[38, 0, 0]]
    }, 
    {
      "op": "FullyConnected", 
      "name": "gru_t161__i2h", 
      "attrs": {"num_hidden": "300"}, 
      "inputs": [[25, 161, 0], [26, 0, 0], [27, 0, 0]]
    }, 
    {
      "op": "SliceChannel", 
      "name": "gru_t161__i2h_slice", 
      "attrs": {"num_outputs": "3"}, 
      "inputs": [[40, 0, 0]]
    }, 
    {
      "op": "FullyConnected", 
      "name": "gru_t160__i2h", 
      "attrs": {"num_hidden": "300"}, 
      "inputs": [[25, 160, 0], [26, 0, 0], [27, 0, 0]]
    }, 
    {
      "op": "SliceChannel", 
      "name": "gru_t160__i2h_slice", 
      "attrs": {"num_outputs": "3"}, 
      "inputs": [[42, 0, 0]]
    }, 
    {
      "op": "FullyConnected", 
      "name": "gru_t159__i2h", 
      "attrs": {"num_hidden": "300"}, 
      "inputs": [[25, 159, 0], [26, 0, 0], [27, 0, 0]]
    }, 
    {
      "op": "SliceChannel", 
      "name": "gru_t159__i2h_slice", 
      "attrs": {"num_outputs": "3"}, 
      "inputs": [[44, 0, 0]]
    }, 
    {
      "op": "FullyConnected", 
      "name": "gru_t158__i2h", 
      "attrs": {"num_hidden": "300"}, 
      "inputs": [[25, 158, 0], [26, 0, 0], [27, 0, 0]]
    }, 
    {
      "op": "SliceChannel", 
      "name": "gru_t158__i2h_slice", 
      "attrs": {"num_outputs": "3"}, 
      "inputs": [[46, 0, 0]]
    }, 
    {
      "op": "FullyConnected", 
      "name": "gru_t157__i2h", 
      "attrs": {"num_hidden": "300"}, 
      "inputs": [[25, 157, 0], [26, 0, 0], [27, 0, 0]]
    }, 
    {
      "op": "SliceChannel", 
      "name": "gru_t157__i2h_slice", 
      "attrs": {"num_outputs": "3"}, 
      "inputs": [[48, 0, 0]]
    }, 
    {
      "op": "FullyConnected", 
      "name": "gru_t156__i2h", 
      "attrs": {"num_hidden": "300"}, 
      "inputs": [[25, 156, 0], [26, 0, 0], [27, 0, 0]]
    }, 
    {
      "op": "SliceChannel", 
      "name": "gru_t156__i2h_slice", 
      "attrs": {"num_outputs": "3"}, 
      "inputs": [[50, 0, 0]]
    }, 
    {
      "op": "FullyConnected", 
      "name": "gru_t155__i2h", 
      "attrs": {"num_hidden": "300"}, 
      "inputs": [[25, 155, 0], [26, 0, 0], [27, 0, 0]]
    }, 
    {
      "op": "SliceChannel", 
      "name": "gru_t155__i2h_slice", 
      "attrs": {"num_outputs": "3"}, 
      "inputs": [[52, 0, 0]]
    }, 
    {
      "op": "FullyConnected", 
      "name": "gru_t154__i2h", 
      "attrs": {"num_hidden": "300"}, 
      "inputs": [[25, 154, 0], [26, 0, 0], [27, 0, 0]]
    }, 
    {
      "op": "SliceChannel", 
      "name": "gru_t154__i2h_slice", 
      "attrs": {"num_outputs": "3"}, 
      "inputs": [[54, 0, 0]]
    }, 
    {
      "op": "FullyConnected", 
      "name": "gru_t153__i2h", 
      "attrs": {"num_hidden": "300"}, 
      "inputs": [[25, 153, 0], [26, 0, 0], [27, 0, 0]]
    }, 
    {
      "op": "SliceChannel", 
      "name": "gru_t153__i2h_slice", 
      "attrs": {"num_outputs": "3"}, 
      "inputs": [[56, 0, 0]]
    }, 
    {
      "op": "FullyConnected", 
      "name": "gru_t152__i2h", 
      "attrs": {"num_hidden": "300"}, 
      "inputs": [[25, 152, 0], [26, 0, 0], [27, 0, 0]]
    }, 
    {
      "op": "SliceChannel", 
      "name": "gru_t152__i2h_slice", 
      "attrs": {"num_outputs": "3"}, 
      "inputs": [[58, 0, 0]]
    }, 
    {
      "op": "FullyConnected", 
      "name": "gru_t151__i2h", 
      "attrs": {"num_hidden": "300"}, 
      "inputs": [[25, 151, 0], [26, 0, 0], [27, 0, 0]]
    }, 
    {
      "op": "SliceChannel", 
      "name": "gru_t151__i2h_slice", 
      "attrs": {"num_outputs": "3"}, 
      "inputs": [[60, 0, 0]]
    }, 
    {
      "op": "FullyConnected", 
      "name": "gru_t150__i2h", 
      "attrs": {"num_hidden": "300"}, 
      "inputs": [[25, 150, 0], [26, 0, 0], [27, 0, 0]]
    }, 
    {
      "op": "SliceChannel", 
      "name": "gru_t150__i2h_slice", 
      "attrs": {"num_outputs": "3"}, 
      "inputs": [[62, 0, 0]]
    }, 
    {
      "op": "FullyConnected", 
      "name": "gru_t149__i2h", 
      "attrs": {"num_hidden": "300"}, 
      "inputs": [[25, 149, 0], [26, 0, 0], [27, 0, 0]]
    }, 
    {
      "op": "SliceChannel", 
      "name": "gru_t149__i2h_slice", 
      "attrs": {"num_outputs": "3"}, 
      "inputs": [[64, 0, 0]]
    }, 
    {
      "op": "FullyConnected", 
      "name": "gru_t148__i2h", 
      "attrs": {"num_hidden": "300"}, 
      "inputs": [[25, 148, 0], [26, 0, 0], [27, 0, 0]]
    }, 
    {
      "op": "SliceChannel", 
      "name": "gru_t148__i2h_slice", 
      "attrs": {"num_outputs": "3"}, 
      "inputs": [[66, 0, 0]]
    }, 
    {
      "op": "FullyConnected", 
      "name": "gru_t147__i2h", 
      "attrs": {"num_hidden": "300"}, 
      "inputs": [[25, 147, 0], [26, 0, 0], [27, 0, 0]]
    }, 
    {
      "op": "SliceChannel", 
      "name": "gru_t147__i2h_slice", 
      "attrs": {"num_outputs": "3"}, 
      "inputs": [[68, 0, 0]]
    }, 
    {
      "op": "FullyConnected", 
      "name": "gru_t146__i2h", 
      "attrs": {"num_hidden": "300"}, 
      "inputs": [[25, 146, 0], [26, 0, 0], [27, 0, 0]]
    }, 
    {
      "op": "SliceChannel", 
      "name": "gru_t146__i2h_slice", 
      "attrs": {"num_outputs": "3"}, 
      "inputs": [[70, 0, 0]]
    }, 
    {
      "op": "FullyConnected", 
      "name": "gru_t145__i2h", 
      "attrs": {"num_hidden": "300"}, 
      "inputs": [[25, 145, 0], [26, 0, 0], [27, 0, 0]]
    }, 
    {
      "op": "SliceChannel", 
      "name": "gru_t145__i2h_slice", 
      "attrs": {"num_outputs": "3"}, 
      "inputs": [[72, 0, 0]]
    }, 
    {
      "op": "FullyConnected", 
      "name": "gru_t144__i2h", 
      "attrs": {"num_hidden": "300"}, 
      "inputs": [[25, 144, 0], [26, 0, 0], [27, 0, 0]]
    }, 
    {
      "op": "SliceChannel", 
      "name": "gru_t144__i2h_slice", 
      "attrs": {"num_outputs": "3"}, 
      "inputs": [[74, 0, 0]]
    }, 
    {
      "op": "FullyConnected", 
      "name": "gru_t143__i2h", 
      "attrs": {"num_hidden": "300"}, 
      "inputs": [[25, 143, 0], [26, 0, 0], [27, 0, 0]]
    }, 
    {
      "op": "SliceChannel", 
      "name": "gru_t143__i2h_slice", 
      "attrs": {"num_outputs": "3"}, 
      "inputs": [[76, 0, 0]]
    }, 
    {
      "op": "FullyConnected", 
      "name": "gru_t142__i2h", 
      "attrs": {"num_hidden": "300"}, 
      "inputs": [[25, 142, 0], [26, 0, 0], [27, 0, 0]]
    }, 
    {
      "op": "SliceChannel", 
      "name": "gru_t142__i2h_slice", 
      "attrs": {"num_outputs": "3"}, 
      "inputs": [[78, 0, 0]]
    }, 
    {
      "op": "FullyConnected", 
      "name": "gru_t141__i2h", 
      "attrs": {"num_hidden": "300"}, 
      "inputs": [[25, 141, 0], [26, 0, 0], [27, 0, 0]]
    }, 
    {
      "op": "SliceChannel", 
      "name": "gru_t141__i2h_slice", 
      "attrs": {"num_outputs": "3"}, 
      "inputs": [[80, 0, 0]]
    }, 
    {
      "op": "FullyConnected", 
      "name": "gru_t140__i2h", 
      "attrs": {"num_hidden": "300"}, 
      "inputs": [[25, 140, 0], [26, 0, 0], [27, 0, 0]]
    }, 
    {
      "op": "SliceChannel", 
      "name": "gru_t140__i2h_slice", 
      "attrs": {"num_outputs": "3"}, 
      "inputs": [[82, 0, 0]]
    }, 
    {
      "op": "FullyConnected", 
      "name": "gru_t139__i2h", 
      "attrs": {"num_hidden": "300"}, 
      "inputs": [[25, 139, 0], [26, 0, 0], [27, 0, 0]]
    }, 
    {
      "op": "SliceChannel", 
      "name": "gru_t139__i2h_slice", 
      "attrs": {"num_outputs": "3"}, 
      "inputs": [[84, 0, 0]]
    }, 
    {
      "op": "FullyConnected", 
      "name": "gru_t138__i2h", 
      "attrs": {"num_hidden": "300"}, 
      "inputs": [[25, 138, 0], [26, 0, 0], [27, 0, 0]]
    }, 
    {
      "op": "SliceChannel", 
      "name": "gru_t138__i2h_slice", 
      "attrs": {"num_outputs": "3"}, 
      "inputs": [[86, 0, 0]]
    }, 
    {
      "op": "FullyConnected", 
      "name": "gru_t137__i2h", 
      "attrs": {"num_hidden": "300"}, 
      "inputs": [[25, 137, 0], [26, 0, 0], [27, 0, 0]]
    }, 
    {
      "op": "SliceChannel", 
      "name": "gru_t137__i2h_slice", 
      "attrs": {"num_outputs": "3"}, 
      "inputs": [[88, 0, 0]]
    }, 
    {
      "op": "FullyConnected", 
      "name": "gru_t136__i2h", 
      "attrs": {"num_hidden": "300"}, 
      "inputs": [[25, 136, 0], [26, 0, 0], [27, 0, 0]]
    }, 
    {
      "op": "SliceChannel", 
      "name": "gru_t136__i2h_slice", 
      "attrs": {"num_outputs": "3"}, 
      "inputs": [[90, 0, 0]]
    }, 
    {
      "op": "FullyConnected", 
      "name": "gru_t135__i2h", 
      "attrs": {"num_hidden": "300"}, 
      "inputs": [[25, 135, 0], [26, 0, 0], [27, 0, 0]]
    }, 
    {
      "op": "SliceChannel", 
      "name": "gru_t135__i2h_slice", 
      "attrs": {"num_outputs": "3"}, 
      "inputs": [[92, 0, 0]]
    }, 
    {
      "op": "FullyConnected", 
      "name": "gru_t134__i2h", 
      "attrs": {"num_hidden": "300"}, 
      "inputs": [[25, 134, 0], [26, 0, 0], [27, 0, 0]]
    }, 
    {
      "op": "SliceChannel", 
      "name": "gru_t134__i2h_slice", 
      "attrs": {"num_outputs": "3"}, 
      "inputs": [[94, 0, 0]]
    }, 
    {
      "op": "FullyConnected", 
      "name": "gru_t133__i2h", 
      "attrs": {"num_hidden": "300"}, 
      "inputs": [[25, 133, 0], [26, 0, 0], [27, 0, 0]]
    }, 
    {
      "op": "SliceChannel", 
      "name": "gru_t133__i2h_slice", 
      "attrs": {"num_outputs": "3"}, 
      "inputs": [[96, 0, 0]]
    }, 
    {
      "op": "FullyConnected", 
      "name": "gru_t132__i2h", 
      "attrs": {"num_hidden": "300"}, 
      "inputs": [[25, 132, 0], [26, 0, 0], [27, 0, 0]]
    }, 
    {
      "op": "SliceChannel", 
      "name": "gru_t132__i2h_slice", 
      "attrs": {"num_outputs": "3"}, 
      "inputs": [[98, 0, 0]]
    }, 
    {
      "op": "FullyConnected", 
      "name": "gru_t131__i2h", 
      "attrs": {"num_hidden": "300"}, 
      "inputs": [[25, 131, 0], [26, 0, 0], [27, 0, 0]]
    }, 
    {
      "op": "SliceChannel", 
      "name": "gru_t131__i2h_slice", 
      "attrs": {"num_outputs": "3"}, 
      "inputs": [[100, 0, 0]]
    }, 
    {
      "op": "FullyConnected", 
      "name": "gru_t130__i2h", 
      "attrs": {"num_hidden": "300"}, 
      "inputs": [[25, 130, 0], [26, 0, 0], [27, 0, 0]]
    }, 
    {
      "op": "SliceChannel", 
      "name": "gru_t130__i2h_slice", 
      "attrs": {"num_outputs": "3"}, 
      "inputs": [[102, 0, 0]]
    }, 
    {
      "op": "FullyConnected", 
      "name": "gru_t129__i2h", 
      "attrs": {"num_hidden": "300"}, 
      "inputs": [[25, 129, 0], [26, 0, 0], [27, 0, 0]]
    }, 
    {
      "op": "SliceChannel", 
      "name": "gru_t129__i2h_slice", 
      "attrs": {"num_outputs": "3"}, 
      "inputs": [[104, 0, 0]]
    }, 
    {
      "op": "FullyConnected", 
      "name": "gru_t128__i2h", 
      "attrs": {"num_hidden": "300"}, 
      "inputs": [[25, 128, 0], [26, 0, 0], [27, 0, 0]]
    }, 
    {
      "op": "SliceChannel", 
      "name": "gru_t128__i2h_slice", 
      "attrs": {"num_outputs": "3"}, 
      "inputs": [[106, 0, 0]]
    }, 
    {
      "op": "FullyConnected", 
      "name": "gru_t127__i2h", 
      "attrs": {"num_hidden": "300"}, 
      "inputs": [[25, 127, 0], [26, 0, 0], [27, 0, 0]]
    }, 
    {
      "op": "SliceChannel", 
      "name": "gru_t127__i2h_slice", 
      "attrs": {"num_outputs": "3"}, 
      "inputs": [[108, 0, 0]]
    }, 
    {
      "op": "FullyConnected", 
      "name": "gru_t126__i2h", 
      "attrs": {"num_hidden": "300"}, 
      "inputs": [[25, 126, 0], [26, 0, 0], [27, 0, 0]]
    }, 
    {
      "op": "SliceChannel", 
      "name": "gru_t126__i2h_slice", 
      "attrs": {"num_outputs": "3"}, 
      "inputs": [[110, 0, 0]]
    }, 
    {
      "op": "FullyConnected", 
      "name": "gru_t125__i2h", 
      "attrs": {"num_hidden": "300"}, 
      "inputs": [[25, 125, 0], [26, 0, 0], [27, 0, 0]]
    }, 
    {
      "op": "SliceChannel", 
      "name": "gru_t125__i2h_slice", 
      "attrs": {"num_outputs": "3"}, 
      "inputs": [[112, 0, 0]]
    }, 
    {
      "op": "FullyConnected", 
      "name": "gru_t124__i2h", 
      "attrs": {"num_hidden": "300"}, 
      "inputs": [[25, 124, 0], [26, 0, 0], [27, 0, 0]]
    }, 
    {
      "op": "SliceChannel", 
      "name": "gru_t124__i2h_slice", 
      "attrs": {"num_outputs": "3"}, 
      "inputs": [[114, 0, 0]]
    }, 
    {
      "op": "FullyConnected", 
      "name": "gru_t123__i2h", 
      "attrs": {"num_hidden": "300"}, 
      "inputs": [[25, 123, 0], [26, 0, 0], [27, 0, 0]]
    }, 
    {
      "op": "SliceChannel", 
      "name": "gru_t123__i2h_slice", 
      "attrs": {"num_outputs": "3"}, 
      "inputs": [[116, 0, 0]]
    }, 
    {
      "op": "FullyConnected", 
      "name": "gru_t122__i2h", 
      "attrs": {"num_hidden": "300"}, 
      "inputs": [[25, 122, 0], [26, 0, 0], [27, 0, 0]]
    }, 
    {
      "op": "SliceChannel", 
      "name": "gru_t122__i2h_slice", 
      "attrs": {"num_outputs": "3"}, 
      "inputs": [[118, 0, 0]]
    }, 
    {
      "op": "FullyConnected", 
      "name": "gru_t121__i2h", 
      "attrs": {"num_hidden": "300"}, 
      "inputs": [[25, 121, 0], [26, 0, 0], [27, 0, 0]]
    }, 
    {
      "op": "SliceChannel", 
      "name": "gru_t121__i2h_slice", 
      "attrs": {"num_outputs": "3"}, 
      "inputs": [[120, 0, 0]]
    }, 
    {
      "op": "FullyConnected", 
      "name": "gru_t120__i2h", 
      "attrs": {"num_hidden": "300"}, 
      "inputs": [[25, 120, 0], [26, 0, 0], [27, 0, 0]]
    }, 
    {
      "op": "SliceChannel", 
      "name": "gru_t120__i2h_slice", 
      "attrs": {"num_outputs": "3"}, 
      "inputs": [[122, 0, 0]]
    }, 
    {
      "op": "FullyConnected", 
      "name": "gru_t119__i2h", 
      "attrs": {"num_hidden": "300"}, 
      "inputs": [[25, 119, 0], [26, 0, 0], [27, 0, 0]]
    }, 
    {
      "op": "SliceChannel", 
      "name": "gru_t119__i2h_slice", 
      "attrs": {"num_outputs": "3"}, 
      "inputs": [[124, 0, 0]]
    }, 
    {
      "op": "FullyConnected", 
      "name": "gru_t118__i2h", 
      "attrs": {"num_hidden": "300"}, 
      "inputs": [[25, 118, 0], [26, 0, 0], [27, 0, 0]]
    }, 
    {
      "op": "SliceChannel", 
      "name": "gru_t118__i2h_slice", 
      "attrs": {"num_outputs": "3"}, 
      "inputs": [[126, 0, 0]]
    }, 
    {
      "op": "FullyConnected", 
      "name": "gru_t117__i2h", 
      "attrs": {"num_hidden": "300"}, 
      "inputs": [[25, 117, 0], [26, 0, 0], [27, 0, 0]]
    }, 
    {
      "op": "SliceChannel", 
      "name": "gru_t117__i2h_slice", 
      "attrs": {"num_outputs": "3"}, 
      "inputs": [[128, 0, 0]]
    }, 
    {
      "op": "FullyConnected", 
      "name": "gru_t116__i2h", 
      "attrs": {"num_hidden": "300"}, 
      "inputs": [[25, 116, 0], [26, 0, 0], [27, 0, 0]]
    }, 
    {
      "op": "SliceChannel", 
      "name": "gru_t116__i2h_slice", 
      "attrs": {"num_outputs": "3"}, 
      "inputs": [[130, 0, 0]]
    }, 
    {
      "op": "FullyConnected", 
      "name": "gru_t115__i2h", 
      "attrs": {"num_hidden": "300"}, 
      "inputs": [[25, 115, 0], [26, 0, 0], [27, 0, 0]]
    }, 
    {
      "op": "SliceChannel", 
      "name": "gru_t115__i2h_slice", 
      "attrs": {"num_outputs": "3"}, 
      "inputs": [[132, 0, 0]]
    }, 
    {
      "op": "FullyConnected", 
      "name": "gru_t114__i2h", 
      "attrs": {"num_hidden": "300"}, 
      "inputs": [[25, 114, 0], [26, 0, 0], [27, 0, 0]]
    }, 
    {
      "op": "SliceChannel", 
      "name": "gru_t114__i2h_slice", 
      "attrs": {"num_outputs": "3"}, 
      "inputs": [[134, 0, 0]]
    }, 
    {
      "op": "FullyConnected", 
      "name": "gru_t113__i2h", 
      "attrs": {"num_hidden": "300"}, 
      "inputs": [[25, 113, 0], [26, 0, 0], [27, 0, 0]]
    }, 
    {
      "op": "SliceChannel", 
      "name": "gru_t113__i2h_slice", 
      "attrs": {"num_outputs": "3"}, 
      "inputs": [[136, 0, 0]]
    }, 
    {
      "op": "FullyConnected", 
      "name": "gru_t112__i2h", 
      "attrs": {"num_hidden": "300"}, 
      "inputs": [[25, 112, 0], [26, 0, 0], [27, 0, 0]]
    }, 
    {
      "op": "SliceChannel", 
      "name": "gru_t112__i2h_slice", 
      "attrs": {"num_outputs": "3"}, 
      "inputs": [[138, 0, 0]]
    }, 
    {
      "op": "FullyConnected", 
      "name": "gru_t111__i2h", 
      "attrs": {"num_hidden": "300"}, 
      "inputs": [[25, 111, 0], [26, 0, 0], [27, 0, 0]]
    }, 
    {
      "op": "SliceChannel", 
      "name": "gru_t111__i2h_slice", 
      "attrs": {"num_outputs": "3"}, 
      "inputs": [[140, 0, 0]]
    }, 
    {
      "op": "FullyConnected", 
      "name": "gru_t110__i2h", 
      "attrs": {"num_hidden": "300"}, 
      "inputs": [[25, 110, 0], [26, 0, 0], [27, 0, 0]]
    }, 
    {
      "op": "SliceChannel", 
      "name": "gru_t110__i2h_slice", 
      "attrs": {"num_outputs": "3"}, 
      "inputs": [[142, 0, 0]]
    }, 
    {
      "op": "FullyConnected", 
      "name": "gru_t109__i2h", 
      "attrs": {"num_hidden": "300"}, 
      "inputs": [[25, 109, 0], [26, 0, 0], [27, 0, 0]]
    }, 
    {
      "op": "SliceChannel", 
      "name": "gru_t109__i2h_slice", 
      "attrs": {"num_outputs": "3"}, 
      "inputs": [[144, 0, 0]]
    }, 
    {
      "op": "FullyConnected", 
      "name": "gru_t108__i2h", 
      "attrs": {"num_hidden": "300"}, 
      "inputs": [[25, 108, 0], [26, 0, 0], [27, 0, 0]]
    }, 
    {
      "op": "SliceChannel", 
      "name": "gru_t108__i2h_slice", 
      "attrs": {"num_outputs": "3"}, 
      "inputs": [[146, 0, 0]]
    }, 
    {
      "op": "FullyConnected", 
      "name": "gru_t107__i2h", 
      "attrs": {"num_hidden": "300"}, 
      "inputs": [[25, 107, 0], [26, 0, 0], [27, 0, 0]]
    }, 
    {
      "op": "SliceChannel", 
      "name": "gru_t107__i2h_slice", 
      "attrs": {"num_outputs": "3"}, 
      "inputs": [[148, 0, 0]]
    }, 
    {
      "op": "FullyConnected", 
      "name": "gru_t106__i2h", 
      "attrs": {"num_hidden": "300"}, 
      "inputs": [[25, 106, 0], [26, 0, 0], [27, 0, 0]]
    }, 
    {
      "op": "SliceChannel", 
      "name": "gru_t106__i2h_slice", 
      "attrs": {"num_outputs": "3"}, 
      "inputs": [[150, 0, 0]]
    }, 
    {
      "op": "FullyConnected", 
      "name": "gru_t105__i2h", 
      "attrs": {"num_hidden": "300"}, 
      "inputs": [[25, 105, 0], [26, 0, 0], [27, 0, 0]]
    }, 
    {
      "op": "SliceChannel", 
      "name": "gru_t105__i2h_slice", 
      "attrs": {"num_outputs": "3"}, 
      "inputs": [[152, 0, 0]]
    }, 
    {
      "op": "FullyConnected", 
      "name": "gru_t104__i2h", 
      "attrs": {"num_hidden": "300"}, 
      "inputs": [[25, 104, 0], [26, 0, 0], [27, 0, 0]]
    }, 
    {
      "op": "SliceChannel", 
      "name": "gru_t104__i2h_slice", 
      "attrs": {"num_outputs": "3"}, 
      "inputs": [[154, 0, 0]]
    }, 
    {
      "op": "FullyConnected", 
      "name": "gru_t103__i2h", 
      "attrs": {"num_hidden": "300"}, 
      "inputs": [[25, 103, 0], [26, 0, 0], [27, 0, 0]]
    }, 
    {
      "op": "SliceChannel", 
      "name": "gru_t103__i2h_slice", 
      "attrs": {"num_outputs": "3"}, 
      "inputs": [[156, 0, 0]]
    }, 
    {
      "op": "FullyConnected", 
      "name": "gru_t102__i2h", 
      "attrs": {"num_hidden": "300"}, 
      "inputs": [[25, 102, 0], [26, 0, 0], [27, 0, 0]]
    }, 
    {
      "op": "SliceChannel", 
      "name": "gru_t102__i2h_slice", 
      "attrs": {"num_outputs": "3"}, 
      "inputs": [[158, 0, 0]]
    }, 
    {
      "op": "FullyConnected", 
      "name": "gru_t101__i2h", 
      "attrs": {"num_hidden": "300"}, 
      "inputs": [[25, 101, 0], [26, 0, 0], [27, 0, 0]]
    }, 
    {
      "op": "SliceChannel", 
      "name": "gru_t101__i2h_slice", 
      "attrs": {"num_outputs": "3"}, 
      "inputs": [[160, 0, 0]]
    }, 
    {
      "op": "FullyConnected", 
      "name": "gru_t100__i2h", 
      "attrs": {"num_hidden": "300"}, 
      "inputs": [[25, 100, 0], [26, 0, 0], [27, 0, 0]]
    }, 
    {
      "op": "SliceChannel", 
      "name": "gru_t100__i2h_slice", 
      "attrs": {"num_outputs": "3"}, 
      "inputs": [[162, 0, 0]]
    }, 
    {
      "op": "FullyConnected", 
      "name": "gru_t99__i2h", 
      "attrs": {"num_hidden": "300"}, 
      "inputs": [[25, 99, 0], [26, 0, 0], [27, 0, 0]]
    }, 
    {
      "op": "SliceChannel", 
      "name": "gru_t99__i2h_slice", 
      "attrs": {"num_outputs": "3"}, 
      "inputs": [[164, 0, 0]]
    }, 
    {
      "op": "FullyConnected", 
      "name": "gru_t98__i2h", 
      "attrs": {"num_hidden": "300"}, 
      "inputs": [[25, 98, 0], [26, 0, 0], [27, 0, 0]]
    }, 
    {
      "op": "SliceChannel", 
      "name": "gru_t98__i2h_slice", 
      "attrs": {"num_outputs": "3"}, 
      "inputs": [[166, 0, 0]]
    }, 
    {
      "op": "FullyConnected", 
      "name": "gru_t97__i2h", 
      "attrs": {"num_hidden": "300"}, 
      "inputs": [[25, 97, 0], [26, 0, 0], [27, 0, 0]]
    }, 
    {
      "op": "SliceChannel", 
      "name": "gru_t97__i2h_slice", 
      "attrs": {"num_outputs": "3"}, 
      "inputs": [[168, 0, 0]]
    }, 
    {
      "op": "FullyConnected", 
      "name": "gru_t96__i2h", 
      "attrs": {"num_hidden": "300"}, 
      "inputs": [[25, 96, 0], [26, 0, 0], [27, 0, 0]]
    }, 
    {
      "op": "SliceChannel", 
      "name": "gru_t96__i2h_slice", 
      "attrs": {"num_outputs": "3"}, 
      "inputs": [[170, 0, 0]]
    }, 
    {
      "op": "FullyConnected", 
      "name": "gru_t95__i2h", 
      "attrs": {"num_hidden": "300"}, 
      "inputs": [[25, 95, 0], [26, 0, 0], [27, 0, 0]]
    }, 
    {
      "op": "SliceChannel", 
      "name": "gru_t95__i2h_slice", 
      "attrs": {"num_outputs": "3"}, 
      "inputs": [[172, 0, 0]]
    }, 
    {
      "op": "FullyConnected", 
      "name": "gru_t94__i2h", 
      "attrs": {"num_hidden": "300"}, 
      "inputs": [[25, 94, 0], [26, 0, 0], [27, 0, 0]]
    }, 
    {
      "op": "SliceChannel", 
      "name": "gru_t94__i2h_slice", 
      "attrs": {"num_outputs": "3"}, 
      "inputs": [[174, 0, 0]]
    }, 
    {
      "op": "FullyConnected", 
      "name": "gru_t93__i2h", 
      "attrs": {"num_hidden": "300"}, 
      "inputs": [[25, 93, 0], [26, 0, 0], [27, 0, 0]]
    }, 
    {
      "op": "SliceChannel", 
      "name": "gru_t93__i2h_slice", 
      "attrs": {"num_outputs": "3"}, 
      "inputs": [[176, 0, 0]]
    }, 
    {
      "op": "FullyConnected", 
      "name": "gru_t92__i2h", 
      "attrs": {"num_hidden": "300"}, 
      "inputs": [[25, 92, 0], [26, 0, 0], [27, 0, 0]]
    }, 
    {
      "op": "SliceChannel", 
      "name": "gru_t92__i2h_slice", 
      "attrs": {"num_outputs": "3"}, 
      "inputs": [[178, 0, 0]]
    }, 
    {
      "op": "FullyConnected", 
      "name": "gru_t91__i2h", 
      "attrs": {"num_hidden": "300"}, 
      "inputs": [[25, 91, 0], [26, 0, 0], [27, 0, 0]]
    }, 
    {
      "op": "SliceChannel", 
      "name": "gru_t91__i2h_slice", 
      "attrs": {"num_outputs": "3"}, 
      "inputs": [[180, 0, 0]]
    }, 
    {
      "op": "FullyConnected", 
      "name": "gru_t90__i2h", 
      "attrs": {"num_hidden": "300"}, 
      "inputs": [[25, 90, 0], [26, 0, 0], [27, 0, 0]]
    }, 
    {
      "op": "SliceChannel", 
      "name": "gru_t90__i2h_slice", 
      "attrs": {"num_outputs": "3"}, 
      "inputs": [[182, 0, 0]]
    }, 
    {
      "op": "FullyConnected", 
      "name": "gru_t89__i2h", 
      "attrs": {"num_hidden": "300"}, 
      "inputs": [[25, 89, 0], [26, 0, 0], [27, 0, 0]]
    }, 
    {
      "op": "SliceChannel", 
      "name": "gru_t89__i2h_slice", 
      "attrs": {"num_outputs": "3"}, 
      "inputs": [[184, 0, 0]]
    }, 
    {
      "op": "FullyConnected", 
      "name": "gru_t88__i2h", 
      "attrs": {"num_hidden": "300"}, 
      "inputs": [[25, 88, 0], [26, 0, 0], [27, 0, 0]]
    }, 
    {
      "op": "SliceChannel", 
      "name": "gru_t88__i2h_slice", 
      "attrs": {"num_outputs": "3"}, 
      "inputs": [[186, 0, 0]]
    }, 
    {
      "op": "FullyConnected", 
      "name": "gru_t87__i2h", 
      "attrs": {"num_hidden": "300"}, 
      "inputs": [[25, 87, 0], [26, 0, 0], [27, 0, 0]]
    }, 
    {
      "op": "SliceChannel", 
      "name": "gru_t87__i2h_slice", 
      "attrs": {"num_outputs": "3"}, 
      "inputs": [[188, 0, 0]]
    }, 
    {
      "op": "FullyConnected", 
      "name": "gru_t86__i2h", 
      "attrs": {"num_hidden": "300"}, 
      "inputs": [[25, 86, 0], [26, 0, 0], [27, 0, 0]]
    }, 
    {
      "op": "SliceChannel", 
      "name": "gru_t86__i2h_slice", 
      "attrs": {"num_outputs": "3"}, 
      "inputs": [[190, 0, 0]]
    }, 
    {
      "op": "FullyConnected", 
      "name": "gru_t85__i2h", 
      "attrs": {"num_hidden": "300"}, 
      "inputs": [[25, 85, 0], [26, 0, 0], [27, 0, 0]]
    }, 
    {
      "op": "SliceChannel", 
      "name": "gru_t85__i2h_slice", 
      "attrs": {"num_outputs": "3"}, 
      "inputs": [[192, 0, 0]]
    }, 
    {
      "op": "FullyConnected", 
      "name": "gru_t84__i2h", 
      "attrs": {"num_hidden": "300"}, 
      "inputs": [[25, 84, 0], [26, 0, 0], [27, 0, 0]]
    }, 
    {
      "op": "SliceChannel", 
      "name": "gru_t84__i2h_slice", 
      "attrs": {"num_outputs": "3"}, 
      "inputs": [[194, 0, 0]]
    }, 
    {
      "op": "FullyConnected", 
      "name": "gru_t83__i2h", 
      "attrs": {"num_hidden": "300"}, 
      "inputs": [[25, 83, 0], [26, 0, 0], [27, 0, 0]]
    }, 
    {
      "op": "SliceChannel", 
      "name": "gru_t83__i2h_slice", 
      "attrs": {"num_outputs": "3"}, 
      "inputs": [[196, 0, 0]]
    }, 
    {
      "op": "FullyConnected", 
      "name": "gru_t82__i2h", 
      "attrs": {"num_hidden": "300"}, 
      "inputs": [[25, 82, 0], [26, 0, 0], [27, 0, 0]]
    }, 
    {
      "op": "SliceChannel", 
      "name": "gru_t82__i2h_slice", 
      "attrs": {"num_outputs": "3"}, 
      "inputs": [[198, 0, 0]]
    }, 
    {
      "op": "FullyConnected", 
      "name": "gru_t81__i2h", 
      "attrs": {"num_hidden": "300"}, 
      "inputs": [[25, 81, 0], [26, 0, 0], [27, 0, 0]]
    }, 
    {
      "op": "SliceChannel", 
      "name": "gru_t81__i2h_slice", 
      "attrs": {"num_outputs": "3"}, 
      "inputs": [[200, 0, 0]]
    }, 
    {
      "op": "FullyConnected", 
      "name": "gru_t80__i2h", 
      "attrs": {"num_hidden": "300"}, 
      "inputs": [[25, 80, 0], [26, 0, 0], [27, 0, 0]]
    }, 
    {
      "op": "SliceChannel", 
      "name": "gru_t80__i2h_slice", 
      "attrs": {"num_outputs": "3"}, 
      "inputs": [[202, 0, 0]]
    }, 
    {
      "op": "FullyConnected", 
      "name": "gru_t79__i2h", 
      "attrs": {"num_hidden": "300"}, 
      "inputs": [[25, 79, 0], [26, 0, 0], [27, 0, 0]]
    }, 
    {
      "op": "SliceChannel", 
      "name": "gru_t79__i2h_slice", 
      "attrs": {"num_outputs": "3"}, 
      "inputs": [[204, 0, 0]]
    }, 
    {
      "op": "FullyConnected", 
      "name": "gru_t78__i2h", 
      "attrs": {"num_hidden": "300"}, 
      "inputs": [[25, 78, 0], [26, 0, 0], [27, 0, 0]]
    }, 
    {
      "op": "SliceChannel", 
      "name": "gru_t78__i2h_slice", 
      "attrs": {"num_outputs": "3"}, 
      "inputs": [[206, 0, 0]]
    }, 
    {
      "op": "FullyConnected", 
      "name": "gru_t77__i2h", 
      "attrs": {"num_hidden": "300"}, 
      "inputs": [[25, 77, 0], [26, 0, 0], [27, 0, 0]]
    }, 
    {
      "op": "SliceChannel", 
      "name": "gru_t77__i2h_slice", 
      "attrs": {"num_outputs": "3"}, 
      "inputs": [[208, 0, 0]]
    }, 
    {
      "op": "FullyConnected", 
      "name": "gru_t76__i2h", 
      "attrs": {"num_hidden": "300"}, 
      "inputs": [[25, 76, 0], [26, 0, 0], [27, 0, 0]]
    }, 
    {
      "op": "SliceChannel", 
      "name": "gru_t76__i2h_slice", 
      "attrs": {"num_outputs": "3"}, 
      "inputs": [[210, 0, 0]]
    }, 
    {
      "op": "FullyConnected", 
      "name": "gru_t75__i2h", 
      "attrs": {"num_hidden": "300"}, 
      "inputs": [[25, 75, 0], [26, 0, 0], [27, 0, 0]]
    }, 
    {
      "op": "SliceChannel", 
      "name": "gru_t75__i2h_slice", 
      "attrs": {"num_outputs": "3"}, 
      "inputs": [[212, 0, 0]]
    }, 
    {
      "op": "FullyConnected", 
      "name": "gru_t74__i2h", 
      "attrs": {"num_hidden": "300"}, 
      "inputs": [[25, 74, 0], [26, 0, 0], [27, 0, 0]]
    }, 
    {
      "op": "SliceChannel", 
      "name": "gru_t74__i2h_slice", 
      "attrs": {"num_outputs": "3"}, 
      "inputs": [[214, 0, 0]]
    }, 
    {
      "op": "FullyConnected", 
      "name": "gru_t73__i2h", 
      "attrs": {"num_hidden": "300"}, 
      "inputs": [[25, 73, 0], [26, 0, 0], [27, 0, 0]]
    }, 
    {
      "op": "SliceChannel", 
      "name": "gru_t73__i2h_slice", 
      "attrs": {"num_outputs": "3"}, 
      "inputs": [[216, 0, 0]]
    }, 
    {
      "op": "FullyConnected", 
      "name": "gru_t72__i2h", 
      "attrs": {"num_hidden": "300"}, 
      "inputs": [[25, 72, 0], [26, 0, 0], [27, 0, 0]]
    }, 
    {
      "op": "SliceChannel", 
      "name": "gru_t72__i2h_slice", 
      "attrs": {"num_outputs": "3"}, 
      "inputs": [[218, 0, 0]]
    }, 
    {
      "op": "FullyConnected", 
      "name": "gru_t71__i2h", 
      "attrs": {"num_hidden": "300"}, 
      "inputs": [[25, 71, 0], [26, 0, 0], [27, 0, 0]]
    }, 
    {
      "op": "SliceChannel", 
      "name": "gru_t71__i2h_slice", 
      "attrs": {"num_outputs": "3"}, 
      "inputs": [[220, 0, 0]]
    }, 
    {
      "op": "FullyConnected", 
      "name": "gru_t70__i2h", 
      "attrs": {"num_hidden": "300"}, 
      "inputs": [[25, 70, 0], [26, 0, 0], [27, 0, 0]]
    }, 
    {
      "op": "SliceChannel", 
      "name": "gru_t70__i2h_slice", 
      "attrs": {"num_outputs": "3"}, 
      "inputs": [[222, 0, 0]]
    }, 
    {
      "op": "FullyConnected", 
      "name": "gru_t69__i2h", 
      "attrs": {"num_hidden": "300"}, 
      "inputs": [[25, 69, 0], [26, 0, 0], [27, 0, 0]]
    }, 
    {
      "op": "SliceChannel", 
      "name": "gru_t69__i2h_slice", 
      "attrs": {"num_outputs": "3"}, 
      "inputs": [[224, 0, 0]]
    }, 
    {
      "op": "FullyConnected", 
      "name": "gru_t68__i2h", 
      "attrs": {"num_hidden": "300"}, 
      "inputs": [[25, 68, 0], [26, 0, 0], [27, 0, 0]]
    }, 
    {
      "op": "SliceChannel", 
      "name": "gru_t68__i2h_slice", 
      "attrs": {"num_outputs": "3"}, 
      "inputs": [[226, 0, 0]]
    }, 
    {
      "op": "FullyConnected", 
      "name": "gru_t67__i2h", 
      "attrs": {"num_hidden": "300"}, 
      "inputs": [[25, 67, 0], [26, 0, 0], [27, 0, 0]]
    }, 
    {
      "op": "SliceChannel", 
      "name": "gru_t67__i2h_slice", 
      "attrs": {"num_outputs": "3"}, 
      "inputs": [[228, 0, 0]]
    }, 
    {
      "op": "FullyConnected", 
      "name": "gru_t66__i2h", 
      "attrs": {"num_hidden": "300"}, 
      "inputs": [[25, 66, 0], [26, 0, 0], [27, 0, 0]]
    }, 
    {
      "op": "SliceChannel", 
      "name": "gru_t66__i2h_slice", 
      "attrs": {"num_outputs": "3"}, 
      "inputs": [[230, 0, 0]]
    }, 
    {
      "op": "FullyConnected", 
      "name": "gru_t65__i2h", 
      "attrs": {"num_hidden": "300"}, 
      "inputs": [[25, 65, 0], [26, 0, 0], [27, 0, 0]]
    }, 
    {
      "op": "SliceChannel", 
      "name": "gru_t65__i2h_slice", 
      "attrs": {"num_outputs": "3"}, 
      "inputs": [[232, 0, 0]]
    }, 
    {
      "op": "FullyConnected", 
      "name": "gru_t64__i2h", 
      "attrs": {"num_hidden": "300"}, 
      "inputs": [[25, 64, 0], [26, 0, 0], [27, 0, 0]]
    }, 
    {
      "op": "SliceChannel", 
      "name": "gru_t64__i2h_slice", 
      "attrs": {"num_outputs": "3"}, 
      "inputs": [[234, 0, 0]]
    }, 
    {
      "op": "FullyConnected", 
      "name": "gru_t63__i2h", 
      "attrs": {"num_hidden": "300"}, 
      "inputs": [[25, 63, 0], [26, 0, 0], [27, 0, 0]]
    }, 
    {
      "op": "SliceChannel", 
      "name": "gru_t63__i2h_slice", 
      "attrs": {"num_outputs": "3"}, 
      "inputs": [[236, 0, 0]]
    }, 
    {
      "op": "FullyConnected", 
      "name": "gru_t62__i2h", 
      "attrs": {"num_hidden": "300"}, 
      "inputs": [[25, 62, 0], [26, 0, 0], [27, 0, 0]]
    }, 
    {
      "op": "SliceChannel", 
      "name": "gru_t62__i2h_slice", 
      "attrs": {"num_outputs": "3"}, 
      "inputs": [[238, 0, 0]]
    }, 
    {
      "op": "FullyConnected", 
      "name": "gru_t61__i2h", 
      "attrs": {"num_hidden": "300"}, 
      "inputs": [[25, 61, 0], [26, 0, 0], [27, 0, 0]]
    }, 
    {
      "op": "SliceChannel", 
      "name": "gru_t61__i2h_slice", 
      "attrs": {"num_outputs": "3"}, 
      "inputs": [[240, 0, 0]]
    }, 
    {
      "op": "FullyConnected", 
      "name": "gru_t60__i2h", 
      "attrs": {"num_hidden": "300"}, 
      "inputs": [[25, 60, 0], [26, 0, 0], [27, 0, 0]]
    }, 
    {
      "op": "SliceChannel", 
      "name": "gru_t60__i2h_slice", 
      "attrs": {"num_outputs": "3"}, 
      "inputs": [[242, 0, 0]]
    }, 
    {
      "op": "FullyConnected", 
      "name": "gru_t59__i2h", 
      "attrs": {"num_hidden": "300"}, 
      "inputs": [[25, 59, 0], [26, 0, 0], [27, 0, 0]]
    }, 
    {
      "op": "SliceChannel", 
      "name": "gru_t59__i2h_slice", 
      "attrs": {"num_outputs": "3"}, 
      "inputs": [[244, 0, 0]]
    }, 
    {
      "op": "FullyConnected", 
      "name": "gru_t58__i2h", 
      "attrs": {"num_hidden": "300"}, 
      "inputs": [[25, 58, 0], [26, 0, 0], [27, 0, 0]]
    }, 
    {
      "op": "SliceChannel", 
      "name": "gru_t58__i2h_slice", 
      "attrs": {"num_outputs": "3"}, 
      "inputs": [[246, 0, 0]]
    }, 
    {
      "op": "FullyConnected", 
      "name": "gru_t57__i2h", 
      "attrs": {"num_hidden": "300"}, 
      "inputs": [[25, 57, 0], [26, 0, 0], [27, 0, 0]]
    }, 
    {
      "op": "SliceChannel", 
      "name": "gru_t57__i2h_slice", 
      "attrs": {"num_outputs": "3"}, 
      "inputs": [[248, 0, 0]]
    }, 
    {
      "op": "FullyConnected", 
      "name": "gru_t56__i2h", 
      "attrs": {"num_hidden": "300"}, 
      "inputs": [[25, 56, 0], [26, 0, 0], [27, 0, 0]]
    }, 
    {
      "op": "SliceChannel", 
      "name": "gru_t56__i2h_slice", 
      "attrs": {"num_outputs": "3"}, 
      "inputs": [[250, 0, 0]]
    }, 
    {
      "op": "FullyConnected", 
      "name": "gru_t55__i2h", 
      "attrs": {"num_hidden": "300"}, 
      "inputs": [[25, 55, 0], [26, 0, 0], [27, 0, 0]]
    }, 
    {
      "op": "SliceChannel", 
      "name": "gru_t55__i2h_slice", 
      "attrs": {"num_outputs": "3"}, 
      "inputs": [[252, 0, 0]]
    }, 
    {
      "op": "FullyConnected", 
      "name": "gru_t54__i2h", 
      "attrs": {"num_hidden": "300"}, 
      "inputs": [[25, 54, 0], [26, 0, 0], [27, 0, 0]]
    }, 
    {
      "op": "SliceChannel", 
      "name": "gru_t54__i2h_slice", 
      "attrs": {"num_outputs": "3"}, 
      "inputs": [[254, 0, 0]]
    }, 
    {
      "op": "FullyConnected", 
      "name": "gru_t53__i2h", 
      "attrs": {"num_hidden": "300"}, 
      "inputs": [[25, 53, 0], [26, 0, 0], [27, 0, 0]]
    }, 
    {
      "op": "SliceChannel", 
      "name": "gru_t53__i2h_slice", 
      "attrs": {"num_outputs": "3"}, 
      "inputs": [[256, 0, 0]]
    }, 
    {
      "op": "FullyConnected", 
      "name": "gru_t52__i2h", 
      "attrs": {"num_hidden": "300"}, 
      "inputs": [[25, 52, 0], [26, 0, 0], [27, 0, 0]]
    }, 
    {
      "op": "SliceChannel", 
      "name": "gru_t52__i2h_slice", 
      "attrs": {"num_outputs": "3"}, 
      "inputs": [[258, 0, 0]]
    }, 
    {
      "op": "FullyConnected", 
      "name": "gru_t51__i2h", 
      "attrs": {"num_hidden": "300"}, 
      "inputs": [[25, 51, 0], [26, 0, 0], [27, 0, 0]]
    }, 
    {
      "op": "SliceChannel", 
      "name": "gru_t51__i2h_slice", 
      "attrs": {"num_outputs": "3"}, 
      "inputs": [[260, 0, 0]]
    }, 
    {
      "op": "FullyConnected", 
      "name": "gru_t50__i2h", 
      "attrs": {"num_hidden": "300"}, 
      "inputs": [[25, 50, 0], [26, 0, 0], [27, 0, 0]]
    }, 
    {
      "op": "SliceChannel", 
      "name": "gru_t50__i2h_slice", 
      "attrs": {"num_outputs": "3"}, 
      "inputs": [[262, 0, 0]]
    }, 
    {
      "op": "FullyConnected", 
      "name": "gru_t49__i2h", 
      "attrs": {"num_hidden": "300"}, 
      "inputs": [[25, 49, 0], [26, 0, 0], [27, 0, 0]]
    }, 
    {
      "op": "SliceChannel", 
      "name": "gru_t49__i2h_slice", 
      "attrs": {"num_outputs": "3"}, 
      "inputs": [[264, 0, 0]]
    }, 
    {
      "op": "FullyConnected", 
      "name": "gru_t48__i2h", 
      "attrs": {"num_hidden": "300"}, 
      "inputs": [[25, 48, 0], [26, 0, 0], [27, 0, 0]]
    }, 
    {
      "op": "SliceChannel", 
      "name": "gru_t48__i2h_slice", 
      "attrs": {"num_outputs": "3"}, 
      "inputs": [[266, 0, 0]]
    }, 
    {
      "op": "FullyConnected", 
      "name": "gru_t47__i2h", 
      "attrs": {"num_hidden": "300"}, 
      "inputs": [[25, 47, 0], [26, 0, 0], [27, 0, 0]]
    }, 
    {
      "op": "SliceChannel", 
      "name": "gru_t47__i2h_slice", 
      "attrs": {"num_outputs": "3"}, 
      "inputs": [[268, 0, 0]]
    }, 
    {
      "op": "FullyConnected", 
      "name": "gru_t46__i2h", 
      "attrs": {"num_hidden": "300"}, 
      "inputs": [[25, 46, 0], [26, 0, 0], [27, 0, 0]]
    }, 
    {
      "op": "SliceChannel", 
      "name": "gru_t46__i2h_slice", 
      "attrs": {"num_outputs": "3"}, 
      "inputs": [[270, 0, 0]]
    }, 
    {
      "op": "FullyConnected", 
      "name": "gru_t45__i2h", 
      "attrs": {"num_hidden": "300"}, 
      "inputs": [[25, 45, 0], [26, 0, 0], [27, 0, 0]]
    }, 
    {
      "op": "SliceChannel", 
      "name": "gru_t45__i2h_slice", 
      "attrs": {"num_outputs": "3"}, 
      "inputs": [[272, 0, 0]]
    }, 
    {
      "op": "FullyConnected", 
      "name": "gru_t44__i2h", 
      "attrs": {"num_hidden": "300"}, 
      "inputs": [[25, 44, 0], [26, 0, 0], [27, 0, 0]]
    }, 
    {
      "op": "SliceChannel", 
      "name": "gru_t44__i2h_slice", 
      "attrs": {"num_outputs": "3"}, 
      "inputs": [[274, 0, 0]]
    }, 
    {
      "op": "FullyConnected", 
      "name": "gru_t43__i2h", 
      "attrs": {"num_hidden": "300"}, 
      "inputs": [[25, 43, 0], [26, 0, 0], [27, 0, 0]]
    }, 
    {
      "op": "SliceChannel", 
      "name": "gru_t43__i2h_slice", 
      "attrs": {"num_outputs": "3"}, 
      "inputs": [[276, 0, 0]]
    }, 
    {
      "op": "FullyConnected", 
      "name": "gru_t42__i2h", 
      "attrs": {"num_hidden": "300"}, 
      "inputs": [[25, 42, 0], [26, 0, 0], [27, 0, 0]]
    }, 
    {
      "op": "SliceChannel", 
      "name": "gru_t42__i2h_slice", 
      "attrs": {"num_outputs": "3"}, 
      "inputs": [[278, 0, 0]]
    }, 
    {
      "op": "FullyConnected", 
      "name": "gru_t41__i2h", 
      "attrs": {"num_hidden": "300"}, 
      "inputs": [[25, 41, 0], [26, 0, 0], [27, 0, 0]]
    }, 
    {
      "op": "SliceChannel", 
      "name": "gru_t41__i2h_slice", 
      "attrs": {"num_outputs": "3"}, 
      "inputs": [[280, 0, 0]]
    }, 
    {
      "op": "FullyConnected", 
      "name": "gru_t40__i2h", 
      "attrs": {"num_hidden": "300"}, 
      "inputs": [[25, 40, 0], [26, 0, 0], [27, 0, 0]]
    }, 
    {
      "op": "SliceChannel", 
      "name": "gru_t40__i2h_slice", 
      "attrs": {"num_outputs": "3"}, 
      "inputs": [[282, 0, 0]]
    }, 
    {
      "op": "FullyConnected", 
      "name": "gru_t39__i2h", 
      "attrs": {"num_hidden": "300"}, 
      "inputs": [[25, 39, 0], [26, 0, 0], [27, 0, 0]]
    }, 
    {
      "op": "SliceChannel", 
      "name": "gru_t39__i2h_slice", 
      "attrs": {"num_outputs": "3"}, 
      "inputs": [[284, 0, 0]]
    }, 
    {
      "op": "FullyConnected", 
      "name": "gru_t38__i2h", 
      "attrs": {"num_hidden": "300"}, 
      "inputs": [[25, 38, 0], [26, 0, 0], [27, 0, 0]]
    }, 
    {
      "op": "SliceChannel", 
      "name": "gru_t38__i2h_slice", 
      "attrs": {"num_outputs": "3"}, 
      "inputs": [[286, 0, 0]]
    }, 
    {
      "op": "FullyConnected", 
      "name": "gru_t37__i2h", 
      "attrs": {"num_hidden": "300"}, 
      "inputs": [[25, 37, 0], [26, 0, 0], [27, 0, 0]]
    }, 
    {
      "op": "SliceChannel", 
      "name": "gru_t37__i2h_slice", 
      "attrs": {"num_outputs": "3"}, 
      "inputs": [[288, 0, 0]]
    }, 
    {
      "op": "FullyConnected", 
      "name": "gru_t36__i2h", 
      "attrs": {"num_hidden": "300"}, 
      "inputs": [[25, 36, 0], [26, 0, 0], [27, 0, 0]]
    }, 
    {
      "op": "SliceChannel", 
      "name": "gru_t36__i2h_slice", 
      "attrs": {"num_outputs": "3"}, 
      "inputs": [[290, 0, 0]]
    }, 
    {
      "op": "FullyConnected", 
      "name": "gru_t35__i2h", 
      "attrs": {"num_hidden": "300"}, 
      "inputs": [[25, 35, 0], [26, 0, 0], [27, 0, 0]]
    }, 
    {
      "op": "SliceChannel", 
      "name": "gru_t35__i2h_slice", 
      "attrs": {"num_outputs": "3"}, 
      "inputs": [[292, 0, 0]]
    }, 
    {
      "op": "FullyConnected", 
      "name": "gru_t34__i2h", 
      "attrs": {"num_hidden": "300"}, 
      "inputs": [[25, 34, 0], [26, 0, 0], [27, 0, 0]]
    }, 
    {
      "op": "SliceChannel", 
      "name": "gru_t34__i2h_slice", 
      "attrs": {"num_outputs": "3"}, 
      "inputs": [[294, 0, 0]]
    }, 
    {
      "op": "FullyConnected", 
      "name": "gru_t33__i2h", 
      "attrs": {"num_hidden": "300"}, 
      "inputs": [[25, 33, 0], [26, 0, 0], [27, 0, 0]]
    }, 
    {
      "op": "SliceChannel", 
      "name": "gru_t33__i2h_slice", 
      "attrs": {"num_outputs": "3"}, 
      "inputs": [[296, 0, 0]]
    }, 
    {
      "op": "FullyConnected", 
      "name": "gru_t32__i2h", 
      "attrs": {"num_hidden": "300"}, 
      "inputs": [[25, 32, 0], [26, 0, 0], [27, 0, 0]]
    }, 
    {
      "op": "SliceChannel", 
      "name": "gru_t32__i2h_slice", 
      "attrs": {"num_outputs": "3"}, 
      "inputs": [[298, 0, 0]]
    }, 
    {
      "op": "FullyConnected", 
      "name": "gru_t31__i2h", 
      "attrs": {"num_hidden": "300"}, 
      "inputs": [[25, 31, 0], [26, 0, 0], [27, 0, 0]]
    }, 
    {
      "op": "SliceChannel", 
      "name": "gru_t31__i2h_slice", 
      "attrs": {"num_outputs": "3"}, 
      "inputs": [[300, 0, 0]]
    }, 
    {
      "op": "FullyConnected", 
      "name": "gru_t30__i2h", 
      "attrs": {"num_hidden": "300"}, 
      "inputs": [[25, 30, 0], [26, 0, 0], [27, 0, 0]]
    }, 
    {
      "op": "SliceChannel", 
      "name": "gru_t30__i2h_slice", 
      "attrs": {"num_outputs": "3"}, 
      "inputs": [[302, 0, 0]]
    }, 
    {
      "op": "FullyConnected", 
      "name": "gru_t29__i2h", 
      "attrs": {"num_hidden": "300"}, 
      "inputs": [[25, 29, 0], [26, 0, 0], [27, 0, 0]]
    }, 
    {
      "op": "SliceChannel", 
      "name": "gru_t29__i2h_slice", 
      "attrs": {"num_outputs": "3"}, 
      "inputs": [[304, 0, 0]]
    }, 
    {
      "op": "FullyConnected", 
      "name": "gru_t28__i2h", 
      "attrs": {"num_hidden": "300"}, 
      "inputs": [[25, 28, 0], [26, 0, 0], [27, 0, 0]]
    }, 
    {
      "op": "SliceChannel", 
      "name": "gru_t28__i2h_slice", 
      "attrs": {"num_outputs": "3"}, 
      "inputs": [[306, 0, 0]]
    }, 
    {
      "op": "FullyConnected", 
      "name": "gru_t27__i2h", 
      "attrs": {"num_hidden": "300"}, 
      "inputs": [[25, 27, 0], [26, 0, 0], [27, 0, 0]]
    }, 
    {
      "op": "SliceChannel", 
      "name": "gru_t27__i2h_slice", 
      "attrs": {"num_outputs": "3"}, 
      "inputs": [[308, 0, 0]]
    }, 
    {
      "op": "FullyConnected", 
      "name": "gru_t26__i2h", 
      "attrs": {"num_hidden": "300"}, 
      "inputs": [[25, 26, 0], [26, 0, 0], [27, 0, 0]]
    }, 
    {
      "op": "SliceChannel", 
      "name": "gru_t26__i2h_slice", 
      "attrs": {"num_outputs": "3"}, 
      "inputs": [[310, 0, 0]]
    }, 
    {
      "op": "FullyConnected", 
      "name": "gru_t25__i2h", 
      "attrs": {"num_hidden": "300"}, 
      "inputs": [[25, 25, 0], [26, 0, 0], [27, 0, 0]]
    }, 
    {
      "op": "SliceChannel", 
      "name": "gru_t25__i2h_slice", 
      "attrs": {"num_outputs": "3"}, 
      "inputs": [[312, 0, 0]]
    }, 
    {
      "op": "FullyConnected", 
      "name": "gru_t24__i2h", 
      "attrs": {"num_hidden": "300"}, 
      "inputs": [[25, 24, 0], [26, 0, 0], [27, 0, 0]]
    }, 
    {
      "op": "SliceChannel", 
      "name": "gru_t24__i2h_slice", 
      "attrs": {"num_outputs": "3"}, 
      "inputs": [[314, 0, 0]]
    }, 
    {
      "op": "FullyConnected", 
      "name": "gru_t23__i2h", 
      "attrs": {"num_hidden": "300"}, 
      "inputs": [[25, 23, 0], [26, 0, 0], [27, 0, 0]]
    }, 
    {
      "op": "SliceChannel", 
      "name": "gru_t23__i2h_slice", 
      "attrs": {"num_outputs": "3"}, 
      "inputs": [[316, 0, 0]]
    }, 
    {
      "op": "FullyConnected", 
      "name": "gru_t22__i2h", 
      "attrs": {"num_hidden": "300"}, 
      "inputs": [[25, 22, 0], [26, 0, 0], [27, 0, 0]]
    }, 
    {
      "op": "SliceChannel", 
      "name": "gru_t22__i2h_slice", 
      "attrs": {"num_outputs": "3"}, 
      "inputs": [[318, 0, 0]]
    }, 
    {
      "op": "FullyConnected", 
      "name": "gru_t21__i2h", 
      "attrs": {"num_hidden": "300"}, 
      "inputs": [[25, 21, 0], [26, 0, 0], [27, 0, 0]]
    }, 
    {
      "op": "SliceChannel", 
      "name": "gru_t21__i2h_slice", 
      "attrs": {"num_outputs": "3"}, 
      "inputs": [[320, 0, 0]]
    }, 
    {
      "op": "FullyConnected", 
      "name": "gru_t20__i2h", 
      "attrs": {"num_hidden": "300"}, 
      "inputs": [[25, 20, 0], [26, 0, 0], [27, 0, 0]]
    }, 
    {
      "op": "SliceChannel", 
      "name": "gru_t20__i2h_slice", 
      "attrs": {"num_outputs": "3"}, 
      "inputs": [[322, 0, 0]]
    }, 
    {
      "op": "FullyConnected", 
      "name": "gru_t19__i2h", 
      "attrs": {"num_hidden": "300"}, 
      "inputs": [[25, 19, 0], [26, 0, 0], [27, 0, 0]]
    }, 
    {
      "op": "SliceChannel", 
      "name": "gru_t19__i2h_slice", 
      "attrs": {"num_outputs": "3"}, 
      "inputs": [[324, 0, 0]]
    }, 
    {
      "op": "FullyConnected", 
      "name": "gru_t18__i2h", 
      "attrs": {"num_hidden": "300"}, 
      "inputs": [[25, 18, 0], [26, 0, 0], [27, 0, 0]]
    }, 
    {
      "op": "SliceChannel", 
      "name": "gru_t18__i2h_slice", 
      "attrs": {"num_outputs": "3"}, 
      "inputs": [[326, 0, 0]]
    }, 
    {
      "op": "FullyConnected", 
      "name": "gru_t17__i2h", 
      "attrs": {"num_hidden": "300"}, 
      "inputs": [[25, 17, 0], [26, 0, 0], [27, 0, 0]]
    }, 
    {
      "op": "SliceChannel", 
      "name": "gru_t17__i2h_slice", 
      "attrs": {"num_outputs": "3"}, 
      "inputs": [[328, 0, 0]]
    }, 
    {
      "op": "FullyConnected", 
      "name": "gru_t16__i2h", 
      "attrs": {"num_hidden": "300"}, 
      "inputs": [[25, 16, 0], [26, 0, 0], [27, 0, 0]]
    }, 
    {
      "op": "SliceChannel", 
      "name": "gru_t16__i2h_slice", 
      "attrs": {"num_outputs": "3"}, 
      "inputs": [[330, 0, 0]]
    }, 
    {
      "op": "FullyConnected", 
      "name": "gru_t15__i2h", 
      "attrs": {"num_hidden": "300"}, 
      "inputs": [[25, 15, 0], [26, 0, 0], [27, 0, 0]]
    }, 
    {
      "op": "SliceChannel", 
      "name": "gru_t15__i2h_slice", 
      "attrs": {"num_outputs": "3"}, 
      "inputs": [[332, 0, 0]]
    }, 
    {
      "op": "FullyConnected", 
      "name": "gru_t14__i2h", 
      "attrs": {"num_hidden": "300"}, 
      "inputs": [[25, 14, 0], [26, 0, 0], [27, 0, 0]]
    }, 
    {
      "op": "SliceChannel", 
      "name": "gru_t14__i2h_slice", 
      "attrs": {"num_outputs": "3"}, 
      "inputs": [[334, 0, 0]]
    }, 
    {
      "op": "FullyConnected", 
      "name": "gru_t13__i2h", 
      "attrs": {"num_hidden": "300"}, 
      "inputs": [[25, 13, 0], [26, 0, 0], [27, 0, 0]]
    }, 
    {
      "op": "SliceChannel", 
      "name": "gru_t13__i2h_slice", 
      "attrs": {"num_outputs": "3"}, 
      "inputs": [[336, 0, 0]]
    }, 
    {
      "op": "FullyConnected", 
      "name": "gru_t12__i2h", 
      "attrs": {"num_hidden": "300"}, 
      "inputs": [[25, 12, 0], [26, 0, 0], [27, 0, 0]]
    }, 
    {
      "op": "SliceChannel", 
      "name": "gru_t12__i2h_slice", 
      "attrs": {"num_outputs": "3"}, 
      "inputs": [[338, 0, 0]]
    }, 
    {
      "op": "FullyConnected", 
      "name": "gru_t11__i2h", 
      "attrs": {"num_hidden": "300"}, 
      "inputs": [[25, 11, 0], [26, 0, 0], [27, 0, 0]]
    }, 
    {
      "op": "SliceChannel", 
      "name": "gru_t11__i2h_slice", 
      "attrs": {"num_outputs": "3"}, 
      "inputs": [[340, 0, 0]]
    }, 
    {
      "op": "FullyConnected", 
      "name": "gru_t10__i2h", 
      "attrs": {"num_hidden": "300"}, 
      "inputs": [[25, 10, 0], [26, 0, 0], [27, 0, 0]]
    }, 
    {
      "op": "SliceChannel", 
      "name": "gru_t10__i2h_slice", 
      "attrs": {"num_outputs": "3"}, 
      "inputs": [[342, 0, 0]]
    }, 
    {
      "op": "FullyConnected", 
      "name": "gru_t9__i2h", 
      "attrs": {"num_hidden": "300"}, 
      "inputs": [[25, 9, 0], [26, 0, 0], [27, 0, 0]]
    }, 
    {
      "op": "SliceChannel", 
      "name": "gru_t9__i2h_slice", 
      "attrs": {"num_outputs": "3"}, 
      "inputs": [[344, 0, 0]]
    }, 
    {
      "op": "FullyConnected", 
      "name": "gru_t8__i2h", 
      "attrs": {"num_hidden": "300"}, 
      "inputs": [[25, 8, 0], [26, 0, 0], [27, 0, 0]]
    }, 
    {
      "op": "SliceChannel", 
      "name": "gru_t8__i2h_slice", 
      "attrs": {"num_outputs": "3"}, 
      "inputs": [[346, 0, 0]]
    }, 
    {
      "op": "FullyConnected", 
      "name": "gru_t7__i2h", 
      "attrs": {"num_hidden": "300"}, 
      "inputs": [[25, 7, 0], [26, 0, 0], [27, 0, 0]]
    }, 
    {
      "op": "SliceChannel", 
      "name": "gru_t7__i2h_slice", 
      "attrs": {"num_outputs": "3"}, 
      "inputs": [[348, 0, 0]]
    }, 
    {
      "op": "FullyConnected", 
      "name": "gru_t6__i2h", 
      "attrs": {"num_hidden": "300"}, 
      "inputs": [[25, 6, 0], [26, 0, 0], [27, 0, 0]]
    }, 
    {
      "op": "SliceChannel", 
      "name": "gru_t6__i2h_slice", 
      "attrs": {"num_outputs": "3"}, 
      "inputs": [[350, 0, 0]]
    }, 
    {
      "op": "FullyConnected", 
      "name": "gru_t5__i2h", 
      "attrs": {"num_hidden": "300"}, 
      "inputs": [[25, 5, 0], [26, 0, 0], [27, 0, 0]]
    }, 
    {
      "op": "SliceChannel", 
      "name": "gru_t5__i2h_slice", 
      "attrs": {"num_outputs": "3"}, 
      "inputs": [[352, 0, 0]]
    }, 
    {
      "op": "FullyConnected", 
      "name": "gru_t4__i2h", 
      "attrs": {"num_hidden": "300"}, 
      "inputs": [[25, 4, 0], [26, 0, 0], [27, 0, 0]]
    }, 
    {
      "op": "SliceChannel", 
      "name": "gru_t4__i2h_slice", 
      "attrs": {"num_outputs": "3"}, 
      "inputs": [[354, 0, 0]]
    }, 
    {
      "op": "FullyConnected", 
      "name": "gru_t3__i2h", 
      "attrs": {"num_hidden": "300"}, 
      "inputs": [[25, 3, 0], [26, 0, 0], [27, 0, 0]]
    }, 
    {
      "op": "SliceChannel", 
      "name": "gru_t3__i2h_slice", 
      "attrs": {"num_outputs": "3"}, 
      "inputs": [[356, 0, 0]]
    }, 
    {
      "op": "FullyConnected", 
      "name": "gru_t2__i2h", 
      "attrs": {"num_hidden": "300"}, 
      "inputs": [[25, 2, 0], [26, 0, 0], [27, 0, 0]]
    }, 
    {
      "op": "SliceChannel", 
      "name": "gru_t2__i2h_slice", 
      "attrs": {"num_outputs": "3"}, 
      "inputs": [[358, 0, 0]]
    }, 
    {
      "op": "FullyConnected", 
      "name": "gru_t1__i2h", 
      "attrs": {"num_hidden": "300"}, 
      "inputs": [[25, 1, 0], [26, 0, 0], [27, 0, 0]]
    }, 
    {
      "op": "SliceChannel", 
      "name": "gru_t1__i2h_slice", 
      "attrs": {"num_outputs": "3"}, 
      "inputs": [[360, 0, 0]]
    }, 
    {
      "op": "FullyConnected", 
      "name": "gru_t0__i2h", 
      "attrs": {"num_hidden": "300"}, 
      "inputs": [[25, 0, 0], [26, 0, 0], [27, 0, 0]]
    }, 
    {
      "op": "SliceChannel", 
      "name": "gru_t0__i2h_slice", 
      "attrs": {"num_outputs": "3"}, 
      "inputs": [[362, 0, 0]]
    }, 
    {
      "op": "_zeros", 
      "name": "gru_begin_state_0", 
      "attrs": {
        "__layout__": "NC", 
        "dtype": "float32", 
        "shape": "(0, 100)"
      }, 
      "inputs": []
    }, 
    {
      "op": "null", 
      "name": "gru_h2h_weight", 
      "inputs": []
    }, 
    {
      "op": "null", 
      "name": "gru_h2h_bias", 
      "inputs": []
    }, 
    {
      "op": "FullyConnected", 
      "name": "gru_t0__h2h", 
      "attrs": {"num_hidden": "300"}, 
      "inputs": [[364, 0, 0], [365, 0, 0], [366, 0, 0]]
    }, 
    {
      "op": "SliceChannel", 
      "name": "gru_t0__h2h_slice", 
      "attrs": {"num_outputs": "3"}, 
      "inputs": [[367, 0, 0]]
    }, 
    {
      "op": "elemwise_add", 
      "name": "_plus1", 
      "inputs": [[363, 1, 0], [368, 1, 0]]
    }, 
    {
      "op": "Activation", 
      "name": "gru_t0__z_act", 
      "attrs": {"act_type": "sigmoid"}, 
      "inputs": [[369, 0, 0]]
    }, 
    {
      "op": "_rminus_scalar", 
      "name": "_rminusscalar0", 
      "attrs": {"scalar": "1.0"}, 
      "inputs": [[370, 0, 0]]
    }, 
    {
      "op": "elemwise_add", 
      "name": "_plus0", 
      "inputs": [[363, 0, 0], [368, 0, 0]]
    }, 
    {
      "op": "Activation", 
      "name": "gru_t0__r_act", 
      "attrs": {"act_type": "sigmoid"}, 
      "inputs": [[372, 0, 0]]
    }, 
    {
      "op": "elemwise_mul", 
      "name": "_mul0", 
      "inputs": [[373, 0, 0], [368, 2, 0]]
    }, 
    {
      "op": "elemwise_add", 
      "name": "_plus2", 
      "inputs": [[363, 2, 0], [374, 0, 0]]
    }, 
    {
      "op": "Activation", 
      "name": "gru_t0__h_act", 
      "attrs": {"act_type": "tanh"}, 
      "inputs": [[375, 0, 0]]
    }, 
    {
      "op": "elemwise_mul", 
      "name": "_mul1", 
      "inputs": [[371, 0, 0], [376, 0, 0]]
    }, 
    {
      "op": "elemwise_mul", 
      "name": "_mul2", 
      "inputs": [[370, 0, 0], [364, 0, 0]]
    }, 
    {
      "op": "elemwise_add", 
      "name": "gru_t0_out", 
      "inputs": [[377, 0, 0], [378, 0, 0]]
    }, 
    {
      "op": "FullyConnected", 
      "name": "gru_t1__h2h", 
      "attrs": {"num_hidden": "300"}, 
      "inputs": [[379, 0, 0], [365, 0, 0], [366, 0, 0]]
    }, 
    {
      "op": "SliceChannel", 
      "name": "gru_t1__h2h_slice", 
      "attrs": {"num_outputs": "3"}, 
      "inputs": [[380, 0, 0]]
    }, 
    {
      "op": "elemwise_add", 
      "name": "_plus4", 
      "inputs": [[361, 1, 0], [381, 1, 0]]
    }, 
    {
      "op": "Activation", 
      "name": "gru_t1__z_act", 
      "attrs": {"act_type": "sigmoid"}, 
      "inputs": [[382, 0, 0]]
    }, 
    {
      "op": "_rminus_scalar", 
      "name": "_rminusscalar1", 
      "attrs": {"scalar": "1.0"}, 
      "inputs": [[383, 0, 0]]
    }, 
    {
      "op": "elemwise_add", 
      "name": "_plus3", 
      "inputs": [[361, 0, 0], [381, 0, 0]]
    }, 
    {
      "op": "Activation", 
      "name": "gru_t1__r_act", 
      "attrs": {"act_type": "sigmoid"}, 
      "inputs": [[385, 0, 0]]
    }, 
    {
      "op": "elemwise_mul", 
      "name": "_mul3", 
      "inputs": [[386, 0, 0], [381, 2, 0]]
    }, 
    {
      "op": "elemwise_add", 
      "name": "_plus5", 
      "inputs": [[361, 2, 0], [387, 0, 0]]
    }, 
    {
      "op": "Activation", 
      "name": "gru_t1__h_act", 
      "attrs": {"act_type": "tanh"}, 
      "inputs": [[388, 0, 0]]
    }, 
    {
      "op": "elemwise_mul", 
      "name": "_mul4", 
      "inputs": [[384, 0, 0], [389, 0, 0]]
    }, 
    {
      "op": "elemwise_mul", 
      "name": "_mul5", 
      "inputs": [[383, 0, 0], [379, 0, 0]]
    }, 
    {
      "op": "elemwise_add", 
      "name": "gru_t1_out", 
      "inputs": [[390, 0, 0], [391, 0, 0]]
    }, 
    {
      "op": "FullyConnected", 
      "name": "gru_t2__h2h", 
      "attrs": {"num_hidden": "300"}, 
      "inputs": [[392, 0, 0], [365, 0, 0], [366, 0, 0]]
    }, 
    {
      "op": "SliceChannel", 
      "name": "gru_t2__h2h_slice", 
      "attrs": {"num_outputs": "3"}, 
      "inputs": [[393, 0, 0]]
    }, 
    {
      "op": "elemwise_add", 
      "name": "_plus7", 
      "inputs": [[359, 1, 0], [394, 1, 0]]
    }, 
    {
      "op": "Activation", 
      "name": "gru_t2__z_act", 
      "attrs": {"act_type": "sigmoid"}, 
      "inputs": [[395, 0, 0]]
    }, 
    {
      "op": "_rminus_scalar", 
      "name": "_rminusscalar2", 
      "attrs": {"scalar": "1.0"}, 
      "inputs": [[396, 0, 0]]
    }, 
    {
      "op": "elemwise_add", 
      "name": "_plus6", 
      "inputs": [[359, 0, 0], [394, 0, 0]]
    }, 
    {
      "op": "Activation", 
      "name": "gru_t2__r_act", 
      "attrs": {"act_type": "sigmoid"}, 
      "inputs": [[398, 0, 0]]
    }, 
    {
      "op": "elemwise_mul", 
      "name": "_mul6", 
      "inputs": [[399, 0, 0], [394, 2, 0]]
    }, 
    {
      "op": "elemwise_add", 
      "name": "_plus8", 
      "inputs": [[359, 2, 0], [400, 0, 0]]
    }, 
    {
      "op": "Activation", 
      "name": "gru_t2__h_act", 
      "attrs": {"act_type": "tanh"}, 
      "inputs": [[401, 0, 0]]
    }, 
    {
      "op": "elemwise_mul", 
      "name": "_mul7", 
      "inputs": [[397, 0, 0], [402, 0, 0]]
    }, 
    {
      "op": "elemwise_mul", 
      "name": "_mul8", 
      "inputs": [[396, 0, 0], [392, 0, 0]]
    }, 
    {
      "op": "elemwise_add", 
      "name": "gru_t2_out", 
      "inputs": [[403, 0, 0], [404, 0, 0]]
    }, 
    {
      "op": "FullyConnected", 
      "name": "gru_t3__h2h", 
      "attrs": {"num_hidden": "300"}, 
      "inputs": [[405, 0, 0], [365, 0, 0], [366, 0, 0]]
    }, 
    {
      "op": "SliceChannel", 
      "name": "gru_t3__h2h_slice", 
      "attrs": {"num_outputs": "3"}, 
      "inputs": [[406, 0, 0]]
    }, 
    {
      "op": "elemwise_add", 
      "name": "_plus10", 
      "inputs": [[357, 1, 0], [407, 1, 0]]
    }, 
    {
      "op": "Activation", 
      "name": "gru_t3__z_act", 
      "attrs": {"act_type": "sigmoid"}, 
      "inputs": [[408, 0, 0]]
    }, 
    {
      "op": "_rminus_scalar", 
      "name": "_rminusscalar3", 
      "attrs": {"scalar": "1.0"}, 
      "inputs": [[409, 0, 0]]
    }, 
    {
      "op": "elemwise_add", 
      "name": "_plus9", 
      "inputs": [[357, 0, 0], [407, 0, 0]]
    }, 
    {
      "op": "Activation", 
      "name": "gru_t3__r_act", 
      "attrs": {"act_type": "sigmoid"}, 
      "inputs": [[411, 0, 0]]
    }, 
    {
      "op": "elemwise_mul", 
      "name": "_mul9", 
      "inputs": [[412, 0, 0], [407, 2, 0]]
    }, 
    {
      "op": "elemwise_add", 
      "name": "_plus11", 
      "inputs": [[357, 2, 0], [413, 0, 0]]
    }, 
    {
      "op": "Activation", 
      "name": "gru_t3__h_act", 
      "attrs": {"act_type": "tanh"}, 
      "inputs": [[414, 0, 0]]
    }, 
    {
      "op": "elemwise_mul", 
      "name": "_mul10", 
      "inputs": [[410, 0, 0], [415, 0, 0]]
    }, 
    {
      "op": "elemwise_mul", 
      "name": "_mul11", 
      "inputs": [[409, 0, 0], [405, 0, 0]]
    }, 
    {
      "op": "elemwise_add", 
      "name": "gru_t3_out", 
      "inputs": [[416, 0, 0], [417, 0, 0]]
    }, 
    {
      "op": "FullyConnected", 
      "name": "gru_t4__h2h", 
      "attrs": {"num_hidden": "300"}, 
      "inputs": [[418, 0, 0], [365, 0, 0], [366, 0, 0]]
    }, 
    {
      "op": "SliceChannel", 
      "name": "gru_t4__h2h_slice", 
      "attrs": {"num_outputs": "3"}, 
      "inputs": [[419, 0, 0]]
    }, 
    {
      "op": "elemwise_add", 
      "name": "_plus13", 
      "inputs": [[355, 1, 0], [420, 1, 0]]
    }, 
    {
      "op": "Activation", 
      "name": "gru_t4__z_act", 
      "attrs": {"act_type": "sigmoid"}, 
      "inputs": [[421, 0, 0]]
    }, 
    {
      "op": "_rminus_scalar", 
      "name": "_rminusscalar4", 
      "attrs": {"scalar": "1.0"}, 
      "inputs": [[422, 0, 0]]
    }, 
    {
      "op": "elemwise_add", 
      "name": "_plus12", 
      "inputs": [[355, 0, 0], [420, 0, 0]]
    }, 
    {
      "op": "Activation", 
      "name": "gru_t4__r_act", 
      "attrs": {"act_type": "sigmoid"}, 
      "inputs": [[424, 0, 0]]
    }, 
    {
      "op": "elemwise_mul", 
      "name": "_mul12", 
      "inputs": [[425, 0, 0], [420, 2, 0]]
    }, 
    {
      "op": "elemwise_add", 
      "name": "_plus14", 
      "inputs": [[355, 2, 0], [426, 0, 0]]
    }, 
    {
      "op": "Activation", 
      "name": "gru_t4__h_act", 
      "attrs": {"act_type": "tanh"}, 
      "inputs": [[427, 0, 0]]
    }, 
    {
      "op": "elemwise_mul", 
      "name": "_mul13", 
      "inputs": [[423, 0, 0], [428, 0, 0]]
    }, 
    {
      "op": "elemwise_mul", 
      "name": "_mul14", 
      "inputs": [[422, 0, 0], [418, 0, 0]]
    }, 
    {
      "op": "elemwise_add", 
      "name": "gru_t4_out", 
      "inputs": [[429, 0, 0], [430, 0, 0]]
    }, 
    {
      "op": "FullyConnected", 
      "name": "gru_t5__h2h", 
      "attrs": {"num_hidden": "300"}, 
      "inputs": [[431, 0, 0], [365, 0, 0], [366, 0, 0]]
    }, 
    {
      "op": "SliceChannel", 
      "name": "gru_t5__h2h_slice", 
      "attrs": {"num_outputs": "3"}, 
      "inputs": [[432, 0, 0]]
    }, 
    {
      "op": "elemwise_add", 
      "name": "_plus16", 
      "inputs": [[353, 1, 0], [433, 1, 0]]
    }, 
    {
      "op": "Activation", 
      "name": "gru_t5__z_act", 
      "attrs": {"act_type": "sigmoid"}, 
      "inputs": [[434, 0, 0]]
    }, 
    {
      "op": "_rminus_scalar", 
      "name": "_rminusscalar5", 
      "attrs": {"scalar": "1.0"}, 
      "inputs": [[435, 0, 0]]
    }, 
    {
      "op": "elemwise_add", 
      "name": "_plus15", 
      "inputs": [[353, 0, 0], [433, 0, 0]]
    }, 
    {
      "op": "Activation", 
      "name": "gru_t5__r_act", 
      "attrs": {"act_type": "sigmoid"}, 
      "inputs": [[437, 0, 0]]
    }, 
    {
      "op": "elemwise_mul", 
      "name": "_mul15", 
      "inputs": [[438, 0, 0], [433, 2, 0]]
    }, 
    {
      "op": "elemwise_add", 
      "name": "_plus17", 
      "inputs": [[353, 2, 0], [439, 0, 0]]
    }, 
    {
      "op": "Activation", 
      "name": "gru_t5__h_act", 
      "attrs": {"act_type": "tanh"}, 
      "inputs": [[440, 0, 0]]
    }, 
    {
      "op": "elemwise_mul", 
      "name": "_mul16", 
      "inputs": [[436, 0, 0], [441, 0, 0]]
    }, 
    {
      "op": "elemwise_mul", 
      "name": "_mul17", 
      "inputs": [[435, 0, 0], [431, 0, 0]]
    }, 
    {
      "op": "elemwise_add", 
      "name": "gru_t5_out", 
      "inputs": [[442, 0, 0], [443, 0, 0]]
    }, 
    {
      "op": "FullyConnected", 
      "name": "gru_t6__h2h", 
      "attrs": {"num_hidden": "300"}, 
      "inputs": [[444, 0, 0], [365, 0, 0], [366, 0, 0]]
    }, 
    {
      "op": "SliceChannel", 
      "name": "gru_t6__h2h_slice", 
      "attrs": {"num_outputs": "3"}, 
      "inputs": [[445, 0, 0]]
    }, 
    {
      "op": "elemwise_add", 
      "name": "_plus19", 
      "inputs": [[351, 1, 0], [446, 1, 0]]
    }, 
    {
      "op": "Activation", 
      "name": "gru_t6__z_act", 
      "attrs": {"act_type": "sigmoid"}, 
      "inputs": [[447, 0, 0]]
    }, 
    {
      "op": "_rminus_scalar", 
      "name": "_rminusscalar6", 
      "attrs": {"scalar": "1.0"}, 
      "inputs": [[448, 0, 0]]
    }, 
    {
      "op": "elemwise_add", 
      "name": "_plus18", 
      "inputs": [[351, 0, 0], [446, 0, 0]]
    }, 
    {
      "op": "Activation", 
      "name": "gru_t6__r_act", 
      "attrs": {"act_type": "sigmoid"}, 
      "inputs": [[450, 0, 0]]
    }, 
    {
      "op": "elemwise_mul", 
      "name": "_mul18", 
      "inputs": [[451, 0, 0], [446, 2, 0]]
    }, 
    {
      "op": "elemwise_add", 
      "name": "_plus20", 
      "inputs": [[351, 2, 0], [452, 0, 0]]
    }, 
    {
      "op": "Activation", 
      "name": "gru_t6__h_act", 
      "attrs": {"act_type": "tanh"}, 
      "inputs": [[453, 0, 0]]
    }, 
    {
      "op": "elemwise_mul", 
      "name": "_mul19", 
      "inputs": [[449, 0, 0], [454, 0, 0]]
    }, 
    {
      "op": "elemwise_mul", 
      "name": "_mul20", 
      "inputs": [[448, 0, 0], [444, 0, 0]]
    }, 
    {
      "op": "elemwise_add", 
      "name": "gru_t6_out", 
      "inputs": [[455, 0, 0], [456, 0, 0]]
    }, 
    {
      "op": "FullyConnected", 
      "name": "gru_t7__h2h", 
      "attrs": {"num_hidden": "300"}, 
      "inputs": [[457, 0, 0], [365, 0, 0], [366, 0, 0]]
    }, 
    {
      "op": "SliceChannel", 
      "name": "gru_t7__h2h_slice", 
      "attrs": {"num_outputs": "3"}, 
      "inputs": [[458, 0, 0]]
    }, 
    {
      "op": "elemwise_add", 
      "name": "_plus22", 
      "inputs": [[349, 1, 0], [459, 1, 0]]
    }, 
    {
      "op": "Activation", 
      "name": "gru_t7__z_act", 
      "attrs": {"act_type": "sigmoid"}, 
      "inputs": [[460, 0, 0]]
    }, 
    {
      "op": "_rminus_scalar", 
      "name": "_rminusscalar7", 
      "attrs": {"scalar": "1.0"}, 
      "inputs": [[461, 0, 0]]
    }, 
    {
      "op": "elemwise_add", 
      "name": "_plus21", 
      "inputs": [[349, 0, 0], [459, 0, 0]]
    }, 
    {
      "op": "Activation", 
      "name": "gru_t7__r_act", 
      "attrs": {"act_type": "sigmoid"}, 
      "inputs": [[463, 0, 0]]
    }, 
    {
      "op": "elemwise_mul", 
      "name": "_mul21", 
      "inputs": [[464, 0, 0], [459, 2, 0]]
    }, 
    {
      "op": "elemwise_add", 
      "name": "_plus23", 
      "inputs": [[349, 2, 0], [465, 0, 0]]
    }, 
    {
      "op": "Activation", 
      "name": "gru_t7__h_act", 
      "attrs": {"act_type": "tanh"}, 
      "inputs": [[466, 0, 0]]
    }, 
    {
      "op": "elemwise_mul", 
      "name": "_mul22", 
      "inputs": [[462, 0, 0], [467, 0, 0]]
    }, 
    {
      "op": "elemwise_mul", 
      "name": "_mul23", 
      "inputs": [[461, 0, 0], [457, 0, 0]]
    }, 
    {
      "op": "elemwise_add", 
      "name": "gru_t7_out", 
      "inputs": [[468, 0, 0], [469, 0, 0]]
    }, 
    {
      "op": "FullyConnected", 
      "name": "gru_t8__h2h", 
      "attrs": {"num_hidden": "300"}, 
      "inputs": [[470, 0, 0], [365, 0, 0], [366, 0, 0]]
    }, 
    {
      "op": "SliceChannel", 
      "name": "gru_t8__h2h_slice", 
      "attrs": {"num_outputs": "3"}, 
      "inputs": [[471, 0, 0]]
    }, 
    {
      "op": "elemwise_add", 
      "name": "_plus25", 
      "inputs": [[347, 1, 0], [472, 1, 0]]
    }, 
    {
      "op": "Activation", 
      "name": "gru_t8__z_act", 
      "attrs": {"act_type": "sigmoid"}, 
      "inputs": [[473, 0, 0]]
    }, 
    {
      "op": "_rminus_scalar", 
      "name": "_rminusscalar8", 
      "attrs": {"scalar": "1.0"}, 
      "inputs": [[474, 0, 0]]
    }, 
    {
      "op": "elemwise_add", 
      "name": "_plus24", 
      "inputs": [[347, 0, 0], [472, 0, 0]]
    }, 
    {
      "op": "Activation", 
      "name": "gru_t8__r_act", 
      "attrs": {"act_type": "sigmoid"}, 
      "inputs": [[476, 0, 0]]
    }, 
    {
      "op": "elemwise_mul", 
      "name": "_mul24", 
      "inputs": [[477, 0, 0], [472, 2, 0]]
    }, 
    {
      "op": "elemwise_add", 
      "name": "_plus26", 
      "inputs": [[347, 2, 0], [478, 0, 0]]
    }, 
    {
      "op": "Activation", 
      "name": "gru_t8__h_act", 
      "attrs": {"act_type": "tanh"}, 
      "inputs": [[479, 0, 0]]
    }, 
    {
      "op": "elemwise_mul", 
      "name": "_mul25", 
      "inputs": [[475, 0, 0], [480, 0, 0]]
    }, 
    {
      "op": "elemwise_mul", 
      "name": "_mul26", 
      "inputs": [[474, 0, 0], [470, 0, 0]]
    }, 
    {
      "op": "elemwise_add", 
      "name": "gru_t8_out", 
      "inputs": [[481, 0, 0], [482, 0, 0]]
    }, 
    {
      "op": "FullyConnected", 
      "name": "gru_t9__h2h", 
      "attrs": {"num_hidden": "300"}, 
      "inputs": [[483, 0, 0], [365, 0, 0], [366, 0, 0]]
    }, 
    {
      "op": "SliceChannel", 
      "name": "gru_t9__h2h_slice", 
      "attrs": {"num_outputs": "3"}, 
      "inputs": [[484, 0, 0]]
    }, 
    {
      "op": "elemwise_add", 
      "name": "_plus28", 
      "inputs": [[345, 1, 0], [485, 1, 0]]
    }, 
    {
      "op": "Activation", 
      "name": "gru_t9__z_act", 
      "attrs": {"act_type": "sigmoid"}, 
      "inputs": [[486, 0, 0]]
    }, 
    {
      "op": "_rminus_scalar", 
      "name": "_rminusscalar9", 
      "attrs": {"scalar": "1.0"}, 
      "inputs": [[487, 0, 0]]
    }, 
    {
      "op": "elemwise_add", 
      "name": "_plus27", 
      "inputs": [[345, 0, 0], [485, 0, 0]]
    }, 
    {
      "op": "Activation", 
      "name": "gru_t9__r_act", 
      "attrs": {"act_type": "sigmoid"}, 
      "inputs": [[489, 0, 0]]
    }, 
    {
      "op": "elemwise_mul", 
      "name": "_mul27", 
      "inputs": [[490, 0, 0], [485, 2, 0]]
    }, 
    {
      "op": "elemwise_add", 
      "name": "_plus29", 
      "inputs": [[345, 2, 0], [491, 0, 0]]
    }, 
    {
      "op": "Activation", 
      "name": "gru_t9__h_act", 
      "attrs": {"act_type": "tanh"}, 
      "inputs": [[492, 0, 0]]
    }, 
    {
      "op": "elemwise_mul", 
      "name": "_mul28", 
      "inputs": [[488, 0, 0], [493, 0, 0]]
    }, 
    {
      "op": "elemwise_mul", 
      "name": "_mul29", 
      "inputs": [[487, 0, 0], [483, 0, 0]]
    }, 
    {
      "op": "elemwise_add", 
      "name": "gru_t9_out", 
      "inputs": [[494, 0, 0], [495, 0, 0]]
    }, 
    {
      "op": "FullyConnected", 
      "name": "gru_t10__h2h", 
      "attrs": {"num_hidden": "300"}, 
      "inputs": [[496, 0, 0], [365, 0, 0], [366, 0, 0]]
    }, 
    {
      "op": "SliceChannel", 
      "name": "gru_t10__h2h_slice", 
      "attrs": {"num_outputs": "3"}, 
      "inputs": [[497, 0, 0]]
    }, 
    {
      "op": "elemwise_add", 
      "name": "_plus31", 
      "inputs": [[343, 1, 0], [498, 1, 0]]
    }, 
    {
      "op": "Activation", 
      "name": "gru_t10__z_act", 
      "attrs": {"act_type": "sigmoid"}, 
      "inputs": [[499, 0, 0]]
    }, 
    {
      "op": "_rminus_scalar", 
      "name": "_rminusscalar10", 
      "attrs": {"scalar": "1.0"}, 
      "inputs": [[500, 0, 0]]
    }, 
    {
      "op": "elemwise_add", 
      "name": "_plus30", 
      "inputs": [[343, 0, 0], [498, 0, 0]]
    }, 
    {
      "op": "Activation", 
      "name": "gru_t10__r_act", 
      "attrs": {"act_type": "sigmoid"}, 
      "inputs": [[502, 0, 0]]
    }, 
    {
      "op": "elemwise_mul", 
      "name": "_mul30", 
      "inputs": [[503, 0, 0], [498, 2, 0]]
    }, 
    {
      "op": "elemwise_add", 
      "name": "_plus32", 
      "inputs": [[343, 2, 0], [504, 0, 0]]
    }, 
    {
      "op": "Activation", 
      "name": "gru_t10__h_act", 
      "attrs": {"act_type": "tanh"}, 
      "inputs": [[505, 0, 0]]
    }, 
    {
      "op": "elemwise_mul", 
      "name": "_mul31", 
      "inputs": [[501, 0, 0], [506, 0, 0]]
    }, 
    {
      "op": "elemwise_mul", 
      "name": "_mul32", 
      "inputs": [[500, 0, 0], [496, 0, 0]]
    }, 
    {
      "op": "elemwise_add", 
      "name": "gru_t10_out", 
      "inputs": [[507, 0, 0], [508, 0, 0]]
    }, 
    {
      "op": "FullyConnected", 
      "name": "gru_t11__h2h", 
      "attrs": {"num_hidden": "300"}, 
      "inputs": [[509, 0, 0], [365, 0, 0], [366, 0, 0]]
    }, 
    {
      "op": "SliceChannel", 
      "name": "gru_t11__h2h_slice", 
      "attrs": {"num_outputs": "3"}, 
      "inputs": [[510, 0, 0]]
    }, 
    {
      "op": "elemwise_add", 
      "name": "_plus34", 
      "inputs": [[341, 1, 0], [511, 1, 0]]
    }, 
    {
      "op": "Activation", 
      "name": "gru_t11__z_act", 
      "attrs": {"act_type": "sigmoid"}, 
      "inputs": [[512, 0, 0]]
    }, 
    {
      "op": "_rminus_scalar", 
      "name": "_rminusscalar11", 
      "attrs": {"scalar": "1.0"}, 
      "inputs": [[513, 0, 0]]
    }, 
    {
      "op": "elemwise_add", 
      "name": "_plus33", 
      "inputs": [[341, 0, 0], [511, 0, 0]]
    }, 
    {
      "op": "Activation", 
      "name": "gru_t11__r_act", 
      "attrs": {"act_type": "sigmoid"}, 
      "inputs": [[515, 0, 0]]
    }, 
    {
      "op": "elemwise_mul", 
      "name": "_mul33", 
      "inputs": [[516, 0, 0], [511, 2, 0]]
    }, 
    {
      "op": "elemwise_add", 
      "name": "_plus35", 
      "inputs": [[341, 2, 0], [517, 0, 0]]
    }, 
    {
      "op": "Activation", 
      "name": "gru_t11__h_act", 
      "attrs": {"act_type": "tanh"}, 
      "inputs": [[518, 0, 0]]
    }, 
    {
      "op": "elemwise_mul", 
      "name": "_mul34", 
      "inputs": [[514, 0, 0], [519, 0, 0]]
    }, 
    {
      "op": "elemwise_mul", 
      "name": "_mul35", 
      "inputs": [[513, 0, 0], [509, 0, 0]]
    }, 
    {
      "op": "elemwise_add", 
      "name": "gru_t11_out", 
      "inputs": [[520, 0, 0], [521, 0, 0]]
    }, 
    {
      "op": "FullyConnected", 
      "name": "gru_t12__h2h", 
      "attrs": {"num_hidden": "300"}, 
      "inputs": [[522, 0, 0], [365, 0, 0], [366, 0, 0]]
    }, 
    {
      "op": "SliceChannel", 
      "name": "gru_t12__h2h_slice", 
      "attrs": {"num_outputs": "3"}, 
      "inputs": [[523, 0, 0]]
    }, 
    {
      "op": "elemwise_add", 
      "name": "_plus37", 
      "inputs": [[339, 1, 0], [524, 1, 0]]
    }, 
    {
      "op": "Activation", 
      "name": "gru_t12__z_act", 
      "attrs": {"act_type": "sigmoid"}, 
      "inputs": [[525, 0, 0]]
    }, 
    {
      "op": "_rminus_scalar", 
      "name": "_rminusscalar12", 
      "attrs": {"scalar": "1.0"}, 
      "inputs": [[526, 0, 0]]
    }, 
    {
      "op": "elemwise_add", 
      "name": "_plus36", 
      "inputs": [[339, 0, 0], [524, 0, 0]]
    }, 
    {
      "op": "Activation", 
      "name": "gru_t12__r_act", 
      "attrs": {"act_type": "sigmoid"}, 
      "inputs": [[528, 0, 0]]
    }, 
    {
      "op": "elemwise_mul", 
      "name": "_mul36", 
      "inputs": [[529, 0, 0], [524, 2, 0]]
    }, 
    {
      "op": "elemwise_add", 
      "name": "_plus38", 
      "inputs": [[339, 2, 0], [530, 0, 0]]
    }, 
    {
      "op": "Activation", 
      "name": "gru_t12__h_act", 
      "attrs": {"act_type": "tanh"}, 
      "inputs": [[531, 0, 0]]
    }, 
    {
      "op": "elemwise_mul", 
      "name": "_mul37", 
      "inputs": [[527, 0, 0], [532, 0, 0]]
    }, 
    {
      "op": "elemwise_mul", 
      "name": "_mul38", 
      "inputs": [[526, 0, 0], [522, 0, 0]]
    }, 
    {
      "op": "elemwise_add", 
      "name": "gru_t12_out", 
      "inputs": [[533, 0, 0], [534, 0, 0]]
    }, 
    {
      "op": "FullyConnected", 
      "name": "gru_t13__h2h", 
      "attrs": {"num_hidden": "300"}, 
      "inputs": [[535, 0, 0], [365, 0, 0], [366, 0, 0]]
    }, 
    {
      "op": "SliceChannel", 
      "name": "gru_t13__h2h_slice", 
      "attrs": {"num_outputs": "3"}, 
      "inputs": [[536, 0, 0]]
    }, 
    {
      "op": "elemwise_add", 
      "name": "_plus40", 
      "inputs": [[337, 1, 0], [537, 1, 0]]
    }, 
    {
      "op": "Activation", 
      "name": "gru_t13__z_act", 
      "attrs": {"act_type": "sigmoid"}, 
      "inputs": [[538, 0, 0]]
    }, 
    {
      "op": "_rminus_scalar", 
      "name": "_rminusscalar13", 
      "attrs": {"scalar": "1.0"}, 
      "inputs": [[539, 0, 0]]
    }, 
    {
      "op": "elemwise_add", 
      "name": "_plus39", 
      "inputs": [[337, 0, 0], [537, 0, 0]]
    }, 
    {
      "op": "Activation", 
      "name": "gru_t13__r_act", 
      "attrs": {"act_type": "sigmoid"}, 
      "inputs": [[541, 0, 0]]
    }, 
    {
      "op": "elemwise_mul", 
      "name": "_mul39", 
      "inputs": [[542, 0, 0], [537, 2, 0]]
    }, 
    {
      "op": "elemwise_add", 
      "name": "_plus41", 
      "inputs": [[337, 2, 0], [543, 0, 0]]
    }, 
    {
      "op": "Activation", 
      "name": "gru_t13__h_act", 
      "attrs": {"act_type": "tanh"}, 
      "inputs": [[544, 0, 0]]
    }, 
    {
      "op": "elemwise_mul", 
      "name": "_mul40", 
      "inputs": [[540, 0, 0], [545, 0, 0]]
    }, 
    {
      "op": "elemwise_mul", 
      "name": "_mul41", 
      "inputs": [[539, 0, 0], [535, 0, 0]]
    }, 
    {
      "op": "elemwise_add", 
      "name": "gru_t13_out", 
      "inputs": [[546, 0, 0], [547, 0, 0]]
    }, 
    {
      "op": "FullyConnected", 
      "name": "gru_t14__h2h", 
      "attrs": {"num_hidden": "300"}, 
      "inputs": [[548, 0, 0], [365, 0, 0], [366, 0, 0]]
    }, 
    {
      "op": "SliceChannel", 
      "name": "gru_t14__h2h_slice", 
      "attrs": {"num_outputs": "3"}, 
      "inputs": [[549, 0, 0]]
    }, 
    {
      "op": "elemwise_add", 
      "name": "_plus43", 
      "inputs": [[335, 1, 0], [550, 1, 0]]
    }, 
    {
      "op": "Activation", 
      "name": "gru_t14__z_act", 
      "attrs": {"act_type": "sigmoid"}, 
      "inputs": [[551, 0, 0]]
    }, 
    {
      "op": "_rminus_scalar", 
      "name": "_rminusscalar14", 
      "attrs": {"scalar": "1.0"}, 
      "inputs": [[552, 0, 0]]
    }, 
    {
      "op": "elemwise_add", 
      "name": "_plus42", 
      "inputs": [[335, 0, 0], [550, 0, 0]]
    }, 
    {
      "op": "Activation", 
      "name": "gru_t14__r_act", 
      "attrs": {"act_type": "sigmoid"}, 
      "inputs": [[554, 0, 0]]
    }, 
    {
      "op": "elemwise_mul", 
      "name": "_mul42", 
      "inputs": [[555, 0, 0], [550, 2, 0]]
    }, 
    {
      "op": "elemwise_add", 
      "name": "_plus44", 
      "inputs": [[335, 2, 0], [556, 0, 0]]
    }, 
    {
      "op": "Activation", 
      "name": "gru_t14__h_act", 
      "attrs": {"act_type": "tanh"}, 
      "inputs": [[557, 0, 0]]
    }, 
    {
      "op": "elemwise_mul", 
      "name": "_mul43", 
      "inputs": [[553, 0, 0], [558, 0, 0]]
    }, 
    {
      "op": "elemwise_mul", 
      "name": "_mul44", 
      "inputs": [[552, 0, 0], [548, 0, 0]]
    }, 
    {
      "op": "elemwise_add", 
      "name": "gru_t14_out", 
      "inputs": [[559, 0, 0], [560, 0, 0]]
    }, 
    {
      "op": "FullyConnected", 
      "name": "gru_t15__h2h", 
      "attrs": {"num_hidden": "300"}, 
      "inputs": [[561, 0, 0], [365, 0, 0], [366, 0, 0]]
    }, 
    {
      "op": "SliceChannel", 
      "name": "gru_t15__h2h_slice", 
      "attrs": {"num_outputs": "3"}, 
      "inputs": [[562, 0, 0]]
    }, 
    {
      "op": "elemwise_add", 
      "name": "_plus46", 
      "inputs": [[333, 1, 0], [563, 1, 0]]
    }, 
    {
      "op": "Activation", 
      "name": "gru_t15__z_act", 
      "attrs": {"act_type": "sigmoid"}, 
      "inputs": [[564, 0, 0]]
    }, 
    {
      "op": "_rminus_scalar", 
      "name": "_rminusscalar15", 
      "attrs": {"scalar": "1.0"}, 
      "inputs": [[565, 0, 0]]
    }, 
    {
      "op": "elemwise_add", 
      "name": "_plus45", 
      "inputs": [[333, 0, 0], [563, 0, 0]]
    }, 
    {
      "op": "Activation", 
      "name": "gru_t15__r_act", 
      "attrs": {"act_type": "sigmoid"}, 
      "inputs": [[567, 0, 0]]
    }, 
    {
      "op": "elemwise_mul", 
      "name": "_mul45", 
      "inputs": [[568, 0, 0], [563, 2, 0]]
    }, 
    {
      "op": "elemwise_add", 
      "name": "_plus47", 
      "inputs": [[333, 2, 0], [569, 0, 0]]
    }, 
    {
      "op": "Activation", 
      "name": "gru_t15__h_act", 
      "attrs": {"act_type": "tanh"}, 
      "inputs": [[570, 0, 0]]
    }, 
    {
      "op": "elemwise_mul", 
      "name": "_mul46", 
      "inputs": [[566, 0, 0], [571, 0, 0]]
    }, 
    {
      "op": "elemwise_mul", 
      "name": "_mul47", 
      "inputs": [[565, 0, 0], [561, 0, 0]]
    }, 
    {
      "op": "elemwise_add", 
      "name": "gru_t15_out", 
      "inputs": [[572, 0, 0], [573, 0, 0]]
    }, 
    {
      "op": "FullyConnected", 
      "name": "gru_t16__h2h", 
      "attrs": {"num_hidden": "300"}, 
      "inputs": [[574, 0, 0], [365, 0, 0], [366, 0, 0]]
    }, 
    {
      "op": "SliceChannel", 
      "name": "gru_t16__h2h_slice", 
      "attrs": {"num_outputs": "3"}, 
      "inputs": [[575, 0, 0]]
    }, 
    {
      "op": "elemwise_add", 
      "name": "_plus49", 
      "inputs": [[331, 1, 0], [576, 1, 0]]
    }, 
    {
      "op": "Activation", 
      "name": "gru_t16__z_act", 
      "attrs": {"act_type": "sigmoid"}, 
      "inputs": [[577, 0, 0]]
    }, 
    {
      "op": "_rminus_scalar", 
      "name": "_rminusscalar16", 
      "attrs": {"scalar": "1.0"}, 
      "inputs": [[578, 0, 0]]
    }, 
    {
      "op": "elemwise_add", 
      "name": "_plus48", 
      "inputs": [[331, 0, 0], [576, 0, 0]]
    }, 
    {
      "op": "Activation", 
      "name": "gru_t16__r_act", 
      "attrs": {"act_type": "sigmoid"}, 
      "inputs": [[580, 0, 0]]
    }, 
    {
      "op": "elemwise_mul", 
      "name": "_mul48", 
      "inputs": [[581, 0, 0], [576, 2, 0]]
    }, 
    {
      "op": "elemwise_add", 
      "name": "_plus50", 
      "inputs": [[331, 2, 0], [582, 0, 0]]
    }, 
    {
      "op": "Activation", 
      "name": "gru_t16__h_act", 
      "attrs": {"act_type": "tanh"}, 
      "inputs": [[583, 0, 0]]
    }, 
    {
      "op": "elemwise_mul", 
      "name": "_mul49", 
      "inputs": [[579, 0, 0], [584, 0, 0]]
    }, 
    {
      "op": "elemwise_mul", 
      "name": "_mul50", 
      "inputs": [[578, 0, 0], [574, 0, 0]]
    }, 
    {
      "op": "elemwise_add", 
      "name": "gru_t16_out", 
      "inputs": [[585, 0, 0], [586, 0, 0]]
    }, 
    {
      "op": "FullyConnected", 
      "name": "gru_t17__h2h", 
      "attrs": {"num_hidden": "300"}, 
      "inputs": [[587, 0, 0], [365, 0, 0], [366, 0, 0]]
    }, 
    {
      "op": "SliceChannel", 
      "name": "gru_t17__h2h_slice", 
      "attrs": {"num_outputs": "3"}, 
      "inputs": [[588, 0, 0]]
    }, 
    {
      "op": "elemwise_add", 
      "name": "_plus52", 
      "inputs": [[329, 1, 0], [589, 1, 0]]
    }, 
    {
      "op": "Activation", 
      "name": "gru_t17__z_act", 
      "attrs": {"act_type": "sigmoid"}, 
      "inputs": [[590, 0, 0]]
    }, 
    {
      "op": "_rminus_scalar", 
      "name": "_rminusscalar17", 
      "attrs": {"scalar": "1.0"}, 
      "inputs": [[591, 0, 0]]
    }, 
    {
      "op": "elemwise_add", 
      "name": "_plus51", 
      "inputs": [[329, 0, 0], [589, 0, 0]]
    }, 
    {
      "op": "Activation", 
      "name": "gru_t17__r_act", 
      "attrs": {"act_type": "sigmoid"}, 
      "inputs": [[593, 0, 0]]
    }, 
    {
      "op": "elemwise_mul", 
      "name": "_mul51", 
      "inputs": [[594, 0, 0], [589, 2, 0]]
    }, 
    {
      "op": "elemwise_add", 
      "name": "_plus53", 
      "inputs": [[329, 2, 0], [595, 0, 0]]
    }, 
    {
      "op": "Activation", 
      "name": "gru_t17__h_act", 
      "attrs": {"act_type": "tanh"}, 
      "inputs": [[596, 0, 0]]
    }, 
    {
      "op": "elemwise_mul", 
      "name": "_mul52", 
      "inputs": [[592, 0, 0], [597, 0, 0]]
    }, 
    {
      "op": "elemwise_mul", 
      "name": "_mul53", 
      "inputs": [[591, 0, 0], [587, 0, 0]]
    }, 
    {
      "op": "elemwise_add", 
      "name": "gru_t17_out", 
      "inputs": [[598, 0, 0], [599, 0, 0]]
    }, 
    {
      "op": "FullyConnected", 
      "name": "gru_t18__h2h", 
      "attrs": {"num_hidden": "300"}, 
      "inputs": [[600, 0, 0], [365, 0, 0], [366, 0, 0]]
    }, 
    {
      "op": "SliceChannel", 
      "name": "gru_t18__h2h_slice", 
      "attrs": {"num_outputs": "3"}, 
      "inputs": [[601, 0, 0]]
    }, 
    {
      "op": "elemwise_add", 
      "name": "_plus55", 
      "inputs": [[327, 1, 0], [602, 1, 0]]
    }, 
    {
      "op": "Activation", 
      "name": "gru_t18__z_act", 
      "attrs": {"act_type": "sigmoid"}, 
      "inputs": [[603, 0, 0]]
    }, 
    {
      "op": "_rminus_scalar", 
      "name": "_rminusscalar18", 
      "attrs": {"scalar": "1.0"}, 
      "inputs": [[604, 0, 0]]
    }, 
    {
      "op": "elemwise_add", 
      "name": "_plus54", 
      "inputs": [[327, 0, 0], [602, 0, 0]]
    }, 
    {
      "op": "Activation", 
      "name": "gru_t18__r_act", 
      "attrs": {"act_type": "sigmoid"}, 
      "inputs": [[606, 0, 0]]
    }, 
    {
      "op": "elemwise_mul", 
      "name": "_mul54", 
      "inputs": [[607, 0, 0], [602, 2, 0]]
    }, 
    {
      "op": "elemwise_add", 
      "name": "_plus56", 
      "inputs": [[327, 2, 0], [608, 0, 0]]
    }, 
    {
      "op": "Activation", 
      "name": "gru_t18__h_act", 
      "attrs": {"act_type": "tanh"}, 
      "inputs": [[609, 0, 0]]
    }, 
    {
      "op": "elemwise_mul", 
      "name": "_mul55", 
      "inputs": [[605, 0, 0], [610, 0, 0]]
    }, 
    {
      "op": "elemwise_mul", 
      "name": "_mul56", 
      "inputs": [[604, 0, 0], [600, 0, 0]]
    }, 
    {
      "op": "elemwise_add", 
      "name": "gru_t18_out", 
      "inputs": [[611, 0, 0], [612, 0, 0]]
    }, 
    {
      "op": "FullyConnected", 
      "name": "gru_t19__h2h", 
      "attrs": {"num_hidden": "300"}, 
      "inputs": [[613, 0, 0], [365, 0, 0], [366, 0, 0]]
    }, 
    {
      "op": "SliceChannel", 
      "name": "gru_t19__h2h_slice", 
      "attrs": {"num_outputs": "3"}, 
      "inputs": [[614, 0, 0]]
    }, 
    {
      "op": "elemwise_add", 
      "name": "_plus58", 
      "inputs": [[325, 1, 0], [615, 1, 0]]
    }, 
    {
      "op": "Activation", 
      "name": "gru_t19__z_act", 
      "attrs": {"act_type": "sigmoid"}, 
      "inputs": [[616, 0, 0]]
    }, 
    {
      "op": "_rminus_scalar", 
      "name": "_rminusscalar19", 
      "attrs": {"scalar": "1.0"}, 
      "inputs": [[617, 0, 0]]
    }, 
    {
      "op": "elemwise_add", 
      "name": "_plus57", 
      "inputs": [[325, 0, 0], [615, 0, 0]]
    }, 
    {
      "op": "Activation", 
      "name": "gru_t19__r_act", 
      "attrs": {"act_type": "sigmoid"}, 
      "inputs": [[619, 0, 0]]
    }, 
    {
      "op": "elemwise_mul", 
      "name": "_mul57", 
      "inputs": [[620, 0, 0], [615, 2, 0]]
    }, 
    {
      "op": "elemwise_add", 
      "name": "_plus59", 
      "inputs": [[325, 2, 0], [621, 0, 0]]
    }, 
    {
      "op": "Activation", 
      "name": "gru_t19__h_act", 
      "attrs": {"act_type": "tanh"}, 
      "inputs": [[622, 0, 0]]
    }, 
    {
      "op": "elemwise_mul", 
      "name": "_mul58", 
      "inputs": [[618, 0, 0], [623, 0, 0]]
    }, 
    {
      "op": "elemwise_mul", 
      "name": "_mul59", 
      "inputs": [[617, 0, 0], [613, 0, 0]]
    }, 
    {
      "op": "elemwise_add", 
      "name": "gru_t19_out", 
      "inputs": [[624, 0, 0], [625, 0, 0]]
    }, 
    {
      "op": "FullyConnected", 
      "name": "gru_t20__h2h", 
      "attrs": {"num_hidden": "300"}, 
      "inputs": [[626, 0, 0], [365, 0, 0], [366, 0, 0]]
    }, 
    {
      "op": "SliceChannel", 
      "name": "gru_t20__h2h_slice", 
      "attrs": {"num_outputs": "3"}, 
      "inputs": [[627, 0, 0]]
    }, 
    {
      "op": "elemwise_add", 
      "name": "_plus61", 
      "inputs": [[323, 1, 0], [628, 1, 0]]
    }, 
    {
      "op": "Activation", 
      "name": "gru_t20__z_act", 
      "attrs": {"act_type": "sigmoid"}, 
      "inputs": [[629, 0, 0]]
    }, 
    {
      "op": "_rminus_scalar", 
      "name": "_rminusscalar20", 
      "attrs": {"scalar": "1.0"}, 
      "inputs": [[630, 0, 0]]
    }, 
    {
      "op": "elemwise_add", 
      "name": "_plus60", 
      "inputs": [[323, 0, 0], [628, 0, 0]]
    }, 
    {
      "op": "Activation", 
      "name": "gru_t20__r_act", 
      "attrs": {"act_type": "sigmoid"}, 
      "inputs": [[632, 0, 0]]
    }, 
    {
      "op": "elemwise_mul", 
      "name": "_mul60", 
      "inputs": [[633, 0, 0], [628, 2, 0]]
    }, 
    {
      "op": "elemwise_add", 
      "name": "_plus62", 
      "inputs": [[323, 2, 0], [634, 0, 0]]
    }, 
    {
      "op": "Activation", 
      "name": "gru_t20__h_act", 
      "attrs": {"act_type": "tanh"}, 
      "inputs": [[635, 0, 0]]
    }, 
    {
      "op": "elemwise_mul", 
      "name": "_mul61", 
      "inputs": [[631, 0, 0], [636, 0, 0]]
    }, 
    {
      "op": "elemwise_mul", 
      "name": "_mul62", 
      "inputs": [[630, 0, 0], [626, 0, 0]]
    }, 
    {
      "op": "elemwise_add", 
      "name": "gru_t20_out", 
      "inputs": [[637, 0, 0], [638, 0, 0]]
    }, 
    {
      "op": "FullyConnected", 
      "name": "gru_t21__h2h", 
      "attrs": {"num_hidden": "300"}, 
      "inputs": [[639, 0, 0], [365, 0, 0], [366, 0, 0]]
    }, 
    {
      "op": "SliceChannel", 
      "name": "gru_t21__h2h_slice", 
      "attrs": {"num_outputs": "3"}, 
      "inputs": [[640, 0, 0]]
    }, 
    {
      "op": "elemwise_add", 
      "name": "_plus64", 
      "inputs": [[321, 1, 0], [641, 1, 0]]
    }, 
    {
      "op": "Activation", 
      "name": "gru_t21__z_act", 
      "attrs": {"act_type": "sigmoid"}, 
      "inputs": [[642, 0, 0]]
    }, 
    {
      "op": "_rminus_scalar", 
      "name": "_rminusscalar21", 
      "attrs": {"scalar": "1.0"}, 
      "inputs": [[643, 0, 0]]
    }, 
    {
      "op": "elemwise_add", 
      "name": "_plus63", 
      "inputs": [[321, 0, 0], [641, 0, 0]]
    }, 
    {
      "op": "Activation", 
      "name": "gru_t21__r_act", 
      "attrs": {"act_type": "sigmoid"}, 
      "inputs": [[645, 0, 0]]
    }, 
    {
      "op": "elemwise_mul", 
      "name": "_mul63", 
      "inputs": [[646, 0, 0], [641, 2, 0]]
    }, 
    {
      "op": "elemwise_add", 
      "name": "_plus65", 
      "inputs": [[321, 2, 0], [647, 0, 0]]
    }, 
    {
      "op": "Activation", 
      "name": "gru_t21__h_act", 
      "attrs": {"act_type": "tanh"}, 
      "inputs": [[648, 0, 0]]
    }, 
    {
      "op": "elemwise_mul", 
      "name": "_mul64", 
      "inputs": [[644, 0, 0], [649, 0, 0]]
    }, 
    {
      "op": "elemwise_mul", 
      "name": "_mul65", 
      "inputs": [[643, 0, 0], [639, 0, 0]]
    }, 
    {
      "op": "elemwise_add", 
      "name": "gru_t21_out", 
      "inputs": [[650, 0, 0], [651, 0, 0]]
    }, 
    {
      "op": "FullyConnected", 
      "name": "gru_t22__h2h", 
      "attrs": {"num_hidden": "300"}, 
      "inputs": [[652, 0, 0], [365, 0, 0], [366, 0, 0]]
    }, 
    {
      "op": "SliceChannel", 
      "name": "gru_t22__h2h_slice", 
      "attrs": {"num_outputs": "3"}, 
      "inputs": [[653, 0, 0]]
    }, 
    {
      "op": "elemwise_add", 
      "name": "_plus67", 
      "inputs": [[319, 1, 0], [654, 1, 0]]
    }, 
    {
      "op": "Activation", 
      "name": "gru_t22__z_act", 
      "attrs": {"act_type": "sigmoid"}, 
      "inputs": [[655, 0, 0]]
    }, 
    {
      "op": "_rminus_scalar", 
      "name": "_rminusscalar22", 
      "attrs": {"scalar": "1.0"}, 
      "inputs": [[656, 0, 0]]
    }, 
    {
      "op": "elemwise_add", 
      "name": "_plus66", 
      "inputs": [[319, 0, 0], [654, 0, 0]]
    }, 
    {
      "op": "Activation", 
      "name": "gru_t22__r_act", 
      "attrs": {"act_type": "sigmoid"}, 
      "inputs": [[658, 0, 0]]
    }, 
    {
      "op": "elemwise_mul", 
      "name": "_mul66", 
      "inputs": [[659, 0, 0], [654, 2, 0]]
    }, 
    {
      "op": "elemwise_add", 
      "name": "_plus68", 
      "inputs": [[319, 2, 0], [660, 0, 0]]
    }, 
    {
      "op": "Activation", 
      "name": "gru_t22__h_act", 
      "attrs": {"act_type": "tanh"}, 
      "inputs": [[661, 0, 0]]
    }, 
    {
      "op": "elemwise_mul", 
      "name": "_mul67", 
      "inputs": [[657, 0, 0], [662, 0, 0]]
    }, 
    {
      "op": "elemwise_mul", 
      "name": "_mul68", 
      "inputs": [[656, 0, 0], [652, 0, 0]]
    }, 
    {
      "op": "elemwise_add", 
      "name": "gru_t22_out", 
      "inputs": [[663, 0, 0], [664, 0, 0]]
    }, 
    {
      "op": "FullyConnected", 
      "name": "gru_t23__h2h", 
      "attrs": {"num_hidden": "300"}, 
      "inputs": [[665, 0, 0], [365, 0, 0], [366, 0, 0]]
    }, 
    {
      "op": "SliceChannel", 
      "name": "gru_t23__h2h_slice", 
      "attrs": {"num_outputs": "3"}, 
      "inputs": [[666, 0, 0]]
    }, 
    {
      "op": "elemwise_add", 
      "name": "_plus70", 
      "inputs": [[317, 1, 0], [667, 1, 0]]
    }, 
    {
      "op": "Activation", 
      "name": "gru_t23__z_act", 
      "attrs": {"act_type": "sigmoid"}, 
      "inputs": [[668, 0, 0]]
    }, 
    {
      "op": "_rminus_scalar", 
      "name": "_rminusscalar23", 
      "attrs": {"scalar": "1.0"}, 
      "inputs": [[669, 0, 0]]
    }, 
    {
      "op": "elemwise_add", 
      "name": "_plus69", 
      "inputs": [[317, 0, 0], [667, 0, 0]]
    }, 
    {
      "op": "Activation", 
      "name": "gru_t23__r_act", 
      "attrs": {"act_type": "sigmoid"}, 
      "inputs": [[671, 0, 0]]
    }, 
    {
      "op": "elemwise_mul", 
      "name": "_mul69", 
      "inputs": [[672, 0, 0], [667, 2, 0]]
    }, 
    {
      "op": "elemwise_add", 
      "name": "_plus71", 
      "inputs": [[317, 2, 0], [673, 0, 0]]
    }, 
    {
      "op": "Activation", 
      "name": "gru_t23__h_act", 
      "attrs": {"act_type": "tanh"}, 
      "inputs": [[674, 0, 0]]
    }, 
    {
      "op": "elemwise_mul", 
      "name": "_mul70", 
      "inputs": [[670, 0, 0], [675, 0, 0]]
    }, 
    {
      "op": "elemwise_mul", 
      "name": "_mul71", 
      "inputs": [[669, 0, 0], [665, 0, 0]]
    }, 
    {
      "op": "elemwise_add", 
      "name": "gru_t23_out", 
      "inputs": [[676, 0, 0], [677, 0, 0]]
    }, 
    {
      "op": "FullyConnected", 
      "name": "gru_t24__h2h", 
      "attrs": {"num_hidden": "300"}, 
      "inputs": [[678, 0, 0], [365, 0, 0], [366, 0, 0]]
    }, 
    {
      "op": "SliceChannel", 
      "name": "gru_t24__h2h_slice", 
      "attrs": {"num_outputs": "3"}, 
      "inputs": [[679, 0, 0]]
    }, 
    {
      "op": "elemwise_add", 
      "name": "_plus73", 
      "inputs": [[315, 1, 0], [680, 1, 0]]
    }, 
    {
      "op": "Activation", 
      "name": "gru_t24__z_act", 
      "attrs": {"act_type": "sigmoid"}, 
      "inputs": [[681, 0, 0]]
    }, 
    {
      "op": "_rminus_scalar", 
      "name": "_rminusscalar24", 
      "attrs": {"scalar": "1.0"}, 
      "inputs": [[682, 0, 0]]
    }, 
    {
      "op": "elemwise_add", 
      "name": "_plus72", 
      "inputs": [[315, 0, 0], [680, 0, 0]]
    }, 
    {
      "op": "Activation", 
      "name": "gru_t24__r_act", 
      "attrs": {"act_type": "sigmoid"}, 
      "inputs": [[684, 0, 0]]
    }, 
    {
      "op": "elemwise_mul", 
      "name": "_mul72", 
      "inputs": [[685, 0, 0], [680, 2, 0]]
    }, 
    {
      "op": "elemwise_add", 
      "name": "_plus74", 
      "inputs": [[315, 2, 0], [686, 0, 0]]
    }, 
    {
      "op": "Activation", 
      "name": "gru_t24__h_act", 
      "attrs": {"act_type": "tanh"}, 
      "inputs": [[687, 0, 0]]
    }, 
    {
      "op": "elemwise_mul", 
      "name": "_mul73", 
      "inputs": [[683, 0, 0], [688, 0, 0]]
    }, 
    {
      "op": "elemwise_mul", 
      "name": "_mul74", 
      "inputs": [[682, 0, 0], [678, 0, 0]]
    }, 
    {
      "op": "elemwise_add", 
      "name": "gru_t24_out", 
      "inputs": [[689, 0, 0], [690, 0, 0]]
    }, 
    {
      "op": "FullyConnected", 
      "name": "gru_t25__h2h", 
      "attrs": {"num_hidden": "300"}, 
      "inputs": [[691, 0, 0], [365, 0, 0], [366, 0, 0]]
    }, 
    {
      "op": "SliceChannel", 
      "name": "gru_t25__h2h_slice", 
      "attrs": {"num_outputs": "3"}, 
      "inputs": [[692, 0, 0]]
    }, 
    {
      "op": "elemwise_add", 
      "name": "_plus76", 
      "inputs": [[313, 1, 0], [693, 1, 0]]
    }, 
    {
      "op": "Activation", 
      "name": "gru_t25__z_act", 
      "attrs": {"act_type": "sigmoid"}, 
      "inputs": [[694, 0, 0]]
    }, 
    {
      "op": "_rminus_scalar", 
      "name": "_rminusscalar25", 
      "attrs": {"scalar": "1.0"}, 
      "inputs": [[695, 0, 0]]
    }, 
    {
      "op": "elemwise_add", 
      "name": "_plus75", 
      "inputs": [[313, 0, 0], [693, 0, 0]]
    }, 
    {
      "op": "Activation", 
      "name": "gru_t25__r_act", 
      "attrs": {"act_type": "sigmoid"}, 
      "inputs": [[697, 0, 0]]
    }, 
    {
      "op": "elemwise_mul", 
      "name": "_mul75", 
      "inputs": [[698, 0, 0], [693, 2, 0]]
    }, 
    {
      "op": "elemwise_add", 
      "name": "_plus77", 
      "inputs": [[313, 2, 0], [699, 0, 0]]
    }, 
    {
      "op": "Activation", 
      "name": "gru_t25__h_act", 
      "attrs": {"act_type": "tanh"}, 
      "inputs": [[700, 0, 0]]
    }, 
    {
      "op": "elemwise_mul", 
      "name": "_mul76", 
      "inputs": [[696, 0, 0], [701, 0, 0]]
    }, 
    {
      "op": "elemwise_mul", 
      "name": "_mul77", 
      "inputs": [[695, 0, 0], [691, 0, 0]]
    }, 
    {
      "op": "elemwise_add", 
      "name": "gru_t25_out", 
      "inputs": [[702, 0, 0], [703, 0, 0]]
    }, 
    {
      "op": "FullyConnected", 
      "name": "gru_t26__h2h", 
      "attrs": {"num_hidden": "300"}, 
      "inputs": [[704, 0, 0], [365, 0, 0], [366, 0, 0]]
    }, 
    {
      "op": "SliceChannel", 
      "name": "gru_t26__h2h_slice", 
      "attrs": {"num_outputs": "3"}, 
      "inputs": [[705, 0, 0]]
    }, 
    {
      "op": "elemwise_add", 
      "name": "_plus79", 
      "inputs": [[311, 1, 0], [706, 1, 0]]
    }, 
    {
      "op": "Activation", 
      "name": "gru_t26__z_act", 
      "attrs": {"act_type": "sigmoid"}, 
      "inputs": [[707, 0, 0]]
    }, 
    {
      "op": "_rminus_scalar", 
      "name": "_rminusscalar26", 
      "attrs": {"scalar": "1.0"}, 
      "inputs": [[708, 0, 0]]
    }, 
    {
      "op": "elemwise_add", 
      "name": "_plus78", 
      "inputs": [[311, 0, 0], [706, 0, 0]]
    }, 
    {
      "op": "Activation", 
      "name": "gru_t26__r_act", 
      "attrs": {"act_type": "sigmoid"}, 
      "inputs": [[710, 0, 0]]
    }, 
    {
      "op": "elemwise_mul", 
      "name": "_mul78", 
      "inputs": [[711, 0, 0], [706, 2, 0]]
    }, 
    {
      "op": "elemwise_add", 
      "name": "_plus80", 
      "inputs": [[311, 2, 0], [712, 0, 0]]
    }, 
    {
      "op": "Activation", 
      "name": "gru_t26__h_act", 
      "attrs": {"act_type": "tanh"}, 
      "inputs": [[713, 0, 0]]
    }, 
    {
      "op": "elemwise_mul", 
      "name": "_mul79", 
      "inputs": [[709, 0, 0], [714, 0, 0]]
    }, 
    {
      "op": "elemwise_mul", 
      "name": "_mul80", 
      "inputs": [[708, 0, 0], [704, 0, 0]]
    }, 
    {
      "op": "elemwise_add", 
      "name": "gru_t26_out", 
      "inputs": [[715, 0, 0], [716, 0, 0]]
    }, 
    {
      "op": "FullyConnected", 
      "name": "gru_t27__h2h", 
      "attrs": {"num_hidden": "300"}, 
      "inputs": [[717, 0, 0], [365, 0, 0], [366, 0, 0]]
    }, 
    {
      "op": "SliceChannel", 
      "name": "gru_t27__h2h_slice", 
      "attrs": {"num_outputs": "3"}, 
      "inputs": [[718, 0, 0]]
    }, 
    {
      "op": "elemwise_add", 
      "name": "_plus82", 
      "inputs": [[309, 1, 0], [719, 1, 0]]
    }, 
    {
      "op": "Activation", 
      "name": "gru_t27__z_act", 
      "attrs": {"act_type": "sigmoid"}, 
      "inputs": [[720, 0, 0]]
    }, 
    {
      "op": "_rminus_scalar", 
      "name": "_rminusscalar27", 
      "attrs": {"scalar": "1.0"}, 
      "inputs": [[721, 0, 0]]
    }, 
    {
      "op": "elemwise_add", 
      "name": "_plus81", 
      "inputs": [[309, 0, 0], [719, 0, 0]]
    }, 
    {
      "op": "Activation", 
      "name": "gru_t27__r_act", 
      "attrs": {"act_type": "sigmoid"}, 
      "inputs": [[723, 0, 0]]
    }, 
    {
      "op": "elemwise_mul", 
      "name": "_mul81", 
      "inputs": [[724, 0, 0], [719, 2, 0]]
    }, 
    {
      "op": "elemwise_add", 
      "name": "_plus83", 
      "inputs": [[309, 2, 0], [725, 0, 0]]
    }, 
    {
      "op": "Activation", 
      "name": "gru_t27__h_act", 
      "attrs": {"act_type": "tanh"}, 
      "inputs": [[726, 0, 0]]
    }, 
    {
      "op": "elemwise_mul", 
      "name": "_mul82", 
      "inputs": [[722, 0, 0], [727, 0, 0]]
    }, 
    {
      "op": "elemwise_mul", 
      "name": "_mul83", 
      "inputs": [[721, 0, 0], [717, 0, 0]]
    }, 
    {
      "op": "elemwise_add", 
      "name": "gru_t27_out", 
      "inputs": [[728, 0, 0], [729, 0, 0]]
    }, 
    {
      "op": "FullyConnected", 
      "name": "gru_t28__h2h", 
      "attrs": {"num_hidden": "300"}, 
      "inputs": [[730, 0, 0], [365, 0, 0], [366, 0, 0]]
    }, 
    {
      "op": "SliceChannel", 
      "name": "gru_t28__h2h_slice", 
      "attrs": {"num_outputs": "3"}, 
      "inputs": [[731, 0, 0]]
    }, 
    {
      "op": "elemwise_add", 
      "name": "_plus85", 
      "inputs": [[307, 1, 0], [732, 1, 0]]
    }, 
    {
      "op": "Activation", 
      "name": "gru_t28__z_act", 
      "attrs": {"act_type": "sigmoid"}, 
      "inputs": [[733, 0, 0]]
    }, 
    {
      "op": "_rminus_scalar", 
      "name": "_rminusscalar28", 
      "attrs": {"scalar": "1.0"}, 
      "inputs": [[734, 0, 0]]
    }, 
    {
      "op": "elemwise_add", 
      "name": "_plus84", 
      "inputs": [[307, 0, 0], [732, 0, 0]]
    }, 
    {
      "op": "Activation", 
      "name": "gru_t28__r_act", 
      "attrs": {"act_type": "sigmoid"}, 
      "inputs": [[736, 0, 0]]
    }, 
    {
      "op": "elemwise_mul", 
      "name": "_mul84", 
      "inputs": [[737, 0, 0], [732, 2, 0]]
    }, 
    {
      "op": "elemwise_add", 
      "name": "_plus86", 
      "inputs": [[307, 2, 0], [738, 0, 0]]
    }, 
    {
      "op": "Activation", 
      "name": "gru_t28__h_act", 
      "attrs": {"act_type": "tanh"}, 
      "inputs": [[739, 0, 0]]
    }, 
    {
      "op": "elemwise_mul", 
      "name": "_mul85", 
      "inputs": [[735, 0, 0], [740, 0, 0]]
    }, 
    {
      "op": "elemwise_mul", 
      "name": "_mul86", 
      "inputs": [[734, 0, 0], [730, 0, 0]]
    }, 
    {
      "op": "elemwise_add", 
      "name": "gru_t28_out", 
      "inputs": [[741, 0, 0], [742, 0, 0]]
    }, 
    {
      "op": "FullyConnected", 
      "name": "gru_t29__h2h", 
      "attrs": {"num_hidden": "300"}, 
      "inputs": [[743, 0, 0], [365, 0, 0], [366, 0, 0]]
    }, 
    {
      "op": "SliceChannel", 
      "name": "gru_t29__h2h_slice", 
      "attrs": {"num_outputs": "3"}, 
      "inputs": [[744, 0, 0]]
    }, 
    {
      "op": "elemwise_add", 
      "name": "_plus88", 
      "inputs": [[305, 1, 0], [745, 1, 0]]
    }, 
    {
      "op": "Activation", 
      "name": "gru_t29__z_act", 
      "attrs": {"act_type": "sigmoid"}, 
      "inputs": [[746, 0, 0]]
    }, 
    {
      "op": "_rminus_scalar", 
      "name": "_rminusscalar29", 
      "attrs": {"scalar": "1.0"}, 
      "inputs": [[747, 0, 0]]
    }, 
    {
      "op": "elemwise_add", 
      "name": "_plus87", 
      "inputs": [[305, 0, 0], [745, 0, 0]]
    }, 
    {
      "op": "Activation", 
      "name": "gru_t29__r_act", 
      "attrs": {"act_type": "sigmoid"}, 
      "inputs": [[749, 0, 0]]
    }, 
    {
      "op": "elemwise_mul", 
      "name": "_mul87", 
      "inputs": [[750, 0, 0], [745, 2, 0]]
    }, 
    {
      "op": "elemwise_add", 
      "name": "_plus89", 
      "inputs": [[305, 2, 0], [751, 0, 0]]
    }, 
    {
      "op": "Activation", 
      "name": "gru_t29__h_act", 
      "attrs": {"act_type": "tanh"}, 
      "inputs": [[752, 0, 0]]
    }, 
    {
      "op": "elemwise_mul", 
      "name": "_mul88", 
      "inputs": [[748, 0, 0], [753, 0, 0]]
    }, 
    {
      "op": "elemwise_mul", 
      "name": "_mul89", 
      "inputs": [[747, 0, 0], [743, 0, 0]]
    }, 
    {
      "op": "elemwise_add", 
      "name": "gru_t29_out", 
      "inputs": [[754, 0, 0], [755, 0, 0]]
    }, 
    {
      "op": "FullyConnected", 
      "name": "gru_t30__h2h", 
      "attrs": {"num_hidden": "300"}, 
      "inputs": [[756, 0, 0], [365, 0, 0], [366, 0, 0]]
    }, 
    {
      "op": "SliceChannel", 
      "name": "gru_t30__h2h_slice", 
      "attrs": {"num_outputs": "3"}, 
      "inputs": [[757, 0, 0]]
    }, 
    {
      "op": "elemwise_add", 
      "name": "_plus91", 
      "inputs": [[303, 1, 0], [758, 1, 0]]
    }, 
    {
      "op": "Activation", 
      "name": "gru_t30__z_act", 
      "attrs": {"act_type": "sigmoid"}, 
      "inputs": [[759, 0, 0]]
    }, 
    {
      "op": "_rminus_scalar", 
      "name": "_rminusscalar30", 
      "attrs": {"scalar": "1.0"}, 
      "inputs": [[760, 0, 0]]
    }, 
    {
      "op": "elemwise_add", 
      "name": "_plus90", 
      "inputs": [[303, 0, 0], [758, 0, 0]]
    }, 
    {
      "op": "Activation", 
      "name": "gru_t30__r_act", 
      "attrs": {"act_type": "sigmoid"}, 
      "inputs": [[762, 0, 0]]
    }, 
    {
      "op": "elemwise_mul", 
      "name": "_mul90", 
      "inputs": [[763, 0, 0], [758, 2, 0]]
    }, 
    {
      "op": "elemwise_add", 
      "name": "_plus92", 
      "inputs": [[303, 2, 0], [764, 0, 0]]
    }, 
    {
      "op": "Activation", 
      "name": "gru_t30__h_act", 
      "attrs": {"act_type": "tanh"}, 
      "inputs": [[765, 0, 0]]
    }, 
    {
      "op": "elemwise_mul", 
      "name": "_mul91", 
      "inputs": [[761, 0, 0], [766, 0, 0]]
    }, 
    {
      "op": "elemwise_mul", 
      "name": "_mul92", 
      "inputs": [[760, 0, 0], [756, 0, 0]]
    }, 
    {
      "op": "elemwise_add", 
      "name": "gru_t30_out", 
      "inputs": [[767, 0, 0], [768, 0, 0]]
    }, 
    {
      "op": "FullyConnected", 
      "name": "gru_t31__h2h", 
      "attrs": {"num_hidden": "300"}, 
      "inputs": [[769, 0, 0], [365, 0, 0], [366, 0, 0]]
    }, 
    {
      "op": "SliceChannel", 
      "name": "gru_t31__h2h_slice", 
      "attrs": {"num_outputs": "3"}, 
      "inputs": [[770, 0, 0]]
    }, 
    {
      "op": "elemwise_add", 
      "name": "_plus94", 
      "inputs": [[301, 1, 0], [771, 1, 0]]
    }, 
    {
      "op": "Activation", 
      "name": "gru_t31__z_act", 
      "attrs": {"act_type": "sigmoid"}, 
      "inputs": [[772, 0, 0]]
    }, 
    {
      "op": "_rminus_scalar", 
      "name": "_rminusscalar31", 
      "attrs": {"scalar": "1.0"}, 
      "inputs": [[773, 0, 0]]
    }, 
    {
      "op": "elemwise_add", 
      "name": "_plus93", 
      "inputs": [[301, 0, 0], [771, 0, 0]]
    }, 
    {
      "op": "Activation", 
      "name": "gru_t31__r_act", 
      "attrs": {"act_type": "sigmoid"}, 
      "inputs": [[775, 0, 0]]
    }, 
    {
      "op": "elemwise_mul", 
      "name": "_mul93", 
      "inputs": [[776, 0, 0], [771, 2, 0]]
    }, 
    {
      "op": "elemwise_add", 
      "name": "_plus95", 
      "inputs": [[301, 2, 0], [777, 0, 0]]
    }, 
    {
      "op": "Activation", 
      "name": "gru_t31__h_act", 
      "attrs": {"act_type": "tanh"}, 
      "inputs": [[778, 0, 0]]
    }, 
    {
      "op": "elemwise_mul", 
      "name": "_mul94", 
      "inputs": [[774, 0, 0], [779, 0, 0]]
    }, 
    {
      "op": "elemwise_mul", 
      "name": "_mul95", 
      "inputs": [[773, 0, 0], [769, 0, 0]]
    }, 
    {
      "op": "elemwise_add", 
      "name": "gru_t31_out", 
      "inputs": [[780, 0, 0], [781, 0, 0]]
    }, 
    {
      "op": "FullyConnected", 
      "name": "gru_t32__h2h", 
      "attrs": {"num_hidden": "300"}, 
      "inputs": [[782, 0, 0], [365, 0, 0], [366, 0, 0]]
    }, 
    {
      "op": "SliceChannel", 
      "name": "gru_t32__h2h_slice", 
      "attrs": {"num_outputs": "3"}, 
      "inputs": [[783, 0, 0]]
    }, 
    {
      "op": "elemwise_add", 
      "name": "_plus97", 
      "inputs": [[299, 1, 0], [784, 1, 0]]
    }, 
    {
      "op": "Activation", 
      "name": "gru_t32__z_act", 
      "attrs": {"act_type": "sigmoid"}, 
      "inputs": [[785, 0, 0]]
    }, 
    {
      "op": "_rminus_scalar", 
      "name": "_rminusscalar32", 
      "attrs": {"scalar": "1.0"}, 
      "inputs": [[786, 0, 0]]
    }, 
    {
      "op": "elemwise_add", 
      "name": "_plus96", 
      "inputs": [[299, 0, 0], [784, 0, 0]]
    }, 
    {
      "op": "Activation", 
      "name": "gru_t32__r_act", 
      "attrs": {"act_type": "sigmoid"}, 
      "inputs": [[788, 0, 0]]
    }, 
    {
      "op": "elemwise_mul", 
      "name": "_mul96", 
      "inputs": [[789, 0, 0], [784, 2, 0]]
    }, 
    {
      "op": "elemwise_add", 
      "name": "_plus98", 
      "inputs": [[299, 2, 0], [790, 0, 0]]
    }, 
    {
      "op": "Activation", 
      "name": "gru_t32__h_act", 
      "attrs": {"act_type": "tanh"}, 
      "inputs": [[791, 0, 0]]
    }, 
    {
      "op": "elemwise_mul", 
      "name": "_mul97", 
      "inputs": [[787, 0, 0], [792, 0, 0]]
    }, 
    {
      "op": "elemwise_mul", 
      "name": "_mul98", 
      "inputs": [[786, 0, 0], [782, 0, 0]]
    }, 
    {
      "op": "elemwise_add", 
      "name": "gru_t32_out", 
      "inputs": [[793, 0, 0], [794, 0, 0]]
    }, 
    {
      "op": "FullyConnected", 
      "name": "gru_t33__h2h", 
      "attrs": {"num_hidden": "300"}, 
      "inputs": [[795, 0, 0], [365, 0, 0], [366, 0, 0]]
    }, 
    {
      "op": "SliceChannel", 
      "name": "gru_t33__h2h_slice", 
      "attrs": {"num_outputs": "3"}, 
      "inputs": [[796, 0, 0]]
    }, 
    {
      "op": "elemwise_add", 
      "name": "_plus100", 
      "inputs": [[297, 1, 0], [797, 1, 0]]
    }, 
    {
      "op": "Activation", 
      "name": "gru_t33__z_act", 
      "attrs": {"act_type": "sigmoid"}, 
      "inputs": [[798, 0, 0]]
    }, 
    {
      "op": "_rminus_scalar", 
      "name": "_rminusscalar33", 
      "attrs": {"scalar": "1.0"}, 
      "inputs": [[799, 0, 0]]
    }, 
    {
      "op": "elemwise_add", 
      "name": "_plus99", 
      "inputs": [[297, 0, 0], [797, 0, 0]]
    }, 
    {
      "op": "Activation", 
      "name": "gru_t33__r_act", 
      "attrs": {"act_type": "sigmoid"}, 
      "inputs": [[801, 0, 0]]
    }, 
    {
      "op": "elemwise_mul", 
      "name": "_mul99", 
      "inputs": [[802, 0, 0], [797, 2, 0]]
    }, 
    {
      "op": "elemwise_add", 
      "name": "_plus101", 
      "inputs": [[297, 2, 0], [803, 0, 0]]
    }, 
    {
      "op": "Activation", 
      "name": "gru_t33__h_act", 
      "attrs": {"act_type": "tanh"}, 
      "inputs": [[804, 0, 0]]
    }, 
    {
      "op": "elemwise_mul", 
      "name": "_mul100", 
      "inputs": [[800, 0, 0], [805, 0, 0]]
    }, 
    {
      "op": "elemwise_mul", 
      "name": "_mul101", 
      "inputs": [[799, 0, 0], [795, 0, 0]]
    }, 
    {
      "op": "elemwise_add", 
      "name": "gru_t33_out", 
      "inputs": [[806, 0, 0], [807, 0, 0]]
    }, 
    {
      "op": "FullyConnected", 
      "name": "gru_t34__h2h", 
      "attrs": {"num_hidden": "300"}, 
      "inputs": [[808, 0, 0], [365, 0, 0], [366, 0, 0]]
    }, 
    {
      "op": "SliceChannel", 
      "name": "gru_t34__h2h_slice", 
      "attrs": {"num_outputs": "3"}, 
      "inputs": [[809, 0, 0]]
    }, 
    {
      "op": "elemwise_add", 
      "name": "_plus103", 
      "inputs": [[295, 1, 0], [810, 1, 0]]
    }, 
    {
      "op": "Activation", 
      "name": "gru_t34__z_act", 
      "attrs": {"act_type": "sigmoid"}, 
      "inputs": [[811, 0, 0]]
    }, 
    {
      "op": "_rminus_scalar", 
      "name": "_rminusscalar34", 
      "attrs": {"scalar": "1.0"}, 
      "inputs": [[812, 0, 0]]
    }, 
    {
      "op": "elemwise_add", 
      "name": "_plus102", 
      "inputs": [[295, 0, 0], [810, 0, 0]]
    }, 
    {
      "op": "Activation", 
      "name": "gru_t34__r_act", 
      "attrs": {"act_type": "sigmoid"}, 
      "inputs": [[814, 0, 0]]
    }, 
    {
      "op": "elemwise_mul", 
      "name": "_mul102", 
      "inputs": [[815, 0, 0], [810, 2, 0]]
    }, 
    {
      "op": "elemwise_add", 
      "name": "_plus104", 
      "inputs": [[295, 2, 0], [816, 0, 0]]
    }, 
    {
      "op": "Activation", 
      "name": "gru_t34__h_act", 
      "attrs": {"act_type": "tanh"}, 
      "inputs": [[817, 0, 0]]
    }, 
    {
      "op": "elemwise_mul", 
      "name": "_mul103", 
      "inputs": [[813, 0, 0], [818, 0, 0]]
    }, 
    {
      "op": "elemwise_mul", 
      "name": "_mul104", 
      "inputs": [[812, 0, 0], [808, 0, 0]]
    }, 
    {
      "op": "elemwise_add", 
      "name": "gru_t34_out", 
      "inputs": [[819, 0, 0], [820, 0, 0]]
    }, 
    {
      "op": "FullyConnected", 
      "name": "gru_t35__h2h", 
      "attrs": {"num_hidden": "300"}, 
      "inputs": [[821, 0, 0], [365, 0, 0], [366, 0, 0]]
    }, 
    {
      "op": "SliceChannel", 
      "name": "gru_t35__h2h_slice", 
      "attrs": {"num_outputs": "3"}, 
      "inputs": [[822, 0, 0]]
    }, 
    {
      "op": "elemwise_add", 
      "name": "_plus106", 
      "inputs": [[293, 1, 0], [823, 1, 0]]
    }, 
    {
      "op": "Activation", 
      "name": "gru_t35__z_act", 
      "attrs": {"act_type": "sigmoid"}, 
      "inputs": [[824, 0, 0]]
    }, 
    {
      "op": "_rminus_scalar", 
      "name": "_rminusscalar35", 
      "attrs": {"scalar": "1.0"}, 
      "inputs": [[825, 0, 0]]
    }, 
    {
      "op": "elemwise_add", 
      "name": "_plus105", 
      "inputs": [[293, 0, 0], [823, 0, 0]]
    }, 
    {
      "op": "Activation", 
      "name": "gru_t35__r_act", 
      "attrs": {"act_type": "sigmoid"}, 
      "inputs": [[827, 0, 0]]
    }, 
    {
      "op": "elemwise_mul", 
      "name": "_mul105", 
      "inputs": [[828, 0, 0], [823, 2, 0]]
    }, 
    {
      "op": "elemwise_add", 
      "name": "_plus107", 
      "inputs": [[293, 2, 0], [829, 0, 0]]
    }, 
    {
      "op": "Activation", 
      "name": "gru_t35__h_act", 
      "attrs": {"act_type": "tanh"}, 
      "inputs": [[830, 0, 0]]
    }, 
    {
      "op": "elemwise_mul", 
      "name": "_mul106", 
      "inputs": [[826, 0, 0], [831, 0, 0]]
    }, 
    {
      "op": "elemwise_mul", 
      "name": "_mul107", 
      "inputs": [[825, 0, 0], [821, 0, 0]]
    }, 
    {
      "op": "elemwise_add", 
      "name": "gru_t35_out", 
      "inputs": [[832, 0, 0], [833, 0, 0]]
    }, 
    {
      "op": "FullyConnected", 
      "name": "gru_t36__h2h", 
      "attrs": {"num_hidden": "300"}, 
      "inputs": [[834, 0, 0], [365, 0, 0], [366, 0, 0]]
    }, 
    {
      "op": "SliceChannel", 
      "name": "gru_t36__h2h_slice", 
      "attrs": {"num_outputs": "3"}, 
      "inputs": [[835, 0, 0]]
    }, 
    {
      "op": "elemwise_add", 
      "name": "_plus109", 
      "inputs": [[291, 1, 0], [836, 1, 0]]
    }, 
    {
      "op": "Activation", 
      "name": "gru_t36__z_act", 
      "attrs": {"act_type": "sigmoid"}, 
      "inputs": [[837, 0, 0]]
    }, 
    {
      "op": "_rminus_scalar", 
      "name": "_rminusscalar36", 
      "attrs": {"scalar": "1.0"}, 
      "inputs": [[838, 0, 0]]
    }, 
    {
      "op": "elemwise_add", 
      "name": "_plus108", 
      "inputs": [[291, 0, 0], [836, 0, 0]]
    }, 
    {
      "op": "Activation", 
      "name": "gru_t36__r_act", 
      "attrs": {"act_type": "sigmoid"}, 
      "inputs": [[840, 0, 0]]
    }, 
    {
      "op": "elemwise_mul", 
      "name": "_mul108", 
      "inputs": [[841, 0, 0], [836, 2, 0]]
    }, 
    {
      "op": "elemwise_add", 
      "name": "_plus110", 
      "inputs": [[291, 2, 0], [842, 0, 0]]
    }, 
    {
      "op": "Activation", 
      "name": "gru_t36__h_act", 
      "attrs": {"act_type": "tanh"}, 
      "inputs": [[843, 0, 0]]
    }, 
    {
      "op": "elemwise_mul", 
      "name": "_mul109", 
      "inputs": [[839, 0, 0], [844, 0, 0]]
    }, 
    {
      "op": "elemwise_mul", 
      "name": "_mul110", 
      "inputs": [[838, 0, 0], [834, 0, 0]]
    }, 
    {
      "op": "elemwise_add", 
      "name": "gru_t36_out", 
      "inputs": [[845, 0, 0], [846, 0, 0]]
    }, 
    {
      "op": "FullyConnected", 
      "name": "gru_t37__h2h", 
      "attrs": {"num_hidden": "300"}, 
      "inputs": [[847, 0, 0], [365, 0, 0], [366, 0, 0]]
    }, 
    {
      "op": "SliceChannel", 
      "name": "gru_t37__h2h_slice", 
      "attrs": {"num_outputs": "3"}, 
      "inputs": [[848, 0, 0]]
    }, 
    {
      "op": "elemwise_add", 
      "name": "_plus112", 
      "inputs": [[289, 1, 0], [849, 1, 0]]
    }, 
    {
      "op": "Activation", 
      "name": "gru_t37__z_act", 
      "attrs": {"act_type": "sigmoid"}, 
      "inputs": [[850, 0, 0]]
    }, 
    {
      "op": "_rminus_scalar", 
      "name": "_rminusscalar37", 
      "attrs": {"scalar": "1.0"}, 
      "inputs": [[851, 0, 0]]
    }, 
    {
      "op": "elemwise_add", 
      "name": "_plus111", 
      "inputs": [[289, 0, 0], [849, 0, 0]]
    }, 
    {
      "op": "Activation", 
      "name": "gru_t37__r_act", 
      "attrs": {"act_type": "sigmoid"}, 
      "inputs": [[853, 0, 0]]
    }, 
    {
      "op": "elemwise_mul", 
      "name": "_mul111", 
      "inputs": [[854, 0, 0], [849, 2, 0]]
    }, 
    {
      "op": "elemwise_add", 
      "name": "_plus113", 
      "inputs": [[289, 2, 0], [855, 0, 0]]
    }, 
    {
      "op": "Activation", 
      "name": "gru_t37__h_act", 
      "attrs": {"act_type": "tanh"}, 
      "inputs": [[856, 0, 0]]
    }, 
    {
      "op": "elemwise_mul", 
      "name": "_mul112", 
      "inputs": [[852, 0, 0], [857, 0, 0]]
    }, 
    {
      "op": "elemwise_mul", 
      "name": "_mul113", 
      "inputs": [[851, 0, 0], [847, 0, 0]]
    }, 
    {
      "op": "elemwise_add", 
      "name": "gru_t37_out", 
      "inputs": [[858, 0, 0], [859, 0, 0]]
    }, 
    {
      "op": "FullyConnected", 
      "name": "gru_t38__h2h", 
      "attrs": {"num_hidden": "300"}, 
      "inputs": [[860, 0, 0], [365, 0, 0], [366, 0, 0]]
    }, 
    {
      "op": "SliceChannel", 
      "name": "gru_t38__h2h_slice", 
      "attrs": {"num_outputs": "3"}, 
      "inputs": [[861, 0, 0]]
    }, 
    {
      "op": "elemwise_add", 
      "name": "_plus115", 
      "inputs": [[287, 1, 0], [862, 1, 0]]
    }, 
    {
      "op": "Activation", 
      "name": "gru_t38__z_act", 
      "attrs": {"act_type": "sigmoid"}, 
      "inputs": [[863, 0, 0]]
    }, 
    {
      "op": "_rminus_scalar", 
      "name": "_rminusscalar38", 
      "attrs": {"scalar": "1.0"}, 
      "inputs": [[864, 0, 0]]
    }, 
    {
      "op": "elemwise_add", 
      "name": "_plus114", 
      "inputs": [[287, 0, 0], [862, 0, 0]]
    }, 
    {
      "op": "Activation", 
      "name": "gru_t38__r_act", 
      "attrs": {"act_type": "sigmoid"}, 
      "inputs": [[866, 0, 0]]
    }, 
    {
      "op": "elemwise_mul", 
      "name": "_mul114", 
      "inputs": [[867, 0, 0], [862, 2, 0]]
    }, 
    {
      "op": "elemwise_add", 
      "name": "_plus116", 
      "inputs": [[287, 2, 0], [868, 0, 0]]
    }, 
    {
      "op": "Activation", 
      "name": "gru_t38__h_act", 
      "attrs": {"act_type": "tanh"}, 
      "inputs": [[869, 0, 0]]
    }, 
    {
      "op": "elemwise_mul", 
      "name": "_mul115", 
      "inputs": [[865, 0, 0], [870, 0, 0]]
    }, 
    {
      "op": "elemwise_mul", 
      "name": "_mul116", 
      "inputs": [[864, 0, 0], [860, 0, 0]]
    }, 
    {
      "op": "elemwise_add", 
      "name": "gru_t38_out", 
      "inputs": [[871, 0, 0], [872, 0, 0]]
    }, 
    {
      "op": "FullyConnected", 
      "name": "gru_t39__h2h", 
      "attrs": {"num_hidden": "300"}, 
      "inputs": [[873, 0, 0], [365, 0, 0], [366, 0, 0]]
    }, 
    {
      "op": "SliceChannel", 
      "name": "gru_t39__h2h_slice", 
      "attrs": {"num_outputs": "3"}, 
      "inputs": [[874, 0, 0]]
    }, 
    {
      "op": "elemwise_add", 
      "name": "_plus118", 
      "inputs": [[285, 1, 0], [875, 1, 0]]
    }, 
    {
      "op": "Activation", 
      "name": "gru_t39__z_act", 
      "attrs": {"act_type": "sigmoid"}, 
      "inputs": [[876, 0, 0]]
    }, 
    {
      "op": "_rminus_scalar", 
      "name": "_rminusscalar39", 
      "attrs": {"scalar": "1.0"}, 
      "inputs": [[877, 0, 0]]
    }, 
    {
      "op": "elemwise_add", 
      "name": "_plus117", 
      "inputs": [[285, 0, 0], [875, 0, 0]]
    }, 
    {
      "op": "Activation", 
      "name": "gru_t39__r_act", 
      "attrs": {"act_type": "sigmoid"}, 
      "inputs": [[879, 0, 0]]
    }, 
    {
      "op": "elemwise_mul", 
      "name": "_mul117", 
      "inputs": [[880, 0, 0], [875, 2, 0]]
    }, 
    {
      "op": "elemwise_add", 
      "name": "_plus119", 
      "inputs": [[285, 2, 0], [881, 0, 0]]
    }, 
    {
      "op": "Activation", 
      "name": "gru_t39__h_act", 
      "attrs": {"act_type": "tanh"}, 
      "inputs": [[882, 0, 0]]
    }, 
    {
      "op": "elemwise_mul", 
      "name": "_mul118", 
      "inputs": [[878, 0, 0], [883, 0, 0]]
    }, 
    {
      "op": "elemwise_mul", 
      "name": "_mul119", 
      "inputs": [[877, 0, 0], [873, 0, 0]]
    }, 
    {
      "op": "elemwise_add", 
      "name": "gru_t39_out", 
      "inputs": [[884, 0, 0], [885, 0, 0]]
    }, 
    {
      "op": "FullyConnected", 
      "name": "gru_t40__h2h", 
      "attrs": {"num_hidden": "300"}, 
      "inputs": [[886, 0, 0], [365, 0, 0], [366, 0, 0]]
    }, 
    {
      "op": "SliceChannel", 
      "name": "gru_t40__h2h_slice", 
      "attrs": {"num_outputs": "3"}, 
      "inputs": [[887, 0, 0]]
    }, 
    {
      "op": "elemwise_add", 
      "name": "_plus121", 
      "inputs": [[283, 1, 0], [888, 1, 0]]
    }, 
    {
      "op": "Activation", 
      "name": "gru_t40__z_act", 
      "attrs": {"act_type": "sigmoid"}, 
      "inputs": [[889, 0, 0]]
    }, 
    {
      "op": "_rminus_scalar", 
      "name": "_rminusscalar40", 
      "attrs": {"scalar": "1.0"}, 
      "inputs": [[890, 0, 0]]
    }, 
    {
      "op": "elemwise_add", 
      "name": "_plus120", 
      "inputs": [[283, 0, 0], [888, 0, 0]]
    }, 
    {
      "op": "Activation", 
      "name": "gru_t40__r_act", 
      "attrs": {"act_type": "sigmoid"}, 
      "inputs": [[892, 0, 0]]
    }, 
    {
      "op": "elemwise_mul", 
      "name": "_mul120", 
      "inputs": [[893, 0, 0], [888, 2, 0]]
    }, 
    {
      "op": "elemwise_add", 
      "name": "_plus122", 
      "inputs": [[283, 2, 0], [894, 0, 0]]
    }, 
    {
      "op": "Activation", 
      "name": "gru_t40__h_act", 
      "attrs": {"act_type": "tanh"}, 
      "inputs": [[895, 0, 0]]
    }, 
    {
      "op": "elemwise_mul", 
      "name": "_mul121", 
      "inputs": [[891, 0, 0], [896, 0, 0]]
    }, 
    {
      "op": "elemwise_mul", 
      "name": "_mul122", 
      "inputs": [[890, 0, 0], [886, 0, 0]]
    }, 
    {
      "op": "elemwise_add", 
      "name": "gru_t40_out", 
      "inputs": [[897, 0, 0], [898, 0, 0]]
    }, 
    {
      "op": "FullyConnected", 
      "name": "gru_t41__h2h", 
      "attrs": {"num_hidden": "300"}, 
      "inputs": [[899, 0, 0], [365, 0, 0], [366, 0, 0]]
    }, 
    {
      "op": "SliceChannel", 
      "name": "gru_t41__h2h_slice", 
      "attrs": {"num_outputs": "3"}, 
      "inputs": [[900, 0, 0]]
    }, 
    {
      "op": "elemwise_add", 
      "name": "_plus124", 
      "inputs": [[281, 1, 0], [901, 1, 0]]
    }, 
    {
      "op": "Activation", 
      "name": "gru_t41__z_act", 
      "attrs": {"act_type": "sigmoid"}, 
      "inputs": [[902, 0, 0]]
    }, 
    {
      "op": "_rminus_scalar", 
      "name": "_rminusscalar41", 
      "attrs": {"scalar": "1.0"}, 
      "inputs": [[903, 0, 0]]
    }, 
    {
      "op": "elemwise_add", 
      "name": "_plus123", 
      "inputs": [[281, 0, 0], [901, 0, 0]]
    }, 
    {
      "op": "Activation", 
      "name": "gru_t41__r_act", 
      "attrs": {"act_type": "sigmoid"}, 
      "inputs": [[905, 0, 0]]
    }, 
    {
      "op": "elemwise_mul", 
      "name": "_mul123", 
      "inputs": [[906, 0, 0], [901, 2, 0]]
    }, 
    {
      "op": "elemwise_add", 
      "name": "_plus125", 
      "inputs": [[281, 2, 0], [907, 0, 0]]
    }, 
    {
      "op": "Activation", 
      "name": "gru_t41__h_act", 
      "attrs": {"act_type": "tanh"}, 
      "inputs": [[908, 0, 0]]
    }, 
    {
      "op": "elemwise_mul", 
      "name": "_mul124", 
      "inputs": [[904, 0, 0], [909, 0, 0]]
    }, 
    {
      "op": "elemwise_mul", 
      "name": "_mul125", 
      "inputs": [[903, 0, 0], [899, 0, 0]]
    }, 
    {
      "op": "elemwise_add", 
      "name": "gru_t41_out", 
      "inputs": [[910, 0, 0], [911, 0, 0]]
    }, 
    {
      "op": "FullyConnected", 
      "name": "gru_t42__h2h", 
      "attrs": {"num_hidden": "300"}, 
      "inputs": [[912, 0, 0], [365, 0, 0], [366, 0, 0]]
    }, 
    {
      "op": "SliceChannel", 
      "name": "gru_t42__h2h_slice", 
      "attrs": {"num_outputs": "3"}, 
      "inputs": [[913, 0, 0]]
    }, 
    {
      "op": "elemwise_add", 
      "name": "_plus127", 
      "inputs": [[279, 1, 0], [914, 1, 0]]
    }, 
    {
      "op": "Activation", 
      "name": "gru_t42__z_act", 
      "attrs": {"act_type": "sigmoid"}, 
      "inputs": [[915, 0, 0]]
    }, 
    {
      "op": "_rminus_scalar", 
      "name": "_rminusscalar42", 
      "attrs": {"scalar": "1.0"}, 
      "inputs": [[916, 0, 0]]
    }, 
    {
      "op": "elemwise_add", 
      "name": "_plus126", 
      "inputs": [[279, 0, 0], [914, 0, 0]]
    }, 
    {
      "op": "Activation", 
      "name": "gru_t42__r_act", 
      "attrs": {"act_type": "sigmoid"}, 
      "inputs": [[918, 0, 0]]
    }, 
    {
      "op": "elemwise_mul", 
      "name": "_mul126", 
      "inputs": [[919, 0, 0], [914, 2, 0]]
    }, 
    {
      "op": "elemwise_add", 
      "name": "_plus128", 
      "inputs": [[279, 2, 0], [920, 0, 0]]
    }, 
    {
      "op": "Activation", 
      "name": "gru_t42__h_act", 
      "attrs": {"act_type": "tanh"}, 
      "inputs": [[921, 0, 0]]
    }, 
    {
      "op": "elemwise_mul", 
      "name": "_mul127", 
      "inputs": [[917, 0, 0], [922, 0, 0]]
    }, 
    {
      "op": "elemwise_mul", 
      "name": "_mul128", 
      "inputs": [[916, 0, 0], [912, 0, 0]]
    }, 
    {
      "op": "elemwise_add", 
      "name": "gru_t42_out", 
      "inputs": [[923, 0, 0], [924, 0, 0]]
    }, 
    {
      "op": "FullyConnected", 
      "name": "gru_t43__h2h", 
      "attrs": {"num_hidden": "300"}, 
      "inputs": [[925, 0, 0], [365, 0, 0], [366, 0, 0]]
    }, 
    {
      "op": "SliceChannel", 
      "name": "gru_t43__h2h_slice", 
      "attrs": {"num_outputs": "3"}, 
      "inputs": [[926, 0, 0]]
    }, 
    {
      "op": "elemwise_add", 
      "name": "_plus130", 
      "inputs": [[277, 1, 0], [927, 1, 0]]
    }, 
    {
      "op": "Activation", 
      "name": "gru_t43__z_act", 
      "attrs": {"act_type": "sigmoid"}, 
      "inputs": [[928, 0, 0]]
    }, 
    {
      "op": "_rminus_scalar", 
      "name": "_rminusscalar43", 
      "attrs": {"scalar": "1.0"}, 
      "inputs": [[929, 0, 0]]
    }, 
    {
      "op": "elemwise_add", 
      "name": "_plus129", 
      "inputs": [[277, 0, 0], [927, 0, 0]]
    }, 
    {
      "op": "Activation", 
      "name": "gru_t43__r_act", 
      "attrs": {"act_type": "sigmoid"}, 
      "inputs": [[931, 0, 0]]
    }, 
    {
      "op": "elemwise_mul", 
      "name": "_mul129", 
      "inputs": [[932, 0, 0], [927, 2, 0]]
    }, 
    {
      "op": "elemwise_add", 
      "name": "_plus131", 
      "inputs": [[277, 2, 0], [933, 0, 0]]
    }, 
    {
      "op": "Activation", 
      "name": "gru_t43__h_act", 
      "attrs": {"act_type": "tanh"}, 
      "inputs": [[934, 0, 0]]
    }, 
    {
      "op": "elemwise_mul", 
      "name": "_mul130", 
      "inputs": [[930, 0, 0], [935, 0, 0]]
    }, 
    {
      "op": "elemwise_mul", 
      "name": "_mul131", 
      "inputs": [[929, 0, 0], [925, 0, 0]]
    }, 
    {
      "op": "elemwise_add", 
      "name": "gru_t43_out", 
      "inputs": [[936, 0, 0], [937, 0, 0]]
    }, 
    {
      "op": "FullyConnected", 
      "name": "gru_t44__h2h", 
      "attrs": {"num_hidden": "300"}, 
      "inputs": [[938, 0, 0], [365, 0, 0], [366, 0, 0]]
    }, 
    {
      "op": "SliceChannel", 
      "name": "gru_t44__h2h_slice", 
      "attrs": {"num_outputs": "3"}, 
      "inputs": [[939, 0, 0]]
    }, 
    {
      "op": "elemwise_add", 
      "name": "_plus133", 
      "inputs": [[275, 1, 0], [940, 1, 0]]
    }, 
    {
      "op": "Activation", 
      "name": "gru_t44__z_act", 
      "attrs": {"act_type": "sigmoid"}, 
      "inputs": [[941, 0, 0]]
    }, 
    {
      "op": "_rminus_scalar", 
      "name": "_rminusscalar44", 
      "attrs": {"scalar": "1.0"}, 
      "inputs": [[942, 0, 0]]
    }, 
    {
      "op": "elemwise_add", 
      "name": "_plus132", 
      "inputs": [[275, 0, 0], [940, 0, 0]]
    }, 
    {
      "op": "Activation", 
      "name": "gru_t44__r_act", 
      "attrs": {"act_type": "sigmoid"}, 
      "inputs": [[944, 0, 0]]
    }, 
    {
      "op": "elemwise_mul", 
      "name": "_mul132", 
      "inputs": [[945, 0, 0], [940, 2, 0]]
    }, 
    {
      "op": "elemwise_add", 
      "name": "_plus134", 
      "inputs": [[275, 2, 0], [946, 0, 0]]
    }, 
    {
      "op": "Activation", 
      "name": "gru_t44__h_act", 
      "attrs": {"act_type": "tanh"}, 
      "inputs": [[947, 0, 0]]
    }, 
    {
      "op": "elemwise_mul", 
      "name": "_mul133", 
      "inputs": [[943, 0, 0], [948, 0, 0]]
    }, 
    {
      "op": "elemwise_mul", 
      "name": "_mul134", 
      "inputs": [[942, 0, 0], [938, 0, 0]]
    }, 
    {
      "op": "elemwise_add", 
      "name": "gru_t44_out", 
      "inputs": [[949, 0, 0], [950, 0, 0]]
    }, 
    {
      "op": "FullyConnected", 
      "name": "gru_t45__h2h", 
      "attrs": {"num_hidden": "300"}, 
      "inputs": [[951, 0, 0], [365, 0, 0], [366, 0, 0]]
    }, 
    {
      "op": "SliceChannel", 
      "name": "gru_t45__h2h_slice", 
      "attrs": {"num_outputs": "3"}, 
      "inputs": [[952, 0, 0]]
    }, 
    {
      "op": "elemwise_add", 
      "name": "_plus136", 
      "inputs": [[273, 1, 0], [953, 1, 0]]
    }, 
    {
      "op": "Activation", 
      "name": "gru_t45__z_act", 
      "attrs": {"act_type": "sigmoid"}, 
      "inputs": [[954, 0, 0]]
    }, 
    {
      "op": "_rminus_scalar", 
      "name": "_rminusscalar45", 
      "attrs": {"scalar": "1.0"}, 
      "inputs": [[955, 0, 0]]
    }, 
    {
      "op": "elemwise_add", 
      "name": "_plus135", 
      "inputs": [[273, 0, 0], [953, 0, 0]]
    }, 
    {
      "op": "Activation", 
      "name": "gru_t45__r_act", 
      "attrs": {"act_type": "sigmoid"}, 
      "inputs": [[957, 0, 0]]
    }, 
    {
      "op": "elemwise_mul", 
      "name": "_mul135", 
      "inputs": [[958, 0, 0], [953, 2, 0]]
    }, 
    {
      "op": "elemwise_add", 
      "name": "_plus137", 
      "inputs": [[273, 2, 0], [959, 0, 0]]
    }, 
    {
      "op": "Activation", 
      "name": "gru_t45__h_act", 
      "attrs": {"act_type": "tanh"}, 
      "inputs": [[960, 0, 0]]
    }, 
    {
      "op": "elemwise_mul", 
      "name": "_mul136", 
      "inputs": [[956, 0, 0], [961, 0, 0]]
    }, 
    {
      "op": "elemwise_mul", 
      "name": "_mul137", 
      "inputs": [[955, 0, 0], [951, 0, 0]]
    }, 
    {
      "op": "elemwise_add", 
      "name": "gru_t45_out", 
      "inputs": [[962, 0, 0], [963, 0, 0]]
    }, 
    {
      "op": "FullyConnected", 
      "name": "gru_t46__h2h", 
      "attrs": {"num_hidden": "300"}, 
      "inputs": [[964, 0, 0], [365, 0, 0], [366, 0, 0]]
    }, 
    {
      "op": "SliceChannel", 
      "name": "gru_t46__h2h_slice", 
      "attrs": {"num_outputs": "3"}, 
      "inputs": [[965, 0, 0]]
    }, 
    {
      "op": "elemwise_add", 
      "name": "_plus139", 
      "inputs": [[271, 1, 0], [966, 1, 0]]
    }, 
    {
      "op": "Activation", 
      "name": "gru_t46__z_act", 
      "attrs": {"act_type": "sigmoid"}, 
      "inputs": [[967, 0, 0]]
    }, 
    {
      "op": "_rminus_scalar", 
      "name": "_rminusscalar46", 
      "attrs": {"scalar": "1.0"}, 
      "inputs": [[968, 0, 0]]
    }, 
    {
      "op": "elemwise_add", 
      "name": "_plus138", 
      "inputs": [[271, 0, 0], [966, 0, 0]]
    }, 
    {
      "op": "Activation", 
      "name": "gru_t46__r_act", 
      "attrs": {"act_type": "sigmoid"}, 
      "inputs": [[970, 0, 0]]
    }, 
    {
      "op": "elemwise_mul", 
      "name": "_mul138", 
      "inputs": [[971, 0, 0], [966, 2, 0]]
    }, 
    {
      "op": "elemwise_add", 
      "name": "_plus140", 
      "inputs": [[271, 2, 0], [972, 0, 0]]
    }, 
    {
      "op": "Activation", 
      "name": "gru_t46__h_act", 
      "attrs": {"act_type": "tanh"}, 
      "inputs": [[973, 0, 0]]
    }, 
    {
      "op": "elemwise_mul", 
      "name": "_mul139", 
      "inputs": [[969, 0, 0], [974, 0, 0]]
    }, 
    {
      "op": "elemwise_mul", 
      "name": "_mul140", 
      "inputs": [[968, 0, 0], [964, 0, 0]]
    }, 
    {
      "op": "elemwise_add", 
      "name": "gru_t46_out", 
      "inputs": [[975, 0, 0], [976, 0, 0]]
    }, 
    {
      "op": "FullyConnected", 
      "name": "gru_t47__h2h", 
      "attrs": {"num_hidden": "300"}, 
      "inputs": [[977, 0, 0], [365, 0, 0], [366, 0, 0]]
    }, 
    {
      "op": "SliceChannel", 
      "name": "gru_t47__h2h_slice", 
      "attrs": {"num_outputs": "3"}, 
      "inputs": [[978, 0, 0]]
    }, 
    {
      "op": "elemwise_add", 
      "name": "_plus142", 
      "inputs": [[269, 1, 0], [979, 1, 0]]
    }, 
    {
      "op": "Activation", 
      "name": "gru_t47__z_act", 
      "attrs": {"act_type": "sigmoid"}, 
      "inputs": [[980, 0, 0]]
    }, 
    {
      "op": "_rminus_scalar", 
      "name": "_rminusscalar47", 
      "attrs": {"scalar": "1.0"}, 
      "inputs": [[981, 0, 0]]
    }, 
    {
      "op": "elemwise_add", 
      "name": "_plus141", 
      "inputs": [[269, 0, 0], [979, 0, 0]]
    }, 
    {
      "op": "Activation", 
      "name": "gru_t47__r_act", 
      "attrs": {"act_type": "sigmoid"}, 
      "inputs": [[983, 0, 0]]
    }, 
    {
      "op": "elemwise_mul", 
      "name": "_mul141", 
      "inputs": [[984, 0, 0], [979, 2, 0]]
    }, 
    {
      "op": "elemwise_add", 
      "name": "_plus143", 
      "inputs": [[269, 2, 0], [985, 0, 0]]
    }, 
    {
      "op": "Activation", 
      "name": "gru_t47__h_act", 
      "attrs": {"act_type": "tanh"}, 
      "inputs": [[986, 0, 0]]
    }, 
    {
      "op": "elemwise_mul", 
      "name": "_mul142", 
      "inputs": [[982, 0, 0], [987, 0, 0]]
    }, 
    {
      "op": "elemwise_mul", 
      "name": "_mul143", 
      "inputs": [[981, 0, 0], [977, 0, 0]]
    }, 
    {
      "op": "elemwise_add", 
      "name": "gru_t47_out", 
      "inputs": [[988, 0, 0], [989, 0, 0]]
    }, 
    {
      "op": "FullyConnected", 
      "name": "gru_t48__h2h", 
      "attrs": {"num_hidden": "300"}, 
      "inputs": [[990, 0, 0], [365, 0, 0], [366, 0, 0]]
    }, 
    {
      "op": "SliceChannel", 
      "name": "gru_t48__h2h_slice", 
      "attrs": {"num_outputs": "3"}, 
      "inputs": [[991, 0, 0]]
    }, 
    {
      "op": "elemwise_add", 
      "name": "_plus145", 
      "inputs": [[267, 1, 0], [992, 1, 0]]
    }, 
    {
      "op": "Activation", 
      "name": "gru_t48__z_act", 
      "attrs": {"act_type": "sigmoid"}, 
      "inputs": [[993, 0, 0]]
    }, 
    {
      "op": "_rminus_scalar", 
      "name": "_rminusscalar48", 
      "attrs": {"scalar": "1.0"}, 
      "inputs": [[994, 0, 0]]
    }, 
    {
      "op": "elemwise_add", 
      "name": "_plus144", 
      "inputs": [[267, 0, 0], [992, 0, 0]]
    }, 
    {
      "op": "Activation", 
      "name": "gru_t48__r_act", 
      "attrs": {"act_type": "sigmoid"}, 
      "inputs": [[996, 0, 0]]
    }, 
    {
      "op": "elemwise_mul", 
      "name": "_mul144", 
      "inputs": [[997, 0, 0], [992, 2, 0]]
    }, 
    {
      "op": "elemwise_add", 
      "name": "_plus146", 
      "inputs": [[267, 2, 0], [998, 0, 0]]
    }, 
    {
      "op": "Activation", 
      "name": "gru_t48__h_act", 
      "attrs": {"act_type": "tanh"}, 
      "inputs": [[999, 0, 0]]
    }, 
    {
      "op": "elemwise_mul", 
      "name": "_mul145", 
      "inputs": [[995, 0, 0], [1000, 0, 0]]
    }, 
    {
      "op": "elemwise_mul", 
      "name": "_mul146", 
      "inputs": [[994, 0, 0], [990, 0, 0]]
    }, 
    {
      "op": "elemwise_add", 
      "name": "gru_t48_out", 
      "inputs": [[1001, 0, 0], [1002, 0, 0]]
    }, 
    {
      "op": "FullyConnected", 
      "name": "gru_t49__h2h", 
      "attrs": {"num_hidden": "300"}, 
      "inputs": [[1003, 0, 0], [365, 0, 0], [366, 0, 0]]
    }, 
    {
      "op": "SliceChannel", 
      "name": "gru_t49__h2h_slice", 
      "attrs": {"num_outputs": "3"}, 
      "inputs": [[1004, 0, 0]]
    }, 
    {
      "op": "elemwise_add", 
      "name": "_plus148", 
      "inputs": [[265, 1, 0], [1005, 1, 0]]
    }, 
    {
      "op": "Activation", 
      "name": "gru_t49__z_act", 
      "attrs": {"act_type": "sigmoid"}, 
      "inputs": [[1006, 0, 0]]
    }, 
    {
      "op": "_rminus_scalar", 
      "name": "_rminusscalar49", 
      "attrs": {"scalar": "1.0"}, 
      "inputs": [[1007, 0, 0]]
    }, 
    {
      "op": "elemwise_add", 
      "name": "_plus147", 
      "inputs": [[265, 0, 0], [1005, 0, 0]]
    }, 
    {
      "op": "Activation", 
      "name": "gru_t49__r_act", 
      "attrs": {"act_type": "sigmoid"}, 
      "inputs": [[1009, 0, 0]]
    }, 
    {
      "op": "elemwise_mul", 
      "name": "_mul147", 
      "inputs": [[1010, 0, 0], [1005, 2, 0]]
    }, 
    {
      "op": "elemwise_add", 
      "name": "_plus149", 
      "inputs": [[265, 2, 0], [1011, 0, 0]]
    }, 
    {
      "op": "Activation", 
      "name": "gru_t49__h_act", 
      "attrs": {"act_type": "tanh"}, 
      "inputs": [[1012, 0, 0]]
    }, 
    {
      "op": "elemwise_mul", 
      "name": "_mul148", 
      "inputs": [[1008, 0, 0], [1013, 0, 0]]
    }, 
    {
      "op": "elemwise_mul", 
      "name": "_mul149", 
      "inputs": [[1007, 0, 0], [1003, 0, 0]]
    }, 
    {
      "op": "elemwise_add", 
      "name": "gru_t49_out", 
      "inputs": [[1014, 0, 0], [1015, 0, 0]]
    }, 
    {
      "op": "FullyConnected", 
      "name": "gru_t50__h2h", 
      "attrs": {"num_hidden": "300"}, 
      "inputs": [[1016, 0, 0], [365, 0, 0], [366, 0, 0]]
    }, 
    {
      "op": "SliceChannel", 
      "name": "gru_t50__h2h_slice", 
      "attrs": {"num_outputs": "3"}, 
      "inputs": [[1017, 0, 0]]
    }, 
    {
      "op": "elemwise_add", 
      "name": "_plus151", 
      "inputs": [[263, 1, 0], [1018, 1, 0]]
    }, 
    {
      "op": "Activation", 
      "name": "gru_t50__z_act", 
      "attrs": {"act_type": "sigmoid"}, 
      "inputs": [[1019, 0, 0]]
    }, 
    {
      "op": "_rminus_scalar", 
      "name": "_rminusscalar50", 
      "attrs": {"scalar": "1.0"}, 
      "inputs": [[1020, 0, 0]]
    }, 
    {
      "op": "elemwise_add", 
      "name": "_plus150", 
      "inputs": [[263, 0, 0], [1018, 0, 0]]
    }, 
    {
      "op": "Activation", 
      "name": "gru_t50__r_act", 
      "attrs": {"act_type": "sigmoid"}, 
      "inputs": [[1022, 0, 0]]
    }, 
    {
      "op": "elemwise_mul", 
      "name": "_mul150", 
      "inputs": [[1023, 0, 0], [1018, 2, 0]]
    }, 
    {
      "op": "elemwise_add", 
      "name": "_plus152", 
      "inputs": [[263, 2, 0], [1024, 0, 0]]
    }, 
    {
      "op": "Activation", 
      "name": "gru_t50__h_act", 
      "attrs": {"act_type": "tanh"}, 
      "inputs": [[1025, 0, 0]]
    }, 
    {
      "op": "elemwise_mul", 
      "name": "_mul151", 
      "inputs": [[1021, 0, 0], [1026, 0, 0]]
    }, 
    {
      "op": "elemwise_mul", 
      "name": "_mul152", 
      "inputs": [[1020, 0, 0], [1016, 0, 0]]
    }, 
    {
      "op": "elemwise_add", 
      "name": "gru_t50_out", 
      "inputs": [[1027, 0, 0], [1028, 0, 0]]
    }, 
    {
      "op": "FullyConnected", 
      "name": "gru_t51__h2h", 
      "attrs": {"num_hidden": "300"}, 
      "inputs": [[1029, 0, 0], [365, 0, 0], [366, 0, 0]]
    }, 
    {
      "op": "SliceChannel", 
      "name": "gru_t51__h2h_slice", 
      "attrs": {"num_outputs": "3"}, 
      "inputs": [[1030, 0, 0]]
    }, 
    {
      "op": "elemwise_add", 
      "name": "_plus154", 
      "inputs": [[261, 1, 0], [1031, 1, 0]]
    }, 
    {
      "op": "Activation", 
      "name": "gru_t51__z_act", 
      "attrs": {"act_type": "sigmoid"}, 
      "inputs": [[1032, 0, 0]]
    }, 
    {
      "op": "_rminus_scalar", 
      "name": "_rminusscalar51", 
      "attrs": {"scalar": "1.0"}, 
      "inputs": [[1033, 0, 0]]
    }, 
    {
      "op": "elemwise_add", 
      "name": "_plus153", 
      "inputs": [[261, 0, 0], [1031, 0, 0]]
    }, 
    {
      "op": "Activation", 
      "name": "gru_t51__r_act", 
      "attrs": {"act_type": "sigmoid"}, 
      "inputs": [[1035, 0, 0]]
    }, 
    {
      "op": "elemwise_mul", 
      "name": "_mul153", 
      "inputs": [[1036, 0, 0], [1031, 2, 0]]
    }, 
    {
      "op": "elemwise_add", 
      "name": "_plus155", 
      "inputs": [[261, 2, 0], [1037, 0, 0]]
    }, 
    {
      "op": "Activation", 
      "name": "gru_t51__h_act", 
      "attrs": {"act_type": "tanh"}, 
      "inputs": [[1038, 0, 0]]
    }, 
    {
      "op": "elemwise_mul", 
      "name": "_mul154", 
      "inputs": [[1034, 0, 0], [1039, 0, 0]]
    }, 
    {
      "op": "elemwise_mul", 
      "name": "_mul155", 
      "inputs": [[1033, 0, 0], [1029, 0, 0]]
    }, 
    {
      "op": "elemwise_add", 
      "name": "gru_t51_out", 
      "inputs": [[1040, 0, 0], [1041, 0, 0]]
    }, 
    {
      "op": "FullyConnected", 
      "name": "gru_t52__h2h", 
      "attrs": {"num_hidden": "300"}, 
      "inputs": [[1042, 0, 0], [365, 0, 0], [366, 0, 0]]
    }, 
    {
      "op": "SliceChannel", 
      "name": "gru_t52__h2h_slice", 
      "attrs": {"num_outputs": "3"}, 
      "inputs": [[1043, 0, 0]]
    }, 
    {
      "op": "elemwise_add", 
      "name": "_plus157", 
      "inputs": [[259, 1, 0], [1044, 1, 0]]
    }, 
    {
      "op": "Activation", 
      "name": "gru_t52__z_act", 
      "attrs": {"act_type": "sigmoid"}, 
      "inputs": [[1045, 0, 0]]
    }, 
    {
      "op": "_rminus_scalar", 
      "name": "_rminusscalar52", 
      "attrs": {"scalar": "1.0"}, 
      "inputs": [[1046, 0, 0]]
    }, 
    {
      "op": "elemwise_add", 
      "name": "_plus156", 
      "inputs": [[259, 0, 0], [1044, 0, 0]]
    }, 
    {
      "op": "Activation", 
      "name": "gru_t52__r_act", 
      "attrs": {"act_type": "sigmoid"}, 
      "inputs": [[1048, 0, 0]]
    }, 
    {
      "op": "elemwise_mul", 
      "name": "_mul156", 
      "inputs": [[1049, 0, 0], [1044, 2, 0]]
    }, 
    {
      "op": "elemwise_add", 
      "name": "_plus158", 
      "inputs": [[259, 2, 0], [1050, 0, 0]]
    }, 
    {
      "op": "Activation", 
      "name": "gru_t52__h_act", 
      "attrs": {"act_type": "tanh"}, 
      "inputs": [[1051, 0, 0]]
    }, 
    {
      "op": "elemwise_mul", 
      "name": "_mul157", 
      "inputs": [[1047, 0, 0], [1052, 0, 0]]
    }, 
    {
      "op": "elemwise_mul", 
      "name": "_mul158", 
      "inputs": [[1046, 0, 0], [1042, 0, 0]]
    }, 
    {
      "op": "elemwise_add", 
      "name": "gru_t52_out", 
      "inputs": [[1053, 0, 0], [1054, 0, 0]]
    }, 
    {
      "op": "FullyConnected", 
      "name": "gru_t53__h2h", 
      "attrs": {"num_hidden": "300"}, 
      "inputs": [[1055, 0, 0], [365, 0, 0], [366, 0, 0]]
    }, 
    {
      "op": "SliceChannel", 
      "name": "gru_t53__h2h_slice", 
      "attrs": {"num_outputs": "3"}, 
      "inputs": [[1056, 0, 0]]
    }, 
    {
      "op": "elemwise_add", 
      "name": "_plus160", 
      "inputs": [[257, 1, 0], [1057, 1, 0]]
    }, 
    {
      "op": "Activation", 
      "name": "gru_t53__z_act", 
      "attrs": {"act_type": "sigmoid"}, 
      "inputs": [[1058, 0, 0]]
    }, 
    {
      "op": "_rminus_scalar", 
      "name": "_rminusscalar53", 
      "attrs": {"scalar": "1.0"}, 
      "inputs": [[1059, 0, 0]]
    }, 
    {
      "op": "elemwise_add", 
      "name": "_plus159", 
      "inputs": [[257, 0, 0], [1057, 0, 0]]
    }, 
    {
      "op": "Activation", 
      "name": "gru_t53__r_act", 
      "attrs": {"act_type": "sigmoid"}, 
      "inputs": [[1061, 0, 0]]
    }, 
    {
      "op": "elemwise_mul", 
      "name": "_mul159", 
      "inputs": [[1062, 0, 0], [1057, 2, 0]]
    }, 
    {
      "op": "elemwise_add", 
      "name": "_plus161", 
      "inputs": [[257, 2, 0], [1063, 0, 0]]
    }, 
    {
      "op": "Activation", 
      "name": "gru_t53__h_act", 
      "attrs": {"act_type": "tanh"}, 
      "inputs": [[1064, 0, 0]]
    }, 
    {
      "op": "elemwise_mul", 
      "name": "_mul160", 
      "inputs": [[1060, 0, 0], [1065, 0, 0]]
    }, 
    {
      "op": "elemwise_mul", 
      "name": "_mul161", 
      "inputs": [[1059, 0, 0], [1055, 0, 0]]
    }, 
    {
      "op": "elemwise_add", 
      "name": "gru_t53_out", 
      "inputs": [[1066, 0, 0], [1067, 0, 0]]
    }, 
    {
      "op": "FullyConnected", 
      "name": "gru_t54__h2h", 
      "attrs": {"num_hidden": "300"}, 
      "inputs": [[1068, 0, 0], [365, 0, 0], [366, 0, 0]]
    }, 
    {
      "op": "SliceChannel", 
      "name": "gru_t54__h2h_slice", 
      "attrs": {"num_outputs": "3"}, 
      "inputs": [[1069, 0, 0]]
    }, 
    {
      "op": "elemwise_add", 
      "name": "_plus163", 
      "inputs": [[255, 1, 0], [1070, 1, 0]]
    }, 
    {
      "op": "Activation", 
      "name": "gru_t54__z_act", 
      "attrs": {"act_type": "sigmoid"}, 
      "inputs": [[1071, 0, 0]]
    }, 
    {
      "op": "_rminus_scalar", 
      "name": "_rminusscalar54", 
      "attrs": {"scalar": "1.0"}, 
      "inputs": [[1072, 0, 0]]
    }, 
    {
      "op": "elemwise_add", 
      "name": "_plus162", 
      "inputs": [[255, 0, 0], [1070, 0, 0]]
    }, 
    {
…
    2185, 
    2186, 
    2187, 
    2188, 
    2189, 
    2190, 
    2191, 
    2192, 
    2195, 
    2196, 
    2197, 
    2198, 
    2199, 
    2200, 
    2201, 
    2202, 
    2203, 
    2204, 
    2205, 
    2206, 
    2207, 
    2210, 
    2211, 
    2212, 
    2213, 
    2214, 
    2215, 
    2216, 
    2217, 
    2218, 
    2219, 
    2220, 
    2221, 
    2222, 
    2225, 
    2226, 
    2227, 
    2228, 
    2229, 
    2230, 
    2231, 
    2232, 
    2233, 
    2234, 
    2235, 
    2236, 
    2237, 
    2240, 
    2241, 
    2242, 
    2243, 
    2244, 
    2245, 
    2246, 
    2247, 
    2248, 
    2249, 
    2250, 
    2251, 
    2252, 
    2255, 
    2256, 
    2257, 
    2258, 
    2259, 
    2260, 
    2261, 
    2262, 
    2263, 
    2264, 
    2265, 
    2266, 
    2267, 
    2270, 
    2271, 
    2272, 
    2273, 
    2274, 
    2275, 
    2276, 
    2277, 
    2278, 
    2279, 
    2280, 
    2281, 
    2282, 
    2285, 
    2286, 
    2287, 
    2288, 
    2289, 
    2290, 
    2291, 
    2292, 
    2293, 
    2294, 
    2295, 
    2296, 
    2297, 
    2300, 
    2301, 
    2302, 
    2303, 
    2304, 
    2305, 
    2306, 
    2307, 
    2308, 
    2309, 
    2310, 
    2311, 
    2312, 
    2315, 
    2316, 
    2317, 
    2318, 
    2319, 
    2320, 
    2321, 
    2322, 
    2323, 
    2324, 
    2325, 
    2326, 
    2327, 
    2330, 
    2331, 
    2332, 
    2333, 
    2334, 
    2335, 
    2336, 
    2337, 
    2338, 
    2339, 
    2340, 
    2341, 
    2342, 
    2345, 
    2346, 
    2347, 
    2348, 
    2349, 
    2350, 
    2351, 
    2352, 
    2353, 
    2354, 
    2355, 
    2356, 
    2357, 
    2360, 
    2361, 
    2362, 
    2363, 
    2364, 
    2365, 
    2366, 
    2367, 
    2368, 
    2369, 
    2370, 
    2371, 
    2372, 
    2375, 
    2376, 
    2377, 
    2378, 
    2379, 
    2380, 
    2381, 
    2382, 
    2383, 
    2384, 
    2385, 
    2386, 
    2387, 
    2390, 
    2391, 
    2392, 
    2393, 
    2394, 
    2395, 
    2396, 
    2397, 
    2398, 
    2399, 
    2400, 
    2401, 
    2402, 
    2405, 
    2406, 
    2407, 
    2408, 
    2409, 
    2410, 
    2411, 
    2412, 
    2413, 
    2414, 
    2415, 
    2416, 
    2417, 
    2420, 
    2421, 
    2422, 
    2423, 
    2424, 
    2425, 
    2426, 
    2427, 
    2428, 
    2429, 
    2430, 
    2431, 
    2432, 
    2435, 
    2436, 
    2437, 
    2438, 
    2439, 
    2440, 
    2441, 
    2442, 
    2443, 
    2444, 
    2445, 
    2446, 
    2447, 
    2450, 
    2451, 
    2452, 
    2453, 
    2454, 
    2455, 
    2456, 
    2457, 
    2458, 
    2459, 
    2460, 
    2461, 
    2462, 
    2465, 
    2466, 
    2467, 
    2468, 
    2469, 
    2470, 
    2471, 
    2472, 
    2473, 
    2474, 
    2475, 
    2476, 
    2477, 
    2480, 
    2481, 
    2482, 
    2483, 
    2484, 
    2485, 
    2486, 
    2487, 
    2488, 
    2489, 
    2490, 
    2491, 
    2492, 
    2495, 
    2496, 
    2497, 
    2498, 
    2499, 
    2500, 
    2501, 
    2502, 
    2503, 
    2504, 
    2505, 
    2506, 
    2507, 
    2510, 
    2511, 
    2512, 
    2513, 
    2514, 
    2515, 
    2516, 
    2517, 
    2518, 
    2519, 
    2520, 
    2521, 
    2522, 
    2525, 
    2526, 
    2527, 
    2528, 
    2529, 
    2530, 
    2531, 
    2532, 
    2533, 
    2534, 
    2535, 
    2536, 
    2537, 
    2540, 
    2541, 
    2542, 
    2543, 
    2544, 
    2545, 
    2546, 
    2547, 
    2548, 
    2549, 
    2550, 
    2551, 
    2552, 
    2555, 
    2556, 
    2557, 
    2558, 
    2559, 
    2560, 
    2561, 
    2562, 
    2563, 
    2564, 
    2565, 
    2566, 
    2567, 
    2570, 
    2571, 
    2572, 
    2573, 
    2574, 
    2575, 
    2576, 
    2577, 
    2578, 
    2579, 
    2580, 
    2581, 
    2582, 
    2585, 
    2586, 
    2587, 
    2588, 
    2589, 
    2590, 
    2591, 
    2592, 
    2593, 
    2594, 
    2595, 
    2596, 
    2597, 
    2600, 
    2601, 
    2602, 
    2603, 
    2604, 
    2605, 
    2606, 
    2607, 
    2608, 
    2609, 
    2610, 
    2611, 
    2612, 
    2615, 
    2616, 
    2617, 
    2618, 
    2619, 
    2620, 
    2621, 
    2622, 
    2623, 
    2624, 
    2625, 
    2626, 
    2627, 
    2630, 
    2631, 
    2632, 
    2633, 
    2634, 
    2635, 
    2636, 
    2637, 
    2638, 
    2639, 
    2640, 
    2641, 
    2642, 
    2645, 
    2646, 
    2647, 
    2648, 
    2649, 
    2650, 
    2651, 
    2652, 
    2653, 
    2654, 
    2655, 
    2656, 
    2657, 
    2660, 
    2661, 
    2662, 
    2663, 
    2664, 
    2665, 
    2666, 
    2667, 
    2668, 
    2669, 
    2670, 
    2671, 
    2672, 
    2675, 
    2676, 
    2677, 
    2678, 
    2679, 
    2680, 
    2681, 
    2682, 
    2683, 
    2684, 
    2685, 
    2686, 
    2687, 
    2690, 
    2691, 
    2692, 
    2693, 
    2694, 
    2695, 
    2696, 
    2697, 
    2698, 
    2699, 
    2700, 
    2701, 
    2702, 
    2705, 
    2706, 
    2707, 
    2708, 
    2709, 
    2710, 
    2711, 
    2712, 
    2713, 
    2714, 
    2715, 
    2716, 
    2717, 
    2720, 
    2721, 
    2722, 
    2723, 
    2724, 
    2725, 
    2726, 
    2727, 
    2728, 
    2729, 
    2730, 
    2731, 
    2732, 
    2735, 
    2736, 
    2737, 
    2738, 
    2739, 
    2740, 
    2741, 
    2742, 
    2743, 
    2744, 
    2745, 
    2746, 
    2747, 
    2750, 
    2751, 
    2752, 
    2753, 
    2754, 
    2755, 
    2756, 
    2757, 
    2758, 
    2759, 
    2760, 
    2761, 
    2762, 
    2765, 
    2766, 
    2767, 
    2768, 
    2769, 
    2770, 
    2771, 
    2772, 
    2773, 
    2774, 
    2775, 
    2776, 
    2777, 
    2780, 
    2781, 
    2782, 
    2783, 
    2784, 
    2785, 
    2786, 
    2787, 
    2788, 
    2789, 
    2790, 
    2791, 
    2792, 
    2795, 
    2796, 
    2797, 
    2798, 
    2799, 
    2800, 
    2801, 
    2802, 
    2803, 
    2804, 
    2805, 
    2806, 
    2807, 
    2810, 
    2811, 
    2812, 
    2813, 
    2814, 
    2815, 
    2816, 
    2817, 
    2818, 
    2819, 
    2820, 
    2821, 
    2822, 
    2825, 
    2826, 
    2827, 
    2828, 
    2829, 
    2830, 
    2831, 
    2832, 
    2833, 
    2834, 
    2835, 
    2836, 
    2837, 
    2840, 
    2841, 
    2842, 
    2843, 
    2844, 
    2845, 
    2846, 
    2847, 
    2848, 
    2849, 
    2850, 
    2851, 
    2852, 
    2855, 
    2856, 
    2857, 
    2858, 
    2859, 
    2860, 
    2861, 
    2862, 
    2863, 
    2864, 
    2865, 
    2866, 
    2867, 
    2870, 
    2871, 
    2872, 
    2873, 
    2874, 
    2875, 
    2876, 
    2877, 
    2878, 
    2879, 
    2880, 
    2881, 
    2882, 
    2885, 
    2886, 
    2887, 
    2888, 
    2889, 
    2890, 
    2891, 
    2892, 
    2893, 
    2894, 
    2895, 
    2896, 
    2897, 
    2900, 
    2901, 
    2902, 
    2903, 
    2904, 
    2905, 
    2906, 
    2907, 
    2908, 
    2909, 
    2910, 
    2911, 
    2912, 
    2915, 
    2916, 
    2917, 
    2918, 
    2919, 
    2920, 
    2921, 
    2922, 
    2923, 
    2924, 
    2925, 
    2926, 
    2927, 
    2930, 
    2931, 
    2932, 
    2933, 
    2934, 
    2935, 
    2936, 
    2937, 
    2938, 
    2939, 
    2940, 
    2941, 
    2942, 
    2945, 
    2946, 
    2947, 
    2948, 
    2949, 
    2950, 
    2951, 
    2952, 
    2953, 
    2954, 
    2955, 
    2956, 
    2957, 
    2960, 
    2961, 
    2962, 
    2963, 
    2964, 
    2965, 
    2966, 
    2967, 
    2968, 
    2969, 
    2970, 
    2971, 
    2972, 
    2975, 
    2976, 
    2977, 
    2978, 
    2979, 
    2980, 
    2981, 
    2982, 
    2983, 
    2984, 
    2985, 
    2986, 
    2987, 
    2990, 
    2991, 
    2992, 
    2993, 
    2994, 
    2995, 
    2996, 
    2997, 
    2998, 
    2999, 
    3000, 
    3001, 
    3002, 
    3005, 
    3006, 
    3007, 
    3008, 
    3009, 
    3010, 
    3011, 
    3012, 
    3013, 
    3014, 
    3015, 
    3016, 
    3017, 
    3020, 
    3021, 
    3022, 
    3023, 
    3024, 
    3025, 
    3026, 
    3027, 
    3028, 
    3029, 
    3030, 
    3031, 
    3032, 
    3035, 
    3036, 
    3037, 
    3038, 
    3039, 
    3040, 
    3041, 
    3042, 
    3043, 
    3044, 
    3045, 
    3046, 
    3047, 
    3050, 
    3051, 
    3052, 
    3053, 
    3054, 
    3055, 
    3056, 
    3057, 
    3058, 
    3059, 
    3060, 
    3061, 
    3062, 
    3065, 
    3066, 
    3067, 
    3068, 
    3069, 
    3070, 
    3071, 
    3072, 
    3073, 
    3074, 
    3075, 
    3076, 
    3077, 
    3080, 
    3081, 
    3082, 
    3083, 
    3084, 
    3085, 
    3086, 
    3087, 
    3088, 
    3089, 
    3090, 
    3091, 
    3092, 
    3095, 
    3096, 
    3097, 
    3098, 
    3099, 
    3100, 
    3101, 
    3102, 
    3103, 
    3104, 
    3105, 
    3106, 
    3107, 
    3110, 
    3111, 
    3112, 
    3113, 
    3114, 
    3115, 
    3116, 
    3117, 
    3118, 
    3119, 
    3120, 
    3121, 
    3122, 
    3125, 
    3126, 
    3127, 
    3128, 
    3129, 
    3130, 
    3131, 
    3132, 
    3133, 
    3134, 
    3135, 
    3136, 
    3137, 
    3140, 
    3141, 
    3142, 
    3143, 
    3144, 
    3145, 
    3146, 
    3147, 
    3148, 
    3149, 
    3150, 
    3151, 
    3152, 
    3155, 
    3156, 
    3157, 
    3158, 
    3159, 
    3160, 
    3161, 
    3162, 
    3163, 
    3164, 
    3165, 
    3166, 
    3167, 
    3170, 
    3171, 
    3172, 
    3173, 
    3174, 
    3175, 
    3176, 
    3177, 
    3178, 
    3179, 
    3180, 
    3181, 
    3182, 
    3185, 
    3186, 
    3187, 
    3188, 
    3189, 
    3190, 
    3191, 
    3192, 
    3193, 
    3194, 
    3195, 
    3196, 
    3197, 
    3200, 
    3201, 
    3202, 
    3203, 
    3204, 
    3205, 
    3206, 
    3207, 
    3208, 
    3209, 
    3210, 
    3211, 
    3212, 
    3215, 
    3216, 
    3217, 
    3218, 
    3219, 
    3220, 
    3221, 
    3222, 
    3223, 
    3224, 
    3225, 
    3226, 
    3227, 
    3230, 
    3231, 
    3232, 
    3233, 
    3234, 
    3235, 
    3236, 
    3237, 
    3238, 
    3239, 
    3240, 
    3241, 
    3242, 
    3245, 
    3246, 
    3247, 
    3248, 
    3249, 
    3250, 
    3251, 
    3252, 
    3253, 
    3254, 
    3255, 
    3256, 
    3257, 
    3260, 
    3261, 
    3262, 
    3263, 
    3264, 
    3265, 
    3266, 
    3267, 
    3268, 
    3269, 
    3270, 
    3271, 
    3272, 
    3275, 
    3276, 
    3277, 
    3278, 
    3279, 
    3280, 
    3281, 
    3282, 
    3283, 
    3284, 
    3285, 
    3286, 
    3287, 
    3290, 
    3291, 
    3292, 
    3293, 
    3294, 
    3295, 
    3296, 
    3297, 
    3298, 
    3299, 
    3300, 
    3301, 
    3302, 
    3305, 
    3306, 
    3307, 
    3308, 
    3309, 
    3310, 
    3311, 
    3312, 
    3313, 
    3314, 
    3315, 
    3316, 
    3317, 
    3320, 
    3321, 
    3322, 
    3323, 
    3324, 
    3325, 
    3326, 
    3327, 
    3328, 
    3329, 
    3330, 
    3331, 
    3332, 
    3335, 
    3336, 
    3337, 
    3338, 
    3339, 
    3340, 
    3341, 
    3342, 
    3343, 
    3344, 
    3345, 
    3346, 
    3347, 
    3350, 
    3351, 
    3352, 
    3353, 
    3354, 
    3355, 
    3356, 
    3357, 
    3358, 
    3359, 
    3360, 
    3361, 
    3362, 
    3365, 
    3366, 
    3367, 
    3368, 
    3369, 
    3370, 
    3371, 
    3372, 
    3373, 
    3374, 
    3375, 
    3376, 
    3377, 
    3380, 
    3381, 
    3382, 
    3383, 
    3384, 
    3385, 
    3386, 
    3387, 
    3388, 
    3389, 
    3390, 
    3391, 
    3393, 
    3561, 
    3562, 
    3563, 
    3564, 
    3565, 
    3566, 
    3567, 
    3568, 
    3569, 
    3570, 
    3571, 
    3572, 
    3573, 
    3574, 
    3575, 
    3576, 
    3577, 
    3578, 
    3579, 
    3580, 
    3581, 
    3582, 
    3583, 
    3584, 
    3585, 
    3586, 
    3587, 
    3588, 
    3589, 
    3590, 
    3591, 
    3592, 
    3593, 
    3594, 
    3595, 
    3596, 
    3597, 
    3598, 
    3599, 
    3600, 
    3601, 
    3602, 
    3603, 
    3604, 
    3605, 
    3606, 
    3607, 
    3608, 
    3609, 
    3610, 
    3611, 
    3612, 
    3613, 
    3614, 
    3615, 
    3616, 
    3617, 
    3618, 
    3619, 
    3620, 
    3621, 
    3622, 
    3623, 
    3624, 
    3625, 
    3626, 
    3627, 
    3628, 
    3629, 
    3630, 
    3631, 
    3632, 
    3633, 
    3634, 
    3635, 
    3636, 
    3637, 
    3638, 
    3639, 
    3640, 
    3641, 
    3642, 
    3643, 
    3644, 
    3645, 
    3646, 
    3647, 
    3648, 
    3649, 
    3650, 
    3651, 
    3652, 
    3653, 
    3654, 
    3655, 
    3656, 
    3657, 
    3658, 
    3659, 
    3660, 
    3661, 
    3662, 
    3663, 
    3664, 
    3665, 
    3666, 
    3667, 
    3668, 
    3669, 
    3670, 
    3671, 
    3672, 
    3673, 
    3674, 
    3675, 
    3676, 
    3677, 
    3678, 
    3679, 
    3680, 
    3681, 
    3682, 
    3683, 
    3684, 
    3685, 
    3686, 
    3687, 
    3688, 
    3689, 
    3690, 
    3691, 
    3692, 
    3693, 
    3694, 
    3695, 
    3696, 
    3697, 
    3698, 
    3699, 
    3700, 
    3701, 
    3702, 
    3703, 
    3704, 
    3705, 
    3706, 
    3707, 
    3708, 
    3709, 
    3710, 
    3711, 
    3712, 
    3713, 
    3714, 
    3715, 
    3716, 
    3717, 
    3718, 
    3719, 
    3720, 
    3721, 
    3722, 
    3723, 
    3724, 
    3725, 
    3726, 
    3727, 
    3728, 
    3729, 
    3730, 
    3731, 
    3732, 
    3733, 
    3734, 
    3735, 
    3736, 
    3740, 
    3741, 
    3742, 
    3743, 
    3744, 
    3745, 
    3746, 
    3747, 
    3748, 
    3749, 
    3750, 
    3751, 
    3752, 
    3756, 
    3757, 
    3758, 
    3759, 
    3760, 
    3761, 
    3762, 
    3763, 
    3764, 
    3765, 
    3766, 
    3767, 
    3771, 
    3772, 
    3773, 
    3774, 
    3775, 
    3776, 
    3777, 
    3778, 
    3779, 
    3780, 
    3781, 
    3782, 
    3786, 
    3787, 
    3788, 
    3789, 
    3790, 
    3791, 
    3792, 
    3793, 
    3794, 
    3795, 
    3796, 
    3797, 
    3801, 
    3802, 
    3803, 
    3804, 
    3805, 
    3806, 
    3807, 
    3808, 
    3809, 
    3810, 
    3811, 
    3812, 
    3816, 
    3817, 
    3818, 
    3819, 
    3820, 
    3821, 
    3822, 
    3823, 
    3824, 
    3825, 
    3826, 
    3827, 
    3831, 
    3832, 
    3833, 
    3834, 
    3835, 
    3836, 
    3837, 
    3838, 
    3839, 
    3840, 
    3841, 
    3842, 
    3846, 
    3847, 
    3848, 
    3849, 
    3850, 
    3851, 
    3852, 
    3853, 
    3854, 
    3855, 
    3856, 
    3857, 
    3861, 
    3862, 
    3863, 
    3864, 
    3865, 
    3866, 
    3867, 
    3868, 
    3869, 
    3870, 
    3871, 
    3872, 
    3876, 
    3877, 
    3878, 
    3879, 
    3880, 
    3881, 
    3882, 
    3883, 
    3884, 
    3885, 
    3886, 
    3887, 
    3891, 
    3892, 
    3893, 
    3894, 
    3895, 
    3896, 
    3897, 
    3898, 
    3899, 
    3900, 
    3901, 
    3902, 
    3906, 
    3907, 
    3908, 
    3909, 
    3910, 
    3911, 
    3912, 
    3913, 
    3914, 
    3915, 
    3916, 
    3917, 
    3921, 
    3922, 
    3923, 
    3924, 
    3925, 
    3926, 
    3927, 
    3928, 
    3929, 
    3930, 
    3931, 
    3932, 
    3936, 
    3937, 
    3938, 
    3939, 
    3940, 
    3941, 
    3942, 
    3943, 
    3944, 
    3945, 
    3946, 
    3947, 
    3951, 
    3952, 
    3953, 
    3954, 
    3955, 
    3956, 
    3957, 
    3958, 
    3959, 
    3960, 
    3961, 
    3962, 
    3966, 
    3967, 
    3968, 
    3969, 
    3970, 
    3971, 
    3972, 
    3973, 
    3974, 
    3975, 
    3976, 
    3977, 
    3981, 
    3982, 
    3983, 
    3984, 
    3985, 
    3986, 
    3987, 
    3988, 
    3989, 
    3990, 
    3991, 
    3992, 
    3996, 
    3997, 
    3998, 
    3999, 
    4000, 
    4001, 
    4002, 
    4003, 
    4004, 
    4005, 
    4006, 
    4007, 
    4011, 
    4012, 
    4013, 
    4014, 
    4015, 
    4016, 
    4017, 
    4018, 
    4019, 
    4020, 
    4021, 
    4022, 
    4026, 
    4027, 
    4028, 
    4029, 
    4030, 
    4031, 
    4032, 
    4033, 
    4034, 
    4035, 
    4036, 
    4037, 
    4041, 
    4042, 
    4043, 
    4044, 
    4045, 
    4046, 
    4047, 
    4048, 
    4049, 
    4050, 
    4051, 
    4052, 
    4056, 
    4057, 
    4058, 
    4059, 
    4060, 
    4061, 
    4062, 
    4063, 
    4064, 
    4065, 
    4066, 
    4067, 
    4071, 
    4072, 
    4073, 
    4074, 
    4075, 
    4076, 
    4077, 
    4078, 
    4079, 
    4080, 
    4081, 
    4082, 
    4086, 
    4087, 
    4088, 
    4089, 
    4090, 
    4091, 
    4092, 
    4093, 
    4094, 
    4095, 
    4096, 
    4097, 
    4101, 
    4102, 
    4103, 
    4104, 
    4105, 
    4106, 
    4107, 
    4108, 
    4109, 
    4110, 
    4111, 
    4112, 
    4116, 
    4117, 
    4118, 
    4119, 
    4120, 
    4121, 
    4122, 
    4123, 
    4124, 
    4125, 
    4126, 
    4127, 
    4131, 
    4132, 
    4133, 
    4134, 
    4135, 
    4136, 
    4137, 
    4138, 
    4139, 
    4140, 
    4141, 
    4142, 
    4146, 
    4147, 
    4148, 
    4149, 
    4150, 
    4151, 
    4152, 
    4153, 
    4154, 
    4155, 
    4156, 
    4157, 
    4161, 
    4162, 
    4163, 
    4164, 
    4165, 
    4166, 
    4167, 
    4168, 
    4169, 
    4170, 
    4171, 
    4172, 
    4176, 
    4177, 
    4178, 
    4179, 
    4180, 
    4181, 
    4182, 
    4183, 
    4184, 
    4185, 
    4186, 
    4187, 
    4191, 
    4192, 
    4193, 
    4194, 
    4195, 
    4196, 
    4197, 
    4198, 
    4199, 
    4200, 
    4201, 
    4202, 
    4206, 
    4207, 
    4208, 
    4209, 
    4210, 
    4211, 
    4212, 
    4213, 
    4214, 
    4215, 
    4216, 
    4217, 
    4221, 
    4222, 
    4223, 
    4224, 
    4225, 
    4226, 
    4227, 
    4228, 
    4229, 
    4230, 
    4231, 
    4232, 
    4236, 
    4237, 
    4238, 
    4239, 
    4240, 
    4241, 
    4242, 
    4243, 
    4244, 
    4245, 
    4246, 
    4247, 
    4251, 
    4252, 
    4253, 
    4254, 
    4255, 
    4256, 
    4257, 
    4258, 
    4259, 
    4260, 
    4261, 
    4262, 
    4266, 
    4267, 
    4268, 
    4269, 
    4270, 
    4271, 
    4272, 
    4273, 
    4274, 
    4275, 
    4276, 
    4277, 
    4281, 
    4282, 
    4283, 
    4284, 
    4285, 
    4286, 
    4287, 
    4288, 
    4289, 
    4290, 
    4291, 
    4292, 
    4296, 
    4297, 
    4298, 
    4299, 
    4300, 
    4301, 
    4302, 
    4303, 
    4304, 
    4305, 
    4306, 
    4307, 
    4311, 
    4312, 
    4313, 
    4314, 
    4315, 
    4316, 
    4317, 
    4318, 
    4319, 
    4320, 
    4321, 
    4322, 
    4326, 
    4327, 
    4328, 
    4329, 
    4330, 
    4331, 
    4332, 
    4333, 
    4334, 
    4335, 
    4336, 
    4337, 
    4341, 
    4342, 
    4343, 
    4344, 
    4345, 
    4346, 
    4347, 
    4348, 
    4349, 
    4350, 
    4351, 
    4352, 
    4356, 
    4357, 
    4358, 
    4359, 
    4360, 
    4361, 
    4362, 
    4363, 
    4364, 
    4365, 
    4366, 
    4367, 
    4371, 
    4372, 
    4373, 
    4374, 
    4375, 
    4376, 
    4377, 
    4378, 
    4379, 
    4380, 
    4381, 
    4382, 
    4386, 
    4387, 
    4388, 
    4389, 
    4390, 
    4391, 
    4392, 
    4393, 
    4394, 
    4395, 
    4396, 
    4397, 
    4401, 
    4402, 
    4403, 
    4404, 
    4405, 
    4406, 
    4407, 
    4408, 
    4409, 
    4410, 
    4411, 
    4412, 
    4416, 
    4417, 
    4418, 
    4419, 
    4420, 
    4421, 
    4422, 
    4423, 
    4424, 
    4425, 
    4426, 
    4427, 
    4431, 
    4432, 
    4433, 
    4434, 
    4435, 
    4436, 
    4437, 
    4438, 
    4439, 
    4440, 
    4441, 
    4442, 
    4446, 
    4447, 
    4448, 
    4449, 
    4450, 
    4451, 
    4452, 
    4453, 
    4454, 
    4455, 
    4456, 
    4457, 
    4461, 
    4462, 
    4463, 
    4464, 
    4465, 
    4466, 
    4467, 
    4468, 
    4469, 
    4470, 
    4471, 
    4472, 
    4476, 
    4477, 
    4478, 
    4479, 
    4480, 
    4481, 
    4482, 
    4483, 
    4484, 
    4485, 
    4486, 
    4487, 
    4491, 
    4492, 
    4493, 
    4494, 
    4495, 
    4496, 
    4497, 
    4498, 
    4499, 
    4500, 
    4501, 
    4502, 
    4506, 
    4507, 
    4508, 
    4509, 
    4510, 
    4511, 
    4512, 
    4513, 
    4514, 
    4515, 
    4516, 
    4517, 
    4521, 
    4522, 
    4523, 
    4524, 
    4525, 
    4526, 
    4527, 
    4528, 
    4529, 
    4530, 
    4531, 
    4532, 
    4536, 
    4537, 
    4538, 
    4539, 
    4540, 
    4541, 
    4542, 
    4543, 
    4544, 
    4545, 
    4546, 
    4547, 
    4551, 
    4552, 
    4553, 
    4554, 
    4555, 
    4556, 
    4557, 
    4558, 
    4559, 
    4560, 
    4561, 
    4562, 
    4566, 
    4567, 
    4568, 
    4569, 
    4570, 
    4571, 
    4572, 
    4573, 
    4574, 
    4575, 
    4576, 
    4577, 
    4581, 
    4582, 
    4583, 
    4584, 
    4585, 
    4586, 
    4587, 
    4588, 
    4589, 
    4590, 
    4591, 
    4592, 
    4596, 
    4597, 
    4598, 
    4599, 
    4600, 
    4601, 
    4602, 
    4603, 
    4604, 
    4605, 
    4606, 
    4607, 
    4611, 
    4612, 
    4613, 
    4614, 
    4615, 
    4616, 
    4617, 
    4618, 
    4619, 
    4620, 
    4621, 
    4622, 
    4626, 
    4627, 
    4628, 
    4629, 
    4630, 
    4631, 
    4632, 
    4633, 
    4634, 
    4635, 
    4636, 
    4637, 
    4641, 
    4642, 
    4643, 
    4644, 
    4645, 
    4646, 
    4647, 
    4648, 
    4649, 
    4650, 
    4651, 
    4652, 
    4656, 
    4657, 
    4658, 
    4659, 
    4660, 
    4661, 
    4662, 
    4663, 
    4664, 
    4665, 
    4666, 
    4667, 
    4671, 
    4672, 
    4673, 
    4674, 
    4675, 
    4676, 
    4677, 
    4678, 
    4679, 
    4680, 
    4681, 
    4682, 
    4686, 
    4687, 
    4688, 
    4689, 
    4690, 
    4691, 
    4692, 
    4693, 
    4694, 
    4695, 
    4696, 
    4697, 
    4701, 
    4702, 
    4703, 
    4704, 
    4705, 
    4706, 
    4707, 
    4708, 
    4709, 
    4710, 
    4711, 
    4712, 
    4716, 
    4717, 
    4718, 
    4719, 
    4720, 
    4721, 
    4722, 
    4723, 
    4724, 
    4725, 
    4726, 
    4727, 
    4731, 
    4732, 
    4733, 
    4734, 
    4735, 
    4736, 
    4737, 
    4738, 
    4739, 
    4740, 
    4741, 
    4742, 
    4746, 
    4747, 
    4748, 
    4749, 
    4750, 
    4751, 
    4752, 
    4753, 
    4754, 
    4755, 
    4756, 
    4757, 
    4761, 
    4762, 
    4763, 
    4764, 
    4765, 
    4766, 
    4767, 
    4768, 
    4769, 
    4770, 
    4771, 
    4772, 
    4776, 
    4777, 
    4778, 
    4779, 
    4780, 
    4781, 
    4782, 
    4783, 
    4784, 
    4785, 
    4786, 
    4787, 
    4791, 
    4792, 
    4793, 
    4794, 
    4795, 
    4796, 
    4797, 
    4798, 
    4799, 
    4800, 
    4801, 
    4802, 
    4806, 
    4807, 
    4808, 
    4809, 
    4810, 
    4811, 
    4812, 
    4813, 
    4814, 
    4815, 
    4816, 
    4817, 
    4821, 
    4822, 
    4823, 
    4824, 
    4825, 
    4826, 
    4827, 
    4828, 
    4829, 
    4830, 
    4831, 
    4832, 
    4836, 
    4837, 
    4838, 
    4839, 
    4840, 
    4841, 
    4842, 
    4843, 
    4844, 
    4845, 
    4846, 
    4847, 
    4851, 
    4852, 
    4853, 
    4854, 
    4855, 
    4856, 
    4857, 
    4858, 
    4859, 
    4860, 
    4861, 
    4862, 
    4866, 
    4867, 
    4868, 
    4869, 
    4870, 
    4871, 
    4872, 
    4873, 
    4874, 
    4875, 
    4876, 
    4877, 
    4881, 
    4882, 
    4883, 
    4884, 
    4885, 
    4886, 
    4887, 
    4888, 
    4889, 
    4890, 
    4891, 
    4892, 
    4896, 
    4897, 
    4898, 
    4899, 
    4900, 
    4901, 
    4902, 
    4903, 
    4904, 
    4905, 
    4906, 
    4907, 
    4911, 
    4912, 
    4913, 
    4914, 
    4915, 
    4916, 
    4917, 
    4918, 
    4919, 
    4920, 
    4921, 
    4922, 
    4926, 
    4927, 
    4928, 
    4929, 
    4930, 
    4931, 
    4932, 
    4933, 
    4934, 
    4935, 
    4936, 
    4937, 
    4941, 
    4942, 
    4943, 
    4944, 
    4945, 
    4946, 
    4947, 
    4948, 
    4949, 
    4950, 
    4951, 
    4952, 
    4956, 
    4957, 
    4958, 
    4959, 
    4960, 
    4961, 
    4962, 
    4963, 
    4964, 
    4965, 
    4966, 
    4967, 
    4971, 
    4972, 
    4973, 
    4974, 
    4975, 
    4976, 
    4977, 
    4978, 
    4979, 
    4980, 
    4981, 
    4982, 
    4986, 
    4987, 
    4988, 
    4989, 
    4990, 
    4991, 
    4992, 
    4993, 
    4994, 
    4995, 
    4996, 
    4997, 
    5001, 
    5002, 
    5003, 
    5004, 
    5005, 
    5006, 
    5007, 
    5008, 
    5009, 
    5010, 
    5011, 
    5012, 
    5016, 
    5017, 
    5018, 
    5019, 
    5020, 
    5021, 
    5022, 
    5023, 
    5024, 
    5025, 
    5026, 
    5027, 
    5031, 
    5032, 
    5033, 
    5034, 
    5035, 
    5036, 
    5037, 
    5038, 
    5039, 
    5040, 
    5041, 
    5042, 
    5046, 
    5047, 
    5048, 
    5049, 
    5050, 
    5051, 
    5052, 
    5053, 
    5054, 
    5055, 
    5056, 
    5057, 
    5061, 
    5062, 
    5063, 
    5064, 
    5065, 
    5066, 
    5067, 
    5068, 
    5069, 
    5070, 
    5071, 
    5072, 
    5076, 
    5077, 
    5078, 
    5079, 
    5080, 
    5081, 
    5082, 
    5083, 
    5084, 
    5085, 
    5086, 
    5087, 
    5091, 
    5092, 
    5093, 
    5094, 
    5095, 
    5096, 
    5097, 
    5098, 
    5099, 
    5100, 
    5101, 
    5102, 
    5106, 
    5107, 
    5108, 
    5109, 
    5110, 
    5111, 
    5112, 
    5113, 
    5114, 
    5115, 
    5116, 
    5117, 
    5121, 
    5122, 
    5123, 
    5124, 
    5125, 
    5126, 
    5127, 
    5128, 
    5129, 
    5130, 
    5131, 
    5132, 
    5136, 
    5137, 
    5138, 
    5139, 
    5140, 
    5141, 
    5142, 
    5143, 
    5144, 
    5145, 
    5146, 
    5147, 
    5151, 
    5152, 
    5153, 
    5154, 
    5155, 
    5156, 
    5157, 
    5158, 
    5159, 
    5160, 
    5161, 
    5162, 
    5166, 
    5167, 
    5168, 
    5169, 
    5170, 
    5171, 
    5172, 
    5173, 
    5174, 
    5175, 
    5176, 
    5177, 
    5181, 
    5182, 
    5183, 
    5184, 
    5185, 
    5186, 
    5187, 
    5188, 
    5189, 
    5190, 
    5191, 
    5192, 
    5196, 
    5197, 
    5198, 
    5199, 
    5200, 
    5201, 
    5202, 
    5203, 
    5204, 
    5205, 
    5206, 
    5207, 
    5211, 
    5212, 
    5213, 
    5214, 
    5215, 
    5216, 
    5217, 
    5218, 
    5219, 
    5220, 
    5221, 
    5222, 
    5226, 
    5227, 
    5228, 
    5229, 
    5230, 
    5231, 
    5232, 
    5233, 
    5234, 
    5235, 
    5236, 
    5237, 
    5241, 
    5242, 
    5243, 
    5244, 
    5245, 
    5246, 
    5247, 
    5248, 
    5249, 
    5250, 
    5251, 
    5252, 
    5256, 
    5257, 
    5258, 
    5259, 
    5260, 
    5261, 
    5262, 
    5263, 
    5264, 
    5265, 
    5266, 
    5267, 
    5271, 
    5272, 
    5273, 
    5274, 
    5275, 
    5276, 
    5277, 
    5278, 
    5279, 
    5280, 
    5281, 
    5282, 
    5286, 
    5287, 
    5288, 
    5289, 
    5290, 
    5291, 
    5292, 
    5293, 
    5294, 
    5295, 
    5296, 
    5297, 
    5301, 
    5302, 
    5303, 
    5304, 
    5305, 
    5306, 
    5307, 
    5308, 
    5309, 
    5310, 
    5311, 
    5312, 
    5316, 
    5317, 
    5318, 
    5319, 
    5320, 
    5321, 
    5322, 
    5323, 
    5324, 
    5325, 
    5326, 
    5327, 
    5331, 
    5332, 
    5333, 
    5334, 
    5335, 
    5336, 
    5337, 
    5338, 
    5339, 
    5340, 
    5341, 
    5342, 
    5346, 
    5347, 
    5348, 
    5349, 
    5350, 
    5351, 
    5352, 
    5353, 
    5354, 
    5355, 
    5356, 
    5357, 
    5361, 
    5362, 
    5363, 
    5364, 
    5365, 
    5366, 
    5367, 
    5368, 
    5369, 
    5370, 
    5371, 
    5372, 
    5376, 
    5377, 
    5378, 
    5379, 
    5380, 
    5381, 
    5382, 
    5383, 
    5384, 
    5385, 
    5386, 
    5387, 
    5391, 
    5392, 
    5393, 
    5394, 
    5395, 
    5396, 
    5397, 
    5398, 
    5399, 
    5400, 
    5401, 
    5402, 
    5406, 
    5407, 
    5408, 
    5409, 
    5410, 
    5411, 
    5412, 
    5413, 
    5414, 
    5415, 
    5416, 
    5417, 
    5421, 
    5422, 
    5423, 
    5424, 
    5425, 
    5426, 
    5427, 
    5428, 
    5429, 
    5430, 
    5431, 
    5432, 
    5436, 
    5437, 
    5438, 
    5439, 
    5440, 
    5441, 
    5442, 
    5443, 
    5444, 
    5445, 
    5446, 
    5447, 
    5451, 
    5452, 
    5453, 
    5454, 
    5455, 
    5456, 
    5457, 
    5458, 
    5459, 
    5460, 
    5461, 
    5462, 
    5466, 
    5467, 
    5468, 
    5469, 
    5470, 
    5471, 
    5472, 
    5473, 
    5474, 
    5475, 
    5476, 
    5477, 
    5481, 
    5482, 
    5483, 
    5484, 
    5485, 
    5486, 
    5487, 
    5488, 
    5489, 
    5490, 
    5491, 
    5492, 
    5496, 
    5497, 
    5498, 
    5499, 
    5500, 
    5501, 
    5502, 
    5503, 
    5504, 
    5505, 
    5506, 
    5507, 
    5511, 
    5512, 
    5513, 
    5514, 
    5515, 
    5516, 
    5517, 
    5518, 
    5519, 
    5520, 
    5521, 
    5522, 
    5526, 
    5527, 
    5528, 
    5529, 
    5530, 
    5531, 
    5532, 
    5533, 
    5534, 
    5535, 
    5536, 
    5537, 
    5541, 
    5542, 
    5543, 
    5544, 
    5545, 
    5546, 
    5547, 
    5548, 
    5549, 
    5550, 
    5551, 
    5552, 
    5556, 
    5557, 
    5558, 
    5559, 
    5560, 
    5561, 
    5562, 
    5563, 
    5564, 
    5565, 
    5566, 
    5567, 
    5571, 
    5572, 
    5573, 
    5574, 
    5575, 
    5576, 
    5577, 
    5578, 
    5579, 
    5580, 
    5581, 
    5582, 
    5586, 
    5587, 
    5588, 
    5589, 
    5590, 
    5591, 
    5592, 
    5593, 
    5594, 
    5595, 
    5596, 
    5597, 
    5601, 
    5602, 
    5603, 
    5604, 
    5605, 
    5606, 
    5607, 
    5608, 
    5609, 
    5610, 
    5611, 
    5612, 
    5616, 
    5617, 
    5618, 
    5619, 
    5620, 
    5621, 
    5622, 
    5623, 
    5624, 
    5625, 
    5626, 
    5627, 
    5631, 
    5632, 
    5633, 
    5634, 
    5635, 
    5636, 
    5637, 
    5638, 
    5639, 
    5640, 
    5641, 
    5642, 
    5646, 
    5647, 
    5648, 
    5649, 
    5650, 
    5651, 
    5652, 
    5653, 
    5654, 
    5655, 
    5656, 
    5657, 
    5661, 
    5662, 
    5663, 
    5664, 
    5665, 
    5666, 
    5667, 
    5668, 
    5669, 
    5670, 
    5671, 
    5672, 
    5676, 
    5677, 
    5678, 
    5679, 
    5680, 
    5681, 
    5682, 
    5683, 
    5684, 
    5685, 
    5686, 
    5687, 
    5691, 
    5692, 
    5693, 
    5694, 
    5695, 
    5696, 
    5697, 
    5698, 
    5699, 
    5700, 
    5701, 
    5702, 
    5706, 
    5707, 
    5708, 
    5709, 
    5710, 
    5711, 
    5712, 
    5713, 
    5714, 
    5715, 
    5716, 
    5717, 
    5721, 
    5722, 
    5723, 
    5724, 
    5725, 
    5726, 
    5727, 
    5728, 
    5729, 
    5730, 
    5731, 
    5732, 
    5736, 
    5737, 
    5738, 
    5739, 
    5740, 
    5741, 
    5742, 
    5743, 
    5744, 
    5745, 
    5746, 
    5747, 
    5751, 
    5752, 
    5753, 
    5754, 
    5755, 
    5756, 
    5757, 
    5758, 
    5759, 
    5760, 
    5761, 
    5762, 
    5766, 
    5767, 
    5768, 
    5769, 
    5770, 
    5771, 
    5772, 
    5773, 
    5774, 
    5775, 
    5776, 
    5777, 
    5781, 
    5782, 
    5783, 
    5784, 
    5785, 
    5786, 
    5787, 
    5788, 
    5789, 
    5790, 
    5791, 
    5792, 
    5796, 
    5797, 
    5798, 
    5799, 
    5800, 
    5801, 
    5802, 
    5803, 
    5804, 
    5805, 
    5806, 
    5807, 
    5811, 
    5812, 
    5813, 
    5814, 
    5815, 
    5816, 
    5817, 
    5818, 
    5819, 
    5820, 
    5821, 
    5822, 
    5826, 
    5827, 
    5828, 
    5829, 
    5830, 
    5831, 
    5832, 
    5833, 
    5834, 
    5835, 
    5836, 
    5837, 
    5841, 
    5842, 
    5843, 
    5844, 
    5845, 
    5846, 
    5847, 
    5848, 
    5849, 
    5850, 
    5851, 
    5852, 
    5856, 
    5857, 
    5858, 
    5859, 
    5860, 
    5861, 
    5862, 
    5863, 
    5864, 
    5865, 
    5866, 
    5867, 
    5871, 
    5872, 
    5873, 
    5874, 
    5875, 
    5876, 
    5877, 
    5878, 
    5879, 
    5880, 
    5881, 
    5882, 
    5886, 
    5887, 
    5888, 
    5889, 
    5890, 
    5891, 
    5892, 
    5893, 
    5894, 
    5895, 
    5896, 
    5897, 
    5901, 
    5902, 
    5903, 
    5904, 
    5905, 
    5906, 
    5907, 
    5908, 
    5909, 
    5910, 
    5911, 
    5912, 
    5916, 
    5917, 
    5918, 
    5919, 
    5920, 
    5921, 
    5922, 
    5923, 
    5924, 
    5925, 
    5926, 
    5927, 
    5931, 
    5932, 
    5933, 
    5934, 
    5935, 
    5936, 
    5937, 
    5938, 
    5939, 
    5940, 
    5941, 
    5942, 
    5946, 
    5947, 
    5948, 
    5949, 
    5950, 
    5951, 
    5952, 
    5953, 
    5954, 
    5955, 
    5956, 
    5957, 
    5961, 
    5962, 
    5963, 
    5964, 
    5965, 
    5966, 
    5967, 
    5968, 
    5969, 
    5970, 
    5971, 
    5972, 
    5976, 
    5977, 
    5978, 
    5979, 
    5980, 
    5981, 
    5982, 
    5983, 
    5984, 
    5985, 
    5986, 
    5987, 
    5991, 
    5992, 
    5993, 
    5994, 
    5995, 
    5996, 
    5997, 
    5998, 
    5999, 
    6000, 
    6001, 
    6002, 
    6006, 
    6007, 
    6008, 
    6009, 
    6010, 
    6011, 
    6012, 
    6013, 
    6014, 
    6015, 
    6016, 
    6017, 
    6021, 
    6022, 
    6023, 
    6024, 
    6025, 
    6026, 
    6027, 
    6028, 
    6029, 
    6030, 
    6031, 
    6032, 
    6036, 
    6037, 
    6038, 
    6039, 
    6040, 
    6041, 
    6042, 
    6043, 
    6044, 
    6045, 
    6046, 
    6047, 
    6051, 
    6052, 
    6053, 
    6054, 
    6055, 
    6056, 
    6057, 
    6058, 
    6059, 
    6060, 
    6061, 
    6062, 
    6066, 
    6067, 
    6068, 
    6069, 
    6070, 
    6071, 
    6072, 
    6073, 
    6074, 
    6075, 
    6076, 
    6077, 
    6081, 
    6082, 
    6083, 
    6084, 
    6085, 
    6086, 
    6087, 
    6088, 
    6089, 
    6090, 
    6091, 
    6092, 
    6096, 
    6097, 
    6098, 
    6099, 
    6100, 
    6101, 
    6102, 
    6103, 
    6104, 
    6105, 
    6106, 
    6107, 
    6111, 
    6112, 
    6113, 
    6114, 
    6115, 
    6116, 
    6117, 
    6118, 
    6119, 
    6120, 
    6121, 
    6122, 
    6126, 
    6127, 
    6128, 
    6129, 
    6130, 
    6131, 
    6132, 
    6133, 
    6134, 
    6135, 
    6136, 
    6137, 
    6141, 
    6142, 
    6143, 
    6144, 
    6145, 
    6146, 
    6147, 
    6148, 
    6149, 
    6150, 
    6151, 
    6152, 
    6156, 
    6157, 
    6158, 
    6159, 
    6160, 
    6161, 
    6162, 
    6163, 
    6164, 
    6165, 
    6166, 
    6167, 
    6171, 
    6172, 
    6173, 
    6174, 
    6175, 
    6176, 
    6177, 
    6178, 
    6179, 
    6180, 
    6181, 
    6182, 
    6186, 
    6187, 
    6188, 
    6189, 
    6190, 
    6191, 
    6192, 
    6193, 
    6194, 
    6195, 
    6196, 
    6197, 
    6201, 
    6202, 
    6203, 
    6204, 
    6205, 
    6206, 
    6207, 
    6208, 
    6209, 
    6210, 
    6211, 
    6212, 
    6216, 
    6217, 
    6218, 
    6219, 
    6220, 
    6221, 
    6222, 
    6223, 
    6224, 
    6225, 
    6226, 
    6227, 
    6231, 
    6232, 
    6233, 
    6234, 
    6235, 
    6236, 
    6237, 
    6238, 
    6239, 
    6240, 
    6241, 
    6242, 
    6246, 
    6247, 
    6248, 
    6249, 
    6250, 
    6251, 
    6252, 
    6253, 
    6254, 
    6255, 
    6257, 
    6259, 
    6261, 
    6263, 
    6265, 
    6267, 
    6269, 
    6270, 
    6271, 
    6272, 
    6273, 
    6274, 
    6275, 
    6276, 
    6277, 
    6278, 
    6279, 
    6280, 
    6281, 
    6282, 
    6283, 
    6284, 
    6285, 
    6286, 
    6287, 
    6288, 
    6289, 
    6290, 
    6291, 
    6292, 
    6293, 
    6294, 
    6295, 
    6296, 
    6297, 
    6298, 
    6299, 
    6300, 
    6301, 
    6302, 
    6303, 
    6304, 
    6305, 
    6306, 
    6307, 
    6308, 
    6309, 
    6310, 
    6311, 
    6312, 
    6313, 
    6314, 
    6315, 
    6316, 
    6317, 
    6318, 
    6319, 
    6320, 
    6321, 
    6322, 
    6323, 
    6324, 
    6325, 
    6326, 
    6327, 
    6328, 
    6329, 
    6330, 
    6331, 
    6332, 
    6333, 
    6334, 
    6335, 
    6336, 
    6337, 
    6338, 
    6339, 
    6340, 
    6341, 
    6342, 
    6343, 
    6344, 
    6345, 
    6346, 
    6347, 
    6348, 
    6349, 
    6350, 
    6351, 
    6352, 
    6353, 
    6354, 
    6355, 
    6356, 
    6357, 
    6358, 
    6359, 
    6360, 
    6361, 
    6362, 
    6363, 
    6364, 
    6365, 
    6366, 
    6367, 
    6368, 
    6369, 
    6370, 
    6371, 
    6372, 
    6373, 
    6374, 
    6375, 
    6376, 
    6377, 
    6378, 
    6379, 
    6380, 
    6381, 
    6382, 
    6383, 
    6384, 
    6385, 
    6386, 
    6387, 
    6388, 
    6389, 
    6390, 
    6391, 
    6392, 
    6393, 
    6394, 
    6395, 
    6396, 
    6397, 
    6398, 
    6399, 
    6400, 
    6401, 
    6402, 
    6403, 
    6404, 
    6405, 
    6406, 
    6407, 
    6408, 
    6409, 
    6410, 
    6411, 
    6412, 
    6413, 
    6414, 
    6415, 
    6416, 
    6417, 
    6418, 
    6419, 
    6420, 
    6421, 
    6422, 
    6423, 
    6424, 
    6425, 
    6426, 
    6427, 
    6428, 
    6429, 
    6430, 
    6431, 
    6432, 
    6433, 
    6434, 
    6435, 
    6436, 
    6437, 
    6438, 
    6439, 
    6440, 
    6441, 
    6442, 
    6443, 
    6444, 
    6445, 
    6446, 
    6447, 
    6448, 
    6449, 
    6450, 
    6451, 
    6452, 
    6453, 
    6454, 
    6455, 
    6456, 
    6457, 
    6458, 
    6459, 
    6460, 
    6461, 
    6462, 
    6463, 
    6464, 
    6465, 
    6466, 
    6467, 
    6468, 
    6469, 
    6470, 
    6471, 
    6472, 
    6473, 
    6474, 
    6475, 
    6476, 
    6477, 
    6478, 
    6479, 
    6480, 
    6481, 
    6482, 
    6483, 
    6484, 
    6485, 
    6486, 
    6487, 
    6488, 
    6489, 
    6490, 
    6491, 
    6492, 
    6493, 
    6494, 
    6495, 
    6496, 
    6497, 
    6498, 
    6499, 
    6500, 
    6501, 
    6502, 
    6503, 
    6504, 
    6505, 
    6506, 
    6507, 
    6508, 
    6509, 
    6510, 
    6511, 
    6512, 
    6513, 
    6514, 
    6515, 
    6516, 
    6517, 
    6518, 
    6519, 
    6520, 
    6521, 
    6522, 
    6523, 
    6524, 
    6525, 
    6526, 
    6527, 
    6528, 
    6529, 
    6530, 
    6531, 
    6532, 
    6533, 
    6534, 
    6535, 
    6536, 
    6537, 
    6538, 
    6539, 
    6540, 
    6541, 
    6542, 
    6543, 
    6544, 
    6545, 
    6546, 
    6547, 
    6548, 
    6549, 
    6550, 
    6551, 
    6552, 
    6553, 
    6554, 
    6555, 
    6556, 
    6557, 
    6558, 
    6559, 
    6560, 
    6561, 
    6562, 
    6563, 
    6564, 
    6565, 
    6566, 
    6567, 
    6568, 
    6569, 
    6570, 
    6571, 
    6572, 
    6573, 
    6574, 
    6575, 
    6576, 
    6577, 
    6578, 
    6579, 
    6580, 
    6581, 
    6582, 
    6583, 
    6584, 
    6585, 
    6586, 
    6587, 
    6588, 
    6589, 
    6590, 
    6591, 
    6592, 
    6593, 
    6594, 
    6595, 
    6596, 
    6597, 
    6598, 
    6599, 
    6600, 
    6601, 
    6602, 
    6603, 
    6604, 
    6605, 
    6606, 
    6607, 
    6608, 
    6609, 
    6610, 
    6611, 
    6612, 
    6613, 
    6614, 
    6615, 
    6616, 
    6617, 
    6618, 
    6619, 
    6620, 
    6621, 
    6622, 
    6623, 
    6624, 
    6625, 
    6626, 
    6627, 
    6628, 
    6629, 
    6630, 
    6631, 
    6632, 
    6633, 
    6634, 
    6635, 
    6636, 
    6637, 
    6638, 
    6639, 
    6640, 
    6641, 
    6642, 
    6643, 
    6644, 
    6645, 
    6646, 
    6647, 
    6648, 
    6649, 
    6650, 
    6651, 
    6652, 
    6653, 
    6654, 
    6655, 
    6656, 
    6657, 
    6658, 
    6659, 
    6660, 
    6661, 
    6662, 
    6663, 
    6664, 
    6665, 
    6666, 
    6667, 
    6668, 
    6669, 
    6670, 
    6671, 
    6672, 
    6673, 
    6674, 
    6675, 
    6676, 
    6677, 
    6678, 
    6679, 
    6680, 
    6681, 
    6682, 
    6683, 
    6684, 
    6685, 
    6686, 
    6687, 
    6688, 
    6689, 
    6690, 
    6691, 
    6692, 
    6693, 
    6694, 
    6695, 
    6696, 
    6697, 
    6698, 
    6699, 
    6700, 
    6701, 
    6702, 
    6703, 
    6704, 
    6705, 
    6706, 
    6707, 
    6708, 
    6709, 
    6710, 
    6711, 
    6712, 
    6713, 
    6714, 
    6715, 
    6716, 
    6717, 
    6718, 
    6719, 
    6720, 
    6721, 
    6722, 
    6723, 
    6724, 
    6725, 
    6726, 
    6727, 
    6728, 
    6729, 
    6730, 
    6731, 
    6732, 
    6733, 
    6734, 
    6735, 
    6736, 
    6737, 
    6738, 
    6739, 
    6740, 
    6741, 
    6742, 
    6743, 
    6744, 
    6745, 
    6746, 
    6747, 
    6748, 
    6749, 
    6750, 
    6751, 
    6752, 
    6753, 
    6754, 
    6755, 
    6756, 
    6757, 
    6758, 
    6759, 
    6760, 
    6761, 
    6762, 
    6763, 
    6764, 
    6765, 
    6766, 
    6767, 
    6768, 
    6769, 
    6770, 
    6771, 
    6772, 
    6773, 
    6774, 
    6775, 
    6776, 
    6777, 
    6778, 
    6779, 
    6780, 
    6781, 
    6782, 
    6783, 
    6784, 
    6785, 
    6786, 
    6787, 
    6788, 
    6789, 
    6790, 
    6791, 
    6792, 
    6793, 
    6794, 
    6795, 
    6796, 
    6797, 
    6798, 
    6799, 
    6800, 
    6801, 
    6802, 
    6803, 
    6804, 
    6805, 
    6806, 
    6807, 
    6808, 
    6809, 
    6810, 
    6811, 
    6812, 
    6813, 
    6814, 
    6815, 
    6816, 
    6817, 
    6818, 
    6819, 
    6820, 
    6821, 
    6822, 
    6823, 
    6824, 
    6825, 
    6826, 
    6827, 
    6828, 
    6829, 
    6830, 
    6831, 
    6832, 
    6833, 
    6834, 
    6835, 
    6836, 
    6837, 
    6838, 
    6839, 
    6840, 
    6841, 
    6842, 
    6843, 
    6844, 
    6845, 
    6846, 
    6847, 
    6848, 
    6849, 
    6850, 
    6851, 
    6852, 
    6853, 
    6854, 
    6855, 
    6856, 
    6857, 
    6858, 
    6859, 
    6860, 
    6861, 
    6862, 
    6863, 
    6864, 
    6865, 
    6866, 
    6867, 
    6868, 
    6869, 
    6870, 
    6871, 
    6872, 
    6873, 
    6874, 
    6875, 
    6876, 
    6877, 
    6878, 
    6879, 
    6880, 
    6881, 
    6882, 
    6883, 
    6884, 
    6885, 
    6886, 
    6887, 
    6888, 
    6889, 
    6890, 
    6891, 
    6892, 
    6893, 
    6894, 
    6895, 
    6896, 
    6897, 
    6898, 
    6899, 
    6900, 
    6901, 
    6902, 
    6903, 
    6904, 
    6905, 
    6906, 
    6907, 
    6908, 
    6909, 
    6910, 
    6911, 
    6912, 
    6913, 
    6914, 
    6915, 
    6916, 
    6917, 
    6918, 
    6919, 
    6920, 
    6921, 
    6922, 
    6923, 
    6924, 
    6925, 
    6926, 
    6927, 
    6928, 
    6929, 
    6930, 
    6931, 
    6932, 
    6933, 
    6934, 
    6935, 
    6936, 
    6937, 
    6938, 
    6939, 
    6940, 
    6941, 
    6942, 
    6943, 
    6944, 
    6945, 
    6946, 
    6947, 
    6948, 
    6949, 
    6950, 
    6951, 
    6952, 
    6953, 
    6954, 
    6955, 
    6956, 
    6957, 
    6958, 
    6959, 
    6960, 
    6961, 
    6962, 
    6963, 
    6964, 
    6965, 
    6966, 
    6967, 
    6968, 
    6969, 
    6970, 
    6971, 
    6972, 
    6973, 
    6974, 
    6975, 
    6976, 
    6977, 
    6978, 
    6979, 
    6980, 
    6981, 
    6982, 
    6983, 
    6984, 
    6985, 
    6986, 
    6987, 
    6988, 
    6989, 
    6990, 
    6991, 
    6992, 
    6993, 
    6994, 
    6995, 
    6996, 
    6997, 
    6998, 
    6999, 
    7000, 
    7001, 
    7002, 
    7003, 
    7004, 
    7005, 
    7006, 
    7007, 
    7008, 
    7009, 
    7010, 
    7011, 
    7012, 
    7013, 
    7014, 
    7015, 
    7016, 
    7017, 
    7018, 
    7019, 
    7020, 
    7021, 
    7022, 
    7023, 
    7024, 
    7025, 
    7026, 
    7027, 
    7028, 
    7029, 
    7030, 
    7031, 
    7032, 
    7033, 
    7034, 
    7035, 
    7036, 
    7037, 
    7038, 
    7039, 
    7040, 
    7041, 
    7042, 
    7043, 
    7044, 
    7045, 
    7046, 
    7047, 
    7048, 
    7049, 
    7050, 
    7051, 
    7052, 
    7053, 
    7054, 
    7055, 
    7056, 
    7057, 
    7058, 
    7059, 
    7060, 
    7061, 
    7062, 
    7063, 
    7064, 
    7065, 
    7066, 
    7067, 
    7068, 
    7069, 
    7070, 
    7071, 
    7072, 
    7073, 
    7074, 
    7075, 
    7076, 
    7077, 
    7078, 
    7079, 
    7080, 
    7081, 
    7082, 
    7083, 
    7084, 
    7085, 
    7086, 
    7087, 
    7088, 
    7089, 
    7090, 
    7091, 
    7092, 
    7093, 
    7094, 
    7095, 
    7096, 
    7097, 
    7098, 
    7099, 
    7100, 
    7101, 
    7102, 
    7103, 
    7104, 
    7105, 
    7106, 
    7107, 
    7108, 
    7109, 
    7110, 
    7111, 
    7112, 
    7113, 
    7114, 
    7115, 
    7116, 
    7117, 
    7118, 
    7119, 
    7120, 
    7121, 
    7122, 
    7123, 
    7124, 
    7125, 
    7126, 
    7127, 
    7128, 
    7129, 
    7130, 
    7131, 
    7132, 
    7133, 
    7134, 
    7135, 
    7136, 
    7137, 
    7138, 
    7139, 
    7140, 
    7141, 
    7142, 
    7143, 
    7144, 
    7145, 
    7146, 
    7147, 
    7148, 
    7149, 
    7150, 
    7151, 
    7152, 
    7153, 
    7154, 
    7155, 
    7156, 
    7157, 
    7158, 
    7159, 
    7160, 
    7161, 
    7162, 
    7163, 
    7164, 
    7165, 
    7166, 
    7167, 
    7168, 
    7169, 
    7170, 
    7171, 
    7172, 
    7173, 
    7174, 
    7175, 
    7176, 
    7177, 
    7178, 
    7179, 
    7180, 
    7181, 
    7182, 
    7183, 
    7184, 
    7185, 
    7186, 
    7187, 
    7188, 
    7189, 
    7190, 
    7191, 
    7192, 
    7193, 
    7194, 
    7195, 
    7196, 
    7197, 
    7198, 
    7199, 
    7200, 
    7201, 
    7202, 
    7203, 
    7204, 
    7205, 
    7206, 
    7207, 
    7208, 
    7209, 
    7210, 
    7211, 
    7212, 
    7213, 
    7214, 
    7215, 
    7216, 
    7217, 
    7218, 
    7219, 
    7220, 
    7221, 
    7222, 
    7223, 
    7224, 
    7225, 
    7226, 
    7227, 
    7228, 
    7229, 
    7230, 
    7231, 
    7232, 
    7233, 
    7234, 
    7235, 
    7236, 
    7237, 
    7238, 
    7239, 
    7240, 
    7241, 
    7242, 
    7243, 
    7244, 
    7245, 
    7246, 
    7247, 
    7248, 
    7249, 
    7250, 
    7251, 
    7252, 
    7253, 
    7254, 
    7255, 
    7256, 
    7257, 
    7258, 
    7259, 
    7260, 
    7261, 
    7262, 
    7263, 
    7264, 
    7265, 
    7266, 
    7267, 
    7268, 
    7269, 
    7270, 
    7271, 
    7272, 
    7273, 
    7274, 
    7275, 
    7276, 
    7277, 
    7278, 
    7279, 
    7280, 
    7281, 
    7282, 
    7283, 
    7284, 
    7285, 
    7286, 
    7287, 
    7288, 
    7289, 
    7290, 
    7291, 
    7292, 
    7293, 
    7294, 
    7295, 
    7296, 
    7297, 
    7298, 
    7299, 
    7300, 
    7301, 
    7302, 
    7303, 
    7304, 
    7305, 
    7306, 
    7307, 
    7308, 
    7309, 
    7310, 
    7311, 
    7312, 
    7313, 
    7314, 
    7315, 
    7316, 
    7317, 
    7318, 
    7319, 
    7320, 
    7321, 
    7322, 
    7323, 
    7324, 
    7325, 
    7326, 
    7327, 
    7328, 
    7329, 
    7330, 
    7331, 
    7332, 
    7333, 
    7334, 
    7335, 
    7336, 
    7337, 
    7338, 
    7339, 
    7340, 
    7341, 
    7342, 
    7343, 
    7344, 
    7345, 
    7346, 
    7347, 
    7348, 
    7349, 
    7350, 
    7351, 
    7352, 
    7353, 
    7354, 
    7355, 
    7356, 
    7357, 
    7358, 
    7359, 
    7360, 
    7361, 
    7362, 
    7363, 
    7364, 
    7365, 
    7366, 
    7367, 
    7368, 
    7369, 
    7370, 
    7371, 
    7372, 
    7373, 
    7374, 
    7375, 
    7376, 
    7377, 
    7378, 
    7379, 
    7380, 
    7381, 
    7382, 
    7383, 
    7384, 
    7385, 
    7386, 
    7387, 
    7388, 
    7389, 
    7390, 
    7391, 
    7392, 
    7393, 
    7394, 
    7395, 
    7396, 
    7397, 
    7398, 
    7399, 
    7400, 
    7401, 
    7402, 
    7403, 
    7404, 
    7405, 
    7406, 
    7407, 
    7408, 
    7409, 
    7410, 
    7411, 
    7412, 
    7413, 
    7414, 
    7415, 
    7416, 
    7417, 
    7418, 
    7419, 
    7420, 
    7421, 
    7422, 
    7423, 
    7424, 
    7425, 
    7426, 
    7427, 
    7428, 
    7429, 
    7430, 
    7431, 
    7432, 
    7433, 
    7434, 
    7435, 
    7436, 
    7437, 
    7438, 
    7439, 
    7440, 
    7441, 
    7442, 
    7443, 
    7444, 
    7445, 
    7446, 
    7447, 
    7448, 
    7449, 
    7450, 
    7451, 
    7452, 
    7453, 
    7454, 
    7455, 
    7456, 
    7457, 
    7458, 
    7459, 
    7460, 
    7461, 
    7462, 
    7463, 
    7464, 
    7465, 
    7466, 
    7467, 
    7468, 
    7469, 
    7470, 
    7471, 
    7472, 
    7473, 
    7474, 
    7475, 
    7476, 
    7477, 
    7478, 
    7479, 
    7480, 
    7481, 
    7482, 
    7483, 
    7484, 
    7485, 
    7486, 
    7487, 
    7488, 
    7489, 
    7490, 
    7491, 
    7492, 
    7493, 
    7494, 
    7495, 
    7496, 
    7497, 
    7498, 
    7499, 
    7500, 
    7501, 
    7502, 
    7503, 
    7504, 
    7505, 
    7506, 
    7507, 
    7508, 
    7509, 
    7510, 
    7511, 
    7512, 
    7513, 
    7514, 
    7515, 
    7516, 
    7517, 
    7518, 
    7519, 
    7520, 
    7521, 
    7522, 
    7523, 
    7524, 
    7525, 
    7526, 
    7527, 
    7528, 
    7529, 
    7530, 
    7531, 
    7532, 
    7533, 
    7534, 
    7535, 
    7536, 
    7537, 
    7538, 
    7539, 
    7540, 
    7541, 
    7542, 
    7543, 
    7544, 
    7545, 
    7546, 
    7547, 
    7548, 
    7549, 
    7550, 
    7551, 
    7552, 
    7553, 
    7554, 
    7555, 
    7556, 
    7557, 
    7558, 
    7559, 
    7560, 
    7561, 
    7562
  ], 
  "heads": [[6042, 0, 0]], 
  "attrs": {"mxnet_version": ["int", 10000]}
}